transformer_no_tanh_with_past_12_Nm_144_Np_lr_0.001_hs_128_ahs_8_nll_1_bs_16_do_0.5_e_200_stride_10/model_all_0.001lr_200e.pth (torch, 831135 bytes, 14 tensors)

lstm_encoder.weight_ih_l0 f4 [512, 8]
00000000: 4e85 6abd c9b0 ce3c f7d5 393d 9437 083d
00000010: 0fa8 dc3c 2ccd 71bc e78f 1dbc 51ed 14bd
00000020: 17d8 b53c 9261 7b3d 577a 4b3d 6838 c7bc
00000030: 063b 3f3d de09 113d f17f 6fbd af27 383d
00000040: 3bad f03b 52a6 8cbc 65d2 44bd 748b 5f3d
00000050: ccb9 2a3d 7c91 23bd ad29 efbb bce7 85bc
00000060: 5519 77bd f602 06bd a9c7 36bd ff8f 10bc
00000070: c04a 29bd ef5f 473c 59e2 553d d5ba 15bd
00000080: e5f9 273d 8d32 72bd 2246 d33c efe3 49bd
00000090: cd50 763d b2bf 2fbd e2cb fd3a a717 0a3d
000000a0: 0dad 23bb 9330 f73c 394a c83c 1c71 603d
000000b0: 5081 573d bf0a 3bbd 5a8c 253c 611d 7cbd
000000c0: a7c0 9a3b 47b5 a0bc b9ac efbc 323b 10bd
000000d0: 8061 943c 5036 343d ffef f63c f92b 2dbd
000000e0: ecc8 4dbd 7d86 02bd b553 70bc 3e70 5f3d
000000f0: 8a1f 1abd c9cc 673d 4ff4 3abd b1f5 e03c
00000100: 9fcf 33bd fc21 6f3c a53f 48bd ced9 babc
00000110: ceef 553d 4227 25bc a533 023d 6924 a5bc
00000120: 574e 34bd ce0c 203b 4bbc b23c 8cb9 1d3d
00000130: 85ba 7d3c 1b46 3c3c 7fce 23bc 1b2d 71bc
00000140: 38a6 d63c ca7b b03c e499 20bd cddc cbbc
00000150: 1ca4 453d 507e 0abd 5344 843d d7ee 8ebc
00000160: 8c17 93bc 706c 003d 4a87 503d e266 60bd
00000170: fd92 553b 635b 35bc acdb 973c 42aa ffbb
00000180: 49f8 07bd 19a0 22bd 38e1 883c 4daf 1d3d
00000190: 38bd b1bc 72f8 a4bc 2766 abbc c407 1a3d
000001a0: 2cb3 80bc 9da4 3b3d 09af 15b8 e81f 5ebd
000001b0: e06e 6bbd 960f 2ebd ff10 763d 4e9f 233d
000001c0: 7d9e 18bd 804a 53bc 5831 26bd be28 483d
000001d0: 1d04 04bd 81d3 62bb e9b8 a03c 7351 80bc
000001e0: b927 7b3d 288c 4ebd 8f0e 1dbc dc4f 60bd
000001f0: 7523 25bd 35fa 2fbd 56ee 22bd 9aa0 56bd
00000200: f12c b9bb 8e5e 80bc fa91 823d b67c 05bc
00000210: 20c8 463c 26db 943c 88f2 4c3d 49b3 bd3c
00000220: fac7 26bd f912 ce3c 4b1c 9dbb 793f 253d
00000230: ab9b ce3c e406 4ebd 37ea 13bb 2850 64bd
00000240: 06d7 22bc 9d66 4abd b0f3 98bb 1e09 d8bc
00000250: adf3 63bd 973e 79bd 748d 11bd 5f56 a83c
00000260: fe36 32bc 147e 983c 528c 5cbd c686 6bbc
00000270: 26ff 7abd 7f19 66bc 4206 febb 871a 37bd
00000280: 0f2c 6bbd 812d 563d 287c 623d d216 bb3b
00000290: 9100 d3bb bc86 b7bc b038 613b a21f 94bc
000002a0: f1eb 64bd 240e 0abd 0a0a 14bb a8b8 453c
000002b0: fabd 3f3d b5c7 243c 5f69 7f3d 9cc0 cc3c
000002c0: 92d1 483d e079 443d b81b 7a3d b4a5 58bb
000002d0: c8cc 20bb 6af0 7bbb 1fed 55bd a6e3 553b
000002e0: 8e74 543d 93ec 903c 2a37 13bd 4f83 9abb
000002f0: ee09 723d 72ef 0e3c aa7c 72bd 25f7 043c
00000300: 692d f93c 46ca 5cbd 70b4 413d 55ce 3b3d
00000310: e00d a8bb a58a 0a3d 26fc d0bc 30b8 3c3c
00000320: c901 94bc f17f 2b3d 4866 f9bb a55a 3a3d
00000330: 7f9b 5fbd a53a 95bc 7865 77bd 25ed 1c3d
00000340: 1f84 25bc 50de 5cbd a731 c83b 7bd7 f2bc
00000350: c37d 553d 86c6 98bc df0d 1fbd b969 173d
00000360: d6d6 74bd 529b c13c 4014 0f3d 4193 3a3d
00000370: bbd5 2bbd 75e3 2cbd 4ee0 4abd 44a4 58bc
00000380: 6541 373d 6fc0 a3bc 7ed4 c3bc 9814 153c
00000390: af69 b7bc 51b1 5bbd 531c efbc e784 faba
000003a0: 8979 90bc 473a 1ebd 024e 43bc dcd1 31bd
000003b0: e127 32bd 6d8c 2b3d 60f4 acbc 0d5a 00bd
000003c0: c958 19bc 7d7e 4fbc 81e0 633d c2ec 7f3d
000003d0: d9d4 803d d94b 84ba 315b 633d 2e2a 1bbd
000003e0: afdf 32bd 5cb7 bf3b b164 3dbd 2d23 2abc
000003f0: 2bd6 73bd bb91 6fbd 3cb8 f8bc 6f46 f1bb
-0.057256036 0.025230782 0.04537007 0.03325613 0.026935605 -0.014758389 -0.0096168285 -0.036359135
0.022197766 0.061372347 0.04967722 -0.024318889 0.04668715 0.0354098 -0.058471624 0.04495972
0.0073448694 -0.017169151 -0.04805221 0.054576352 0.041681096 -0.039933667 -0.0072986693 -0.016345851
-0.060326893 -0.032717668 -0.044624005 -0.008823394 -0.041331053 0.012168868 0.052217815 -0.03655513
0.041009802 -0.05913024 0.025790278 -0.04928964 0.06013565 -0.042907424 0.001936313 0.033713963
-0.0024974972 0.03017453 0.024449455 0.05479537 0.052613556 -0.045664545 0.010104263 -0.061551455
0.004722673 -0.01961769 -0.029257165 -0.035212703 0.018112898 0.04399711 0.030143736 -0.042278264
-0.050240442 -0.03186654 -0.014668395 0.054550402 -0.037627734 0.056591783 -0.045643147 0.027460905
-0.043899175 0.014595505 -0.04888882 -0.022808935 0.05223065 -0.010080161 0.031787533 -0.020158963
-0.044020023 0.0024421695 0.0218183 0.03850703 0.015486364 0.011491324 -0.009997963 -0.014720227
0.026202306 0.021543402 -0.03920926 -0.02488556 0.04825221 -0.033811867 0.06458344 -0.017447872
-0.017955564 0.031353414 0.05091027 -0.054785617 0.0032588833 -0.011069152 0.018537365 -0.0078022787
-0.033195768 -0.039703462 0.016708955 0.038497258 -0.021696672 -0.020138 -0.020922733 0.037605062
-0.015710436 0.045811284 -3.5687382e-05 -0.054229647 -0.057478786 -0.042495333 0.060074802 0.039946847
-0.03726052 -0.01289618 -0.0405744 0.04886698 -0.032230485 -0.003461093 0.019619422 -0.015663838
0.06131718 -0.050426632 -0.009585991 -0.05476366 -0.040317018 -0.042963225 -0.039778076 -0.052399255
-0.0056511094 -0.015670087 0.06375499 -0.008147409 0.012132674 0.018170904 0.050035983 0.023156779
-0.040718056 0.025155531 -0.0047946326 0.040343735 0.025220713 -0.05029954 -0.0022570023 -0.055740505
-0.009938961 -0.049414266 -0.0046677217 -0.026371535 -0.05565231 -0.060850706 -0.03553529 0.020548997
-0.010877369 0.018614806 -0.053844757 -0.014375394 -0.061278485 -0.014044165 -0.007752211 -0.044703033
-0.057415064 0.05228949 0.055294186 0.0057095075 -0.0064392765 -0.022403114 0.0034366064 -0.01808149
-0.055889074 -0.03370489 -0.0022588992 0.012067951 0.046812035 0.0100573795 0.06235635 0.024994187
0.049027987 0.04796779 0.06106159 -0.003305775 -0.0024536122 -0.0038442858 -0.05222809 0.003263691
0.051868968 0.017690932 -0.03594128 -0.0047153602 0.0590915 0.00872408 -0.05920092 0.0081155645
0.030417161 -0.05390384 0.04729122 0.04585107 -0.005128607 0.033823628 -0.025510859 0.011518523
-0.018067257 0.04187006 -0.00761107 0.0454966 -0.054591652 -0.01821644 -0.060399503 0.038312096
-0.010102301 -0.05392295 0.0061094346 -0.029643765 0.05212189 -0.01864935 -0.038831588 0.03696606
-0.059775196 0.023633633 0.03493142 0.04555059 -0.041951876 -0.042209107 -0.04953032 -0.013222758
0.0447401 -0.01998922 -0.023905035 0.009099148 -0.022389261 -0.0536359 -0.02918831 -0.0019113094
-0.017636077 -0.038629796 -0.011920454 -0.043413028 -0.043495063 0.041881967 -0.02111262 -0.03133588
-0.009359547 -0.0126644345 0.055634025 0.06248165 0.062905975 -0.0010093405 0.05550689 -0.037882023
-0.043670353 0.0058507156 -0.046238605 -0.010384363 -0.05953042 -0.05848859 -0.030361287 -0.0073631327

lstm_encoder.weight_hh_l0 f4 [512, 128]
00000000: 978e b43c 5ea4 b2bc 0927 643d cf84 d9bc
00000010: da02 263d f7f0 713d 7df3 a83c 82b0 a5bc
00000020: 5ef6 b53c a346 11bc 142b fe3c c8e0 113d
00000030: 51c1 d93b 3842 82bd 6e81 7c3d 8d35 dd3c
00000040: 30f5 e9bc f3fb eabb 4edb 3abd aa13 e9bc
00000050: 7a2a 57bd 7e27 9c3b 2bed 3bbd ed26 5ebd
00000060: 232a 513d 897d 74bd 1ef0 603d 97c4 70bb
00000070: 069d 743d b309 2e3c 6e39 48bd bd7a d13c
00000080: 688f 3cbd 7dad 66bd c735 6abc 425f e93c
00000090: 21c7 19bd ddb5 68bd 92bf 16bc 6604 073d
000000a0: 854d a0bc b080 4fbd 655f 183c 9324 163d
000000b0: ee42 9a3c 1a2f b43c 4a8c 773d 08f2 0f3d
000000c0: c778 623d 43f8 a9bc 275c 3fba a768 98bc
000000d0: 6fef 79bd a531 48bc 6f7a 563d 4ac2 573d
000000e0: 5311 813d b42b 6abd d3de 7c3d 81e0 41bd
000000f0: 322c 763c b2a8 79bc e45e 39bd 6bb9 173d
00000100: c0a0 78bd d389 21bd 0ce6 9c3c 9c64 3cbd
00000110: 4aa1 56bc 2f19 573d 2900 553d 72b8 04bd
00000120: 8e2b d8bc 4f20 20bd d489 7d3d acf2 643d
00000130: 6aec a9bc 9f57 66bd 6049 9fbc 1e21 52bd
00000140: 36c7 25bc bca0 6dbc 41d4 2ebd 029c 0abd
00000150: 022f b1bb 8c90 17bd b45b 313d d005 35bc
00000160: 9b26 bf3c e82a 313d 6f89 0dbc d7d9 55bc
00000170: b54a 8fbc 7b82 9e3c 1e31 bf3c 3bca 7dbd
00000180: 8dd0 66bd 8cfd 25bd eaae 1c3d 6809 c6bc
00000190: 39f2 32bd 61c6 cfbc 02ba e3bc f9b3 1fbd
000001a0: cdaa 0fbd 102e 2fbc cf97 a6bc 820b ed3a
000001b0: 9aea 4bba a565 78bb 8c28 78bc c2b8 77bd
000001c0: 7cff d0bc d7a3 28ba cbf4 72bc e354 283b
000001d0: 66f9 44bd 9b29 34bd 9a0b 213d 8ca7 2d3d
000001e0: d7bd a73c a463 af3b 80ee 4cbb 4c93 f43c
000001f0: 23eb 1b3d 5c49 453d 2d9e 683d 0ca6 9bbb
00000200: 3159 c1bc 42e3 8cbc fa79 3dbc 8c21 f7bc
00000210: bf32 47bd 2e75 bbbc 1603 53bc 6ccd e03c
00000220: e56a b8bc a290 a43b adec 57bd 89ba df3c
00000230: 82e5 5bbd 9604 cc3c 7445 0e3c 4d12 863c
00000240: 5ee8 78bd b090 973c 2f87 5abd d728 103b
00000250: d62b aabc f051 53bd 1ca9 70bd 381f 5bbc
00000260: b3d1 99bc 4673 adbc f089 453c 0e8d 23bc
00000270: 1bed 83bd b135 21bd a127 363c 0c64 08bd
00000280: f06f ffbc baa6 253d 6901 9dbc 6d28 1eba
00000290: da25 fab8 3405 85bc e57a a23a b513 38bc
000002a0: 3282 88bc 656a fabc bb28 2fbd 0b4c 333a
000002b0: 14ef 4c3d b9eb e23c d3f6 32bc 6d5d 283c
000002c0: 3cc8 4c3d bd4c 7f3c 5609 1e3d f278 813d
000002d0: 711a 023c 8d9a 2f3d 7ca6 613c b641 103d
000002e0: 7cba 9f3b 8568 6bbd e134 f7bb 91c3 6ebd
000002f0: 6228 c2bc fae6 5c3d 00d2 7cbd 74a2 4aba
00000300: 3e64 ae3c 3f23 463d 9de8 f2bc 306a 6dbc
00000310: 093e 62bc b3e9 63bd a5e9 83bd 36e9 25bd
00000320: 2d6e 86bc cc9a 833d d32c e93c bae0 60bd
00000330: d1e6 8abc 5392 323c 4272 2ebd b352 3bbc
00000340: bed7 d2bc 49e7 453c 0a94 813d a2fb 3c3d
00000350: df71 d13c 1b83 813d 6c4e 4ebd 5f20 47bd
00000360: 872a 4abd b34c 6eba 5b1f 3f3d f893 e5bc
00000370: 4688 0dbd 1ac1 14bd 0541 523d 55e4 843d
00000380: e054 5d3d f5ca bd3c 2950 093d 1f8c fd3b
00000390: 8678 efbc 5990 1a3d 7c3b d03b 421c 023d
000003a0: 0e29 be3c e9bd 7cbd 82a9 3ebd 2b55 e8ba
000003b0: c2e0 503c 3d20 42bb 8b94 cabc 3730 c9bc
000003c0: 3646 633d 9275 583d 9d79 0bbd 0e25 0b3d
000003d0: 6555 0e3d c03e efbc 8389 7dbd 20be dc3c
000003e0: 8b6d e13c 2782 d0bc 6ae7 fd3c 777f 563d
000003f0: 99ef 753d ea12 90bc 8fa6 cebc 90f3 8f3b
0.022040648 -0.021806892 0.05570129 -0.026552586 0.040530063 0.059067693 0.020623917 -0.020225767
0.022212204 -0.008866939 0.0310264 0.03561476 0.0066453596 -0.063602865 0.06164687 0.027003074
-0.028559297 -0.007171148 -0.0456193 -0.02845176 -0.052530743 0.00476545 -0.045880478 -0.05423634
0.051065575 -0.059690032 0.054916494 -0.003673827 0.05972006 0.01062243 -0.048882894 0.025571221
-0.0460352 -0.056317795 -0.014295048 0.028487805 -0.03754342 -0.056814063 -0.009200947 0.03296318
-0.019568214 -0.050659835 0.009300088 0.036655974 0.018830743 0.021995116 0.060436524 0.03514293
0.055290964 -0.020748263 -0.00072998035 -0.01860459 -0.061019357 -0.012218867 0.052362856 0.052675523
0.063021325 -0.057170585 0.06173594 -0.047333244 0.015025185 -0.015237974 -0.04525651 0.037042063
-0.06070018 -0.03943808 0.019152664 -0.045994386 -0.013099978 0.05251425 0.052002106 -0.032402463
-0.026387956 -0.039093312 0.06189902 0.055895492 -0.020742614 -0.056235906 -0.019444168 -0.051301114
-0.010118296 -0.014503654 -0.04268289 -0.033840187 -0.005407215 -0.037003085 0.043300346 -0.011048749
0.023333838 0.04325381 -0.008638724 -0.013052425 -0.017491678 0.019349327 0.02333885 -0.06196044
-0.056351233 -0.040525004 0.03825275 -0.024174407 -0.043688033 -0.02536315 -0.027798656 -0.038989995
-0.035074998 -0.0106921345 -0.02033606 0.0018085095 -0.0007778794 -0.0037902382 -0.015146386 -0.060478933
-0.02551245 -0.00064331054 -0.014828871 0.0025685362 -0.048089407 -0.04398499 0.039317705 0.042396113
0.020476265 0.0053524543 -0.0031270087 0.029855393 0.03806604 0.048165664 0.056791473 -0.004750019
-0.0236021 -0.017198209 -0.011564726 -0.030167364 -0.04863238 -0.022883024 -0.012879154 0.027441703
-0.022511909 0.0050221244 -0.052715946 0.027310627 -0.053685673 0.02490453 0.008683551 0.016366148
-0.060768478 0.01850161 -0.053351577 0.0021996999 -0.020772856 -0.051591814 -0.058755025 -0.013374142
-0.01877675 -0.02117313 0.012056813 -0.0099823605 -0.06441709 -0.039357845 0.011117847 -0.033298537
-0.031181306 0.040442206 -0.019165711 -0.00060332456 -0.00011927979 -0.016237833 0.0012396245 -0.011235167
-0.016663644 -0.030568311 -0.042763453 0.00068396394 0.05003269 0.027700292 -0.010923105 0.010276181
0.049995646 0.015582261 0.038583122 0.063218966 0.007940874 0.042872 0.013772603 0.035218917
0.0048745256 -0.057472724 -0.0075441455 -0.058291975 -0.023700897 0.053931214 -0.06172371 -0.0007729896
0.021288034 0.048373457 -0.029651934 -0.014490649 -0.013808736 -0.055642795 -0.064410485 -0.04050561
-0.016409958 0.064260095 0.028463757 -0.054901816 -0.016955765 0.010899144 -0.042589433 -0.011433291
-0.02573764 0.012079068 0.06327064 0.046138413 0.025566993 0.063238345 -0.050367758 -0.048614856
-0.049356963 -0.00090904086 0.046660762 -0.028024659 -0.03455379 -0.03631697 0.05133154 0.064888634
0.05403602 0.023168067 0.033523712 0.007737651 -0.029232275 0.037735317 0.0063547473 0.03176523
0.023212936 -0.06170455 -0.046548374 -0.0017725577 0.012748899 -0.0029621266 -0.024729034 -0.024559123
0.05548688 0.0528465 -0.034051526 0.033970885 0.034749407 -0.029204726 -0.06189872 0.026946127
0.027518054 -0.025452686 0.030994136 0.052367654 0.06004295 -0.017587144 -0.025225906 0.0043930486

lstm_encoder.bias_ih_l0 f4 [512]
00000000: 4138 333a 1513 cf3a 1773 c4bc e8c6 233d
00000010: 566d 443d e919 c23c 5a71 29bc 6165 32bd
00000020: 36c7 113d 8bd9 283d f0ba 1e3d 6be9 33bd
00000030: 81d8 bdbc 1bc1 813d 459e 4a3d 0478 e9bc
00000040: 185f e3bc bdef 3cbc c96f 84bd e277 543d
00000050: 7d08 c83c 0541 763d b3b8 5dbd c922 2bbd
00000060: 9d0a 9bbc 9c4e b3bc 44e3 453d eec7 173d
00000070: e942 36bd fbac 333d 3335 60bd eaef e23c
00000080: 1a5b 6bbd c0df 2dbc 9831 153d 1a87 be3b
00000090: ef55 513c 0c57 cabc db17 8abc b163 a9bc
000000a0: f80a 0ebd afe3 73bc 4951 d6bc 49a2 36bd
000000b0: dc45 9dbc 6a40 353c 2eaf fa3b 00bf a83c
000000c0: 1f5b 1e3d 68ab 853c e4f0 27bb 0339 703d
000000d0: 1101 713a f5d0 62bd ec6b 123d 5254 17bd
000000e0: 9b4a 1abd d1e2 d43c 2417 a8bc 03a9 7d3d
000000f0: 1cb3 4d3d 1eec fd3c 2765 9cbc 2bcf 5e3d
00000100: 179e 02bd 0ceb f9bc 1211 043c 7804 5dbd
00000110: 0e42 98bc c183 3abd e088 72bd bd31 10bd
00000120: 77c9 22bd d7ca 76bd 80f6 003d 2a37 92bc
00000130: 8e42 6f3d ff4f 823d e334 ddbc d149 cb3c
00000140: 82b6 293d 23c1 febc bdd4 d3bc 0bb0 c03b
00000150: fabf 3bbb bc9e c73c c0af eabc 2534 57bd
00000160: e2f5 06bc c095 f9bc bc85 2bbb 1d70 133c
00000170: 09a6 16bc e256 413d 688f b7bc b5d2 bfbc
00000180: 0ba9 d2bc 6cf2 16bd 5b88 b23c a123 2b3d
00000190: da46 6dbd 5954 2b3d aa68 ba3c 77d1 af3c
000001a0: 825f acbc 848c 113d 7b23 25bd 25c2 3b3d
000001b0: 4784 36bd 9472 25bd af2d 73bd 321b 7abd
000001c0: 5096 c13c ab9c 28bc 299f 7f3c bb1b 02bd
000001d0: 6867 0a3c bc0e 373d 98aa 673d cb6e 693d
000001e0: b9a8 0f3d d29e 323c 0352 2b3d 0b8c c4bc
000001f0: 846c 27bd 66b9 eebc cc50 82bd 4c54 e9bc
00000200: fe5e 1dbd ca8e e8bc 356a 653d 500b 78bd
00000210: 7100 41bd 05b7 debb 4975 6cbd e69f dbbb
00000220: 62de 80bc b44d ad3c 565f 81bd b6bf b83c
00000230: 407c 833d bfa1 003d 4c7f 883d 58d3 3f3c
00000240: 46c2 60bd 7821 6d3d ded7 3c3d 16af 603d
00000250: dacb 27bd 8019 483d e82e 013d fac2 453d
00000260: 7208 4a3d 4ce1 36bd ce1f 61bd a173 59bd
00000270: bee8 47bd 22ff 8e3c e1b2 4cbc a7f4 5f3d
00000280: 1cad 3ebd f45a 19bd b2de d53c f751 6dbd
00000290: 06d6 503d 19dd 83bd e4ab 7abc 8570 cdbc
000002a0: 837d 6fbb cf4e 063d 63a9 39bd 8307 a3bc
000002b0: 0753 6cbc a733 c9bc 17ac 4abc 918a e73c
000002c0: 2617 d83c fc25 6f3d 20e7 bebc e3e6 06bc
000002d0: d6a9 7cbd 4fec f3bc ceeb a039 0751 303c
000002e0: a618 643d 6ff2 003d f67d 5bbd 5661 bcbb
000002f0: 9028 31bd eeb1 4bbd 9e2d 7c3c 2d92 6dbd
00000300: 755a c6bb 32e7 a4bc 0995 5ebd 1c44 abbb
00000310: 602d 45bd 0cc6 57bd c864 233d 96a0 d3bc
00000320: 34a5 e8bc 9935 e23c 652a 78bd 1d0d 30bd
00000330: d6be 843d 1508 303d a418 75bb 1392 c7bb
00000340: 7914 b7bb e473 593b 0bb6 44bd e35f e33c
00000350: adb6 6f3c f57d bbbc b3d5 723d 70ee 74bd
00000360: 702a 2f3c 2fa4 1dbd a0c6 e23c 4001 1e3c
00000370: 7553 35bc e353 2e3b 0e8c 57bd 6af9 4abd
00000380: 7ea8 123c 5c6f d73c 6560 fc3c 1515 25bd
00000390: 7deb 3ebd a0de 88bc 32d2 d93c 43a3 e0bc
000003a0: bbad 1dbc 346f 923d 2712 603d b957 12bb
000003b0: 4d0a 683d ab66 533c 5928 be3c 95dc b13c
000003c0: 8788 f03c 0980 463d 32b9 da3c f2ab 09bd
000003d0: 8a35 adba 0146 d2bc bb0b c13c e8eb 8ebc
000003e0: c682 123d 7154 c23b 32ec 8abc 3a5c 72bc
000003f0: 41e6 86bb 107c 313d ce2b 30bb dc50 063d
0.00068366906 0.0015798534 -0.02398066 0.039984614 0.047955833 0.023693996 -0.0103419665 -0.043553714
0.035590373 0.04122309 0.038752496 -0.043923777 -0.023174526 0.0633566 0.049467344 -0.02849961
-0.027755305 -0.011531767 -0.06466634 0.05187214 0.02441811 0.0601206 -0.05413122 -0.04178122
-0.01892596 -0.02188807 0.04831244 0.037055902 -0.044497404 0.04386614 -0.054738235 0.02770229
-0.057459928 -0.010612428 0.03642425 0.005814445 0.012776836 -0.02469971 -0.016857078 -0.02067742
-0.03467843 -0.014885827 -0.026161807 -0.04458836 -0.01919835 0.011062721 0.0076502776 0.020598888
0.03866112 0.016317084 -0.002562576 0.05864812 0.00091935793 -0.05537506 0.035747454 -0.03694565
-0.037668806 0.02598706 -0.020518847 0.06192876 0.05021964 0.030996379 -0.019091202 0.05439679
-0.031889047 -0.030507587 0.0080607105 -0.05395934 -0.018586185 -0.045535807 -0.059212565 -0.035203684
-0.039742913 -0.060252037 0.03148508 -0.01784857 0.05841308 0.06362914 -0.027002757 0.024815472
0.04143382 -0.031097954 -0.025858277 0.005880361 -0.0028648362 0.024367683 -0.028648257 -0.052539963
-0.008237334 -0.030466914 -0.0026172241 0.008998898 -0.009194859 0.047202 -0.022407249 -0.023415903
-0.025715372 -0.036852285 0.021793535 0.041782025 -0.057928897 0.041828487 0.022754986 0.021462185
-0.021041635 0.035534397 -0.04031704 0.045839448 -0.044559743 -0.040392473 -0.05936974 -0.06106109
0.023631245 -0.010291259 0.015601912 -0.031764727 0.0084475055 0.044691786 0.056559175 0.056990426
0.035073016 0.0109021235 0.04182626 -0.023992559 -0.040874973 -0.02914114 -0.06363067 -0.028482579
-0.03842067 -0.0283884 0.05600949 -0.060557663 -0.04711956 -0.00679672 -0.05772904 -0.006702411
-0.01573104 0.021155216 -0.06317012 0.022552352 0.06420183 0.031404253 0.06664905 0.011708103
-0.054872774 0.057893246 0.046104304 0.054854475 -0.040965892 0.048852444 0.031538874 0.048281647
0.04932446 -0.044648454 -0.054961972 -0.053088788 -0.048805945 0.017455641 -0.01249382 0.054676678
-0.04655181 -0.037440255 0.026107166 -0.057939496 0.05098536 -0.064386554 -0.015299771 -0.025078068
-0.0036543317 0.03279 -0.045327555 -0.019901043 -0.014424092 -0.024560763 -0.012370131 0.028264316
0.026378226 0.058385834 -0.023303568 -0.008233759 -0.061685406 -0.029775767 0.00030693266 0.010761506
0.05568757 0.031481203 -0.053586923 -0.005748908 -0.043251574 -0.049730234 0.015391735 -0.058000732
-0.006053264 -0.020129774 -0.05434135 -0.005226625 -0.048138976 -0.052679107 0.039891034 -0.02583341
-0.028399087 0.027613448 -0.060587306 -0.042981256 0.064817116 0.042976458 -0.003739872 -0.0060904115
-0.0055871573 0.0033180648 -0.048025172 0.027755683 0.014630956 -0.02288721 0.05928583 -0.059797704
0.01069127 -0.038486656 0.027682602 0.009643853 -0.011067261 0.0026600293 -0.0526238 -0.049554266
0.0089513045 0.026298217 0.030807683 -0.04030331 -0.046611298 -0.016707718 0.026589487 -0.0274216
-0.00962394 0.071501166 0.05470481 -0.0022330119 0.05665045 0.012902896 0.023212599 0.021711627
0.029361976 0.048461948 0.026699636 -0.033611245 -0.0013214808 -0.025668146 0.023565164 -0.017446473
0.035769247 0.0059304764 -0.01695833 -0.014792496 -0.004116804 0.043331206 -0.0026881578 0.032791957

lstm_encoder.bias_hh_l0 f4 [512]
00000000: 39e0 9b3c 1da9 0a3d 83fe 77bd c22d d8bb
00000010: 68c9 533d 223f ed3b b536 e83c a392 633d
00000020: b64a 8dba e370 26bd 0572 353c aa36 973c
00000030: 09c1 5bbd 3af5 46bd 0163 aa3c f6aa 59bd
00000040: 326f 0cbd 10b5 ce39 6690 7fbd d47c 2abd
00000050: c3db 64bd 2cc5 0f3d a3c9 983c 7c34 c03c
00000060: 7513 21bc f683 3ebb 0349 bdbc fced 0a3d
00000070: 83e4 5a3c 4718 683d 829f 21bd 61b0 54bc
00000080: 74a3 a13c f04f 5cbc c13d 09bd a902 5e3d
00000090: f7bd 55bb 7946 14bd 1330 723c 0a27 4ebd
000000a0: 51d4 0ab9 0a9d 7dbd 128b 81bd 2d92 babc
000000b0: 3dc9 1e3a a068 71bd 228a 8c3c f575 053d
000000c0: 9397 a13c fe8b 783d a776 083c 6c2e 893d
000000d0: 5906 23bd f755 0ebd f586 4f3d 6f2e 26bd
000000e0: 60c2 193d 5bf6 54bd 7f35 933b f60f e73c
000000f0: 2d6d 80bd 7d27 36bd b993 48bd bda3 f8bc
00000100: 3e03 9cba b45c 22bd a7b6 f63b 47f0 2b3d
00000110: 9745 18bd 84c3 3c3d 6a47 e63c f19d 0c3d
00000120: a1d2 13bc dd1f 75bc 397e 13bd 2734 babc
00000130: 6b08 803d e65f 80bb 646f 7e3c 7a81 94bc
00000140: d5bc 5e3d 9080 bb3c 7648 3e3d c456 04bd
00000150: 2512 683d a69b a13c c56c 833d 9fc4 2e3d
00000160: cade 61bd f677 d33b 2186 2a3d 58b6 273d
00000170: e91d b23c 1f32 b3bc bad1 0d3d 81ac 423d
00000180: a75c 72bc 903f f93c 0d6d 16bd 2f30 373d
00000190: d2d6 723d b8d4 7fbc fe2d 4abc b7a0 9dbc
000001a0: c90c 483d 5253 09bc 403d 103d 83f9 d7bc
000001b0: a689 51bd b38f 46bd a85b 823d 04fe 1bbd
000001c0: 766b 9c3c 7a3a 4e3d ad5b 7ebd 0f40 cf3c
000001d0: 795a 07bd 5630 133c f36b c53b ada8 723d
000001e0: 25cc 72bc f92b 87bc bd38 7abd 9ccc 013d
000001f0: db1f 053d 1bae 1cbd b9ff 3e3d 2c0f 1f3c
00000200: 8a64 033d 1e3f 873c 474e 413d 2c36 41bd
00000210: ec4c 74bd 7921 2c3d 0154 743d b9a5 713c
00000220: ee53 4e3d a865 31bd a3ac 81bb 4dd7 ecbb
00000230: 2454 563b 872f 31bd 2d22 fe3c 0bd1 5bbb
00000240: cf3e 463d f1bb 29bd deca e33c 576f 65bd
00000250: b2d3 32bd 9795 093c f591 47bd eda2 533d
00000260: 693a 2fbc eda7 5c3d 5c24 4a3c 3734 f0bb
00000270: 1f53 823c e108 533c e9b1 963c 3fad 0cbc
00000280: 3e5f eebc 1140 0b3d 469a 573d 0cc0 953c
00000290: 4338 99bc 398e 723d c4c6 503c 2988 69bd
000002a0: dea0 003c f2db 693d 51b7 d53b dc0d 513d
000002b0: c51d db3b 1d4b dfbc c545 18bc 852a 7abd
000002c0: 0ded 03bd 0945 4f3d 1357 373d 28e0 c63c
000002d0: a234 273d 68c5 e5bc faa0 403d cf28 27bc
000002e0: 57db 033d a801 833d 7e39 ac3c 5455 fa3c
000002f0: ca8a cdbc 5eda 19bd cb54 76bd 8618 203c
00000300: 8e5e 01bd 1a74 033d 897b 693d 915b 5a3d
00000310: 14ac d33c 19e2 473d b399 b23c cb41 3ebd
00000320: a9b3 2ebc 1bb3 f3bc 165d 673d 5941 efbc
00000330: e51f 61bc 2284 373d d8dd fa3c 2798 c7bb
00000340: 798c fb3c 8a75 48bd b276 cabc f787 623d
00000350: e24b c039 3201 71bd b491 033c b97e 333c
00000360: 3936 5d3d 5ba5 9f3c aca4 f13c 95b9 5e3d
00000370: c61a 903c 0d5f 91bc f060 1f3d 0cff 3e3d
00000380: d9c3 913c 005b 483d 6099 303c 6978 38bd
00000390: 3185 753d eb0b 773d b440 fe3c c023 e23b
000003a0: 97aa ea3c 617b 573d 7ec3 843d 484d a83b
000003b0: 1ff5 6abd 0ac7 363d 6556 a33b 0423 c03c
000003c0: 107d 15bd 080b 55bd 0ac9 673d ec53 00bd
000003d0: 92e2 8d3c ba0e 5bbd 1a67 2d3c de29 6f3d
000003e0: 90f7 27bc 5ff4 cf3c a88d 6c3c 5040 0d3d
000003f0: fb83 b13c 3a67 433d 7864 033d c8a9 a33c
0.019027816 0.033852685 -0.060545456 -0.0065972516 0.051705748 0.007240192 0.028346399 0.055559766
-0.0010779712 -0.040635 0.011074548 0.018458683 -0.05365089 -0.04857371 0.020799162 -0.053141557
-0.03428573 0.00039426284 -0.06239357 -0.04162295 -0.055873644 0.035100147 0.018650835 0.023462527
-0.009831299 -0.0029070354 -0.023106104 0.033918366 0.0133601455 0.056663778 -0.03945876 -0.012981505
0.01973126 -0.013446793 -0.03350616 0.054201756 -0.0032614449 -0.03620002 0.01478197 -0.0503302
-0.000132398 -0.061917342 -0.06325354 -0.02277478 0.00060572085 -0.05893767 0.01715571 0.032583196
0.019725597 0.060680382 0.00832907 0.066983074 -0.039800975 -0.03474995 0.050665814 -0.040571626
0.037538886 -0.051992755 0.004492461 0.028205853 -0.06270824 -0.044471253 -0.048969004 -0.030351514
-0.0011902822 -0.03963919 0.007529098 0.041977193 -0.03717574 0.046084896 0.028110225 0.034330312
-0.009022386 -0.01496121 -0.036009047 -0.022729946 0.062516056 -0.003917682 0.015529487 -0.018128145
0.054379303 0.022888452 0.046455823 -0.03230931 0.05665793 0.01972754 0.064172305 0.04266798
-0.05514411 0.0064535094 0.04163182 0.04094538 0.021742778 -0.021874486 0.03462384 0.047527794
-0.014792598 0.030425817 -0.036725093 0.044723686 0.0592869 -0.015614681 -0.012340067 -0.019241674
0.048840318 -0.0083816815 0.035214663 -0.026364094 -0.051156662 -0.048476886 0.06365138 -0.038084045
0.01909421 0.050348736 -0.062099148 0.0252991 -0.033045266 0.008983692 0.0060248314 0.059242893
-0.01481918 -0.01650046 -0.061089266 0.03168927 0.032501083 -0.038251977 0.046630595 0.009708207
0.032078303 0.016509589 0.04719379 -0.047170803 -0.05964367 0.04202411 0.059650425 0.014748984
0.05037301 -0.043309838 -0.0039573475 -0.0072278143 0.003270396 -0.043258216 0.031022156 -0.0033541347
0.048399743 -0.041439 0.027806696 -0.056014385 -0.04365892 0.008397481 -0.04872318 0.05166905
-0.010695078 0.053871084 0.01233777 -0.0073304432 0.015908776 0.012880535 0.018395381 -0.008586227
-0.02909815 0.033996645 0.05263736 0.018280052 -0.018703585 0.059217665 0.012742702 -0.057014618
0.007850854 0.05709452 0.006522097 0.051038608 0.0066868984 -0.027257496 -0.009293978 -0.061075706
-0.03220849 0.050602946 0.044760775 0.024276808 0.04082168 -0.028048232 0.04702852 -0.010202601
0.0321916 0.063968 0.021023508 0.030558266 -0.025090594 -0.037561767 -0.06013946 0.009771472
-0.031584315 0.032093145 0.057002578 0.05330998 0.02583889 0.048799608 0.021801805 -0.046449464
-0.0106629515 -0.02974849 0.056485258 -0.029205965 -0.013740514 0.044803746 0.030623361 -0.006091136
0.030706631 -0.04894022 -0.024714801 0.055305447 0.0003667763 -0.05883903 0.008030344 0.010955506
0.05400679 0.019488027 0.029497467 0.054376204 0.017590892 -0.017745519 0.038910806 0.04662995
0.017793583 0.04891491 0.010778755 -0.045036707 0.059941474 0.0603141 0.031036712 0.0069012344
0.028645797 0.052607898 0.064826 0.005136166 -0.057362672 0.044623412 0.0049846643 0.023454197
-0.036496222 -0.052012473 0.05658821 -0.031330034 0.017319951 -0.05348084 0.010583663 0.058389537
-0.010251895 0.02538508 0.01443807 0.03448516 0.021669379 0.047705866 0.032078236 0.019978419

lstm_decoder.weight_ih_l0 f4 [512, 6]
00000000: b2c5 4d3d fc7c ddbc dc7c 4b3d 888a 3d3d
00000010: 1b3a f23c aa45 353d 1708 ac3d 757a a739
00000020: 245a 313c 1c21 2fbd ad63 633c 793e 883d
00000030: 6842 333d 0280 b0bc 40ce dc3b 3964 c33b
00000040: 3cf1 003d 0faf 5dbc c421 9ebc 8651 1cbc
00000050: 301c 75bd e598 65bd 6a6e 22bd 8e9a 213d
00000060: cb45 d03c a04e 6b3d d411 0f3d 9788 9ebc
00000070: e372 3f3d 5d82 973c c289 7bbd 3281 0d3d
00000080: 616a cf3c 169c 10bd affa bd3c 8be0 4fbd
00000090: ef3f 9abd 45a2 7cbd 9184 b1bd 2288 a13d
000000a0: 5a1f 52bb 63b1 753c 034a a13d 88c7 373d
000000b0: 9a2f 53bd 687e e0bc a081 27bc 7f29 febc
000000c0: f056 d1bb bd10 d3bc 8f89 4bbd 45a1 6fbd
000000d0: 18b3 033d 73f1 4bbd 018a 363d 255b bbbc
000000e0: 9f15 413d f025 373c d0f4 a8bb 47d8 07bd
000000f0: cd85 a33c a799 833d 9f4c 7e3d 9a54 81bd
00000100: 8bbe 4e3d 5b21 45bd 8e00 7cbd a4a3 4d3d
00000110: 2ec8 4e3d c641 e4bb 866b 5bbd a5e6 c33c
00000120: 8fcb 85bd 45dd 60bd cd16 61bd a47c 543c
00000130: 1244 4dbd 895b 063b 58bb 053d 2ffb 0d3b
00000140: a8c5 6e3d 57f3 6abd b9d1 a8b8 0368 2fbd
00000150: 0deb 57bc 742b e33a d1ff 3dbd 5923 d13b
00000160: 79b2 05bb ae3e 0e3c 0536 16bd f80d 0f3b
00000170: 2119 86bd 2c7b a63c 815f cfbc b33c 1bbd
00000180: 9a9e 9a3c c373 f23c dcc3 4fbc 9f53 b7bc
00000190: 4ea1 67bd 762a f5bc 28b7 80bd 36a5 1ebd
000001a0: c39f 9fbd f86c 60bb 36e5 823d cc41 5b3d
000001b0: 0e7f 24bc e65a d8bc d8ad 2cbd cbcc a03c
000001c0: 952d 2e3d 5096 99bc f59c b8bc 81e0 40bd
000001d0: f054 96bc 2d6e 3f3d 05b6 7a3d 59b6 203d
000001e0: a92c 53bc 4cbc 143d f0d9 843b cdaf dc3a
000001f0: 9ef7 6cbd 5a2c c53c a5f2 ebbc e1af 7fbc
00000200: 446d 8fbd d026 5bbd a2e7 e7bc eab3 a73d
00000210: 9e06 45bb c702 a9bc 57c7 013d 8072 fdbc
00000220: 43fe cb3c ca92 683d 0d6a b4bc 316b 1d3c
00000230: 31c6 293d 4bd4 ccbc b7c2 533d f95b 083c
00000240: 52ed 063d 54f5 14bd 3a3f 86bb 5998 aebc
00000250: eaa7 293d 57cd af3c 9055 bc3c 181b 153c
00000260: cf1a b93c b3f0 a6bb 1853 85bc a3a2 273d
00000270: f92e d2bd d5e4 64bd 2d3d c83c 5507 85bb
00000280: d4a7 9e3c 4cae ec3b 3e20 8ebd 3235 393d
00000290: f0f3 d0bd d5f0 173b 4313 15bd 1cf9 af3c
000002a0: cb49 20bd d3df 3c3d 8ed6 40bd a65b 20bd
000002b0: dfa1 403d 568a 25bd 9cb3 8f3d 15bc 92bc
000002c0: 4a40 2abd ca4d 143b 3f55 33bd 0e07 a83b
000002d0: 49d4 f4bb 279e 22bd dbb3 a3bb 1bfc 5b3d
000002e0: 87dd 42bc 15e0 133a 8400 2c3d 6af9 2bbc
000002f0: f941 0e3d 282b fdbc c9ca d7bc d61e 723d
00000300: 2306 153c 2f17 703a c6be 4abc 8241 a23c
00000310: bce1 8d3d 0b4a a83b 9135 803c 0091 133d
00000320: 7f26 dcbb 7a57 2cbd dec9 153b a66a 553d
00000330: 0b5f 153d 65a1 dd3b b6c6 8cbc 19e2 2fbd
00000340: 4866 58bd 627b 13bd 033d 923c 225b 26bd
00000350: fb4b 1ebd 896a 4abd 46a8 3bbd 32f0 81bd
00000360: a43b b83d 66df 773d 30a0 15bd 5516 b1bc
00000370: 28de fbbb 5453 de3c d70c 5a3d d069 553c
00000380: 26a4 13bd 5eb7 963d 4b34 bfbc 2b92 2b3d
00000390: f54a 50bd 2eba 8fbd b653 513d df47 8abb
000003a0: db22 593d 29c9 4abd ea81 8abc c6e6 c2bb
000003b0: bc2d 593d 4b15 463d 4df6 d5bc de7a 523c
000003c0: 6946 88bd 9d03 54bd 4d98 113d 151d 16bd
000003d0: 4a0e 403b ce79 cabc 23d3 42bc c9b7 bcbc
000003e0: 6e99 b33c 69a1 56bd 4188 c83c 6609 ae3d
000003f0: f8cd 0dbd e357 803d e164 da3c 623a 383c
0.050237365 -0.027037136 0.049679622 0.04627469 0.029568722 0.04425589 0.083999805 0.0003194396
0.010824714 -0.042756185 0.013878745 0.06652541 0.0437645 -0.021545414 0.006738454 0.005962875
0.03148006 -0.013530507 -0.01930321 -0.009540921 -0.059841335 -0.056054015 -0.03965608 0.039454035
0.025423905 0.05744803 0.03492911 -0.01935224 0.046740424 0.01849478 -0.061410673 0.03454704
0.02531928 -0.035305105 0.023190824 -0.05075125 -0.075317256 -0.06167819 -0.08667863 0.078872934
-0.0032062144 0.014995906 0.07875445 0.044868022 -0.05155907 -0.027404025 -0.010223776 -0.031025646
-0.0063885376 -0.025764817 -0.049691733 -0.058503408 0.03215322 -0.04979081 0.044565205 -0.02287061
0.04713976 0.011178479 -0.005156137 -0.033165243 0.019961262 0.06425791 0.06208479 -0.063149646
0.050474685 -0.048127513 -0.061523966 0.050204888 0.050483875 -0.0069658486 -0.05356934 0.02391369
-0.06532966 -0.05489852 -0.054953385 0.01296917 -0.050113745 0.0020501337 0.032649368 0.002166461
0.05829397 -0.057360973 -8.049928e-05 -0.042823803 -0.013178599 0.0017331676 -0.046386544 0.0063823876
-0.0020400567 0.008681936 -0.03667261 0.0021828394 -0.06547762 0.020322405 -0.025314094 -0.037899684
0.018874455 0.029596215 -0.012680974 -0.02237874 -0.056550317 -0.029927474 -0.06284934 -0.038731776
-0.07794144 -0.0034244638 0.06391375 0.053529546 -0.010040058 -0.026410531 -0.042157978 0.019628903
0.04252394 -0.018748432 -0.02253578 -0.047089104 -0.018351048 0.04673593 0.061208744 0.0392364
-0.012889066 0.036312386 0.0040543005 0.0016837061 -0.057853334 0.024069 -0.028802225 -0.015605898
-0.07003263 -0.05350381 -0.028308693 0.08188613 -0.0030063759 -0.020631207 0.031684246 -0.030938387
0.024901515 0.056780614 -0.022023225 0.009608076 0.041448776 -0.025003573 0.051699366 0.008322709
0.03294117 -0.036366776 -0.0040968927 -0.02131288 0.0414199 0.021460218 0.022990018 0.009100698
0.022595791 -0.0050946116 -0.016274974 0.040926587 -0.102628656 -0.055882294 0.024443233 -0.004059712
0.019367136 0.0072229262 -0.069397435 0.045216747 -0.102027774 0.0023184319 -0.036395323 0.02148109
-0.039132874 0.046111893 -0.047079615 -0.039149903 0.047029372 -0.04041513 0.0701668 -0.01791195
-0.041565217 0.0022629374 -0.04378247 0.005127794 -0.0074715954 -0.039701607 -0.0049958057 0.053707223
-0.011893637 0.0005640996 0.04199268 -0.010496477 0.034730885 -0.030904368 -0.026341813 0.05911144
0.009095701 0.0009158728 -0.0123745855 0.019806627 0.06927821 0.0051357797 0.015650542 0.036026955
-0.0067184563 -0.04207561 0.0022855918 0.05210366 0.036467593 0.0067636245 -0.017184597 -0.042940233
-0.052831918 -0.03600634 0.017851358 -0.040614255 -0.03864668 -0.049418006 -0.045814775 -0.06344642
0.089957505 0.060515784 -0.03652972 -0.021617094 -0.007686395 0.027139343 0.0532349 0.013025716
-0.036045216 0.07359193 -0.023340365 0.041887444 -0.050852735 -0.07017933 0.051105224 -0.0042199935
0.053011756 -0.049508248 -0.016907651 -0.0059479205 0.05302213 0.04836015 -0.026118422 0.012846677
-0.06654055 -0.05176126 0.035545636 -0.03664883 0.0029305392 -0.024716284 -0.011891159 -0.023036854
0.021923747 -0.052400026 0.024479033 0.08497886 -0.034620255 0.06266763 0.026659431 0.011244388

lstm_decoder.weight_hh_l0 f4 [512, 128]
00000000: f1b0 063d a799 1cbd c044 79bd b700 5fbd
00000010: 8b91 5c3d 46db 123d 59cd 4d3d 11df 563c
00000020: 8360 323d 3e2f c7bc 72db 41bd 8334 fc3c
00000030: 5b8e 893c 6ad9 6bbd 7b0c 16bd 9606 423d
00000040: 8769 1f3d 204b 523d 12b1 d63c cf2e 083a
00000050: 56b4 27bd afde 6dbd 580b c23c 1856 9a3c
00000060: 72de 86bd f29f 803d cb99 2dbd 6881 efbb
00000070: 8805 233d 3a18 76bc 5e8c 283d be92 f13c
00000080: 7005 02bd ec5c bd3c 99c5 2cbd 0ecb 623d
00000090: 065b 5dbd 9f4f 9abc 5232 433d 0359 143d
000000a0: 858a 26bd f16f f23c ce43 613d 71fc 4f3d
000000b0: eaab 77bd cd48 1e3c 6c49 db3b 1bed 22bd
000000c0: fe80 4e3d 61c0 1fbd 4f5f 47bd c9a7 fb3c
000000d0: 9caa 483d f8b2 843c 8d59 45bd 185f 6c3c
000000e0: f585 13bd 70d1 793a a705 ecbc c8c4 273d
000000f0: 5600 68bd 37f0 813d 539f f93b ed45 493d
00000100: 667c b2bc 4176 3f3c 2632 1bbd 6f3d dabc
00000110: 9454 eebc b4ad 01bd a7be a4bc 1cba 5fbd
00000120: d26c 62bd 6d32 2b3d 621f 1bbb 107b b73c
00000130: 8c43 393d 6036 293d afd2 f8bc c668 a0bc
00000140: c0db 713d 78ed e13c 1ce2 783d 6128 2ebd
00000150: 3750 843d e76b 5bbd ae1d 6f3d 9650 5c3d
00000160: d09d 113d 8dac 3e3d 16af 7fbb d54f 09bc
00000170: 7339 103c 4a11 6d3d 06b3 6f3d 1d0b d9bc
00000180: 6b18 7b3d c8c7 84bd 1330 533d d028 7f3d
00000190: 2516 a73c 2c62 533d 05e9 48bd 0820 803d
000001a0: abee 10bd b2f8 e3bc 8d0c 75bc 4f02 803d
000001b0: 56a5 283c ea45 faba c6a9 8b3c f89a 6a3d
000001c0: 509e 7dbd 22c1 79bd 1d5e 80bd eda3 eb3c
000001d0: 8a26 47bd e2f3 303d 5a14 1abd e900 34bd
000001e0: 694b 20bd 29d1 1f3d ef57 0ebd b089 a8bc
000001f0: b05e 2b3d db43 75bd 6a47 3fbd 4cc3 87bd
00000200: 5231 44bc 6887 49bd 4335 3a3d b710 613d
00000210: cb2d d43c d60e 243d 4aee 96bb 057f 49bd
00000220: b954 6e3d 34dc 0a3d 38a9 113d 27ed 0c3d
00000230: 9d22 20bc b2a8 fb3b 1e64 3e3d b13d 7138
00000240: 5a41 b03c 8aa2 363d daa1 14bd 2568 2fbd
00000250: 6d88 69bc ae11 19bd 77e3 06b9 e97c 11bd
00000260: 52cc c5bc 3d13 d23b 1e61 933c 946b 24bd
00000270: dcb6 4f3c b1b2 5e3c 5cf1 d4bc 7a1f bdbc
00000280: 1eb3 c03c 8ae7 4f3d b276 483d 406d babc
00000290: 3e95 25bd 6d4a 073c 7916 833d af59 58bd
000002a0: b935 3e3c 2785 193d 8b42 46bd b3d6 8f3c
000002b0: aecc 683d 04bf 89bc 1cf0 11bd bd7b 343c
000002c0: 5aef 74bc 0e51 b0bc 77ef 69bd 39a2 c2bc
000002d0: 2a0e b63c 6147 c33a f660 353d 41ff 7e3d
000002e0: 1b96 0c3d 6a23 443d fd4a 9abb 45f2 8fbc
000002f0: 422f 003c ae9d 683d cbaa c6b9 aaec 073d
00000300: f7fe c93c e43a 523d 176b 193d 70d3 553d
00000310: dc51 d9bc ea22 5a3d 5901 21bd cb47 3abd
00000320: d80e 61bd 9132 d93b 2d0a 80bd 8dde afbc
00000330: 2b52 4fbd cb41 61bd 1dbf 09bd e0ca 3abc
00000340: a190 87bd 69d4 5bbd 85d8 3c3d 86ed d5b6
00000350: d6b3 32ba 51f4 18bd 46ea f03b 3350 4d3d
00000360: e565 0f3d 14a4 8f3c 13b4 3d3c b69f adbc
00000370: 4732 5dbd 53dc 60bd 9b2e a53c a509 043d
00000380: 67b6 3ebc 54bf 463d f256 cebb 0b82 67bd
00000390: 502f 3fbd 8a2e 4dbd a3b7 ab3c 0d49 b53c
000003a0: 36cb 643c 79b7 c13c d689 9fba 2c58 383d
000003b0: ce92 3abc f345 0ebd 31d5 303d 338e b8bb
000003c0: 2761 8f3c 42a4 60bd 6b6c 44bd 26d0 1abd
000003d0: 3c39 6c3d f9ff 96bc 3544 1bbd 90a6 01bd
000003e0: 6473 24bd 0b0f 1dbd fc26 f43c 28d5 14bd
000003f0: 02ed 8a3c 0a0b 873c b159 083d 12fc 4a3d
0.03288359 -0.03823247 -0.06085658 -0.05444404 0.053849738 0.035853647 0.050244663 0.013114707
0.043549072 -0.024314519 -0.04732842 0.030786758 0.016791513 -0.05758039 -0.036632996 0.047369562
0.038918998 0.051341176 0.02620748 0.00051949633 -0.040943466 -0.058073696 0.02368705 0.01883988
-0.06585397 0.06280507 -0.042382997 -0.0073091276 0.039800197 -0.0150204245 0.04114949 0.029488917
-0.031743467 0.023115598 -0.04218063 0.05536943 -0.054041885 -0.018836794 0.04765541 0.0362177
-0.040659446 0.029594393 0.054996304 0.050777856 -0.060466684 0.009660912 0.006692102 -0.039776903
0.050415985 -0.039001826 -0.048674878 0.030719655 0.04899083 0.01619862 -0.048181105 0.014426969
-0.036016423 0.0009529805 -0.028811289 0.04095915 -0.056640945 0.063446455 0.00761787 0.049138952
-0.021787833 0.011685909 -0.037889622 -0.026640622 -0.029093064 -0.031659797 -0.020110441 -0.054620847
-0.05527956 0.041796137 -0.0023669829 0.022397548 0.045230433 0.04131162 -0.0303739 -0.01958121
0.05904746 0.027579054 0.06076251 -0.042518977 0.06460612 -0.0535697 0.058377914 0.05378779
0.035550892 0.046551276 -0.0039014271 -0.00838085 0.008802759 0.057877816 0.05852034 -0.026494557
0.061302584 -0.06483418 0.05155952 0.06229478 0.020396302 0.051607296 -0.04905035 0.062561095
-0.03538386 -0.027828548 -0.014956606 0.0625044 0.010293325 -0.0019094322 0.017048728 0.057276696
-0.061918557 -0.0609752 -0.06267951 0.02876469 -0.048620738 0.043201335 -0.037617065 -0.04394618
-0.039134417 0.03901783 -0.03475183 -0.020573467 0.041838348 -0.059879165 -0.046698965 -0.06629047
-0.0119746495 -0.0492014 0.04546095 0.05494758 0.025900742 0.04005321 -0.004606043 -0.0491934
0.058186267 0.03390141 0.03556177 0.034405854 -0.009773877 0.007680022 0.046482198 5.7516332e-05
0.021515537 0.044588603 -0.036287166 -0.04282393 -0.014253718 -0.037370376 -0.00012863973 -0.035519514
-0.02414528 0.006410985 0.017990645 -0.040141657 0.012677874 0.013592408 -0.025993995 -0.023086298
0.02352291 0.050757922 0.04894132 -0.022757173 -0.04042553 0.008257491 0.06400771 -0.052819904
0.011609488 0.0374805 -0.048403304 0.017558431 0.056835823 -0.016814716 -0.035629377 0.01101583
-0.014949644 -0.021523025 -0.057113137 -0.023758994 0.02222355 0.0014898592 0.044281922 0.062255148
0.03432284 0.047885336 -0.0047086463 -0.017571578 0.007823767 0.056791 -0.00037892754 0.033184685
0.02465771 0.051325694 0.037455644 0.052203596 -0.026528291 0.053255953 -0.039307926 -0.045478623
-0.054945797 0.0066283424 -0.06251941 -0.021468425 -0.05061547 -0.054994386 -0.033629525 -0.011400908
-0.06619383 -0.053669367 0.046104927 -6.375546e-06 -0.0006816959 -0.037342373 0.0073521463 0.050125312
0.035009284 0.017534293 0.011578578 -0.02119432 -0.054003026 -0.054897618 0.020163825 0.03223576
-0.011640168 0.04852231 -0.006296986 -0.056520503 -0.04667598 -0.05009321 0.020961588 0.02212956
0.013964465 0.023647057 -0.0012171816 0.045005962 -0.01138754 -0.034734678 0.043172065 -0.005632186
0.01750238 -0.05484415 -0.047954958 -0.037796162 0.05767177 -0.018432604 -0.037906844 -0.031652987
-0.040149108 -0.038344424 0.029803745 -0.036336094 0.016958717 0.016484756 0.03328866 0.0495568

lstm_decoder.bias_ih_l0 f4 [512]
00000000: 486b 0fbc b9c7 95bc 6836 313d 0d4e ffbb
00000010: d55f 463d 0dcd 463d 9dfe ebbc e206 ca3c
00000020: 8afb f03c 770d a1bb f2fb 7a3d ba7e 7cbd
00000030: 035b 163d cbfc 35bd fe82 a4bc a623 223d
00000040: 9f80 53bd 9bd0 7fbc 57da 1b3d a842 69bd
00000050: a692 203d 7c62 703c b3d5 14bc e7e7 20bb
00000060: 13ff 1e3d b43a de3c 7c33 4b3d c9b7 0d3b
00000070: 0a78 913c 74e4 f3bc 4bfa 863d 4db7 f53c
00000080: 8ce6 5ebd 0ff3 273d a08d 5d3d 2d7b 293d
00000090: 3031 66bd 47a5 28bd e500 953d 48c6 363d
000000a0: 07a6 c6bc 5572 773d 8bb6 5b3d 6d0b 22bd
000000b0: d800 d23c af1f 6f3d bccf 153d 9b45 cd3c
000000c0: 4683 25bd f5f1 5fbc 7cba 833d 3872 1f3d
000000d0: 19b2 663d 5c54 82bc 469e 49bd 3615 04bb
000000e0: 876b 2e3d 91f8 cabc 361d 823b 2c07 1b3d
000000f0: 1160 68bd 06db 6b3d 6f0c 9b3c e48f 0abc
00000100: ba58 be3b 7843 1f3d b498 d63c 8473 1dbd
00000110: 7192 bd3b af2c c63b 402a 7c3d 1e26 b439
00000120: 3ac7 93bb 3bb4 753d c704 09bc aa36 b23b
00000130: 5832 5abd 54c2 07bd 2899 40bd c8c4 50bc
00000140: 0189 d7bc 00cb 1fbd 7f26 5f3c fb9f 1dba
00000150: 53e0 523d a832 1ebd f163 9ebb 5a24 ccbc
00000160: 71fc 4ebd 1d03 32bb cd27 82bd 09b4 b0bc
00000170: a2d8 063d e74f 0abd c232 563c 59c9 5d3d
00000180: d74e 893b 0a84 42bd cde8 633c f1cd 07bd
00000190: c0b9 29bd a0a3 ba3d cf56 dc3c f10a 36bd
000001a0: ec53 a13c 1e51 d6bb 2d14 02bd 2d83 acbc
000001b0: f41a 643b 93f6 3d3d d7d4 0c3d 2cad 813d
000001c0: eaaa 753d c808 3abd a4e6 173d 355a 763d
000001d0: 5057 37bc 1a8d 81bc 5558 a03b 6e55 203c
000001e0: 0375 6bbd bc55 5dbc 982d 2e3d e142 813d
000001f0: 3698 113d 1941 243d 0cf8 45bd 5a88 33bd
00000200: ff16 a83d 4003 7c3d c048 203d 425c 0c3d
00000210: f6d9 d43c e5fe 4d3d c420 a83d 9530 e63c
00000220: 81d2 5d3c 5d89 813d 35c8 12bd 33d4 55bd
00000230: a04f 773d b883 46bd cfd7 4b3d 138b b03c
00000240: 2c4c 63bd 0650 913d 3be3 443c 0b2c 383d
00000250: a997 29bc 2902 bd3c 0e82 e4bb f79e e1bc
00000260: c18c b53c 8477 30bd d79a 6a3c 19a7 4dbc
00000270: bf85 4c3d bcdd 243d 0ca6 333d 35dd 0abd
00000280: 90da 283b 14aa 37bd 26b2 943c 2b71 673d
00000290: a852 86bc 3164 28bd a715 a8bc e303 d53b
000002a0: d928 2ebd 189c b33c c6aa 3c3d ca51 f43c
000002b0: 9ad4 d7bb 61e1 85bc 7260 783c 8b29 7e3d
000002c0: 863a 7c3c 6de5 e8bc df35 41bd 4107 333d
000002d0: 1477 5e3d bb47 46bd 1319 a83d 2c58 713d
000002e0: fedb 7c3d 943d 1dbd 2b8f 3fbb c681 50bd
000002f0: 4248 893d 01fd df3b db16 00ba 173b 0bbd
00000300: 60be 6b3d 7884 dc3c a1a5 4fbd 2e28 503c
00000310: 48f0 33bd bffc 793d a4e4 863d d64d 8c3d
00000320: 5ddb 033b af59 cc3c 83b1 1fbd 7050 1e3d
00000330: 4030 e5bb 6b84 943d fb1a f2bc 4c61 4a3c
00000340: cfa4 2f3d ca9c 3bbc d109 f6bc 05bc 30bd
00000350: 1149 8d3d 3a41 0fbb b167 94bc 96c1 3c3d
00000360: 25a3 90bc 3fe7 763d 9cb6 c2bc 609e f4bc
00000370: ba35 793d 1b75 163c 9501 3fbd 1959 18bd
00000380: e1d8 1f3d 8605 a33d 2617 ae3d 12f0 beba
00000390: aaf8 c03c 2532 a3bc e14e 6e3d 6148 513d
000003a0: 4f3c b8bc 6527 d33d 334c 21bb d798 5d3d
000003b0: 4445 613c 3377 a23c 2d14 453d 44fd eb3c
000003c0: bd8f 8cbc cb0f 8bbc 1d1f f7bb c577 e9bc
000003d0: 1827 81bd 71f3 3abd 1460 cd3b e066 ce3c
000003e0: 0da6 71bc 65d7 d33c 645f 653d 3cdf 983d
000003f0: 9fa6 343d e111 8c3d 23f9 cebc 93f2 a03c
-0.008753605 -0.018283712 0.043264776 -0.007791287 0.048431236 0.048535395 -0.028807933 0.024661485
0.029416818 -0.004914935 0.06127543 -0.061644293 0.03670789 -0.044430535 -0.020081993 0.03958478
-0.051636335 -0.0156137 0.038050022 -0.056948334 0.039202355 0.014671918 -0.009084153 -0.0024552287
0.038817476 0.027127601 0.049609646 0.0021624437 0.017757434 -0.02977202 0.06590708 0.029994631
-0.054419085 0.041003283 0.054090142 0.041377235 -0.056199253 -0.041173246 0.07275561 0.04462269
-0.02424909 0.06041177 0.053640883 -0.039561678 0.025635168 0.058379825 0.036575064 0.025057605
-0.040408395 -0.013668527 0.064320534 0.038927287 0.05632219 -0.015909366 -0.049223207 -0.0020154244
0.042583015 -0.024776729 0.0039707674 0.037848637 -0.05673224 0.057581924 0.018926827 -0.008457158
0.005808917 0.038882703 0.026195861 -0.038440242 0.0057852794 0.006047807 0.06156373 0.00034360675
-0.0045098336 0.059986334 -0.008362955 0.0054386454 -0.053270668 -0.03314431 -0.04702106 -0.012742229
-0.026310446 -0.039011955 0.013620018 -0.00060129137 0.051483463 -0.03862253 -0.0048336913 -0.024919678
-0.050533716 -0.00271625 -0.06355248 -0.021570222 0.03292144 -0.033767607 0.013073625 0.0541471
0.0041903066 -0.047489204 0.0139104845 -0.033155385 -0.04143691 0.0911324 0.026896862 -0.04444403
0.019693337 -0.0065404316 -0.031757522 -0.021058643 0.0034806104 0.04637773 0.034382667 0.06331858
0.05997745 -0.04541853 0.03708519 0.060144622 -0.0111902505 -0.015814353 0.0048933425 0.009785993
-0.057484638 -0.01350921 0.04252395 0.06311584 0.03554555 0.040101144 -0.04833226 -0.043831207
0.08207511 0.061526537 0.03913188 0.03426767 0.025982838 0.050291914 0.082093745 0.028099338
0.013538958 0.06325028 -0.035835464 -0.052204322 0.06037867 -0.04846546 0.049766358 0.02155069
-0.055492565 0.070953414 0.012017067 0.044963878 -0.0103511 0.02307232 -0.0069735115 -0.02754162
0.022161843 -0.04308273 0.014319143 -0.012552046 0.049932238 0.040250525 0.043859527 -0.033902366
0.002576504 -0.044839934 0.018151354 0.05650441 -0.016396835 -0.041111175 -0.020518137 0.0065007075
-0.042519424 0.021925017 0.0460613 0.029824156 -0.0065866234 -0.01634282 0.015159713 0.062051337
0.015394812 -0.028429711 -0.047170516 0.04370809 0.05431278 -0.04840825 0.082079075 0.058921978
0.06173324 -0.038388804 -0.0029229622 -0.05090501 0.06703235 0.0068355803 -0.0004886218 -0.0339919
0.057554603 0.026918635 -0.050695065 0.012704892 -0.043930322 0.061032053 0.065865785 0.068507835
0.0020119764 0.024945108 -0.038987648 0.03865093 -0.0069942772 0.07251819 -0.02955388 0.012352299
0.042881783 -0.011450956 -0.030033978 -0.04314806 0.06898702 -0.0021858946 -0.01811585 0.046083055
-0.017655918 0.060279127 -0.023768716 -0.029860675 0.060842253 0.009183194 -0.046632368 -0.037194345
0.03902519 0.07960038 0.08500509 -0.0014567396 0.023556072 -0.019921372 0.058180694 0.051094417
-0.022489695 0.10310248 -0.0024612069 0.054100838 0.013749424 0.01983223 0.048114944 0.02880729
-0.017158384 -0.016975304 -0.007541551 -0.028499493 -0.06306285 -0.04564232 0.006267557 0.025195539
-0.014749062 0.025859544 0.055999175 0.074644536 0.044104215 0.06839348 -0.025265282 0.019646918
