transformer_no_tanh_with_past_12_Nm_144_Np_lr_0.001_hs_128_ahs_8_nll_1_bs_16_do_0.5_e_200_stride_10/model_A25_0.001lr_200e.pth (torch, 831135 bytes, 14 tensors)

lstm_encoder.weight_ih_l0 f4 [512, 8]
0	0x3cc712ca	0.024300952
1	0x3d041c74	0.032253698
2	0x3daa8129	0.083254166
3	0xbc6ac0ec	-0.014328223
4	0x3c1951a8	0.009357847
5	0xbd789fc0	-0.060699224
6	0x3c1f85b2	0.009736465
7	0xbd994358	-0.07483548
8	0xbda76a73	-0.081746005
9	0xbd3b0dca	-0.045667447
10	0x3d813081	0.063080795
11	0x3d5217f7	0.051292386
12	0x3ca71d4a	0.020399708
13	0xbcc4c402	-0.024019245
14	0x3d46aefc	0.04850672
15	0xbd336b4e	-0.043803506
16	0x3c7bd5b3	0.015370774
17	0x3cab59be	0.020916816
18	0x3cf865ee	0.030322041
19	0x3cc0a57b	0.023516407
20	0xbcd61aac	-0.026135765
21	0x3d546475	0.051853616
22	0x3c8336e4	0.016017385
23	0xbc32b08d	-0.010906351
24	0xbd817ae8	-0.06322271
25	0xbc0b0df1	-0.008487211
26	0xbd83784c	-0.06419429
27	0x3d1f49b1	0.038888637
28	0xbda3285c	-0.07966682
29	0x3ca99835	0.02070246
30	0x3d7bd853	0.0614856
31	0x3da50ee7	0.08059483
32	0xbc35536f	-0.011067255
33	0xbd502d99	-0.050824735
34	0x3adbd60a	0.0016772163
35	0x3d84a9b8	0.06477684
36	0xbcf4326d	-0.029809201
37	0xbd7db723	-0.06194223
38	0xbd8ded59	-0.06930036
39	0x3d6949d4	0.056955174
40	0x3d61cb72	0.05512566
41	0x3d22e7c1	0.0397718
42	0x3d3d70c8	0.046250135
43	0x3d4ebc94	0.05047281
44	0x3d5f0753	0.054450344
45	0x3ced49ae	0.028965797
46	0xbbb53d49	-0.0055309874
47	0x3d88ec51	0.06685699
48	0x3c83d4af	0.016092626
49	0x3d0db63e	0.034597628
50	0x3d881d94	0.066462666
51	0xbd35c327	-0.044375565
52	0xbd38557c	-0.0450034
53	0x3cb2e86f	0.021839349
54	0x3d6176ca	0.055044927
55	0x3cf0f209	0.029412286
56	0x3c81fece	0.01586857
57	0x3b781770	0.0037855767
58	0x3d51de77	0.05123755
59	0x3bbdcc59	0.0057921824
60	0x3d240701	0.040045742
61	0xbd835c41	-0.064140804
62	0x3c3219a2	0.010870369
63	0xbd93a093	-0.072083615
64	0xbd6ded62	-0.058087714
65	0x3d469584	0.048482433
66	0x3d702880	0.058632374
67	0x3d8d0b69	0.06886942
68	0xbcec88d6	-0.028873842
69	0x3d91dd23	0.071222566
70	0xbcbcec10	-0.023061782
71	0x3c80aba1	0.015706839
72	0x3c64b928	0.01396016
73	0xba545c6f	-0.0008100932
74	0xbd9cabd7	-0.07649963
75	0x3d9f2383	0.07770445
76	0xbc14a5b0	-0.009072706
77	0x3d942719	0.0723402
78	0xbd5a80f1	-0.053345624
79	0x3d46f948	0.048577577
80	0x3cc78440	0.024355054
81	0x3d59f53f	0.0532124
82	0xbd9badd8	-0.076015174
83	0xbd053215	-0.032518465
84	0xbb8e83bc	-0.0043492
85	0x3d84ee1d	0.06490729
86	0x3d869f21	0.0657332
87	0xbd4e596d	-0.05037825
88	0x3d23817c	0.039918408
89	0x3d15baeb	0.036555212
90	0x3b2fc0cb	0.0026817794
91	0xbda55101	-0.08072091
92	0x3da7079b	0.081557475
93	0x3c00913b	0.007847126
94	0xbd383f24	-0.04498209
95	0x3d637aef	0.05553716
96	0x3c890e7e	0.016730543
97	0x3cf589ef	0.029972998
98	0x3b074f47	0.0020646618
99	0xbd191343	-0.037371885
100	0xbd07ca6f	-0.03315204
101	0xbc8c896c	-0.017155372
102	0xbd2feb2e	-0.042948894
103	0x3c96d4bd	0.018411988
104	0x3d8ac954	0.067766815
105	0xbd2255fd	-0.039632786
106	0x3da03400	0.07822418
107	0xbd165326	-0.03670039
108	0x3d0dd4c3	0.034626734
109	0x3d1d35a5	0.038381238
110	0xbba5be5b	-0.0050580925
111	0xbcad65df	-0.02116674
112	0xbd22a723	-0.039710175
113	0x3d64e564	0.055882826
114	0xbcff2893	-0.031147277
115	0xbcf99e61	-0.030471029
116	0xbd4e4cda	-0.05036626
117	0xbd9be685	-0.076123275
118	0x3cb19bbd	0.021680707
119	0xbd0312bf	-0.0320003
120	0x3da1f1c4	0.07907441
121	0x3c83948c	0.016062044
122	0x3d28b4f6	0.041188203
123	0xbcad5dbc	-0.02116286
124	0xbd4e4e2e	-0.050367527
125	0xbd42b328	-0.047534138
126	0x3d8e61c8	0.06952244
127	0x3d9e7833	0.0773777
128	0xbda77dd5	-0.081782974
129	0xbd2a7795	-0.04161795
130	0x3d46ecda	0.048565723
131	0x3d9fefdb	0.07809421
132	0x3c02ce94	0.007983822
133	0xbd8fcc29	-0.07021362
134	0xbd5330e8	-0.051560313
135	0xbc37ce5e	-0.011218635
136	0xbd049051	-0.032364193
137	0xbcb6e6a2	-0.022326771
138	0x3c0bc115	0.008529921
139	0x3d91bad9	0.071157165
140	0x3d21dc80	0.039516926
141	0xbd89bb2a	-0.06725152
142	0xbcf553ad	-0.029947126
143	0xbd30428f	-0.043032225
144	0x3d1665fe	0.03671836
145	0x3ced1237	0.02893935
146	0xbd9061f1	-0.07049931
147	0xbca184b2	-0.019716594
148	0x3baf66a5	0.0053528124
149	0xbd150244	-0.036379114
150	0xbd619286	-0.055071376
151	0x3c91bbae	0.017789688
152	0xbbaf964a	-0.005358492
153	0x3d1de5ed	0.038549352
154	0x3d19b5c3	0.037526857
155	0xbce9a8d6	-0.02852289
156	0x3c61ab96	0.013773819
157	0x3d2255bd	0.039632548
158	0xbd9823d6	-0.0742871
159	0x3bb4c239	0.005516317
160	0x3cfa6b44	0.030568726
161	0x3bb70c7b	0.0055862046
162	0x3d36710a	0.044541396
163	0x3d6be3c9	0.05759028
164	0xbd2083e5	-0.039188284
165	0xbc84047c	-0.01611542
166	0x3d57dd74	0.05270143
167	0xbd6a5113	-0.057206225
168	0xbca58b4a	-0.02020802
169	0x3ca09c1b	0.019605687
170	0xbd57052e	-0.052495174
171	0xbd0df947	-0.034661558
172	0x3d225929	0.03963581
173	0x3d6be792	0.05759389
174	0x3d04c2cd	0.03241234
175	0x3d4f6a2b	0.05063836
176	0xbd8621ef	-0.06549441
177	0xbd6deaef	-0.05808538
178	0x3da35147	0.07974487
179	0xbc1a308c	-0.009410989
180	0xbd3208d4	-0.04346545
181	0xbd92ec06	-0.07173924
182	0xbd2871e8	-0.041124254
183	0x3d9b92ec	0.075963825
184	0x3d928238	0.071537435
185	0xbd517e74	-0.051145986
186	0xbd269902	-0.040673263
187	0x3d68ba8f	0.05681854
188	0x3d2a3f54	0.0415643
189	0x3cbe7871	0.02325079
190	0xbd006da5	-0.031354565
191	0x3c52b47e	0.0128604155
192	0xbd270a41	-0.040781263
193	0x3d161404	0.036640182
194	0x3da71a00	0.08159256
195	0xbda54309	-0.080694266
196	0xbcf61b38	-0.030042276
197	0xbc8d7851	-0.017269285
198	0x3d90768e	0.070538625
199	0x3da5bcec	0.080926746
200	0xbd9ee067	-0.07757645
201	0x3c26fc28	0.010191955
202	0xbcf6891f	-0.030094681
203	0x3d829e52	0.063778535
204	0xbd6db960	-0.058038116
205	0xbd2cedbb	-0.042218905
206	0x3d1364e1	0.035984877
207	0x3d621e88	0.055204898
208	0xbcef5879	-0.029216992
209	0xbd89cafc	-0.06728169
210	0xbd94cb1d	-0.07265303
211	0xbd8d82b7	-0.069096975
212	0xbd2f299b	-0.042764287
213	0xbd17bddc	-0.0370463
214	0xbc3981e0	-0.0113224685
215	0xbd9fba98	-0.07799262
216	0x3d640b66	0.055674933
217	0xbd8bebb2	-0.06832065
218	0x3d80acfb	0.062829934
219	0x3c5e771a	0.013578201
220	0x3daaea20	0.08345437
221	0xbceeb3c7	-0.029138459
222	0xbd0fe9fa	-0.035135247
223	0x3d273301	0.040820125
224	0xbda38bfa	-0.07985683
225	0xbd57d8b2	-0.05269689
226	0xb9cfbb66	-0.0003962174
227	0xbd8154cb	-0.06315001
228	0x3d9a420d	0.075321294
229	0x3d9621f4	0.07330695
230	0x3d84b1f8	0.06479257
231	0x3d8d8904	0.06910899
232	0x3be80393	0.007080504
233	0x3d476bae	0.048686676
234	0x3da5b1c8	0.0809055
235	0x3d2af381	0.04173613
236	0xba2d656e	-0.00066145405
237	0x3c9b790b	0.018978616
238	0x3d80d2c3	0.062901996
239	0xbcb8367b	-0.022486916
240	0xbd8898cc	-0.06669769
241	0x3d9fd5a5	0.07804421
242	0xbd4f0686	-0.05054333
243	0xbb3e690c	-0.0029054312
244	0x3d847d79	0.064692445
245	0x3c39bfbe	0.011337219
246	0xbd073d49	-0.03301743
247	0xbcff9ac9	-0.031201737
248	0xbbc2ec70	-0.0059485957
249	0xbca76c7c	-0.020437472
250	0xbd32c619	-0.043645952
251	0x3d96036d	0.07324872
252	0x3d167106	0.03672888
253	0x3d9ad6fa	0.07560535
254	0xbacbeaab	-0.0015557607
255	0xbd843f84	-0.06457427

lstm_encoder.weight_hh_l0 f4 [512, 128]
0	0xbd4f24ed	-0.050572325
1	0xbc7b717c	-0.015346881
2	0xbc66df0c	-0.014091264
3	0xbc537153	-0.012905437
4	0xbd3132b9	-0.043261264
5	0xbda18000	-0.07885742
6	0xbd088ae0	-0.033335567
7	0x3cde98b6	0.027172428
8	0xbd697868	-0.056999594
9	0xb850cbdb	-4.978092e-05
10	0x3a38bac6	0.00070468744
11	0x3c590a46	0.013247078
12	0xbc337943	-0.010954204
13	0x3d877801	0.06614686
14	0xbc7e31c2	-0.015514793
15	0x3d3ab81d	0.04558574
16	0xbd97ee3c	-0.074184865
17	0x3d8d525d	0.06900475
18	0x3bdf5a1d	0.0068161623
19	0x3d73d4ec	0.05952923
20	0xbd8e4565	-0.0694683
21	0x3d9ebe6c	0.07751164
22	0xbb923995	-0.0044624307
23	0x3d159b11	0.036524836
24	0x3d705914	0.0586787
25	0x3bfb5851	0.0076704402
26	0x3d8ffe85	0.070309676
27	0x3c8ac9d2	0.016941939
28	0xbd6c3e2c	-0.05767648
29	0x3d815c56	0.0631644
30	0xbd6bbc6a	-0.057552733
31	0x3d7f813d	0.06237911
32	0x3bb5227c	0.0055277925
33	0xbcf52685	-0.029925594
34	0x3d8d1e6f	0.0689057
35	0xbbca93c2	-0.006182165
36	0xbce3d480	-0.027811289
37	0x3d90f26a	0.07077487
38	0x3c5ab11e	0.013347892
39	0x3d1790ea	0.037003435
40	0xbd882e88	-0.066495
41	0x3c7bc20c	0.015366089
42	0x3d93e683	0.07221701
43	0x3d823260	0.063572645
44	0x3c79f0cb	0.015255163
45	0xbd8534ea	-0.06504233
46	0x3d88ad61	0.066736944
47	0xbd47ddd9	-0.048795555
48	0xbd1589d1	-0.036508385
49	0xbd0ecf0a	-0.034865417
50	0xbd52d25b	-0.05147014
51	0xbb8b43e2	-0.0042500356
52	0x3d67f26c	0.056627676
53	0x3c9628eb	0.018330058
54	0xbcb7bbbd	-0.022428388
55	0xbad34125	-0.0016117437
56	0xbc8a1ff2	-0.016860936
57	0xbd629899	-0.05532131
58	0xbd714082	-0.05889941
59	0xbc99f35f	-0.018792806
60	0xbd498a06	-0.049203895
61	0xbd2fd9e9	-0.042932425
62	0x3ce08d6f	0.02741119
63	0xbda1db97	-0.079032116
64	0x3d7180a6	0.05896058
65	0x3d6bb6b1	0.057547275
66	0xbbc06140	-0.005870968
67	0xbd718fd6	-0.058975063
68	0xbd5b7466	-0.053577803
69	0x3c2f7459	0.010708892
70	0xbd30a974	-0.043130353
71	0x3d02e806	0.031959556
72	0xbd11ac45	-0.03556468
73	0x3d8b3bb2	0.06798495
74	0x3d797ede	0.060912006
75	0xbbddd0ce	-0.006769276
76	0xbd34469a	-0.044012643
77	0x3d8ef0bd	0.06979511
78	0xbd38bb48	-0.04510048
79	0x3cfc799a	0.030819703
80	0xbc8e849a	-0.017397214
81	0xbcaae89e	-0.020862874
82	0xbd913b25	-0.07091359
83	0xbdaaa2d3	-0.083318375
84	0xbd9a8d43	-0.07546475
85	0xbce916b1	-0.028453203
86	0x3d867486	0.06565194
87	0x3bb61a89	0.0055573625
88	0xbd09f84a	-0.033684053
89	0x3d46fb47	0.04857948
90	0xbcacb2ad	-0.021081293
91	0x3d180920	0.037118077
92	0x3d683311	0.056689326
93	0x3d88f245	0.06686834
94	0xbd718510	-0.05896479
95	0xbce555e9	-0.027995067
96	0xbccb41b7	-0.024811609
97	0x3d9c6112	0.07635702
98	0xbb17dc7c	-0.002317219
99	0xbda7d2ed	-0.08194528
100	0x3d324cc3	0.043530237
101	0x3c67e4f5	0.014153709
102	0xbd8c007b	-0.06836029
103	0xbc4c8f7d	-0.012485382
104	0xbd4827f1	-0.048866216
105	0x3bad0635	0.005280281
106	0x3d0f42d6	0.03497585
107	0x3bd6ba7b	0.006552992
108	0x3cd20f4d	0.025642062
109	0xba63b9c6	-0.0008687045
110	0xbb0bfbc4	-0.002135978
111	0xbd9f8165	-0.07788352
112	0x3cf06689	0.029345768
113	0x3d5eec28	0.054424435
114	0x3d596870	0.053078115
115	0x3d94c932	0.072649375
116	0x3cbc6927	0.02299936
117	0x3d9a6013	0.07537856
118	0x3d232623	0.039831292
119	0xbd800f83	-0.062529586
120	0x3d63a789	0.055579696
121	0xbd74ade9	-0.059736166
122	0x3d1cb2dd	0.038256515
123	0x3d102a9a	0.035196878
124	0x3d805f52	0.06268181
125	0x3c1f1027	0.009708441
126	0xbd9a36f8	-0.07530016
127	0x3d1241d8	0.035707325
128	0xbbcfd2a3	-0.0063422485
129	0x3d9609e4	0.07326105
130	0x3d1dd50e	0.038533263
131	0x3d62b80a	0.055351295
132	0xbda3454a	-0.079722
133	0x3d1e450d	0.03864007
134	0xbd2cfffc	-0.042236313
135	0xbd7f6193	-0.062348913
136	0xbd8892d7	-0.066686325
137	0x3d25ba10	0.040460646
138	0x3d85c4ac	0.06531653
139	0xbd3d0d04	-0.04615499
140	0xbd5f63a4	-0.054538384
141	0xbd9abd2b	-0.07555612
142	0x3d01887e	0.03162431
143	0x3c3f4faa	0.011676708
144	0x3c786c53	0.015162545
145	0x3ac1d7cd	0.0014789045
146	0xbd1654e3	-0.036702048
147	0x3d8fcfca	0.070220545
148	0xbd98797e	-0.07445048
149	0x3b1feaec	0.00244015
150	0x3c1a25b1	0.0094084
151	0xbcab3a16	-0.020901721
152	0xbda9c39b	-0.08289262
153	0x3cef716c	0.029228888
154	0x3da0163d	0.078167416
155	0x3d78f698	0.060782045
156	0x3d102d99	0.035199735
157	0xbd632dff	-0.055463787
158	0xbca72fa9	-0.020408468
159	0x3d69b61e	0.057058446
160	0x3cc0879b	0.023502162
161	0xbc87376d	-0.016505921
162	0x3d42a83a	0.047523715
163	0xbc589fb7	-0.013221673
164	0x3d98bf70	0.07458389
165	0x3c72fe00	0.014831066
166	0x3d54725f	0.051866885
167	0xbd1ec3c8	-0.03876093
168	0xbc92c319	-0.017915295
169	0xbd3c68ac	-0.04599826
170	0x3d84431d	0.06458113
171	0xbd2a70d4	-0.041611508
172	0xbd49310a	-0.049119033
173	0x3cded1e5	0.027199695
174	0x3bbe73da	0.0058121504
175	0xbc403033	-0.011730242
176	0x3d46c3f1	0.048526708
177	0x3d1d91ab	0.038468998
178	0xbd534a4c	-0.051584527
179	0xbd2954ad	-0.04134052
180	0xbd93fed6	-0.072263405
181	0xbd2ef632	-0.04271526
182	0x3d31121e	0.04323017
183	0xbd408cd2	-0.047009297
184	0xbd558dbb	-0.052137118
185	0xbd92d3a9	-0.07169277
186	0x3d50519f	0.05085909
187	0x3c809b26	0.01569898
188	0xbb4f830f	-0.003166381
189	0x3d50f105	0.051011104
190	0xbc5678e8	-0.01309035
191	0x3d3d1770	0.04616493
192	0x3d146c2c	0.036235973
193	0x3c351ff9	0.011054986
194	0xbd73f69d	-0.05956136
195	0x3d448da2	0.047986634
196	0xbd59bb58	-0.05315718
197	0xbd9eaacb	-0.0774742
198	0xbd6924b7	-0.05691978
199	0x3d5ec98f	0.05439144
200	0x3c8f5c61	0.017500104
201	0x3d7c5118	0.061600775
202	0x3d95ec5b	0.07320472
203	0x3d92ecaa	0.07174046
204	0xbce8a859	-0.028400587
205	0xbd84a3dc	-0.06476566
206	0x3d0cba62	0.034357436
207	0x3d7f48cf	0.062325295
208	0x3d4d98e8	0.05019465
209	0x3d3d1eea	0.04617206
210	0xbd8bdd70	-0.06829345
211	0xbd39d3c3	-0.045367967
212	0xbd984b53	-0.07436242
213	0xbd41d7f9	-0.04732511
214	0xbd6831c7	-0.056688096
215	0xbd5185b1	-0.05115289
216	0xbd805ee5	-0.062681
217	0xbd7737a1	-0.060355786
218	0xbd7ef842	-0.062248476
219	0xbda2e484	-0.07953742
220	0x3cfa58c6	0.030559909
221	0x3d12403d	0.035705794
222	0x3cdcb0c2	0.026939753
223	0xbcee16fe	-0.029063698
224	0xbd161270	-0.036638677
225	0x398034aa	0.000244533
226	0xbd4bee62	-0.049787886
227	0xbd8da147	-0.06915527
228	0x3c36d871	0.011160002
229	0x3d23f43d	0.040027846
230	0xbda7473f	-0.08167886
231	0xbd778ff8	-0.060440034
232	0xbb44931f	-0.0029994918
233	0x3d907384	0.07053283
234	0xbd7f7cce	-0.062374882
235	0xbd918050	-0.07104552
236	0xbd46eeeb	-0.048567694
237	0xbbdf8c6e	-0.0068221604
238	0x3c2d8cd3	0.010592657
239	0x3d9485c8	0.07252079
240	0x3d4b8886	0.049690746
241	0xbc9c89db	-0.019108703
242	0xbd5e4032	-0.05426044
243	0xbd5c17ff	-0.053733822
244	0x3d1874eb	0.037220877
245	0xbd164636	-0.036688052
246	0x3d5e2ee8	0.054243952
247	0x3d6d9512	0.058003493
248	0xbd5c5f43	-0.053801786
249	0xbca1ee37	-0.01976691
250	0xbd966e83	-0.07345297
251	0xbd3950fe	-0.045243256
252	0xbd25498a	-0.040353335
253	0xbd5b1cb2	-0.053494163
254	0xbb8b5091	-0.0042515476
255	0x3d3be793	0.045875143

lstm_encoder.bias_ih_l0 f4 [512]
0	0xbc74b720	-0.0149362385
1	0xbd0743ef	-0.03302377
2	0xbd1b5c76	-0.037929974
3	0x3c0ad625	0.008473908
4	0xbd125e26	-0.03573432
5	0x3ce79b78	0.028272375
6	0x3d873a3f	0.066029064
7	0x3d2ea486	0.04263737
8	0xbdaadba2	-0.08342673
9	0x3cb06dda	0.021536756
10	0xbcd3c9e4	-0.025853105
11	0x3d4b5148	0.049638063
12	0xbcf91f8c	-0.03041055
13	0x3d0f5479	0.03499267
14	0x3da2d7b8	0.07951301
15	0xbb40e8a0	-0.002943553
16	0x3bbb7b49	0.005721484
17	0xbd20f4fd	-0.03929614
18	0xbbb36c45	-0.005475553
19	0xbd95bd56	-0.073115036
20	0xbb39fe2f	-0.0028380265
21	0xbd8a5984	-0.06755355
22	0xbce2031c	-0.027589373
23	0x3c37a611	0.011209027
24	0x3b8dcfc5	0.0043277466
25	0x3d9c3124	0.0762656
26	0x3c535d18	0.012900613
27	0xbd56739c	-0.052356347
28	0x3c639768	0.0138910785
29	0x3d67fa27	0.05663505
30	0x3d0960c8	0.033539563
31	0xbd02f655	-0.0319732
32	0x3cdba10a	0.026810188
33	0x3c89c3bd	0.016816968
34	0xbcc59763	-0.024120038
35	0xbcc87017	-0.024467511
36	0x3d1ff168	0.039048582
37	0x3d2db016	0.042404257
38	0xbd9eb975	-0.07750217
39	0xbcb69f3a	-0.022292722
40	0xbd21daf7	-0.03951546
41	0xbd8650bd	-0.06558368
42	0x3d279332	0.04091186
43	0x3d21ac0e	0.039470725
44	0x3d721d93	0.059110235
45	0x3c56ef7c	0.013118621
46	0xbbc913f0	-0.00613641
47	0x3d92810b	0.07153519
48	0x3d055351	0.03255016
49	0x3d5df486	0.054188274
50	0x3d64985c	0.055809364
51	0x3dabad98	0.0838272
52	0xbd4bacda	-0.04972539
53	0x3c0843ed	0.008316976
54	0xbd779e1c	-0.06045352
55	0xbcee557a	-0.029093493
56	0xbcc61245	-0.024178633
57	0x3cfd4a81	0.030919315
58	0x3da7457e	0.081675515
59	0xbcddc78e	-0.027072694
60	0x3cd8c43d	0.026460761
61	0x3d97a1cb	0.074039064
62	0x3d01893f	0.03162503
63	0x3d74f578	0.05980441
64	0xbda5d97e	-0.08098124
65	0xbda79684	-0.081830055
66	0x3c6520f3	0.0139849065
67	0xbda02bad	-0.078208305
68	0xbb0dd924	-0.0021644318
69	0x3d8992fb	0.067174874
70	0xbb8bfb3c	-0.004271893
71	0xbbc91d5c	-0.006137533
72	0xbcbf8c2e	-0.023382273
73	0xbd4916a1	-0.049093846
74	0x3d62f982	0.05541373
75	0xbd16ef38	-0.03684923
76	0x3d489680	0.048971653
77	0xbc03fe69	-0.008056262
78	0x3cd57a93	0.026059425
79	0xbd8a5457	-0.06754368
80	0xbd0d18f6	-0.034447633
81	0x3cc156d4	0.023600973
82	0xbd276211	-0.040865008
83	0xbd748fb2	-0.05970735
84	0xbd9d1924	-0.07670811
85	0xbd08fa6e	-0.033441953
86	0xbbea8879	-0.007157382
87	0x3c622bdd	0.013804403
88	0xbda62053	-0.08111634
89	0xbce37e91	-0.027770313
90	0xbce7218a	-0.028214235
91	0xbbed564d	-0.007242954
92	0xbd4cb9f2	-0.04998202
93	0xbd2a420f	-0.041566905
94	0xbd9e77da	-0.077377036
95	0x3d88a0d7	0.06671303
96	0xbd0a1e06	-0.03372004
97	0x3da0e9cb	0.078570925
98	0xbc898bbb	-0.016790261
99	0x3cd7c12a	0.026337225
100	0x3d2b90ac	0.041886017
101	0x3d01be9c	0.03167592
102	0xbcdea0e4	-0.027176328
103	0x3d53a52d	0.051671196
104	0x3cd09bb7	0.025464876
105	0xbcbccbe5	-0.023046443
106	0x3d02bb08	0.03191665
107	0xbcb543a6	-0.022126984
108	0xbbd688f0	-0.006547086
109	0xbd0319bc	-0.032006964
110	0xbd3b0527	-0.04565921
111	0xbca52a70	-0.020161837
112	0xbcaf08bf	-0.021366475
113	0xbd7ff221	-0.06248677
114	0x3a88d8eb	0.0010440623
115	0x3c049eff	0.008094548
116	0xbc894193	-0.016754901
117	0x3d1e3fe1	0.03863514
118	0xbd474cec	-0.048657343
119	0xbcf5b0bf	-0.029991506
120	0x3c3facb6	0.011698892
121	0xbd88edd5	-0.06685988
122	0xbc2ea87f	-0.01066029
123	0xbd34d0ef	-0.044144567
124	0xbd8a67f7	-0.06758111
125	0xbce006ed	-0.027347052
126	0x3d510d97	0.05103835
127	0x3d831b69	0.064017124
128	0x3d35e9a2	0.044412263
129	0x3d1753ae	0.036945038
130	0xbc9b064f	-0.018923907
131	0x3cf3ebea	0.029775579
132	0xbd8b85dd	-0.06812642
133	0x3d6523be	0.05594229
134	0x3d37bfa1	0.044860486
135	0x3dad8c07	0.08473974
136	0x3bb7df65	0.0056113475
137	0xbc3df135	-0.011593153
138	0x3b8244ad	0.003975472
139	0x3bff3c94	0.007789204
140	0xbd21fde8	-0.039548784
141	0xbd7c26bf	-0.06156039
142	0x3cd335a1	0.025782408
143	0x3d87da0b	0.06633385
144	0x3d1f725d	0.038927425
145	0xbd809315	-0.06278054
146	0xbd6cfbef	-0.05785745
147	0x3c5d225f	0.013496964
148	0xbc54e816	-0.012994787
149	0xbd988cac	-0.07448706
150	0xbd933aca	-0.071889475
151	0x3d176124	0.036957875
152	0x3d79bdb8	0.060971946
153	0xb9d86677	-0.00041275073
154	0x3d5049ac	0.05085151
155	0x3d50a8f7	0.050942387
156	0xbd55bd4c	-0.05218248
157	0xbcbc65f5	-0.022997836
158	0x3da12a06	0.078693435
159	0xbd4f5945	-0.050622243
160	0xbd59c3b8	-0.053165168
161	0x3d98a57e	0.0745344
162	0xbd539a21	-0.05166066
163	0x3da117ad	0.07865844
164	0xbcf89cf4	-0.030348279
165	0xbcd30aeb	-0.025762042
166	0x3da0f2d5	0.078588165
167	0x3d146d9f	0.036237355
168	0xbc18ce07	-0.0093264645
169	0xba17ecf2	-0.00057955005
170	0x3c9cc072	0.019134734
171	0x3d60bf5b	0.05486999
172	0xbda05124	-0.07827976
173	0xbc7444bc	-0.014908966
174	0x3d5aa034	0.053375438
175	0x3d71f4e6	0.059071444
176	0x3d93e9ea	0.0722235
177	0xbc51e84f	-0.012811734
178	0xba4c8317	-0.00078015163
179	0xbd3427d5	-0.0439833
180	0xbcf3b2a5	-0.02974827
181	0xbb5de2ce	-0.003385711
182	0x3b1690c5	0.0022974473
183	0x3d6c6d4e	0.05772143
184	0xbdaa389f	-0.08311581
185	0xbcd64119	-0.026154088
186	0x3d07ed05	0.033185024
187	0xbb56081e	-0.0032658647
188	0xbd86a845	-0.065750636
189	0x3c208616	0.009797594
190	0xbd465b4f	-0.048426922
191	0xbd0242f8	-0.031802148
192	0x3d4555d4	0.048177555
193	0x3cd9b932	0.026577566
194	0xbd38cc03	-0.045116436
195	0xbca76519	-0.02043395
196	0x3d4e05c9	0.050298486
197	0xbd457400	-0.04820633
198	0xbd985282	-0.07437612
199	0x3ceb0395	0.028688231
200	0x3d580a6f	0.052744325
201	0xbcae2b2a	-0.021260817
202	0x3c643d82	0.01393068
203	0xbd866060	-0.06561351
204	0x3d9c5162	0.0763271
205	0x3da57a76	0.08079998
206	0xbd770f1d	-0.060317148
207	0x3d066851	0.032814328
208	0xbd9ff97e	-0.07811259
209	0xbb565819	-0.003270632
210	0xbbff03bb	-0.007782427
211	0xbd52185f	-0.051292773
212	0x3d9bde6b	0.07610782
213	0x3cc07c2e	0.023496713
214	0xbda89a00	-0.08232498
215	0x3da08838	0.07838482
216	0x3d905c9f	0.07048916
217	0x3c833cb3	0.016020155
218	0xbd6b9f89	-0.05752519
219	0x3d59932b	0.053118866
220	0x3ce26d8d	0.027640129
221	0x3b5bde2e	0.0033549177
222	0xbda04230	-0.07825124
223	0x3c6f6ad5	0.014612873
224	0x3d29ce29	0.041456375
225	0x3c59e58a	0.013299355
226	0xbd6b28b7	-0.057411876
227	0x3c8ded90	0.017325193
228	0xbd4d9afd	-0.050196636
229	0xbd40c49f	-0.047062512
230	0xbd95be55	-0.073116936
231	0xbd1ea392	-0.03873021
232	0x3ce17ba9	0.027524786
233	0x3cb7e283	0.022446876
234	0xb90fce07	-0.00013714294
235	0xbd1fd344	-0.039019838
236	0x3da53426	0.08066587
237	0x3d6c447e	0.057682507
238	0xbd99b089	-0.075043745
239	0x3d788927	0.060677674
240	0x3da24c22	0.079246774
241	0x3da258a8	0.07927066
242	0xbd12cb1d	-0.035838235
243	0xbd76e70e	-0.060278945
244	0x3d8bbd6c	0.06823239
245	0x3c70bfb5	0.014694144
246	0xbda28d0e	-0.0793706
247	0xbd81f4c2	-0.06345512
248	0xbbf34458	-0.0074239187
249	0xbc76520c	-0.01503421
250	0x3d3afb87	0.04565003
251	0xbbb25184	-0.0054418463
252	0xbb727275	-0.0036994491
253	0x3d974e03	0.073879264
254	0xbd6ce2b6	-0.057833396
255	0xbd350a19	-0.044199083

lstm_encoder.bias_hh_l0 f4 [512]
0	0xbd1d465c	-0.038397178
1	0x3af3df35	0.001860595
2	0x3d3023e9	0.043002997
3	0x3cc62323	0.024186676
4	0xbc1fb10c	-0.009746801
5	0x3d85776a	0.06516917
6	0xbc81f854	-0.015865482
7	0x3d2b0065	0.041748423
8	0xbda5f476	-0.08103268
9	0x3ce8d03a	0.028419603
10	0xbd8239d5	-0.06358687
11	0x3c585b55	0.013205369
12	0x3c89e98e	0.016835
13	0x3cdbb969	0.026821809
14	0xbd3f1038	-0.046646327
15	0x3d8ec6cc	0.06971511
16	0x3d8d72b9	0.06906647
17	0xbd9e7b17	-0.07738321
18	0x3b9a75f7	0.0047137695
19	0xbd80ab3b	-0.062826596
20	0x3b9671f3	0.0045912205
21	0xbd5209e4	-0.051278964
22	0xbd673701	-0.05644894
23	0xbcf08890	-0.029361993
24	0xbc4e4363	-0.012589308
25	0x3cd6db60	0.026227653
26	0xbbdb6a74	-0.00669604
27	0x3d8f8aa7	0.07008868
28	0xbb820057	-0.0039673257
29	0x3d87f0b3	0.066377066
30	0xbd7b49c0	-0.06134963
31	0x3da05e54	0.07830492
32	0x3cf82509	0.030291097
33	0xbd480e66	-0.048841856
34	0x3c442a16	0.011972925
35	0xbadfde6c	-0.0017079837
36	0x3cbd7bff	0.023130415
37	0xbd430e63	-0.047621142
38	0xbd709e0a	-0.058744468
39	0x3cc109a8	0.023564175
40	0xbd9ebf10	-0.07751286
41	0xbcf6d337	-0.030130012
42	0x3be6630c	0.0070308503
43	0x3c6ec16e	0.014572484
44	0xbd5572fa	-0.052111603
45	0x3da0938b	0.078406416
46	0xbd60657a	-0.054784276
47	0x3d24df47	0.040251996
48	0xbcc69c80	-0.024244547
49	0x3d3979d8	0.045282215
50	0x3d3698d8	0.044579357
51	0x3ce59f35	0.028030017
52	0xbc4beb73	-0.012446272
53	0x3c91720d	0.017754579
54	0x3ccb377f	0.024806736
55	0x3d2db019	0.042404268
56	0xbda22c42	-0.07918598
57	0x3d753b56	0.05987104
58	0xbbff3826	-0.007788676
59	0xbc80bb4b	-0.015714308
60	0xbd9ab719	-0.07554454
61	0x3c9927f9	0.018695818
62	0x3d868cf7	0.06569856
63	0x3cef9410	0.029245406
64	0xbd407e63	-0.04699553
65	0x3d44076c	0.04785864
66	0x3d499347	0.04921272
67	0xbda51e1c	-0.080623835
68	0x3bc6fd3a	0.0060726674
69	0x3c7e20b2	0.015510725
70	0x3cc2ea17	0.023793263
71	0xbd169ca5	-0.03677048
72	0xbcb7a6fe	-0.022418495
73	0xbd3620f1	-0.04446501
74	0x3d0b7941	0.034051184
75	0xbd64a4b1	-0.055821124
76	0xba47781e	-0.00076091464
77	0x372d246f	1.0320086e-05
78	0x3ccb531c	0.024819903
79	0x3d8685a8	0.06568462
80	0xbd6b294c	-0.05741243
81	0xbd6583d9	-0.056033943
82	0x3d8edaf0	0.06975353
83	0x3d12b64c	0.035818383
84	0xbccb98e1	-0.024853172
85	0xbd287235	-0.04112454
86	0xbd840948	-0.06447083
87	0xbd9c6e5b	-0.07638236
88	0x3d844385	0.06458191
89	0x3c535841	0.012899459
90	0xbda19eb0	-0.07891595
91	0x3c66ba93	0.014082569
92	0xbcd5cdb6	-0.026099067
93	0x3d3b00f4	0.045655206
94	0x3ce5c5c0	0.028048396
95	0xbd13593e	-0.03597378
96	0x3d7f47ce	0.062324338
97	0x3ce0eb70	0.027456015
98	0x3d8d6bc3	0.069053195
99	0xbd7d8b1c	-0.061900243
100	0x3cf49cff	0.029860018
101	0xbd1c9f89	-0.038238082
102	0xbbbb03c1	-0.0057072346
103	0x3d42eccd	0.047589112
104	0x3cb49ac5	0.022046456
105	0xbcb07c4e	-0.021543648
106	0x3d6507c1	0.055915598
107	0xbcc4cfb8	-0.02402483
108	0x3bf38559	0.0074316678
109	0x3d819e7e	0.06329058
110	0x3bb4b89f	0.0055151726
111	0x3d2e9e15	0.042631228
112	0xbd84ca2e	-0.06483875
113	0x3d9461e6	0.07245235
114	0xbd2b5521	-0.041829232
115	0xbd7066a9	-0.058691654
116	0xbd4cd281	-0.05000544
117	0xbd230f5f	-0.03980958
118	0x3d283479	0.041065667
119	0xbd8b0851	-0.067886956
120	0x3d8be294	0.06830326
121	0xbd430396	-0.04761084
122	0xbd5261ad	-0.051362682
123	0xbd97b799	-0.07408065
124	0x3cdfb10f	0.027306108
125	0x3d23572b	0.03987805
126	0xbc2c5a40	-0.010519564
127	0xbc8c09f2	-0.017094586
128	0xbcc9230d	-0.024552846
129	0xbd2e18d8	-0.04250416
130	0xbd5101fb	-0.05102728
131	0xbd85f992	-0.065417424
132	0xb8ccef2e	-9.772029e-05
133	0xbc8c2834	-0.017109014
134	0x3d79e41f	0.06100857
135	0x3ca383fc	0.019960396
136	0x3c0f0faf	0.008731767
137	0x3bc09392	0.0058769668
138	0x3d8e8fd3	0.06961026
139	0xbd0704c4	-0.03296353
140	0xbd512254	-0.05105813
141	0xbc871c46	-0.016492974
142	0xbccb1679	-0.02479099
143	0xbd5f6dfb	-0.054548245
144	0x3cf24bbb	0.029577127
145	0x3d8c3f2d	0.06847987
146	0xbd786a0f	-0.06064802
147	0xbcd22c17	-0.02565579
148	0x3ceab2bf	0.028649686
149	0x3d33dbdd	0.04391085
150	0x3cd0232c	0.025407396
151	0x3d520e08	0.051282912
152	0xbd874100	-0.06604195
153	0xbce23a68	-0.02761574
154	0xbbbc45fd	-0.005745648
155	0xbd78e46c	-0.060764715
156	0x3d2b0694	0.04175432
157	0xbd53205b	-0.05154453
158	0xbd33daa5	-0.043909688
159	0x3c3d3488	0.011548169
160	0xbd50f573	-0.05101533
161	0x3b1b041f	0.002365358
162	0x3d853753	0.06504693
163	0x3d859297	0.065221004
164	0xbd83f6b5	-0.0644354
165	0x3d3a620e	0.04550367
166	0xbd8be8f3	-0.06831541
167	0x3d9fff32	0.078123465
168	0xbc7e1335	-0.015507509
169	0xbd4eacc3	-0.050457727
170	0x3c9b6a18	0.018971488
171	0x3bddb4dc	0.006765945
172	0x3d315c69	0.04330102
173	0x3da0b022	0.07846095
174	0xbceb060a	-0.028689403
175	0x3d15bbfc	0.03655623
176	0x3cfc7b89	0.030820625
177	0xbd59aa86	-0.05314114
178	0xbca6aaac	-0.020345055
179	0xbd23877e	-0.039924137
180	0xbcdd461b	-0.027010968
181	0xbd7f23d8	-0.062290043
182	0xbc434810	-0.0119190365
183	0xbd72486b	-0.059151094
184	0xbc4c85ba	-0.012483055
185	0x3cb98def	0.022650687
186	0x3d4dc7dd	0.050239433
187	0x3d56af19	0.05241308
188	0xbcbb76d0	-0.022883803
189	0x3d5c83f2	0.05383677
190	0xbd92caf3	-0.07167616
191	0x3da65f71	0.08123673
192	0xbd4db69a	-0.05022297
193	0x3be8149b	0.0070825345
194	0xbbf95b73	-0.0076097785
195	0x3d203f61	0.039122943
196	0x3d9b65f5	0.07587806
197	0x3d79196f	0.06081527
198	0x3daf5215	0.08560578
199	0xbcc28779	-0.023746239
200	0xbbfdd19f	-0.007745936
201	0x3d81a464	0.06330183
202	0xbd6f9ec8	-0.058501035
203	0x3cc1cd18	0.023657367
204	0xbcd07686	-0.025447141
205	0xbd040f95	-0.032241423
206	0x3d1ef62e	0.038808994
207	0x3d116670	0.035498083
208	0xbc4eb0ed	-0.012615425
209	0x3d61125e	0.054949157
210	0x3d060ada	0.032725193
211	0x3d63b28b	0.055590194
212	0xbbcbd116	-0.0062199933
213	0xbd22ef1c	-0.039778814
214	0x3d4aa069	0.049469385
215	0xbda51ba0	-0.0806191
216	0xbd48740c	-0.048938796
217	0xbd2dfb47	-0.042475965
218	0xbbabe265	-0.005245494
219	0xbcc4ce47	-0.024024142
220	0x3d2b587a	0.041832425
221	0x3c540bd5	0.012942274
222	0x3da710f7	0.08157533
223	0x3cc45eb6	0.023970943
224	0x3d255725	0.04036631
225	0xbca16fa7	-0.01970656
226	0xbca4ab34	-0.020101167
227	0x3d432bc3	0.047649156
228	0x3cf0f65f	0.029414354
229	0x3d07d230	0.033159435
230	0xbb140c77	-0.0022590437
231	0x3d4a1b21	0.04934228
232	0x3cdd5eb6	0.0270227
233	0xbd84b19b	-0.06479188
234	0x3d97405b	0.07385322
235	0x3a48ad89	0.0007655253
236	0xbb749a2a	-0.0037323334
237	0x3c94773b	0.01812326
238	0xbc513d90	-0.012771025
239	0xbd0da3dd	-0.0345801
240	0x3d89bc7b	0.06725403
241	0x3d011a84	0.031519428
242	0xbcd31fcb	-0.025771996
243	0xbd138390	-0.03601414
244	0x3d9f32e3	0.07773378
245	0xbd90de8e	-0.07073699
246	0xbd3132ac	-0.043261215
247	0xbcbd009c	-0.02307158
248	0xbd07555d	-0.033040393
249	0xbd5252e5	-0.051348586
250	0x3d5ae1d5	0.053438026
251	0xbcf4ed03	-0.029898172
252	0x3d940bee	0.07228838
253	0x3c164a3c	0.009172972
254	0xbd658138	-0.056031436
255	0x3cd6ee2f	0.026236622

lstm_decoder.weight_ih_l0 f4 [512, 6]
0	0xbc6f2182	-0.014595391
1	0xbce0370b	-0.027369997
2	0x3d50401f	0.0508424
3	0xbd8f5e1e	-0.07000373
4	0xbc68ad77	-0.0142015135
5	0x3d7805ba	0.060552336
6	0xbc388a12	-0.011263387
7	0x3d0be5f9	0.034154866
8	0xbd81d1ea	-0.06338866
9	0x3cb4a075	0.022049168
10	0x3d715a31	0.058923904
11	0x3d9ceda4	0.07662514
12	0xbce476a3	-0.027888602
13	0xbd7b9a1e	-0.061426274
14	0x3bd9f6d5	0.006651739
15	0xbd952e4e	-0.072842225
16	0xbda29602	-0.07938768
17	0xbd7cb7d5	-0.061698753
18	0xbd7d975a	-0.06191192
19	0x3d8589c6	0.06520419
20	0xbcf0a1d0	-0.029374033
21	0xbd0f632a	-0.03500668
22	0x3c4b1640	0.0123954415
23	0xbc79dc8d	-0.015250337
24	0xbc08d17a	-0.008350724
25	0x3d308523	0.04309572
26	0xbd60754f	-0.054799374
27	0xbdac5ad7	-0.08415764
28	0xbcd527f6	-0.026020031
29	0x3cb68c04	0.022283562
30	0xbd08b837	-0.033378806
31	0x3d78e5c1	0.060765985
32	0xbc3b6249	-0.011437007
33	0x3d8461f2	0.06463994
34	0x3ca3774f	0.019954352
35	0xbab71a21	-0.0013969579
36	0xbce06de9	-0.02739616
37	0xbd87b7c9	-0.06626851
38	0xbc9d787d	-0.019222492
39	0xba4d2dc4	-0.0007826949
40	0xbaa26209	-0.0012388836
41	0x3da1fd67	0.07909661
42	0x3ddba2cf	0.10724413
43	0x3db62218	0.088932216
44	0x3d0c4e14	0.03425415
45	0xbad1ec51	-0.0016015862
46	0x3b515b73	0.0031945377
47	0xbd25619a	-0.040376283
48	0x3c622e36	0.013804963
49	0x3da30a31	0.07960928
50	0x3c60c895	0.0137196975
51	0xbb38d68f	-0.0028204059
52	0xbd7cfcd4	-0.061764553
53	0x3d3a0265	0.04541244
54	0xbd7840f7	-0.06060883
55	0xbcc54b37	-0.024083717
56	0x3c47c1cb	0.0121922
57	0xbd8cdee5	-0.06878451
58	0xbd00e181	-0.031465057
59	0x3c0148bf	0.007890879
60	0xbd54f088	-0.0519872
61	0x3d05dd0a	0.032681502
62	0x3d80e804	0.062942535
63	0xbce9cece	-0.028540995
64	0xbd9e8905	-0.07740978
65	0x3c133700	0.008985281
66	0xbd006de5	-0.031354804
67	0x3d257fff	0.04040527
68	0xbd5a0551	-0.053227726
69	0xba307f24	-0.00067328126
70	0x3c77946b	0.015111069
71	0xbd81806b	-0.06323322
72	0xbcd8b4c7	-0.026453389
73	0x3d79de1d	0.06100284
74	0x3baae371	0.0052151014
75	0xbcaa0c4d	-0.020757819
76	0x3b9f77c3	0.0048665716
77	0xbdbc590f	-0.09196674
78	0x3d1d46ca	0.038397588
79	0x3b871915	0.004122863
80	0xbd818d9f	-0.0632584
81	0x3cf64d27	0.030066086
82	0x3d3662b3	0.04452772
83	0xba2ae83a	-0.000651959
84	0xbd032040	-0.032013178
85	0xbd590e1a	-0.052991964
86	0x3d2aee40	0.04173112
87	0xbdacd846	-0.084396884
88	0x3ca63bd5	0.020292202
89	0xbbf44ffb	-0.0074558235
90	0xbd3f47d2	-0.046699353
91	0xbd30f3d2	-0.043201275
92	0x3ce1aa67	0.027547074
93	0x3d6efed0	0.058348477
94	0xbd83996c	-0.06425747
95	0xbd888305	-0.06665615
96	0x3a58c612	0.0008269261
97	0x3d6eee5b	0.058332782
98	0x3c2c32da	0.010510171
99	0xbd1bf0a7	-0.0380713
100	0x3c868d1e	0.016424712
101	0xbc3e0551	-0.011597947
102	0x3d850cba	0.06496568
103	0x3da005f0	0.078136325
104	0xbbdfbb0f	-0.006827719
105	0xbd563a03	-0.052301418
106	0xbd1a6472	-0.03769345
107	0x3cf6f6af	0.030146925
108	0xbd87a465	-0.06623153
109	0xbca46c1a	-0.020071078
110	0xbd8d3941	-0.06895686
111	0x3cce0d37	0.025152786
112	0x3ce6aee6	0.02815957
113	0xbd83b8f5	-0.06431762
114	0x3cb95d5f	0.02262753
115	0x3d77af7a	0.060470082
116	0x3c8d8910	0.01727727
117	0xbd9b8402	-0.07593538
118	0xbd1adb5d	-0.037806857
119	0xbd631122	-0.05543626
120	0x3d834910	0.0641042
121	0xbd7e95b9	-0.062154505
122	0x3d24219c	0.040071115
123	0xbc88d997	-0.016705317
124	0x3da10ae1	0.07863403
125	0xbd977316	-0.07394998
126	0xbc747732	-0.0149209965
127	0x3d12ad94	0.03581007
128	0xbd217a7d	-0.039423455
129	0xbd494794	-0.049140528
130	0x3d9cef45	0.076628245
131	0xbd873dc8	-0.06603581
132	0xbc8429d3	-0.016133225
133	0x3d955229	0.072910614
134	0x3d911e91	0.07085908
135	0x3bc0d03f	0.0058842
136	0xbd386936	-0.045022212
137	0x3d4d7a00	0.050165176
138	0xbd36030a	-0.044436492
139	0xbd2eaeeb	-0.042647284
140	0xbd8f8155	-0.0700709
141	0x3dad26c7	0.08454662
142	0x3d8b0fb7	0.06790107
143	0x3cab224d	0.02089038
144	0x3d461688	0.04836133
145	0xbcf0d0d4	-0.029396452
146	0xbce2c8a3	-0.027683562
147	0xbd312668	-0.043249518
148	0x3c8e980d	0.017406488
149	0x3daabae0	0.08336425
150	0xbd50ebb9	-0.051006053
151	0xbd57b916	-0.052666746
152	0x3d3ca875	0.04605909
153	0xbda688b5	-0.081315435
154	0x3d056590	0.03256756
155	0x3cbf9999	0.02338867
156	0x3ced5900	0.028973103
157	0xbd1499a2	-0.03627933
158	0x3da3b779	0.07993979
159	0xbcaa8d53	-0.020819342
160	0x3d0d5367	0.034503367
161	0xbc19caf4	-0.009386767
162	0x3ccf1c17	0.025281949
163	0x3da0ed2b	0.07857736
164	0xbdc10e60	-0.0942657
165	0x3d9dbf59	0.07702512
166	0xbcad57a0	-0.021159947
167	0xbc186436	-0.009301236
168	0x3cf4ec3a	0.029897798
169	0x3d26b975	0.04070421
170	0xbd06774d	-0.032828618
171	0x3c823ff5	0.015899638
172	0xbd395b25	-0.045252938
173	0x3c2a17be	0.010381637
174	0x3d008443	0.031376135
175	0x3d856402	0.065132156
176	0x3cd05674	0.025431849
177	0xbd407d92	-0.046994753
178	0xb98f224f	-0.00027300647
179	0x3cbfc47a	0.023409117
180	0xbc5ee7b3	-0.013605046
181	0xbd934d9e	-0.07192539
182	0xbd31b973	-0.04338975
183	0xbb6531bf	-0.0034972278
184	0xbb7aee0b	-0.0038288857
185	0xbb823878	-0.0039740168
186	0xbbf12b5a	-0.0073599042
187	0x3d71ed9b	0.05906449
188	0x3c4ad775	0.0123804705
189	0xbd2f0b8b	-0.042735618
190	0xbd6e4c5e	-0.0581783
191	0xbd0ef929	-0.034905586
192	0xbd10e2cb	-0.035372537
193	0xbd39cea3	-0.04536308
194	0x3d84de37	0.064876966
195	0x3cab7c31	0.020933243
196	0xbcb83985	-0.022488365
197	0x3d3c0f96	0.0459133
198	0x3db8be69	0.09020693
199	0xbd110fc8	-0.03541544
200	0x3c632245	0.013863151
201	0xbd3800dd	-0.0449227
202	0xbd772311	-0.060336176
203	0xbd55de07	-0.052213695
204	0x3d7c0ee1	0.061537627
205	0xbd276ad9	-0.040873382
206	0xbcb16955	-0.021656672
207	0xbcbfbbaa	-0.023404915
208	0x3d85b9ac	0.06529555
209	0xbd1b2510	-0.037877142
210	0x3d93f67b	0.07224747
211	0x3db88321	0.09009386
212	0x3dc02294	0.09381595
213	0xbd994640	-0.07484102
214	0xbcc71cbe	-0.024305698
215	0xbda7e23b	-0.08197447
216	0xbd2e8f71	-0.042617265
217	0x3cbb0211	0.022828134
218	0x3d1245e2	0.035711177
219	0xbd8dc2e6	-0.069219396
220	0xbda27852	-0.079331055
221	0xbcbf581e	-0.023357447
222	0x3c908bf2	0.017644856
223	0x3d632c7b	0.05546234
224	0xbd1ff525	-0.039052147
225	0xbd6d1e26	-0.05789008
226	0x3d62a437	0.05533239
227	0x3d0ff0ef	0.03514188
228	0xbce47cc6	-0.027891528
229	0xbd3582d5	-0.044314224
230	0x3d39bfce	0.045348935
231	0x3d489fe9	0.048980627
232	0x3d57d159	0.052689884
233	0x3caab83e	0.020839807
234	0x3d25faca	0.040522374
235	0xbd1119c4	-0.035424963
236	0x3da495b5	0.08036367
237	0x3b843280	0.0040343404
238	0xbcccc47d	-0.024996037
239	0xbd74d085	-0.059769172
240	0x3d7a7faf	0.061156925
241	0xbd768b82	-0.06019164
242	0xbcda6072	-0.026657317
243	0x3d32e586	0.04367592
244	0x3b80ab75	0.0039266893
245	0x3d0fe042	0.03512598
246	0xba973145	-0.0011535069
247	0xbd4ee3a4	-0.050510064
248	0xbd3ed925	-0.046593804
249	0xbd5da1af	-0.05410927
250	0xb88e2866	-6.7786124e-05
251	0x3d3c46c5	0.04596593
252	0xbd945095	-0.07241932
253	0x3d940583	0.07227614
254	0xbc426e4f	-0.01186712
255	0xbc96d8e8	-0.018413976

lstm_decoder.weight_hh_l0 f4 [512, 128]
0	0x3d87e0b5	0.06634656
1	0xbd1a8ead	-0.037733722
2	0xbc5d1473	-0.013493645
3	0xbd85de00	-0.06536484
4	0xbd0e4a55	-0.034738857
5	0x3b699323	0.0035640679
6	0x3d24d0a5	0.04023804
7	0x3d7e8113	0.062134814
8	0x3d62ca58	0.05536875
9	0x3cd078fd	0.025448317
10	0xbcc0b387	-0.023523105
11	0x3d03d2aa	0.032183327
12	0x3d157baa	0.03649489
13	0xbd8413e7	-0.064491086
14	0x3c2e43dc	0.010636296
15	0xbca505d0	-0.020144373
16	0xbc150291	-0.00909485
17	0xbd07133d	-0.03297733
18	0x3d93a9ac	0.07210097
19	0xbcead543	-0.028666144
20	0xbd678baa	-0.05652968
21	0xbd7ca533	-0.061680984
22	0xbd3cf78c	-0.046134517
23	0x3c689ccd	0.0141975405
24	0xbd46b19d	-0.04850923
25	0x3d83017c	0.063967675
26	0x3d180096	0.037109934
27	0x3cf8d5f5	0.03037546
28	0xbcf6fdd2	-0.030150328
29	0xbbf61046	-0.007509264
30	0xbcf5476c	-0.029941283
31	0x3d5b8c2f	0.053600486
32	0x3c372ffd	0.011180875
33	0x3d3631d6	0.04448112
34	0x3ce4ef4f	0.027946142
35	0xbc27a3fa	-0.010231966
36	0xbdac9b82	-0.08428098
37	0x3cf2e184	0.02964855
38	0xbd618e16	-0.055067144
39	0x3d26026b	0.04052965
40	0x3d51b230	0.051195323
41	0x3d9f0be6	0.07765941
42	0xbd90e160	-0.07074237
43	0x3d8f09e9	0.06984312
44	0x3d0fa4c2	0.035069235
45	0xbd072e01	-0.033002857
46	0xbc7bb372	-0.015362607
47	0x3c828d99	0.01593666
48	0xbd9565d1	-0.072948106
49	0x3d099f95	0.033599455
50	0xbd494453	-0.049137425
51	0xb98e5a80	-0.00027151778
52	0xbbc544ff	-0.006020188
53	0xbd7a2cdc	-0.061077937
54	0x3d41722b	0.04722802
55	0xbcc4e749	-0.024036067
56	0xbda2dd1d	-0.0795233
57	0x3b9d05d2	0.0047919536
58	0xbd282b3c	-0.041056857
59	0x3d11f696	0.035635553
60	0x3d83d2e5	0.06436709
61	0xbcd88ce5	-0.026434371
62	0x3be2c067	0.006919909
63	0xbd2722a1	-0.04080451
64	0x3d2b4f4a	0.041823663
65	0x3d1df996	0.0385681
66	0xbce2b92e	-0.027676191
67	0xbd36c102	-0.04461766
68	0xbd18e3af	-0.03732651
69	0xbcb9b763	-0.022670453
70	0xbca46a7b	-0.020070305
71	0x3d328e32	0.04359264
72	0x3d765723	0.060141694
73	0xbd9e60d3	-0.077333115
74	0xbd8997f8	-0.06718439
75	0x3d4c5526	0.04988589
76	0x3d508ad4	0.050913647
77	0xbd84cb30	-0.064840674
78	0x3d0c1f14	0.034209326
79	0x3cb98fa5	0.022651503
80	0x3c71ffeb	0.014770488
81	0xbc81fe91	-0.015868457
82	0x3d3041d6	0.043031536
83	0xbdadfa37	-0.0849499
84	0x3d92f7bc	0.07176158
85	0xbd90d9ac	-0.070727676
86	0xbcdac930	-0.026707262
87	0x3d15faa4	0.036615983
88	0xbc831f23	-0.016006058
89	0xbd939d97	-0.07207792
90	0xbc95d94f	-0.018292097
91	0x3bc55712	0.0060223425
92	0xbd8d0702	-0.06886102
93	0x3d90c46a	0.07068713
94	0xbb26d50e	-0.002545658
95	0x3d8d0076	0.068848535
96	0xbd978dd5	-0.07400099
97	0x3d99bea8	0.07507068
98	0x3d29f175	0.041490037
99	0x3d6fd5bd	0.058553446
100	0x3d7e6954	0.062112167
101	0xbda59a12	-0.08086027
102	0x3cc7b04f	0.024376063
103	0xbc3982ad	-0.011322659
104	0xbd5c57b7	-0.05379459
105	0xbce39962	-0.0277831
106	0x3ab580ff	0.0013847648
107	0xbcca7d5d	-0.024717981
108	0x3d813ea6	0.06310777
109	0x3d94ed3c	0.07271811
110	0xbda11ce6	-0.0786684
111	0x3d3bbad5	0.045832474
112	0x3b032129	0.0020008779
113	0x3d82ec6e	0.06392752
114	0x3d504a7f	0.050852295
115	0xbc1cd979	-0.009573334
116	0x3da8f338	0.08249515
117	0x3bed5176	0.007242377
118	0x3d770f3c	0.060317263
119	0xbd9f4209	-0.07776267
120	0xbca19721	-0.019725384
121	0xbd893583	-0.0669966
122	0x3d41c375	0.047305543
123	0x3c77f63b	0.0151343895
124	0xbd55c5ac	-0.052190468
125	0xbd53afc5	-0.0516813
126	0xbd90f68e	-0.070782766
127	0xbc86a602	-0.01643658
128	0x3cf1b117	0.029503388
129	0x3da65d9f	0.081233256
130	0x3cefb270	0.02925989
131	0x3d6566de	0.056006305
132	0x3da6f7dc	0.08152744
133	0xbda95225	-0.08267621
134	0x3cba8ef8	0.022773251
135	0xbcf16e4c	-0.029471539
136	0xbdaaed6b	-0.08346065
137	0xbd88061f	-0.066417925
138	0xbd980720	-0.07423234
139	0x3d5f39d2	0.0544985
140	0xbd880308	-0.06641203
141	0x3d1bf541	0.03807569
142	0x3d74e356	0.059787117
143	0x3b1ce754	0.0023941593
144	0x3d5f0b05	0.05445387
145	0x3c3acebf	0.011401831
146	0x3d0416f7	0.032248463
147	0x3d987f5d	0.074461676
148	0xbd24b382	-0.040210254
149	0x3c0ff1de	0.008785693
150	0xbc48570e	-0.012227787
151	0x3d356853	0.044288944
152	0xbd34b374	-0.044116452
153	0x3d898d5f	0.067164175
154	0x3d8b6213	0.068058155
155	0xbd368428	-0.044559628
156	0x3af3e562	0.001860779
157	0x3d92fb19	0.07176799
158	0x3d43b01f	0.047775384
159	0xbd19c29a	-0.037539102
160	0xbd48d03c	-0.049026713
161	0x3d92dea6	0.07171373
162	0x3da644b4	0.08118573
163	0xbd0e3cb8	-0.034725875
164	0x3c35c567	0.011094428
165	0xbd1e4eac	-0.038649246
166	0x3d039271	0.03212208
167	0xbd2ffdaa	-0.042966522
168	0xbd4c1441	-0.049824003
169	0x3d8e799b	0.06956788
170	0x3c2f1f8d	0.010688675
171	0x3ca2cf04	0.019874103
172	0xbc17ccc4	-0.0092651285
173	0xbc84e260	-0.016221225
174	0x3ce107b9	0.027469503
175	0xbc231a03	-0.009954932
176	0x3da7c66c	0.08192143
177	0x3c926497	0.01787023
178	0x3d537702	0.051627167
179	0x3d5511dd	0.05201899
180	0xbc26a05e	-0.01017007
181	0xbd3f1965	-0.046655077
182	0x3cf8d7ca	0.030376334
183	0x3d7cc9e9	0.061715994
184	0xbdaab3a6	-0.083350465
185	0xbd2fd1ad	-0.04292457
186	0x3d8b253b	0.067942105
187	0xbd562d7b	-0.052289467
188	0x3ce01ab6	0.027356487
189	0xbbf86c93	-0.0075813024
190	0x3c360c14	0.011111278
191	0xbcc77e38	-0.024352178
192	0xbd4a7500	-0.049427986
193	0xbda0500b	-0.07827767
194	0x3d04a72a	0.032385983
195	0xbd832f04	-0.06405452
196	0xbd3693ce	-0.04457455
197	0xbc1f02d0	-0.00970526
198	0x3b04a5e8	0.002024049
199	0xbd0384b4	-0.032108977
200	0xbc0404bc	-0.008057769
201	0x3c5c2e81	0.013438822
202	0xbd1732f8	-0.036913842
203	0x3d374a67	0.04474869
204	0xbd523687	-0.051321533
205	0x3dac05b7	0.083995275
206	0xbd4d0a8a	-0.05005888
207	0xbda77081	-0.08175755
208	0xbb6290cd	-0.0034571171
209	0xbcc6f351	-0.024285944
210	0x3d54a9e4	0.051919833
211	0xbd1b81a2	-0.037965424
212	0xbb247efe	-0.0025100107
213	0x3c59e3ea	0.013298968
214	0x3ca893df	0.020578323
215	0xbd9f78f1	-0.077867396
216	0xbcf0bb41	-0.029386165
217	0xbd59317a	-0.0530257
218	0xbda17a17	-0.07884615
219	0x3d85a23c	0.065250844
220	0xbd7b1ad5	-0.061304886
221	0x3c79ed5e	0.015254347
222	0x3cd571ee	0.026055302
223	0xbd134898	-0.035957903
224	0x3ca62cfa	0.020285118
225	0x3d93ea7b	0.07222458
226	0xbd12346e	-0.035694532
227	0xbd1a8d7a	-0.03773258
228	0xbd31b1d2	-0.043382473
229	0xbd3cad6e	-0.046063833
230	0xbd1ee3d6	-0.0387915
231	0x3ac35f18	0.001490566
232	0xbd985c4b	-0.074394785
233	0xbd9450cf	-0.072419755
234	0x3d8181f7	0.06323617
235	0x3d426989	0.047463927
236	0x3d0b98b1	0.034081165
237	0x3d2798b5	0.040917117
238	0x3d9dd75b	0.077070914
239	0x3d16239e	0.03665506
240	0x3da743a3	0.081671976
241	0xbd4f01c7	-0.050538804
242	0x3d97bf2c	0.0740951
243	0x3d750aa6	0.05982461
244	0x3c30ddcb	0.010795067
245	0xbc7c450f	-0.015397324
246	0xbc9b1f42	-0.018935803
247	0xbbf91012	-0.0076007927
248	0xbb873d0c	-0.0041271504
249	0xbda6403e	-0.08117722
250	0xbc264308	-0.010147817
251	0x3da76855	0.08174197
252	0xbd8ed312	-0.06973852
253	0xbccf482b	-0.025302967
254	0x3d32be98	0.043638796
255	0x3ce38628	0.027773932

lstm_decoder.bias_ih_l0 f4 [512]
0	0xbd8cb71c	-0.06870863
1	0x3d000d0b	0.03126244
2	0xbd9c8a1c	-0.0764353
3	0xbc90d515	-0.01767973
4	0x3d193766	0.037406348
5	0x3d8bbd2a	0.068231896
6	0xbd73f1d8	-0.059556812
7	0xbd7912d5	-0.060808975
8	0xbbf49a09	-0.0074646515
9	0x3db54ede	0.08852933
10	0xba452fd9	-0.00075220835
11	0xbc8177bd	-0.015804166
12	0xbc008fef	-0.007846816
13	0x3d935b7b	0.07195183
14	0xbda1960d	-0.07889948
15	0xbcb69ecf	-0.022292523
16	0x3d5f54d3	0.054524254
17	0xbcf95db8	-0.030440196
18	0x3d1c7509	0.03819755
19	0xbc8ec0d5	-0.017425934
20	0x3d64b2b3	0.055834483
21	0x3c9433b6	0.018091064
22	0x3d17588d	0.036949683
23	0x3c4c4831	0.012468384
24	0xbd8ed282	-0.06973745
25	0xbd027baf	-0.031856235
26	0xbd8c24b4	-0.06842938
27	0xbb486138	-0.0030575525
28	0xbcb89d06	-0.022535812
29	0x3dab5ba8	0.083670914
30	0xbc462617	-0.012094042
31	0xbcf4cc94	-0.029882707
32	0x3c900d81	0.017584564
33	0xbbc31e0b	-0.005954509
34	0xbcea66d8	-0.028613493
35	0x3d9009ff	0.070331566
36	0x3c456bce	0.012049628
37	0x3c68012c	0.014160436
38	0x3c09c6d5	0.008409222
39	0x3cf86e30	0.030325979
40	0x3c830ff7	0.015998824
41	0xbd5fc0a1	-0.054627065
42	0xbd370391	-0.044681136
43	0xbc6cd0a8	-0.014454044
44	0x3da76952	0.08174385
45	0xbd7b68ac	-0.06137912
46	0xbd183cfe	-0.03716754
47	0xbd31939d	-0.043353666
48	0x3bf14a56	0.007363598
49	0xbd57a35c	-0.052646026
50	0xbcf4fe49	-0.029906409
51	0x3d34031b	0.043948274
52	0xbc8ef3a2	-0.017450158
53	0xbd059ea6	-0.032622002
54	0x3ced73d3	0.028985893
55	0xbd7b344c	-0.06132917
56	0xbd87219d	-0.06598208
57	0xbce20842	-0.027591828
58	0x3c7de0b4	0.015495468
59	0x3ca82c33	0.020528888
60	0x3d973983	0.07384016
61	0x3d7f5b62	0.06234301
62	0x3d9fbefc	0.07800099
63	0x3d9fa8fc	0.07795903
64	0x3c41f830	0.011838958
65	0xbd5577f9	-0.052116368
66	0xbd644f76	-0.055739842
67	0xbd7d556a	-0.061849035
68	0xbd6dbd56	-0.058041893
69	0xbd889ad6	-0.066701576
70	0xbd50d1f0	-0.050981462
71	0xbca849fb	-0.02054309
72	0x3ac62484	0.0015117084
73	0xbccaf89a	-0.024776746
74	0xbc32d756	-0.010915598
75	0x3da97eb9	0.082761236
76	0xbcf31118	-0.029671237
77	0x3da86c16	0.08223741
78	0x3c0a20cf	0.008430674
79	0xbc866f79	-0.016410576
80	0x3cc749bf	0.024327157
81	0x3d81447e	0.06311892
82	0xbd8934be	-0.06699513
83	0xbcf8a9ad	-0.030354345
84	0x3d909f84	0.07061675
85	0x3d90f1e7	0.07077389
86	0x3d9b308d	0.0757762
87	0x3d808e9c	0.062772006
88	0xbd9c5ebf	-0.07635259
89	0xbc9daf18	-0.01924853
90	0xbd897097	-0.06710928
91	0x3d48d051	0.04902679
92	0x3ba047b8	0.004891362
93	0x3c96deec	0.018416844
94	0x3d886675	0.06660167
95	0xbd20876e	-0.039191656
96	0xbca40ee3	-0.02002663
97	0x3d4bca64	0.04975356
98	0xbcf6e4fe	-0.030138489
99	0x3b16ba85	0.0022999358
100	0x3d0b24fe	0.033970825
101	0xbd6883d2	-0.05676634
102	0x3c9d7ea9	0.019225435
103	0x3bc7b27e	0.006094276
104	0x3d220a93	0.039560866
105	0xbd80620a	-0.062686995
106	0x3d42e7ee	0.047584467
107	0xbc80d238	-0.01572524
108	0x3d59cc27	0.05317321
109	0x3d92cc12	0.071678296
110	0x3d835e90	0.06414521
111	0xbd9b55eb	-0.07584747
112	0xbd439feb	-0.04775993
113	0xbd8bee14	-0.06832519
114	0x3db37f2c	0.087644905
115	0x3db01dda	0.08599444
116	0xbd7b7e68	-0.061399847
117	0xbc82f7a7	-0.01598723
118	0xbbb8037f	-0.005615651
119	0xbd47fce8	-0.048825175
120	0xbc13c070	-0.009018049
121	0x3d168a36	0.036752902
122	0xbd2998a7	-0.041405346
123	0x3d949ea0	0.07256818
124	0xbca8777b	-0.020564785
125	0xbcc2439f	-0.023713885
126	0xbce254ed	-0.027628386
127	0x3ccb02da	0.024781633
128	0xbcd19bb5	-0.025586942
129	0xbb029a67	-0.0019928457
130	0xbcf17dda	-0.029478956
131	0xbbaca010	-0.0052681044
132	0x3aa261d0	0.001238877
133	0xbcf05893	-0.02933911
134	0xbcf3c473	-0.02975676
135	0x3dc42a69	0.095784016
136	0xbcf5f2a2	-0.030022923
137	0x3daa736a	0.08322795
138	0x3d890d71	0.06692017
139	0xbcd2159f	-0.025645075
140	0x3d9ba5e1	0.07599998
141	0xbd84dfb1	-0.06487978
142	0x3d159d6e	0.03652709
143	0xbd2f5081	-0.042801384
144	0x3c6645e9	0.014054754
145	0x3d12567d	0.035727013
146	0xbd430c1b	-0.047618967
147	0xbb273ec2	-0.0025519584
148	0x3d4dea41	0.05027223
149	0xbd0da789	-0.034583602
150	0x3c45d51e	0.012074737
151	0x3a3ad1e4	0.0007126613
152	0xbcc38975	-0.023869256
153	0x3dbec7bb	0.09315439
154	0xbca11e44	-0.019667752
155	0x3cf3459e	0.029696282
156	0x3d83ac71	0.06429375
157	0x3d7625e9	0.060094748
158	0x3d90bc2c	0.07067141
159	0x3cb786fc	0.022403233
160	0x3c0f1f1a	0.0087354425
161	0xbbc4d6ca	-0.00600705
162	0xbd8d64ba	-0.06903978
163	0xbc2018ea	-0.009771565
164	0xbc5c4708	-0.01344467
165	0xbd943928	-0.07237464
166	0x3d70e5ea	0.058813013
167	0xbb919999	-0.004443359
168	0x3cb07037	0.021537883
169	0x3c718938	0.014742188
170	0x3cb4c659	0.022067236
171	0x3d991604	0.07474902
172	0xbcadcbde	-0.021215376
173	0x3cc1a450	0.02363792
174	0xbc7499de	-0.014929263
175	0x3db3e9ae	0.08784805
176	0xbcc5b2db	-0.024133136
177	0x3d2a96f1	0.041647855
178	0x3b99f468	0.004698325
179	0x3d90c7c5	0.07069353
180	0x3d041808	0.03224948
181	0x3d7aae1f	0.06120121
182	0x3d586219	0.05282793
183	0x3c5bf501	0.013425113
184	0xbd89858c	-0.06714925
185	0xbb9a4096	-0.0047074063
186	0xbd52b650	-0.051443398
187	0xbc68aa87	-0.014200813
188	0x3bd61c48	0.006534133
189	0xbcae3f4f	-0.021270422
190	0xbd0c2cfa	-0.03422258
191	0x3cb2cf6d	0.021827424
192	0xbc6a8d52	-0.01431592
193	0x3d68db02	0.056849487
194	0xbd869cd5	-0.06572882
195	0xbd9b1fd2	-0.075744286
196	0x3d71afb9	0.059005473
197	0x3c8ff861	0.017574491
198	0x3d3150c5	0.04328992
199	0x3d8b7b44	0.068106204
200	0x3da29f6b	0.07940563
201	0x3b98e83e	0.0046663573
202	0xbceabb00	-0.028653622
203	0x3ca1efca	0.01976766
204	0xbd019e5b	-0.03164516
205	0xbbf02f0e	-0.007329828
206	0x3d136546	0.035985254
207	0xbd4626a1	-0.048376683
208	0x3d953ccd	0.072869875
209	0xbd6e0bea	-0.05811683
210	0xbd52c2eb	-0.05145542
211	0xbd767b46	-0.060176156
212	0x3dae5af2	0.0851344
213	0xbd375832	-0.044761844
214	0x3d9c0556	0.07618205
215	0x3cdbdffe	0.026840206
216	0x3cf65ab3	0.030072546
217	0x3d4bb284	0.049730793
218	0x3d3ae595	0.045629103
219	0xbd03f677	-0.03221747
220	0xbd6a9d89	-0.057279143
221	0xbd1313f0	-0.035907686
222	0xbd41e799	-0.04734001
223	0x3bb942a7	0.0056536975
224	0xbcb3b21a	-0.021935511
225	0x3d8e36f9	0.06944079
226	0x3d62385c	0.05522953
227	0xbd918aa4	-0.07106522
228	0x3c6a53e6	0.0143022295
229	0xbd6fde2f	-0.0585615
230	0x3d9aa75a	0.07551451
231	0x3d7ba18e	0.061433367
232	0x3d38d629	0.045126114
233	0xbd029e84	-0.031889454
234	0xbcccaf4c	-0.024985932
235	0xbd8dcadf	-0.0692346
236	0x3d0c7df5	0.03429981
237	0x3baa5364	0.005197929
238	0x3d46facf	0.048579033
239	0x3c84140b	0.016122838
240	0x3b4c22a0	0.0031148568
241	0x3d51323b	0.051073294
242	0xbd6db06d	-0.05802958
243	0x3d345b6b	0.044032495
244	0x3d326d4a	0.043561257
245	0xbc8c430b	-0.017121812
246	0xbd6e147f	-0.058125015
247	0x3bc3151b	0.0059534437
248	0x3a28d837	0.000644091
249	0xbd471f0f	-0.048613604
250	0xbd81fb1a	-0.06346722
251	0xbd9902fa	-0.07471271
252	0x3dacbc8f	0.08434402
253	0x3d9abd52	0.07555641
254	0x3dad7c58	0.08470982
255	0x3da5e243	0.080997966
