transformer_no_tanh_with_past_12_Nm_144_Np_lr_0.001_hs_128_ahs_8_nll_1_bs_16_do_0.5_e_200_stride_10/model_transfer_A25_to_J25_0.0n_0.001lr_200e_3days.pth (torch, 831513 bytes, 14 tensors)

lstm_encoder.weight_ih_l0 f4 [512, 8]
0	0x3cc6a1f3	0.024247145
1	0x3d0c598d	0.03426509
2	0x3da85a08	0.08220297
3	0xbc8791d4	-0.016549028
4	0x3c3f738a	0.0116852615
5	0xbd7de0ed	-0.061982084
6	0x3c084583	0.008317354
7	0xbd9a89b2	-0.075457945
8	0xbda92dcd	-0.08260689
9	0xbd36b29a	-0.04460392
10	0x3d828d08	0.06374556
11	0x3d4e3aeb	0.050349157
12	0x3cad9cf8	0.021193013
13	0xbccca6f1	-0.024981948
14	0x3d4225fc	0.047399506
15	0xbd34f6ab	-0.044180553
16	0x3c6a8612	0.014314191
17	0x3cb28962	0.021794025
18	0x3d0008b2	0.031258292
19	0x3cbbe47a	0.022936095
20	0xbcd0924c	-0.025460385
21	0x3d51a1d9	0.05117974
22	0x3c788336	0.015168002
23	0xbc36d67b	-0.011159535
24	0xbd8140af	-0.063111655
25	0xbc0c9aa3	-0.00858179
26	0xbd840513	-0.0644628
27	0x3d1fe2d1	0.03903467
28	0xbda35c2b	-0.07976564
29	0x3ca67ee2	0.020324174
30	0x3d793847	0.060844686
31	0x3da6c8bc	0.08143756
32	0xbc29f145	-0.010372465
33	0xbd50f201	-0.051012043
34	0x3a924422	0.0011159221
35	0x3d84505d	0.064606406
36	0xbcef18a5	-0.029186556
37	0xbd7d7b84	-0.06188537
38	0xbd8d8281	-0.06909657
39	0x3d65c3e9	0.056095038
40	0x3d6094ee	0.05482953
41	0x3d24fdee	0.04028123
42	0x3d3d0bdc	0.046153888
43	0x3d4ce4ab	0.050022762
44	0x3d60e073	0.05490155
45	0x3cec5621	0.028849663
46	0xbbbae7ba	-0.0057038935
47	0x3d889c53	0.066704415
48	0x3c62157a	0.013799066
49	0x3d165f6b	0.03671209
50	0x3d8cb172	0.068697825
51	0xbd3a4ad2	-0.04548151
52	0xbd32cda9	-0.043653164
53	0x3ca99e34	0.02070532
54	0x3d5c70c8	0.053818494
55	0x3cede4d2	0.029039774
56	0x3c8d806f	0.017273156
57	0x3b9aa6b3	0.004719579
58	0x3d461080	0.04835558
59	0x3b7cdb50	0.003858287
60	0x3d2f39d1	0.042779747
61	0xbd85b8ad	-0.06529365
62	0x3c25595b	0.010092105
63	0xbd9588ae	-0.0730146
64	0xbd6e672a	-0.058203854
65	0x3d475be3	0.048671614
66	0x3d70abdc	0.058757648
67	0x3d8cb7d0	0.06870997
68	0xbcec0328	-0.028810099
69	0x3d91e9f0	0.07124698
70	0xbcbbdc96	-0.022932332
71	0x3c788407	0.0151681965
72	0x3c83b07f	0.01607537
73	0xbaeabba1	-0.0017908701
74	0xbda26da7	-0.07931071
75	0x3d9ef0e9	0.07760794
76	0xbc1355bc	-0.008992609
77	0x3d94008b	0.07226666
78	0xbd5872b2	-0.052843757
79	0x3d47522b	0.048662346
80	0x3cc9407f	0.024566887
81	0x3d58e122	0.05294908
82	0xbd9c4728	-0.076307595
83	0xbd054689	-0.03253797
84	0xbb91a388	-0.0044445433
85	0x3d84bb44	0.064810306
86	0x3d8686ab	0.065686546
87	0xbd4d4280	-0.050112247
88	0x3d23e982	0.040017612
89	0x3d15af46	0.036544107
90	0x3b2577d6	0.002524843
91	0xbda57b7b	-0.08080193
92	0x3da71af6	0.08159439
93	0x3c0430f6	0.008068314
94	0xbd3777a1	-0.04479182
95	0x3d625780	0.055259228
96	0x3c995fbd	0.01872241
97	0x3cf30d2e	0.02966937
98	0xba86f0a9	-0.0010295111
99	0xbd1c4a54	-0.038156822
100	0xbd014976	-0.0315642
101	0xbc96405c	-0.018341236
102	0xbd3136ae	-0.043265037
103	0x3c98620e	0.018601444
104	0x3d8ad714	0.06779304
105	0xbd2103a2	-0.039310105
106	0x3da063da	0.07831545
107	0xbd15be29	-0.036558304
108	0x3d0f590d	0.034997035
109	0x3d1d749a	0.038441278
110	0xbba4dc4a	-0.0050311433
111	0xbcae7895	-0.021297732
112	0xbd228d8a	-0.039685763
113	0x3d66af44	0.05631949
114	0xbd00d17e	-0.031449787
115	0xbcfc2bf0	-0.03078267
116	0xbd4c6e8f	-0.049910124
117	0xbd9c6281	-0.07635976
118	0x3caf95ff	0.021433828
119	0xbd02c517	-0.03192624
120	0x3d9f6ed7	0.07784813
121	0x3c929a8a	0.017895956
122	0x3d2a2d77	0.041547265
123	0xbcb6b16a	-0.022301394
124	0xbd4a1a93	-0.04934175
125	0xbd46e8fa	-0.048562028
126	0x3d8c1b67	0.06841164
127	0x3da05ba1	0.07829977
128	0xbda78543	-0.081797145
129	0xbd25f8c5	-0.04052045
130	0x3d4337f0	0.047660768
131	0x3d9e282e	0.077225074
132	0x3c10ccf8	0.008837931
133	0xbd8f47b4	-0.06996098
134	0xbd52ed6d	-0.051495958
135	0xbc39aa0c	-0.011332046
136	0xbd0488f5	-0.032357175
137	0xbcb530ad	-0.022117937
138	0x3c0a721d	0.008450058
139	0x3d919940	0.07109308
140	0x3d220db4	0.03956385
141	0xbd8a318e	-0.06747733
142	0xbcf689dd	-0.030095035
143	0xbd2ee644	-0.042700067
144	0x3d17dc1f	0.03707516
145	0x3cec1f15	0.028823415
146	0xbd9148e8	-0.07093984
147	0xbca21c9f	-0.019789038
148	0x3bb95ba2	0.0056566754
149	0xbd14848a	-0.03625921
150	0xbd60d921	-0.05489457
151	0x3c923fe1	0.017852725
152	0xbbc607cf	-0.0060434113
153	0x3d1ef114	0.03880413
154	0x3d1ae739	0.037818167
155	0xbcea1409	-0.028574007
156	0x3c5a3ab1	0.013319657
157	0x3d1fbcef	0.03899854
158	0xbd9970d8	-0.07492226
159	0x3bba5478	0.005686339
160	0x3d0a34a6	0.033741616
161	0x3b8a0024	0.0042114425
162	0x3d24f9fd	0.04027747
163	0x3d6d6172	0.05795426
164	0xbd2078bf	-0.039177652
165	0xbc6e4a28	-0.014544047
166	0x3d5fd28a	0.054644145
167	0xbd677341	-0.0565064
168	0xbca0486f	-0.019565789
169	0x3c9df4bd	0.01928174
170	0xbd59e502	-0.053196914
171	0xbd0dbf76	-0.03460642
172	0x3d22c6aa	0.039740242
173	0x3d6beee9	0.05760089
174	0x3d04e8b9	0.032448504
175	0x3d50abc3	0.050945055
176	0xbd8667e9	-0.06562788
177	0xbd6ba3ca	-0.05752925
178	0x3da32da4	0.0796769
179	0xbc211924	-0.009832654
180	0xbd2f78fa	-0.04283998
181	0xbd92cd5b	-0.07168075
182	0xbd27a71c	-0.040930852
183	0x3d9b3ff7	0.0758056
184	0x3d9ae83e	0.07563828
185	0xbd50cf19	-0.050978754
186	0xbd3eff47	-0.04663017
187	0x3d5dabf6	0.054119073
188	0x3d3aac2e	0.04557436
189	0x3ca7bee3	0.020476764
190	0xbd03a0f7	-0.03213593
191	0x3c3dfadd	0.011595455
192	0xbd2ef58d	-0.042714644
193	0x3d1e1299	0.038591955
194	0x3da994bf	0.08280324
195	0xbda863e1	-0.082221754
196	0xbcf0490c	-0.029331706
197	0xbc992a33	-0.01869688
198	0x3d8cd713	0.0687696
199	0x3da67ba0	0.08129048
200	0xbd9c4e20	-0.07632089
201	0x3c48a60b	0.012246619
202	0xbd08f24e	-0.033434205
203	0x3d7ba7c3	0.061439287
204	0xbd60e18e	-0.054902606
205	0xbd2fbb4f	-0.04290324
206	0x3d116976	0.035500966
207	0x3d6126ef	0.05496877
208	0xbceeff39	-0.029174434
209	0xbd88a135	-0.06671373
210	0xbd953bbc	-0.07286784
211	0xbd8e6191	-0.06952203
212	0xbd2c5b7a	-0.042079426
213	0xbd17ff81	-0.037108902
214	0xbc389b29	-0.011267462
215	0xbd9faf79	-0.07797141
216	0x3d5c8cb3	0.05384512
217	0xbd864371	-0.06555832
218	0x3d8335f7	0.06406777
219	0x3c3d8278	0.011566751
220	0x3daf79c6	0.08568148
221	0xbcfa52be	-0.030557033
222	0xbd175b3b	-0.03695224
223	0x3d2351b1	0.03987283
224	0xbda2f214	-0.07956329
225	0xbd584de8	-0.052808672
226	0xba5c8f67	-0.00084137026
227	0xbd816231	-0.06317557
228	0x3d9a52a9	0.075352974
229	0x3d965980	0.073412895
230	0x3d84fa8e	0.06493102
231	0x3d8d3392	0.06894602
232	0x3bf8f42e	0.007597468
233	0x3d4575fd	0.048208226
234	0x3da486c7	0.08033519
235	0x3d2bb90f	0.041924533
236	0xba826c23	-0.000995044
237	0x3c9a19d7	0.01881115
238	0x3d80f266	0.06296234
239	0xbcb64e4d	-0.022254134
240	0xbd83ed1d	-0.0644171
241	0x3d9cb243	0.07651188
242	0xbd5651e9	-0.05232421
243	0xba847d6e	-0.0010108182
244	0x3d829e56	0.063778564
245	0x3c507f89	0.012725719
246	0xbd016350	-0.031588852
247	0xbcf38c76	-0.029730063
248	0xbb9b4457	-0.0047383714
249	0xbcab7714	-0.020930804
250	0xbd38a9c6	-0.045083784
251	0x3d96174c	0.07328662
252	0x3d17c401	0.03705216
253	0x3d9d7f26	0.07690267
254	0xb9a82bf3	-0.00032076202
255	0xbd844c3d	-0.06459854

lstm_encoder.weight_hh_l0 f4 [512, 128]
0	0xbd507088	-0.05088857
1	0xbc7f0ae6	-0.015566563
2	0xbc6899ed	-0.014196855
3	0xbc50a37e	-0.012734292
4	0xbd315352	-0.04329235
5	0xbda17f82	-0.07885648
6	0xbd0890be	-0.033341162
7	0x3ce051e9	0.027382808
8	0xbd68d8a4	-0.05684723
9	0xb9162fd4	-0.00014322932
10	0x3a4d543d	0.0007832682
11	0x3c589521	0.013219149
12	0xbc340608	-0.010987766
13	0x3d878e89	0.06618983
14	0xbc7bcd16	-0.0153687205
15	0x3d396fd9	0.04527268
16	0xbd9869bf	-0.074420445
17	0x3d8d53e1	0.06900764
18	0x3bdf172d	0.0068081827
19	0x3d733ea1	0.0593859
20	0xbd8de5c5	-0.06928591
21	0x3d9ecd43	0.07753994
22	0xbb91702d	-0.004438421
23	0x3d15ac09	0.03654102
24	0x3d6f7366	0.058459662
25	0x3befaa47	0.007314
26	0x3d9006b4	0.070325285
27	0x3c8885b3	0.016665315
28	0xbd6c39af	-0.0576722
29	0x3d815d9f	0.06316685
30	0xbd6d052e	-0.057866268
31	0x3d7f3b60	0.062312484
32	0x3bbda000	0.0057868958
33	0xbcf50ca4	-0.029913254
34	0x3d8c99c7	0.06865268
35	0xbbbc7ff5	-0.0057525584
36	0xbce3dd96	-0.027815621
37	0x3d90fb04	0.070791274
38	0x3c5b60db	0.013389791
39	0x3d1797fa	0.03701017
40	0xbd882d74	-0.066492945
41	0x3c7b2b9f	0.015330224
42	0x3d9395f6	0.07206337
43	0x3d824847	0.06361442
44	0x3c777da3	0.015105638
45	0xbd859cea	-0.065240696
46	0x3d88a822	0.06672694
47	0xbd4782c1	-0.04870868
48	0xbd16995c	-0.03676735
49	0xbd0e17ea	-0.034690775
50	0xbd521c69	-0.051296625
51	0xbb84ceaa	-0.0040529566
52	0x3d6913bc	0.056903586
53	0x3c980854	0.018558659
54	0xbcb82ca4	-0.022482224
55	0xbade9a14	-0.0016983175
56	0xbc8a4c8d	-0.016882205
57	0xbd62a258	-0.055330604
58	0xbd70b0f8	-0.05876252
59	0xbc9ba88a	-0.019001264
60	0xbd4984a9	-0.04919878
61	0xbd2f8d5d	-0.042859424
62	0x3ce12126	0.027481627
63	0xbda14fc4	-0.07876542
64	0x3d718529	0.058964882
65	0x3d6c13b8	0.057635993
66	0xbbc40144	-0.005981596
67	0xbd719906	-0.058983825
68	0xbd5b67d1	-0.053565804
69	0x3c2e166d	0.010625464
70	0xbd325728	-0.04354015
71	0x3d02a8d2	0.03189928
72	0xbd117e02	-0.03552056
73	0x3d8b6133	0.06805649
74	0x3d78677c	0.060645565
75	0xbbe15c26	-0.00687744
76	0xbd340129	-0.04394642
77	0x3d8f3e1e	0.0699427
78	0xbd390d29	-0.045178566
79	0x3cfa9332	0.030587766
80	0xbc8e2629	-0.01735218
81	0xbca9353c	-0.020655267
82	0xbd908b5e	-0.07057832
83	0xbdaaa577	-0.08332341
84	0xbd9a8c45	-0.075462855
85	0xbce7bb0a	-0.02828743
86	0x3d8670b4	0.06564465
87	0x3bae6334	0.0053218845
88	0xbd0a0732	-0.03369827
89	0x3d47b2f0	0.048754632
90	0xbcab8ce6	-0.020941209
91	0x3d18df0a	0.03732208
92	0x3d685a50	0.056726754
93	0x3d88b159	0.066744514
94	0xbd725dc2	-0.059171446
95	0xbce23a9a	-0.027615834
96	0xbccb90b7	-0.024849279
97	0x3d9bfa16	0.076160595
98	0xbb054c5d	-0.0020339706
99	0xbda7e6ca	-0.081983164
100	0x3d30f80a	0.0432053
101	0x3c6c7ec5	0.014434521
102	0xbd8bf99e	-0.0683472
103	0xbc48a833	-0.012247133
104	0xbd48a03a	-0.04898093
105	0x3bb62661	0.0055587743
106	0x3d0fc56a	0.035100378
107	0x3bdc8919	0.0067302105
108	0x3cd1b21f	0.02559763
109	0xba4fa5b7	-0.0007921117
110	0xbaf808d6	-0.0018923532
111	0xbd9f8385	-0.07788757
112	0x3cee9276	0.029122572
113	0x3d5ec130	0.054383457
114	0x3d57fcc1	0.05273128
115	0x3d94d762	0.072676435
116	0x3cbc8633	0.02301321
117	0x3d9a4f54	0.07534662
118	0x3d222c29	0.039592896
119	0xbd802c42	-0.062584415
120	0x3d63cb26	0.05561366
121	0xbd746248	-0.05966404
122	0x3d1cdcdd	0.03829657
123	0x3d102e71	0.03520054
124	0x3d7f6c10	0.062358916
125	0x3c1c9fba	0.009559566
126	0xbd9a260a	-0.075267866
127	0x3d121c2a	0.03567139
128	0xbbd6978b	-0.006548827
129	0x3d960a2d	0.073261596
130	0x3d1dd578	0.038533658
131	0x3d62b73d	0.05535053
132	0xbda3454a	-0.079722
133	0x3d1e4529	0.038640175
134	0xbd2cca5c	-0.042185172
135	0xbd7f56f8	-0.0623388
136	0xbd8892d7	-0.066686325
137	0x3d25bd1b	0.04046355
138	0x3d85c501	0.06531716
139	0xbd3d0be0	-0.046153903
140	0xbd5f476e	-0.05451148
141	0xbd9abd1b	-0.075556
142	0x3d018aed	0.03162663
143	0x3c3ae50e	0.01140715
144	0x3c73f086	0.014888888
145	0x3ac841df	0.001527842
146	0xbd1654e7	-0.036702063
147	0x3d8fcfca	0.070220545
148	0xbd9878f4	-0.07444945
149	0x3b216ad0	0.0024630316
150	0x3c1b615e	0.009483663
151	0xbcab7276	-0.020928603
152	0xbda9c3a3	-0.08289268
153	0x3ceda31f	0.029008446
154	0x3da01660	0.07816768
155	0x3d78b803	0.060722362
156	0x3d102d86	0.035199665
157	0xbd6333d0	-0.055469334
158	0xbca8d9d7	-0.020611687
159	0x3d69b5ad	0.057058025
160	0x3cc26821	0.023731293
161	0xbc8729b8	-0.016499385
162	0x3d423f1f	0.04742348
163	0xbc52ff44	-0.012878243
164	0x3d98bf70	0.07458389
165	0x3c74e819	0.0149479145
166	0x3d5477b2	0.051871963
167	0xbd1ec3ad	-0.03876083
168	0xbc92be4e	-0.01791301
169	0xbd3c688c	-0.04599814
170	0x3d8442c9	0.06458051
171	0xbd2a4be2	-0.041576274
172	0xbd493228	-0.0491201
173	0x3cdde284	0.02708555
174	0x3bc063e1	0.0058712815
175	0xbc3f86d3	-0.011689859
176	0x3d46b2bb	0.048510294
177	0x3d1d95a4	0.038472787
178	0xbd533599	-0.051564787
179	0xbd2934f3	-0.041310262
180	0xbd93fed5	-0.0722634
181	0xbd2ee0eb	-0.042694967
182	0x3d31165f	0.043234225
183	0xbd408926	-0.047005795
184	0xbd558db2	-0.052137084
185	0xbd92d3a9	-0.07169277
186	0x3d505dc9	0.05087069
187	0x3c807e1b	0.015685132
188	0xbb516d73	-0.0031956106
189	0x3d5105e4	0.05103101
190	0xbc565112	-0.013080852
191	0x3d3d7d11	0.04626185
192	0x3d148c62	0.036266692
193	0x3c36a4bd	0.011147675
194	0xbd7409d8	-0.0595797
195	0x3d448da2	0.047986634
196	0xbd59bbd8	-0.053157657
197	0xbd9eaacb	-0.0774742
198	0xbd6a005c	-0.05712925
199	0x3d5ecce2	0.05439461
200	0x3c8f9ca2	0.017530743
201	0x3d7c5e26	0.061613224
202	0x3d95ee9d	0.073209025
203	0x3d92ece4	0.071740896
204	0xbce75703	-0.028239733
205	0xbd84a0cb	-0.06475981
206	0x3d0cb45c	0.03435169
207	0x3d7ef942	0.06224943
208	0x3d4da186	0.05020287
209	0x3d3d2fa6	0.04618802
210	0xbd8bd733	-0.06828155
211	0xbd39d20f	-0.045366343
212	0xbd984b53	-0.07436242
213	0xbd41d4e2	-0.04732216
214	0xbd6831ee	-0.05668824
215	0xbd519c3f	-0.0511744
216	0xbd805ee3	-0.06268098
217	0xbd7732e0	-0.060351253
218	0xbd7ef797	-0.06224784
219	0xbda2e480	-0.07953739
220	0x3cfa5ee0	0.030562818
221	0x3d123dd2	0.035703488
222	0x3cdbec01	0.026845934
223	0xbcec59da	-0.028851438
224	0xbd161da5	-0.036649365
225	0x37b91144	2.2061759e-05
226	0xbd4bb19f	-0.04972994
227	0xbd8da137	-0.06915515
228	0x3c321041	0.010868133
229	0x3d23fc19	0.04003534
230	0xbda7473f	-0.08167886
231	0xbd77605c	-0.06039463
232	0xbb486b4b	-0.003058153
233	0x3d90739d	0.070533015
234	0xbd7f76c1	-0.062369112
235	0xbd91805e	-0.07104562
236	0xbd46eee8	-0.048567683
237	0xbbdac27a	-0.0066760154
238	0x3c31bd38	0.010848336
239	0x3d948455	0.07251803
240	0x3d4b7fef	0.049682554
241	0xbc9bfbc1	-0.019040944
242	0xbd5ebcc2	-0.054379232
243	0xbd5c1224	-0.053728238
244	0x3d1874eb	0.037220877
245	0xbd164d43	-0.036694776
246	0x3d5e0302	0.054202087
247	0x3d6d8d12	0.057995863
248	0xbd5c68b1	-0.05381078
249	0xbca1d152	-0.019753132
250	0xbd966e83	-0.07345297
251	0xbd3950f5	-0.045243222
252	0xbd257f94	-0.04040487
253	0xbd5b155e	-0.053487174
254	0xbb88c558	-0.004173916
255	0x3d3be32d	0.04587095

lstm_encoder.bias_ih_l0 f4 [512]
0	0xbc5ba70e	-0.013406528
1	0xbcfbd7c1	-0.030742528
2	0xbd1bc6c1	-0.038031343
3	0x3c20ce0c	0.00981475
4	0xbd12d6f0	-0.03584951
5	0x3ce92ba2	0.028463189
6	0x3d8354c0	0.06412649
7	0x3d358050	0.04431182
8	0xbdab4d0a	-0.083643034
9	0x3cb32b9d	0.021871382
10	0xbcd07104	-0.025444515
11	0x3d4b3d5b	0.04961906
12	0xbceb2b8f	-0.028707294
13	0x3d0e8a88	0.034800082
14	0x3da4424e	0.08020459
15	0xbae5f2ee	-0.0017543712
16	0x3be7a7b9	0.0070695546
17	0xbd1eaa76	-0.038736783
18	0xbbae3f8f	-0.0053176354
19	0xbd96f0c2	-0.0737014
20	0xb8d1647e	-9.984615e-05
21	0xbd89e48a	-0.067330435
22	0xbce496f8	-0.027904019
23	0x3c3a976b	0.01138864
24	0x3bad3fad	0.0052871318
25	0x3da1fa5b	0.0790908
26	0x3c462084	0.012092713
27	0xbd503ba9	-0.050838146
28	0x3c65b60e	0.014020456
29	0x3d668977	0.05628344
30	0x3d101018	0.0351716
31	0xbcfaf3bc	-0.0306338
32	0x3cddeb18	0.02708964
33	0x3c856f24	0.016288348
34	0xbcc4bfee	-0.0240173
35	0xbcc87acd	-0.024472618
36	0x3d1f74b8	0.03892967
37	0x3d310d7c	0.04322575
38	0xbd9f1a89	-0.07768733
39	0xbcb86c28	-0.02251251
40	0xbd20ceb1	-0.039259616
41	0xbd860eda	-0.065458015
42	0x3d2db682	0.04241038
43	0x3d1fce6c	0.03901522
44	0x3d7510ab	0.05983035
45	0x3c6e7d93	0.014556306
46	0xbba97f48	-0.005172644
47	0x3d92e5eb	0.071727596
48	0x3d0c176e	0.03420203
49	0x3d60b34c	0.05485849
50	0x3d5f515d	0.054520953
51	0x3dac7032	0.08419837
52	0xbd446eb1	-0.047957126
53	0x3bf077c7	0.0073384973
54	0xbd7a9687	-0.06117871
55	0xbcec3055	-0.02883164
56	0xbcc8ba98	-0.024503037
57	0x3cf6be4f	0.030120043
58	0x3da76def	0.08175265
59	0xbcd977ee	-0.026546445
60	0x3cdb34b2	0.026758526
61	0x3d98050e	0.07422839
62	0x3d048a76	0.03235861
63	0x3d7e8164	0.062135115
64	0xbda31c43	-0.07964375
65	0xbda7c287	-0.081914
66	0x3c8598bf	0.016308187
67	0xbd9f59b7	-0.077807836
68	0xba9c9398	-0.0011945842
69	0x3d8a67e1	0.067580946
70	0xbb90daab	-0.0044205985
71	0xbbba3631	-0.0056827297
72	0xbcc37795	-0.023860732
73	0xbd43c903	-0.04779912
74	0x3d6adbf9	0.05733869
75	0xbd134d78	-0.03596255
76	0x3d482179	0.048860047
77	0xbbff90fa	-0.007799265
78	0x3cc9d290	0.024636537
79	0xbd86c882	-0.065812126
80	0xbd0e9218	-0.034807295
81	0x3cc2f73e	0.023799535
82	0xbd26105c	-0.040542945
83	0xbd7bc21c	-0.061464414
84	0xbd9f2100	-0.07769966
85	0xbd06f1a2	-0.032945283
86	0xbbee183d	-0.007266073
87	0x3c7cc1c4	0.015427057
88	0xbda680b5	-0.08130018
89	0xbce03579	-0.027369248
90	0xbcef4568	-0.0292079
91	0xbbdf8e86	-0.00682241
92	0xbd4d07c3	-0.05005623
93	0xbd317597	-0.043325033
94	0xbd9b24d3	-0.07575383
95	0x3d8e8b9f	0.06960224
96	0xbd0e234e	-0.034701638
97	0x3da22e17	0.07918947
98	0xbc7f124e	-0.015568329
99	0x3cefb734	0.029262163
100	0x3d2cd5ae	0.04219597
101	0x3d0433a6	0.03227582
102	0xbcdbbdea	-0.026823957
103	0x3d572253	0.05252297
104	0x3ccfe5ca	0.025378127
105	0xbca931ec	-0.020653687
106	0x3d0b673f	0.03403401
107	0xbcabd931	-0.020977588
108	0xbbdf088d	-0.0068064393
109	0xbd01804a	-0.031616487
110	0xbd38d65b	-0.0451263
111	0xbca8c39e	-0.02060109
112	0xbcae1a7c	-0.021252863
113	0xbd74f4ed	-0.059803892
114	0x3b40e90d	0.0029435784
115	0x3c0a57c6	0.008443778
116	0xbc8a0c48	-0.01685156
117	0x3d1d0605	0.03833582
118	0xbd3e06be	-0.04639315
119	0xbce9e02b	-0.028549274
120	0x3c31d50d	0.010854018
121	0xbd88cfa9	-0.06680233
122	0xbc2d2685	-0.010568266
123	0xbd35efe5	-0.044418234
124	0xbd8729d2	-0.065997735
125	0xbce38f2b	-0.027778229
126	0x3d517842	0.051140077
127	0x3d85886a	0.065201595
128	0x3d3ca57c	0.046056256
129	0x3d1ff5c3	0.039052736
130	0xbc9b1207	-0.018929495
131	0x3cff2095	0.031143466
132	0xbd8bdccc	-0.06829223
133	0x3d660ef1	0.056166593
134	0x3d30493d	0.043038595
135	0x3db16cca	0.08663328
136	0x3bb1ed7d	0.005429922
137	0xbc35ff66	-0.011108255
138	0x3b8db099	0.0043240306
139	0x3bfd2668	0.0077255256
140	0xbd1c559a	-0.038167574
141	0xbd7cce50	-0.061720192
142	0x3cd829ec	0.026387177
143	0x3d8a6c39	0.06758923
144	0x3d24f720	0.04027474
145	0xbd7f6149	-0.062348638
146	0xbd6c4665	-0.05768432
147	0x3c568a96	0.013094565
148	0xbc2a4fd5	-0.01039501
149	0xbd980b55	-0.074240364
150	0xbd93b497	-0.07212179
151	0x3d16cc39	0.036815856
152	0x3d7f41d9	0.062318657
153	0x3b0f7ebc	0.0021895608
154	0x3d4d0a2f	0.05005854
155	0x3d56d3de	0.052448146
156	0xbd556621	-0.05209935
157	0xbcbf676c	-0.023364745
158	0x3da44001	0.0802002
159	0xbd49638f	-0.049167212
160	0xbd5950f8	-0.053055733
161	0x3d97cd1f	0.074121706
162	0xbd52cc73	-0.05146451
163	0x3da166cd	0.07880936
164	0xbcf9d84e	-0.03049865
165	0xbccd4365	-0.02505655
166	0x3da0a747	0.078444056
167	0x3d13efa6	0.03611722
168	0xbc163849	-0.009168693
169	0xba0f8da1	-0.00054761214
170	0x3ca91737	0.020640953
171	0x3d5e5dcd	0.054288674
172	0xbd9ef286	-0.077611014
173	0xbc5c6f84	-0.013454322
174	0x3d5e1aa4	0.054224625
175	0x3d725483	0.059162628
176	0x3d97490e	0.07386981
177	0xbc482cca	-0.01221771
178	0xbb10fe5f	-0.0022124273
179	0xbd32cc03	-0.043651592
180	0xbce7332a	-0.02822264
181	0xbb9563ff	-0.0045590396
182	0x3addc16a	0.0016918604
183	0x3d6dbab3	0.05803938
184	0xbdaa5404	-0.08316806
185	0xbcdc930d	-0.026925588
186	0x3d07f100	0.03318882
187	0xbb398909	-0.002831044
188	0xbd866f43	-0.0656419
189	0x3c23d881	0.010000349
190	0xbd43dc5d	-0.047817577
191	0xbcf15cfa	-0.02946328
192	0x3d4ab958	0.049493164
193	0x3cd99ec5	0.026564965
194	0xbd2fae9a	-0.042891122
195	0xbca4046c	-0.02002164
196	0x3d51146c	0.051044866
197	0xbd43958a	-0.047750033
198	0xbd980fd3	-0.07424893
199	0x3cee305f	0.0290758
200	0x3d560f7f	0.052260872
201	0xbca51780	-0.020152807
202	0x3c817bb6	0.01580606
203	0xbd84a10d	-0.064760305
204	0x3d9c1529	0.076212235
205	0x3da59a83	0.080861114
206	0xbd7cd9c5	-0.06173112
207	0x3d0cf5d3	0.034414124
208	0xbda0a8d0	-0.078446984
209	0xbb4667e9	-0.0030274338
210	0xbbef541d	-0.0073037283
211	0xbd59195b	-0.053002696
212	0x3d9a1c95	0.07524983
213	0x3cc46c9d	0.023977572
214	0xbda8ce48	-0.0824247
215	0x3da3579d	0.07975695
216	0x3d9001b1	0.070315726
217	0x3c8717a7	0.01649077
218	0xbd6fc15f	-0.058534022
219	0x3d5b8c68	0.0536007
220	0x3ce19765	0.02753801
221	0x3aebc82d	0.0017988734
222	0xbd9d4856	-0.076798126
223	0x3c8f11f0	0.017464608
224	0x3d2604a2	0.040531762
225	0x3c603ad1	0.013685898
226	0xbd66b0bb	-0.056320887
227	0x3ca11542	0.019663457
228	0xbd4c4ea3	-0.04987968
229	0xbd3e6574	-0.046483472
230	0xbd953626	-0.072857186
231	0xbd1b222c	-0.037874386
232	0x3ce10758	0.027469322
233	0x3cc94d4a	0.024572987
234	0x3aea714e	0.0017886551
235	0xbd19c536	-0.03754159
236	0x3da4f358	0.08054227
237	0x3d6dfda5	0.058103222
238	0xbd985e06	-0.074398085
239	0x3d771ec6	0.060332082
240	0x3da279c4	0.07933381
241	0x3da7e44c	0.08197841
242	0xbd0bca7b	-0.034128647
243	0xbd7628de	-0.060097568
244	0x3d8bab8b	0.068198286
245	0x3c6e530f	0.01454617
246	0xbd9e8fae	-0.077422485
247	0xbd7e9682	-0.062155254
248	0xbc07a878	-0.008279912
249	0xbc750063	-0.0149537055
250	0x3d3bfc39	0.045894835
251	0xbbbb919f	-0.0057241465
252	0xbb1c06db	-0.0023807797
253	0x3d9664ee	0.073434696
254	0xbd6c5aac	-0.05770366
255	0xbd308754	-0.04309781

lstm_encoder.bias_hh_l0 f4 [512]
0	0xbd1700d5	-0.036866028
1	0x3b87bb0a	0.00414217
2	0x3d2fb99e	0.042901628
3	0x3cd11d9d	0.025526816
4	0xbc2197db	-0.009862865
5	0x3d85d687	0.065350585
6	0xbc9195bd	-0.017771596
7	0x3d31dc2f	0.043422874
8	0xbda665de	-0.081248984
9	0x3ceb8dfd	0.028754229
10	0xbd816f38	-0.063200414
11	0x3c57f1f4	0.013180245
12	0x3c97dd8b	0.018538257
13	0x3cda25b4	0.026629306
14	0xbd3c387e	-0.045952313
15	0x3d9136bb	0.07090517
16	0x3d90361f	0.07041573
17	0xbd9d7079	-0.07687468
18	0x3b9fa2ad	0.0048716874
19	0xbd81dea7	-0.06341296
20	0x3bf02ad2	0.0073293233
21	0xbd511fce	-0.051055722
22	0xbd68817e	-0.05676412
23	0xbcef1091	-0.029182704
24	0xbc3e8b5b	-0.011629905
25	0x3cee0190	0.02905348
26	0xbbf5e49f	-0.0075040604
27	0x3d92a5cc	0.071605295
28	0xbb7b8569	-0.003837908
29	0x3d873949	0.06602723
30	0xbd749a70	-0.059717596
31	0x3da31cce	0.079644784
32	0x3cfa6f8d	0.03057077
33	0xbd4a3a2f	-0.049371894
34	0x3c45da5d	0.012075988
35	0xbae08500	-0.0017129481
36	0x3cbc0ca6	0.02295525
37	0xbd3fb0fd	-0.04679965
38	0xbd7187ae	-0.058967285
39	0x3cbf3cba	0.023344386
40	0xbd9e38fc	-0.07725713
41	0xbcf5c192	-0.029999528
42	0x3c0bbc89	0.008528837
43	0x3c674e5a	0.014117802
44	0xbd527fe2	-0.05139149
45	0x3da38111	0.07983602
46	0xbd5c73a0	-0.053821206
47	0x3d25aa19	0.04044542
48	0xbcb9120a	-0.02259161
49	0x3d3c389e	0.04595243
50	0x3d3151d9	0.043290947
51	0x3ce8a9a4	0.028401203
52	0xbc2ef0a4	-0.01067749
53	0x3c896cb0	0.016775459
54	0x3cc5454c	0.024080895
55	0x3d2ec2d7	0.042666283
56	0xbda27c11	-0.0793382
57	0x3d71f583	0.05907203
58	0xbbfc0c96	-0.00769193
59	0xbc78d53e	-0.01518756
60	0xbd9a58c2	-0.075364605
61	0x3c9ab058	0.018882915
62	0x3d87fb9a	0.06639786
63	0x3d0155cb	0.03157596
64	0xbd3b0555	-0.045659382
65	0x3d43d9c4	0.0478151
66	0x3d53179a	0.05153618
67	0xbda44c26	-0.08022337
68	0x3be6c445	0.00704244
69	0x3c82cb12	0.015965972
70	0x3cc1b1ca	0.023644347
71	0xbd14c038	-0.036316127
72	0xbcbb9265	-0.022896955
73	0xbd30d353	-0.043170284
74	0x3d135bb8	0.03597614
75	0xbd6102f1	-0.054934446
76	0xba64bca4	-0.00087256194
77	0x398c1a83	0.00026722634
78	0x3cbfab19	0.023397015
79	0x3d8a117d	0.06741617
80	0xbd6ca26e	-0.057772093
81	0xbd64b32f	-0.055834945
82	0x3d8f8429	0.070076294
83	0x3d0b83e2	0.03406132
84	0xbcd41861	-0.025890531
85	0xbd266969	-0.04062787
86	0xbd8447a9	-0.064589806
87	0xbd991b50	-0.074759126
88	0x3d83e323	0.06439807
89	0x3c59ed20	0.013301164
90	0xbda3a3fe	-0.079902634
91	0x3c6d9e49	0.01450307
92	0xbcd6b442	-0.026209
93	0x3d33cd6c	0.043897077
94	0x3cf311c7	0.029671563
95	0xbd078127	-0.033082154
96	0x3d7b4286	0.06134274
97	0x3ce5fa94	0.028073587
98	0x3d8fec1d	0.07027457
99	0xbd719199	-0.058976743
100	0x3cf72577	0.030169232
101	0xbd1a2a7f	-0.037638184
102	0xbbaf761d	-0.0053546564
103	0x3d4669f3	0.048440885
104	0x3cb3e4d8	0.021959707
105	0xbc9ce255	-0.019150892
106	0x3d6db3f8	0.05803296
107	0xbcbb6543	-0.022875434
108	0x3beb05bc	0.0071723145
109	0x3d826948	0.06367737
110	0x3bc634d3	0.0060487776
111	0x3d2cd034	0.042190745
112	0xbd848e3c	-0.064724416
113	0x3d99e14e	0.075136766
114	0xbd238db3	-0.039930057
115	0xbd6ef80f	-0.058342036
116	0xbd4d2968	-0.050088316
117	0xbd24493b	-0.0401089
118	0x3d317aa7	0.04332986
119	0xbd881386	-0.06644349
120	0x3d8a336f	0.067480914
121	0xbd429ea4	-0.047514573
122	0xbd520725	-0.051276345
123	0xbd980f51	-0.074247964
124	0x3ceca83c	0.028888814
125	0x3d21939e	0.03944742
126	0xbc2abd93	-0.010421175
127	0xbc82550e	-0.015909698
128	0xbcbbac19	-0.022909211
129	0xbd2576c3	-0.040396463
130	0xbd5106e5	-0.051031966
131	0xbd832b8c	-0.0640479
132	0xb9912f57	-0.00027691826
133	0xbc8a4fb7	-0.016883714
134	0x3d726dbb	0.05918668
135	0x3cb30402	0.021852497
136	0x3c0c167c	0.008550283
137	0x3bd075c8	0.006361697
138	0x3d8f397e	0.06993388
139	0xbd073dda	-0.03301797
140	0xbd4b7a06	-0.049676917
141	0xbc886d8b	-0.016653797
142	0xbcc6222e	-0.02418622
143	0xbd5a47ae	-0.053291015
144	0x3cfd5625	0.030924866
145	0x3d8d1a88	0.06889826
146	0xbd77b485	-0.06047489
147	0xbcd576e1	-0.026057662
148	0x3cfffe8c	0.031249307
149	0x3d34dcbe	0.04415583
150	0x3ccd99e1	0.02509779
151	0x3d51791d	0.051140893
152	0xbd847f57	-0.06469601
153	0xbccce8b2	-0.025013302
154	0xbbd642b8	-0.006538715
155	0xbd72b985	-0.059258956
156	0x3d2b5dbf	0.04183745
157	0xbd54a0ef	-0.05191129
158	0xbd2dae6c	-0.04240267
159	0x3c550cdb	0.013003553
160	0xbd5082b3	-0.050905894
161	0x3afeb5e9	0.0019432876
162	0x3d859d03	0.06524088
163	0x3d85e1b7	0.06537192
164	0xbd83fafc	-0.06444356
165	0x3d3d4559	0.046208713
166	0xbd8c3481	-0.06845952
167	0x3d9fb713	0.077985905
168	0xbc7b7d77	-0.015349737
169	0xbd4e8b1f	-0.050425645
170	0x3ca7c0dd	0.020477707
171	0x3bcaa5ad	0.006184301
172	0x3d3423c7	0.043979432
173	0x3da3a61a	0.07990666
174	0xbce40ee4	-0.027839132
175	0x3d161b99	0.036647413
176	0x3d04fc61	0.03246725
177	0xbd573c33	-0.052547645
178	0xbcb266c8	-0.021777526
179	0xbd222bac	-0.03959243
180	0xbcd0c6a0	-0.025485337
181	0xbd81f899	-0.06346244
182	0xbc4d3333	-0.012524414
183	0xbd70fb06	-0.058833145
184	0xbc501514	-0.012700338
185	0x3cb33bfb	0.021879187
186	0x3d4dcbd8	0.05024323
187	0x3d5876a0	0.052847505
188	0xbcb951e8	-0.022622064
189	0x3d5d5863	0.05403937
190	0xbd919fc5	-0.07110552
191	0x3dab2959	0.08357496
192	0xbd485316	-0.048907362
193	0x3be7ab55	0.007069985
194	0xbbb064b3	-0.005383098
195	0x3d21ed6c	0.039533064
196	0x3d9cdfbf	0.07659864
197	0x3d7af7e5	0.061271567
198	0x3daf94c4	0.08573297
199	0xbcbf5aaf	-0.023358671
200	0xbc06d58a	-0.008229623
201	0x3d83e8fe	0.06440924
202	0xbd67f0b1	-0.056626026
203	0x3cc8ccbe	0.024511691
204	0xbcd15dda	-0.025557447
205	0xbd03d1c3	-0.032182466
206	0x3d192b86	0.037395023
207	0x3d17f3f2	0.03709788
208	0xbc559c51	-0.013037757
209	0x3d6211f2	0.055192895
210	0x3d080139	0.03320429
211	0x3d5cb18f	0.05388027
212	0xbbe9d129	-0.0071355295
213	0xbd20f922	-0.03930009
214	0x3d4a307d	0.04936265
215	0xbda24c3b	-0.07924696
216	0xbd4934f0	-0.04912275
217	0xbd2c0d10	-0.042004645
218	0xbbccf5dc	-0.0062548947
219	0xbcc0ddc6	-0.02354325
220	0x3d2b189f	0.041771527
221	0x3c3a8c8d	0.011386049
222	0x3daa0ad1	0.08302844
223	0x3cdbbba0	0.026822865
224	0x3d218d9e	0.039441697
225	0xbc9e4548	-0.019320145
226	0xbc9bbe64	-0.019011684
227	0x3d4cbeea	0.049986757
228	0x3cf38cd3	0.029730236
229	0x3d0a315b	0.033738475
230	0xbb02d5f3	-0.001996395
231	0x3d4d9c87	0.050198104
232	0x3cdcea65	0.026967237
233	0xbd805715	-0.062666096
234	0x3d9b33be	0.075782284
235	0x3b130bdf	0.0022437496
236	0xbb825e89	-0.0039785546
237	0x3c97eabd	0.01854455
238	0xbc46adbf	-0.012126385
239	0xbd0f0e3e	-0.03492569
240	0x3d89ea1d	0.06734107
241	0x3d0c31e0	0.034227252
242	0xbcc52047	-0.024063243
243	0xbd12c560	-0.035832763
244	0x3d9f2102	0.077699676
245	0xbd912db2	-0.07088794
246	0xbd293872	-0.041313596
247	0xbcb25d07	-0.021772875
248	0xbd0ad6cc	-0.033896253
249	0xbd520836	-0.05127736
250	0x3d5be287	0.05368283
251	0xbcf73ce8	-0.03018041
252	0x3d96bf9c	0.07360765
253	0x3c0ee7b1	0.008722232
254	0xbd64f92e	-0.0559017
255	0x3cdff608	0.027338997

lstm_decoder.weight_ih_l0 f4 [512, 6]
0	0xbda06f9e	-0.07833789
1	0xbd9d37e5	-0.07676677
2	0x3e0377d4	0.1283868
3	0xbd5c8787	-0.053840186
4	0x3b98bf65	0.004661488
5	0x3d2575b4	0.040395454
6	0x3c3b21eb	0.011421661
7	0x397a30d6	0.0002386005
8	0xbd366ad1	-0.04453546
9	0xbbde1ee6	-0.0067785857
10	0x3c9a3771	0.018825265
11	0x3d930ec3	0.0718055
12	0xbd20da14	-0.039270476
13	0xbd8e311d	-0.06942961
14	0x3c56a011	0.013099686
15	0xbd9e10f0	-0.07718074
16	0xbdaf98f7	-0.085740976
17	0xbd88f4d6	-0.06687324
18	0xbd76d724	-0.060263768
19	0x3d19223f	0.037386175
20	0xbcea8f4f	-0.028632788
21	0xbd7ff83f	-0.062492605
22	0xbd036af7	-0.03208443
23	0xbcf36518	-0.029711291
24	0xbd8481c9	-0.06470067
25	0x3d35dc50	0.04439956
26	0xbd8ef41d	-0.06980155
27	0xbd9e0885	-0.07716469
28	0xbc847c46	-0.01617254
29	0x3c131705	0.008977656
30	0xbd459a8b	-0.048243087
31	0x3d445fda	0.047942974
32	0x3b0a7056	0.0021124086
33	0x3d6b159b	0.05739365
34	0x3bdbb782	0.0067052254
35	0xbc8f530a	-0.01749565
36	0xbda0e990	-0.078570485
37	0xbd95ea41	-0.07320071
38	0xbbff7af4	-0.0077966396
39	0x3c8d628d	0.017258907
40	0x3c8497b5	0.01618562
41	0x3d8a0b64	0.06740454
42	0x3de90eb4	0.113797575
43	0x3d8b26e3	0.067945264
44	0x3d3ec96c	0.04657881
45	0x3b562620	0.0032676533
46	0xbc642e11	-0.013926999
47	0xbd9a6b02	-0.07539941
48	0xbd825520	-0.063638926
49	0x3da324e0	0.07966018
50	0x3c65f441	0.014035285
51	0x3c94b0b0	0.018150657
52	0xbd228569	-0.03967801
53	0x3d48d11d	0.04902755
54	0xbe20e429	-0.15712036
55	0xbcbd47a8	-0.023105457
56	0x3c36cef2	0.011157738
57	0xbd1ad439	-0.037800048
58	0xba4fc01b	-0.0007925049
59	0x3a085792	0.0005201037
60	0xbd2aa27b	-0.04165886
61	0x3d04e134	0.032441333
62	0x3d3ef68b	0.04662184
63	0xbcff0cf9	-0.031134116
64	0xbdc812be	-0.097692
65	0xbc0a96b1	-0.008458779
66	0xbcc19f6e	-0.023635592
67	0x3d046f6d	0.032332826
68	0xbd435277	-0.047686066
69	0xbbf25a3e	-0.0073960116
70	0x3bce3c50	0.006293811
71	0xbd6fae88	-0.058516055
72	0xbe0ddcff	-0.13853835
73	0x3cf82df4	0.03029535
74	0x3d021617	0.031759348
75	0xbc8ab45d	-0.016931707
76	0xba78c8ef	-0.00094903907
77	0xbe104c6c	-0.14091653
78	0x3d6de567	0.058080103
79	0xbc587686	-0.013211852
80	0xbd87e995	-0.06636349
81	0x3bb59dd5	0.0055424967
82	0x3c1bdd57	0.009513221
83	0x3b805b36	0.003917123
84	0xbbffa488	-0.007801596
85	0xbd53b99a	-0.051690675
86	0x3d03c893	0.032173704
87	0xbdc881d1	-0.097903855
88	0x3b4a6ecf	0.00308888
89	0x3c1a2dbe	0.00941032
90	0xbda686c3	-0.081311725
91	0xbd90d2ab	-0.07071432
92	0x3d8575fc	0.06516644
93	0x3d936634	0.07197228
94	0xbd83fb6a	-0.06444438
95	0xbdc28e35	-0.0949978
96	0xbc10b6cd	-0.008832646
97	0x3d01326d	0.03154223
98	0x3c21e303	0.009880784
99	0xbd57bec5	-0.052672166
100	0xbc86cec9	-0.016456025
101	0xbd37ee2d	-0.044904877
102	0x3da706c3	0.081555866
103	0x3dbb5362	0.091467634
104	0xbd5225b6	-0.051305495
105	0xbd9cda9f	-0.07658886
106	0xbd7c0f0e	-0.061537795
107	0x3d5d30bd	0.05400156
108	0xbd6f4898	-0.05841884
109	0xbd003cfd	-0.031308163
110	0xbd93742d	-0.07199893
111	0x3c2d22c4	0.010567371
112	0x3af057a0	0.0018336661
113	0xbd93fcad	-0.072259285
114	0xbd624a18	-0.055246443
115	0x3d7eade7	0.062177565
116	0x39bda777	0.0003617366
117	0xbd9283a0	-0.07154012
118	0xbd09e6cf	-0.03366738
119	0xbd89e78a	-0.06733616
120	0xbb6e9752	-0.0036406112
121	0xbd98c650	-0.074597
122	0x3d67f074	0.0566258
123	0x3c1f8619	0.009736561
124	0x3dd5517a	0.10415931
125	0xbdc4bfc3	-0.09606888
126	0xbd620cd4	-0.055188015
127	0x3d157e49	0.036497388
128	0xbd20decd	-0.03927498
129	0xbd0a5bb5	-0.033778865
130	0x3dba4ae1	0.09096313
131	0xbd8dd52a	-0.069254234
132	0xbc98b50a	-0.018641014
133	0x3d2aadb0	0.041669548
134	0x3dc29baf	0.095023505
135	0xbc206298	-0.009789132
136	0xbd96e2e5	-0.073674954
137	0x3d27e8b7	0.04099342
138	0xbe988dd4	-0.29795706
139	0xbd5c26bc	-0.053747877
140	0x3b862135	0.004093314
141	0x3e402b0e	0.18766424
142	0x3e578cf3	0.21049862
143	0x3d6c3262	0.057665236
144	0x3dd7629d	0.10516856
145	0xbcc14c3a	-0.023595918
146	0xbd9204c4	-0.07129815
147	0xbda30c19	-0.07961292
148	0xbcfd50ec	-0.030922376
149	0x3df35209	0.11880881
150	0xbdfbd279	-0.12296004
151	0xbdc872d9	-0.097875305
152	0x3d99d66f	0.07511603
153	0xbdb1fba0	-0.08690572
154	0x3bf26354	0.0073970947
155	0xbc86325d	-0.016381437
156	0x3d8ffa35	0.07030145
157	0xbd67de17	-0.056608286
158	0x3d8d7539	0.06907124
159	0xbd5d4e55	-0.05402978
160	0xbc803809	-0.01565172
161	0x3c1e487a	0.009660834
162	0x3d16af08	0.036788017
163	0x3d29999b	0.041406255
164	0xbdafb551	-0.08579505
165	0x3d319911	0.043358866
166	0xbd9ae975	-0.0756406
167	0xbd2cacab	-0.042156857
168	0xb80c8916	-3.3506272e-05
169	0x3d003792	0.031302996
170	0xbc586f82	-0.013210179
171	0x3cee7dba	0.029112685
172	0xbd0d7042	-0.034530886
173	0x3c6f0b24	0.0145900585
174	0x3d4c6d5e	0.04990899
175	0x3d29e94f	0.041482266
176	0x3d21a2e7	0.039461996
177	0xbd8ebe6c	-0.06969914
178	0xbd01120b	-0.031511348
179	0x3d0ed8a3	0.03487457
180	0xbd2d00f6	-0.042237245
181	0xbd8415e2	-0.06449486
182	0xbd42e1c0	-0.047578573
183	0x3b5478c6	0.003242062
184	0x3be0341e	0.0068421504
185	0xbc18cd01	-0.0093262205
186	0xbcbd6958	-0.02312152
187	0x3d257365	0.040393252
188	0x3d07574f	0.03304225
189	0xbd53370c	-0.05156617
190	0xbd975320	-0.07388902
191	0xbd1fb7e8	-0.038993746
192	0x3d1a947c	0.037739262
193	0xbd7ca6cc	-0.061682507
194	0x3c8b64d9	0.017015861
195	0xbd19c092	-0.037537165
196	0xbdd6b21c	-0.104831904
197	0x3d9ee2c4	0.07758096
198	0x3dd2dcce	0.102960214
199	0xbd8c1077	-0.06839078
200	0x3bc7514b	0.006082689
201	0xbd9a9a85	-0.075490035
202	0xbdf40546	-0.11915068
203	0xbda3dbbd	-0.08000896
204	0x3d74d6b8	0.059775084
205	0xbd975e4e	-0.07391034
206	0xbcbdc4e0	-0.023165166
207	0xbd3f7318	-0.04674062
208	0x3c86860f	0.016421346
209	0xbd969f94	-0.07354656
210	0x3ac90bf5	0.0015338646
211	0x3db1332d	0.08652339
212	0x3dda0b9f	0.10646748
213	0xbd30b126	-0.043137692
214	0x3b06c410	0.002056364
215	0xbdc62a37	-0.096760206
216	0xbd5b1e0d	-0.053495456
217	0xbaf6e4ff	-0.0018836557
218	0x3d7d6b9a	0.061870195
219	0xbd92b55e	-0.07163499
220	0xbdbc79e7	-0.092029385
221	0xbcc79a47	-0.024365557
222	0xbd574fb9	-0.052566264
223	0x3d7eeefd	0.062239636
224	0xbd49eeb3	-0.049299907
225	0xbd380154	-0.04492314
226	0x3d93e1ba	0.07220788
227	0x3d22c24e	0.039736085
228	0xbc97a931	-0.018513294
229	0xbd4b9136	-0.04969903
230	0x3d42340f	0.04741293
231	0x3d172505	0.03690054
232	0x3d2a3713	0.04155643
233	0x3cc1289d	0.023578936
234	0xbcef7f20	-0.029235423
235	0xbc4a373b	-0.0123422695
236	0x3d49b2b3	0.049242686
237	0x3cc46edf	0.023978649
238	0x3b490bcc	0.0030677198
239	0xbd3674c8	-0.044544965
240	0x3d044f53	0.032302212
241	0xbd68d824	-0.056846753
242	0xbccb6272	-0.024827216
243	0x3d43dc91	0.04781777
244	0x3c4e871c	0.012605455
245	0x3d2d6631	0.042333785
246	0xbd845901	-0.06462289
247	0xbd0f1fc7	-0.034942415
248	0xbd892e5e	-0.06698297
249	0xbd18e76a	-0.03733007
250	0x3c8e99ea	0.017407376
251	0x3d4c1135	0.049821097
252	0xbe207d80	-0.15672874
253	0x3d954b76	0.07289784
254	0xbccb3876	-0.024807196
255	0xbc82d885	-0.015972385

lstm_decoder.weight_hh_l0 f4 [512, 128]
0	0x3d8ba89d	0.0681927
1	0xbd2942e9	-0.041323576
2	0xbc39ac4a	-0.011332581
3	0xbd7b3fa0	-0.061339974
4	0xbd1b0c72	-0.037853666
5	0x3bb940d8	0.005653482
6	0x3d242719	0.04007635
7	0x3d87028a	0.06592281
8	0x3d64a383	0.05582
9	0x3ce37c7c	0.02776932
10	0xbccfb203	-0.025353437
11	0x3d0a434f	0.033755597
12	0x3d2114da	0.039326526
13	0xbd912b35	-0.07088319
14	0x3c53dfe1	0.012931795
15	0xbca78705	-0.020450125
16	0xbc5c9540	-0.013463318
17	0xbcf1eff6	-0.029533368
18	0x3d98af82	0.074553505
19	0xbcd7c521	-0.026339116
20	0xbd5d7cfb	-0.05407427
21	0xbd798eed	-0.06092732
22	0xbd31d333	-0.043414306
23	0x3bf37252	0.0074293995
24	0xbd582d17	-0.052777376
25	0x3d816f77	0.06320088
26	0x3d2c520f	0.042070445
27	0x3cd197d4	0.025585093
28	0xbcefb467	-0.029260827
29	0xbc2a79c7	-0.010405011
30	0xbce5080f	-0.027957944
31	0x3d515b6a	0.05111257
32	0x3c92249a	0.017839719
33	0x3d488389	0.048953567
34	0x3cc4fea9	0.024047213
35	0xbc353256	-0.011059364
36	0xbda86452	-0.082222596
37	0x3cd43d0b	0.025908014
38	0xbd5859a7	-0.052819874
39	0x3d1969d9	0.03745446
40	0x3d52ab93	0.051433157
41	0x3d9c5c5d	0.076348044
42	0xbd8b79a3	-0.0681031
43	0x3d83e1a3	0.06439521
44	0x3d063213	0.0327626
45	0xbcfdc98a	-0.03097989
46	0xbc574bbf	-0.013140618
47	0x3c99f846	0.018795144
48	0xbd9b7b46	-0.07591872
49	0x3d0b0180	0.033936977
50	0xbd5552dc	-0.052080974
51	0x3b7a161f	0.0038160158
52	0xbb39adef	-0.0028332432
53	0xbd6f4d32	-0.05842323
54	0x3d48bbd9	0.04900727
55	0xbcd8f8ee	-0.026485886
56	0xbd9aa5fa	-0.07551189
57	0xb98483f9	-0.0002527533
58	0xbd1facce	-0.03898316
59	0x3d0e38a5	0.03472199
60	0x3d7d6589	0.06186441
61	0xbccc335e	-0.024926838
62	0x3bad998b	0.0052978448
63	0xbd1956aa	-0.037436165
64	0x3d22e7d6	0.039771877
65	0x3d164142	0.03668333
66	0xbccdaae2	-0.025105897
67	0xbd3e75a4	-0.04649891
68	0xbd10fc50	-0.035396874
69	0xbca6e109	-0.020370977
70	0xbcbfedeb	-0.023428878
71	0x3d2b9af1	0.04189581
72	0x3d7a31a7	0.06108251
73	0xbd93c544	-0.0721536
74	0xbd91d198	-0.07120055
75	0x3d56ea3c	0.052469477
76	0x3d59d7be	0.053184263
77	0xbd7e7beb	-0.062129896
78	0x3d06b3e0	0.032886386
79	0x3cb9d159	0.022682833
80	0x3c900c98	0.01758413
81	0xbc46eac7	-0.012140936
82	0x3d30de42	0.04318071
83	0xbdb19ee3	-0.08672883
84	0x3d981792	0.07426371
85	0xbd911683	-0.07084372
86	0xbcbf839c	-0.023378186
87	0x3d19f06a	0.037582792
88	0xbc6755ad	-0.014119548
89	0xbd917931	-0.071031936
90	0xbc750f76	-0.014957299
91	0x3c24b909	0.010053881
92	0xbd8e7fa4	-0.06957939
93	0x3d91e47e	0.071236596
94	0xbbe196a2	-0.006884412
95	0x3d95f19a	0.073214725
96	0xbd99af11	-0.075040944
97	0x3d9e1a45	0.07719854
98	0x3d357937	0.044305053
99	0x3d7b4c65	0.061352152
100	0x3d7555bd	0.05989622
101	0xbda4ed50	-0.08053076
102	0x3cc34be0	0.023839891
103	0xbc363434	-0.011120845
104	0xbd5f54cc	-0.054524228
105	0xbccd060e	-0.025027301
106	0xba9a7905	-0.0011785334
107	0xbcac3a82	-0.021023992
108	0x3d878883	0.066178344
109	0x3d90c5e5	0.070689954
110	0xbdabe872	-0.08393945
111	0x3d271fc1	0.040801767
112	0xbb8330ca	-0.004003619
113	0x3d6cf678	0.05785224
114	0x3d481000	0.048843384
115	0xbc3c32f0	-0.011486754
116	0x3db2b473	0.08725824
117	0x3c1ef7f0	0.009702668
118	0x3d769ec8	0.06021002
119	0xbd96616c	-0.073428005
120	0xbcb6aef7	-0.022300227
121	0xbd84ffc8	-0.06494099
122	0x3d376159	0.044770572
123	0x3c87766d	0.016535962
124	0xbd6b8952	-0.057504006
125	0xbd4d4093	-0.05011041
126	0xbd9601d0	-0.073245645
127	0xbc89f73c	-0.016841523
128	0x3cdaa6e3	0.026690906
129	0x3d9f6760	0.07783389
130	0x3d066565	0.03281154
131	0x3d78311e	0.060593717
132	0x3dac4897	0.08412283
133	0xbd9f8ee5	-0.07790927
134	0x3c9be848	0.019031659
135	0xbcd41fd7	-0.025894089
136	0xbda2e98c	-0.07954702
137	0xbd8db844	-0.069199115
138	0xbd9c5a3d	-0.07634399
139	0x3d67c00a	0.056579627
140	0xbd8fd137	-0.070223264
141	0x3d0d9e14	0.034574583
142	0x3d77f300	0.060534477
143	0xbb3d7f06	-0.0028914823
144	0x3d4b0ff7	0.049575772
145	0x3c282463	0.0102625815
146	0x3d0f0afc	0.034922585
147	0x3d9098dd	0.07060406
148	0xbd0b13c3	-0.033954393
149	0x3bb98d80	0.00566262
150	0xbbd73a06	-0.006568196
151	0x3d389959	0.04506812
152	0xbd352f7c	-0.044234738
153	0x3d7f4dfc	0.06233023
154	0x3d921ca3	0.07134368
155	0xbd4ab85d	-0.04949223
156	0x3ba5d91f	0.0050612832
157	0x3d8a9041	0.067657955
158	0x3d36e10f	0.044648226
159	0xbd2fdd0b	-0.042935412
160	0xbd43d0a3	-0.047806393
161	0x3d9b07ce	0.07569848
162	0x3d9bf277	0.07614606
163	0xbd02db64	-0.03194751
164	0x3c807a51	0.015683325
165	0xbd11ea37	-0.035623755
166	0x3d07d6d5	0.033163864
167	0xbd22e2ff	-0.03976726
168	0xbd618383	-0.05505706
169	0x3d96e8d2	0.07368626
170	0x3bb555bc	0.005533902
171	0x3cb82ec2	0.022483233
172	0xbbb7be63	-0.0056074127
173	0xbcab8aff	-0.020940302
174	0x3d095868	0.033531576
175	0xbba2e1a7	-0.0049707475
176	0x3d9c3a84	0.076283485
177	0x3ca969e4	0.020680375
178	0x3d4476ab	0.047964733
179	0x3d5314b8	0.05153343
180	0xbbbd7ed1	-0.00578294
181	0xbd47950f	-0.048726138
182	0x3ce18236	0.02752791
183	0x3d6de973	0.058083963
184	0xbda55b1f	-0.080740206
185	0xbd23fd63	-0.04003657
186	0x3d92a4c3	0.07160332
187	0xbd679e07	-0.05654719
188	0x3cc0746a	0.02349301
189	0xbc0e778f	-0.008695497
190	0x3be2a3ab	0.0069164834
191	0xbcaf72de	-0.021417078
192	0xbd5b349d	-0.053516973
193	0xbd9ccda7	-0.076564126
194	0x3cf7e55e	0.030260738
195	0xbd8f0fe6	-0.06985454
196	0xbd45b1eb	-0.04826538
197	0xbc332e3a	-0.010936314
198	0x3b526551	0.0032103846
199	0xbd13ac3b	-0.036052924
200	0xbb014c12	-0.001972918
201	0x3ca23518	0.019800708
202	0xbd292776	-0.0412974
203	0x3d29ceac	0.041456863
204	0xbd46b5a6	-0.048513077
205	0x3da5c6c5	0.08094553
206	0xbd649982	-0.05581046
207	0xbdae9a67	-0.08525544
208	0xbbe851c4	-0.0070898253
209	0xbca2b269	-0.019860463
210	0x3d5b8d5d	0.05360161
211	0xbd0e5407	-0.034748103
212	0xbb8239ea	-0.003974189
213	0x3c89c56c	0.01681777
214	0x3ca11285	0.019662151
215	0xbda6553f	-0.08121728
216	0xbcd8ea43	-0.026478892
217	0xbd4b37fc	-0.049613938
218	0xbdaa419b	-0.083132945
219	0x3d92e6ae	0.07172905
220	0xbd861dd2	-0.065486565
221	0x3c4256e8	0.01186154
222	0x3cc11b09	0.023572462
223	0xbd03e2ca	-0.032198705
224	0x3ccb13f0	0.02478978
225	0x3d8c6835	0.068558134
226	0xbd00fe09	-0.031492267
227	0xbd27036e	-0.040774755
228	0xbd490fd4	-0.04908736
229	0xbd2e44ec	-0.042546198
230	0xbd2fd6ea	-0.042929567
231	0x3badc69a	0.005303216
232	0xbda118af	-0.07866036
233	0xbd86c43b	-0.06580397
234	0x3d85e168	0.065371335
235	0x3d52d49e	0.0514723
236	0x3d18719d	0.037217725
237	0x3d104696	0.035223566
238	0x3da2eb60	0.079550505
239	0x3d17e7cc	0.037086293
240	0x3da62172	0.08111848
241	0xbd6917df	-0.05690753
242	0x3d8e40a6	0.069459245
243	0x3d81d4f5	0.063394465
244	0x3c554d60	0.013018936
245	0xbc9f0d2a	-0.019415457
246	0xbcb82fe7	-0.02248378
247	0xb8de5f04	-0.00010603483
248	0xb9c66f86	-0.00037848594
249	0xbda9dd23	-0.082941316
250	0xbb8e0cd8	-0.004335027
251	0x3daf4fd7	0.0856015
252	0xbd90746d	-0.070534565
253	0xbce93394	-0.028466977
254	0x3d26146f	0.04054683
255	0x3cbf17a8	0.02332671

lstm_decoder.bias_ih_l0 f4 [512]
0	0xbd8b8b15	-0.06813637
1	0x3d067457	0.032825794
2	0xbd97d818	-0.074142635
3	0xbc885f39	-0.016646968
4	0x3d18f242	0.03734041
5	0x3d8e24d7	0.069406204
6	0xbd72b992	-0.059259005
7	0xbd8198ec	-0.06327996
8	0xbb32a6c3	-0.0027260042
9	0x3db35b2a	0.087576225
10	0x3b50b407	0.0031845586
11	0xbc353cab	-0.011061828
12	0xbbfd8ee0	-0.0077379793
13	0x3d941422	0.072304025
14	0xbd99169a	-0.07475014
15	0xbcda51a7	-0.026650263
16	0x3d698098	0.057007402
17	0xbce1afde	-0.02754968
18	0x3d1e0686	0.03858044
19	0xbc98a8e7	-0.018635226
20	0x3d62c6b2	0.055365272
21	0x3cb39a7c	0.02192425
22	0x3d131eed	0.035918165
23	0xbca118a4	-0.01966507
24	0xbd932af0	-0.07185924
25	0xbcd5e4af	-0.026110021
26	0xbd8a8199	-0.06763
27	0xb9105f8b	-0.00013768503
28	0xbc8ee9d9	-0.017445492
29	0x3db076d1	0.086164124
30	0xbc237e68	-0.009978868
31	0xbcfcaab4	-0.030843116
32	0x3c4ffcfc	0.0126945935
33	0xbbe2a2e1	-0.0069163893
34	0xbce93473	-0.028467393
35	0x3d8ef50d	0.069803335
36	0x3c4b89c4	0.012422983
37	0x3c888d4e	0.016668942
38	0x3c5b964b	0.013402532
39	0x3d0acd5c	0.033887252
40	0x3c97325a	0.018456627
41	0xbd4ea3d9	-0.050449226
42	0xbd496393	-0.049167227
43	0xbc34546d	-0.011006457
44	0x3da8ba12	0.08238615
45	0xbd772c3e	-0.060344927
46	0xbd1b5ba5	-0.037929196
47	0xbd4582c0	-0.048220396
48	0x3c3a16ae	0.011357946
49	0xbd4fdf28	-0.050749928
50	0xbcaa39ce	-0.020779517
51	0x3d39a79e	0.045325868
52	0xbc862447	-0.01637472
53	0xbce6101d	-0.028083855
54	0x3ce46240	0.02787888
55	0xbd709d25	-0.058743615
56	0xbd83bc9c	-0.06432459
57	0xbcb33b06	-0.02187873
58	0x3c3523fc	0.011055943
59	0x3cb53912	0.02212194
60	0x3da026eb	0.07819923
61	0x3d8f5192	0.0699798
62	0x3da41fe8	0.08013898
63	0x3da8f69a	0.082501605
64	0x3c33d788	0.01097668
65	0xbd4b9305	-0.049700756
66	0xbd667d08	-0.056271583
67	0xbd7dd43d	-0.061969984
68	0xbd6d34ce	-0.057911687
69	0xbd754a66	-0.059885405
70	0xbd5f195a	-0.054467537
71	0xbca0c74e	-0.019626286
72	0x3bc3a6e2	0.0059708217
73	0xbd05dadb	-0.03267942
74	0xbc8b8b77	-0.017034275
75	0x3daafeaa	0.083493546
76	0xbcd3960c	-0.025828384
77	0x3da75912	0.08171286
78	0x3c91d7f9	0.01780318
79	0xbc943aa8	-0.018094376
80	0x3ccd74c9	0.025080102
81	0x3d7f49ce	0.062326245
82	0xbd85f607	-0.065410666
83	0xbd067b18	-0.032832235
84	0x3d96a459	0.073555656
85	0x3d99c9e5	0.075092115
86	0x3da511b3	0.080600165
87	0x3d6428fc	0.05570315
88	0xbd9374be	-0.07200001
89	0xbc87621e	-0.016526278
90	0xbd93d823	-0.07218959
91	0x3d1e87f8	0.03870389
92	0x3c0e469b	0.008683826
93	0x3c567b85	0.013090973
94	0x3d87cef0	0.06631267
95	0xbd2a0a86	-0.041513942
96	0xbc88450d	-0.016634488
97	0x3d54b2c8	0.05192831
98	0xbce4bf96	-0.027923387
99	0xba8ea47f	-0.0010882764
100	0x3d06e73d	0.03293537
101	0xbd5ee934	-0.05442162
102	0x3cc10129	0.023560124
103	0x3c11611b	0.008873249
104	0x3d1e9cba	0.038723685
105	0xbd7ad86a	-0.061241545
106	0x3d47e3ed	0.04880135
107	0xbca11568	-0.019663528
108	0x3d781bb5	0.0605733
109	0x3d89acea	0.06722434
110	0x3d8d72f6	0.06906693
111	0xbd9145c7	-0.07093387
112	0xbd34d542	-0.04414869
113	0xbd9a637b	-0.07538506
114	0x3db3b4e9	0.0877474
115	0x3dacf074	0.084443
116	0xbd7e2849	-0.062050138
117	0xbc90ca99	-0.017674731
118	0xbc291b1d	-0.010321406
119	0xbd7cee15	-0.06175049
120	0xbc1b4ad2	-0.009478288
121	0x3d25ec63	0.04050864
122	0xbd265ef6	-0.040617906
123	0x3d96b38a	0.07358463
124	0xbcd4a9b4	-0.025959827
125	0xbcb7319f	-0.022362528
126	0xbce0c76a	-0.027438838
127	0x3ce30a67	0.027714921
128	0xbcb4a22e	-0.02204999
129	0xbc06672f	-0.008203312
130	0xbcf9d150	-0.030495316
131	0xbc03e8a6	-0.008051073
132	0x3b4d73db	0.0031349573
133	0xbd0219a3	-0.03176273
134	0xbd171e8e	-0.036894374
135	0x3daeddd9	0.08538408
136	0xbd101e9a	-0.035185434
137	0x3d955473	0.07291498
138	0x3d95f17e	0.073214516
139	0xbcbc6e9b	-0.02300196
140	0x3da20564	0.079111844
141	0xbd9218a9	-0.0713361
142	0x3d19dbd5	0.037563164
143	0xbd47a9a4	-0.048745766
144	0x3c670349	0.014099904
145	0x3d2a6479	0.041599724
146	0xbd48d04c	-0.049026772
147	0xb90bfc70	-0.00013350113
148	0x3d355cff	0.04427814
149	0xbcf85d19	-0.03031783
150	0x3bb60c8d	0.0055556954
151	0xbd85c29b	-0.06531259
152	0xbcb85323	-0.02250058
153	0x3dc9385f	0.09825205
154	0xbcb72cc3	-0.022360211
155	0x3cd149f0	0.025547951
156	0x3d7adb76	0.06124445
157	0x3d6136ed	0.054984022
158	0x3d964942	0.073381916
159	0x3c777092	0.015102522
160	0x3bccb987	0.0062477025
161	0xbb79ed98	-0.0038136002
162	0xbd901d1a	-0.07036801
163	0xbc8faf5d	-0.017539674
164	0xbcaea534	-0.02131901
165	0xbd90c554	-0.07068887
166	0x3d7e00b9	0.062012408
167	0xbc0cfafb	-0.00860476
168	0x3ca67776	0.020320635
169	0x3c58534d	0.013203454
170	0x3c8f399e	0.017483529
171	0x3da26bd2	0.07930721
172	0xbcd7fd8a	-0.026366014
173	0x3cd0592b	0.025433144
174	0xbccaf0ae	-0.024772968
175	0x3dab37dd	0.083602645
176	0xbcefe535	-0.0292841
177	0x3d2b83e8	0.041873842
178	0x3bcfafc2	0.0063380906
179	0x3d8de5a9	0.0692857
180	0x3cd62f80	0.026145697
181	0x3d6790fb	0.05653475
182	0x3d313c07	0.043270137
183	0x3c47ac70	0.012187108
184	0xbd8513c0	-0.06497908
185	0xba479d4a	-0.00076146855
186	0xbd836a6b	-0.06416782
187	0xbc6e5e10	-0.014548793
188	0x3bf1d0a7	0.0073796096
189	0xbcb0ab7d	-0.021566147
190	0xbd1e3aa8	-0.038630158
191	0x3cab891f	0.020939408
192	0xbc8f03dd	-0.017457897
193	0x3d71d0d4	0.059037045
194	0xbd980307	-0.074224524
195	0xbda15b36	-0.07878725
196	0x3d66b8a7	0.056328442
197	0x3ce747b3	0.028232431
198	0x3d24118d	0.0400558
199	0x3d7d8808	0.061897308
200	0x3da4a890	0.08039963
201	0xbbbf3dc5	-0.005836221
202	0xbd2df385	-0.042468566
203	0x3ca5d8e7	0.020245029
204	0xbcf43b2c	-0.029813372
205	0xbc01b5bf	-0.007916867
206	0x3d15497b	0.03644703
207	0xbd7790e2	-0.060440905
208	0x3d901bac	0.07036528
209	0xbd842dfd	-0.06454084
210	0xbd4c098a	-0.049813785
211	0xbd868dc4	-0.065700084
212	0x3da6d25c	0.081455916
213	0xbd2f6a51	-0.042826
214	0x3da4cfcf	0.08047449
215	0x3c300bbf	0.010744988
216	0x3cfac63a	0.0306121
217	0x3d44242b	0.047886055
218	0x3d32ee54	0.04368432
219	0xbd442d62	-0.047894843
220	0xbd6aed6f	-0.05735534
221	0xbd27b5d0	-0.040944874
222	0xbd4bcb37	-0.049754348
223	0x3c074d55	0.0082581835
224	0xbcdae7ab	-0.026721796
225	0x3d90c381	0.070685394
226	0x3d51138c	0.051044032
227	0xbdadfe67	-0.08495789
228	0x3c008739	0.00784474
229	0xbd860ce9	-0.06545431
230	0x3d923ee4	0.07140902
231	0x3d81671d	0.063184954
232	0x3d14fc84	0.03637363
233	0xbd166415	-0.03671654
234	0xbd1ff086	-0.03904774
235	0xbda360ed	-0.079774715
236	0x3d1409d7	0.036142197
237	0x3b1b43cc	0.0023691533
238	0x3d715875	0.05892225
239	0x3c74e608	0.014947422
240	0x3b2e9765	0.002664053
241	0x3d214c38	0.03937933
242	0xbd7ee9e8	-0.06223479
243	0x3d007afb	0.031367283
244	0x3d2a1d73	0.04153199
245	0xbc94adeb	-0.018149337
246	0xbd97513f	-0.07388543
247	0xbc1c0cf2	-0.009524571
248	0xbc2b3c79	-0.0104514295
249	0xbd41a710	-0.047278464
250	0xbd7da6d9	-0.061926696
251	0xbda21848	-0.079147875
252	0x3d785e65	0.060636897
253	0x3d8b43f5	0.06800071
254	0x3daa1555	0.0830485
255	0x3db21392	0.08695139
