transformer_no_tanh_with_past_12_Nm_144_Np_lr_0.001_hs_128_ahs_8_nll_1_bs_16_do_0.5_e_200_stride_10/model_transfer_A25_to_J25_0.0n_0.001lr_200e_8days.pth (torch, 831513 bytes, 14 tensors)

lstm_encoder.weight_ih_l0 f4 [512, 8]
00000000: 1045 c63c 8f98 0c3d 5b5f a83d 5316 88bc
00000010: 075a 403c 5510 7ebd e377 073c 5896 9abd
00000020: 8a3b a9bd eca5 36bd e997 823d 532d 4e3d
00000030: 7497 ad3c 1fd0 ccbc 7a0b 423d 39fe 34bd
00000040: 6e3c 6a3c f2a7 b23c f415 003d 71c6 bb3c
00000050: 3473 d0bc b697 513d b74c 783c f2f0 36bc
00000060: 6c47 81bd 9a71 0cbc ce04 84bd 94d2 1f3d
00000070: 8557 a3bd 5164 a63c 0427 793d dcca a63d
00000080: e2e0 29bc 1ef0 50bd 4278 913a 814e 843d
00000090: 7f05 efbc 357f 7dbd cb83 8dbd b3bb 653d
000000a0: 788e 603d 3a04 253d 950f 3d3d 47df 4c3d
000000b0: 3be2 603d 274d ec3c fb0f bbbb f799 883d
000000c0: 2ad8 613c 1671 163d d9b8 8c3d a053 3abd
000000d0: fabc 32bd c192 a93c 226a 5c3d 76db ed3c
000000e0: dc0c 8d3c 09b0 9c3b ba2a 463d 944f 783b
000000f0: 3e79 2f3d 1ee0 85bd 891e 243c 0e96 95bd
00000100: f758 6ebd 8054 473d ff9d 703d c7ba 8c3d
00000110: cf09 ecbc 28ed 913d 88c8 bbbc 8684 783c
00000120: 05c4 833c fcd3 eaba 0078 a2bd c5ea 9e3d
00000130: 5748 13bc d0f4 933d 647f 58bd 1d53 473d
00000140: e33e c93c 67dc 583d b546 9cbd 4d46 05bd
00000150: 92ce 91bb a2b7 843d c283 863d f939 4dbd
00000160: b9e6 233d 99b1 153d 2d9f 253b dd7b a5bd
00000170: 121b a73d f22a 043c 5879 37bd c754 623d
00000180: d936 993c bb4b f33c e104 86ba da6f 1cbd
00000190: 951d 01bd 59b8 96bc 3966 31bd 4f5f 983c
000001a0: 00d9 8a3d ab03 21bd 0062 a03d 63bb 15bd
000001b0: 035c 0f3d 0b7a 1d3d c9b6 a4bb 1276 aebc
000001c0: 7692 22bd 41b7 663d 6bd3 00bd cd3c fcbc
000001d0: 2467 4cbd ef65 9cbd 6488 af3c 47c3 02bd
000001e0: 2665 9f3d b1cd 923c 9e34 2a3d 55dd b6bc
000001f0: 7209 4abd 02fa 46bd 4b12 8c3d 7a58 a03d
00000200: db8c a7bd 31e1 25bd 2139 433d 381d 9e3d
00000210: 46f9 103c 0950 8fbd 79fe 52bd bcc9 39bc
00000220: 837a 04bd 3554 b5bc e447 0a3c 0e9e 913d
00000230: 27fb 213d f22e 8abd 3f77 f6bc b9e2 2ebd
00000240: d5d6 173d fd2c ec3c 7d47 91bd e52a a2bc
00000250: 9794 b93b cf8c 14bd a4e0 60bd cc3a 923c
00000260: 3a92 c6bb ab01 1f3d f9f0 1a3d 0b32 eabc
00000270: ee5b 5a3c 62a9 1f3d a779 99bd 7e6d ba3b
00000280: b43e 0a3d aeef 893b 47e2 243d 0359 6d3d
00000290: fd7c 20bd 787f 6ebc f4cc 5f3d 1170 67bd
000002a0: 793d a0bc c9f8 9d3c 8df0 59bd 5ec6 0dbd
000002b0: bed0 223d 59ea 6b3d fbe5 043d 55ad 503d
000002c0: 7067 86bd 43a1 6bbd 472d a33d 081c 21bc
000002d0: 5272 2fbd d7cc 92bd 5da2 27bd b03f 9b3d
000002e0: 67e1 9a3d b3b2 50bd 910b 3fbd a37b 5d3d
000002f0: e7d3 3a3d bd06 a73c 2de3 03bd b4f6 3d3c
00000300: 0e15 2fbd d623 1e3d 669e a93d 9f6e a8bd
00000310: 194d f0bc c94f 99bc 18cb 8c3d 507c a63d
00000320: c966 9cbd 44ca 493c 17e8 08bd 2b5e 7b3d
00000330: 49a4 60bd 9403 30bd bb25 113d b30c 613d
00000340: 1df4 eebc 8aa0 88bd da3e 95bd 0162 8ebd
00000350: 4d56 2cbd cbff 17bd 7b8f 38bc d3ae 9fbd
00000360: 7652 5c3d d728 86bd a64a 833d 1bc1 3c3c
00000370: 5c8b af3d 0bae fabc ef91 17bd d23b 233d
00000380: bdf1 a2bd 134c 58bd baeb 5cba 9062 81bd
00000390: b952 9a3d bb58 963d adf9 843d ef32 8d3d
000003a0: a124 f93b f26f 453d 5b82 a43d 98b8 2b3d
000003b0: abe8 82ba 0913 9a3c d7f2 803d 5d4c b6bc
000003c0: bacc 83bd 509c 9c3d 6a8c 56bd f03d 7dba
000003d0: d48f 823d d755 513c de2c 01bd 9e64 f3bc
000003e0: 802e 9bbb f77b abbc 56ab 38bd a518 963d
000003f0: 1cbd 173d 4c83 9d3d fe28 a5b9 3051 84bd
0.024202853 0.03432518 0.082213126 -0.016612208 0.011740214 -0.062027294 0.008268329 -0.07548207
-0.08263309 -0.04459183 0.06376631 0.050336193 0.021190383 -0.025001584 0.047374226 -0.044187758
0.014296634 0.021808598 0.031270936 0.022921773 -0.025445558 0.051170073 0.015155009 -0.011165844
-0.06312451 -0.008572007 -0.06446229 0.039019182 -0.079756774 0.020311506 0.060828224 0.08144161
-0.010368558 -0.051010244 0.0011098462 0.06460286 -0.029177425 -0.061888892 -0.06909903 0.056087207
0.05482337 0.040287234 0.04615744 0.05001762 0.05490325 0.028845383 -0.005708692 0.066699915
0.013784448 0.03672894 0.068711944 -0.045489907 -0.043637253 0.02069986 0.053812154 0.029035311
0.017218046 0.004781727 0.04838059 0.003788923 0.042840235 -0.065368876 0.010017046 -0.07304011
-0.058190312 0.04866457 0.058744427 0.068715625 -0.02881327 0.07125312 -0.02292277 0.015168315
0.01608468 -0.001791596 -0.079330444 0.077596225 -0.008989415 0.07224429 -0.052855864 0.048663247
0.02456612 0.052944567 -0.07630674 -0.032537747 -0.004449674 0.06480338 0.065680996 -0.050104115
0.040014956 0.036546323 0.0025271878 -0.08080266 0.0815946 0.00806688 -0.044793457 0.05525663
0.018702911 0.029699197 -0.0010224843 -0.038192607 -0.031522352 -0.01839845 -0.043310378 0.018600134
0.06779671 -0.03931014 0.07831192 -0.03655566 0.03499986 0.038446467 -0.0050266725 -0.021296535
-0.039690457 0.05632711 -0.031451624 -0.03079071 -0.04990305 -0.0763663 0.02142734 -0.031924512
0.077829644 0.017920347 0.041554086 -0.022322336 -0.049325414 -0.04857827 0.068394266 0.078293756
-0.08181163 -0.040497962 0.047661904 0.07720417 0.008848494 -0.06997687 -0.051512215 -0.011339601
-0.0323434 -0.02213488 0.008439992 0.07110225 0.03954616 -0.06747235 -0.030086158 -0.04269669
0.037070114 0.028830046 -0.070937134 -0.019795844 0.0056634652 -0.036267098 -0.054901734 0.017850302
-0.006059912 0.03881995 0.037827466 -0.028588315 0.013327582 0.038979895 -0.074939065 0.005689322
0.033751205 0.0042094802 0.040254857 0.057946216 -0.039181698 -0.014556758 0.054638818 -0.05650336
-0.019560562 0.01928367 -0.053207923 -0.034613006 0.039749853 0.05759654 0.03244589 0.050946552
-0.06562698 -0.057526838 0.0796762 -0.009833343 -0.042833634 -0.07167976 -0.040926326 0.07580507
0.07562523 -0.05095167 -0.04664189 0.054072987 0.045612242 0.020388955 -0.032199074 0.011594463
-0.04274469 0.038608395 0.08282165 -0.08224224 -0.029333638 -0.018714802 0.068746746 0.081291795
-0.07636792 0.01231629 -0.033424463 0.061369102 -0.054844175 -0.042972162 0.035436373 0.05494375
-0.029169137 -0.066712454 -0.072873786 -0.069522865 -0.04207449 -0.037109178 -0.011264677 -0.07797017
0.05378958 -0.06550758 0.064107224 0.011520649 0.085715026 -0.030600568 -0.037004407 0.03985197
-0.07956264 -0.052806925 -0.000842746 -0.063176274 0.07535309 0.07341143 0.064929344 0.068944804
0.0076032435 0.048202462 0.08032676 0.04192409 -0.0009987553 0.018807905 0.06296318 -0.02225321
-0.06435533 0.07647002 -0.052380003 -0.00096604135 0.06375089 0.0127768135 -0.03153693 -0.029711064
-0.004735768 -0.020933134 -0.045085274 0.07328919 0.037045583 0.076910585 -0.00031501794 -0.06460798

lstm_encoder.weight_hh_l0 f4 [512, 128]
00000000: 3b79 50bd e829 7fbc c6a4 68bc 8c84 50bc
00000010: 5153 31bd 687f a1bd 3e91 08bd f761 e03c
00000020: 69d5 68bd d03f 1ab9 c63e 4d3a 8a90 583c
00000030: db15 34bc 758e 873d a5be 7bbc b469 393d
00000040: b36b 98bd e153 8d3d 3b21 df3b ae3c 733d
00000050: 90e2 8dbd bacc 9e3d 9670 91bb 71ad 153d
00000060: 0b70 6f3d bd54 ef3b b406 903d 4974 883c
00000070: e538 6cbd be5d 813d 750e 6dbd 7b35 7f3d
00000080: c5d0 bd3b 8b0f f5bc 0c97 8c3d 423b bcbb
00000090: 9cdd e3bc 77fb 903d c25f 5b3c de98 173d
000000a0: 742d 88bd 602d 7b3c d094 933d e147 823d
000000b0: ac76 773c dfa0 85bd 4ba8 883d c17e 47bd
000000c0: 5ca2 16bd d311 0ebd ad18 52bd cbc1 84bb
000000d0: 221b 693d 2818 983c a032 b8bc 9608 dfba
000000e0: 544d 8abc 31a2 62bd c7af 70bd 2bb6 9bbc
000000f0: b184 49bd 7b8d 2fbd 1321 e13c ce4b a1bd
00000100: 477f 713d 0f16 6c3d eb32 c4bb 4299 71bd
00000110: a467 5bbd 8c15 2e3c e761 32bd 15a5 023d
00000120: 847d 11bd 6862 8b3d 465d 783d 2c8f e1bb
00000130: c400 34bd 2a3e 8f3d 7c0e 39bd ae83 fa3c
00000140: 7b28 8ebc f32b a9bc 3486 90bd aaa5 aabd
00000150: 458c 9abd 27b3 e7bc b370 863d a025 ae3b
00000160: 3307 0abd 5fb7 473d 9c85 abbc 3ae5 183d
00000170: 6e5a 683d 9eaf 883d d464 72bd 6a28 e2bc
00000180: 558c cbbc b9f8 9b3d 2dd7 04bb 8fe7 a7bd
00000190: c9f0 303d 529d 6c3c 9af9 8bbd 5a8a 48bc
000001a0: 37a5 48bd e259 b63b c4c7 0f3d 9bac dc3b
000001b0: bab1 d13c f62f 4fba 048e f7ba b782 9fbd
000001c0: 8089 ee3c 93bc 5e3d 99f3 573d 78d7 943d
000001d0: 3886 bc3c 544f 9a3d f922 223d 3b2c 80bd
000001e0: 61cd 633d f760 74bd 15dd 1c3d 702e 103d
000001f0: 4a61 7f3d a388 1c3c 0926 9abd 141b 123d
00000200: 7aad d6bb 2d0a 963d 78d5 1d3d 93b7 623d
00000210: 4a45 a3bd 2a45 1e3d fdc9 2cbd 5f56 7fbd
00000220: d792 88bd 19bd 253d 01c5 853d e00b 3dbd
00000230: 6f47 5fbd 1bbd 9abd ee8a 013d 51d9 3a3c
00000240: f0e4 733c ea27 c83a e754 16bd cacf 8f3d
00000250: f078 98bd 3761 213b 2c65 1b3c 2170 abbc
00000260: a3c3 a9bd fc9b ed3c 6016 a03d 72b7 783d
00000270: 862d 103d ce33 63bd dddf a8bc f7b4 693d
00000280: 446b c23c c329 87bc 763e 423d 60f1 52bc
00000290: 70bf 983d 5cf0 743c b277 543d adc3 1ebd
000002a0: 4cbe 92bc 8c68 3cbd c942 843d e24b 2abd
000002b0: 2832 49bd 81de dd3c fa70 c03b 0383 3fbc
000002c0: 58b2 463d bf95 1d3d 9635 53bd f334 29bd
000002d0: d5fe 93bd 96e0 2ebd 6016 313d 1489 40bd
000002e0: b28d 55bd a9d3 92bd c95d 503d 807d 803c
000002f0: 4d7d 51bb e405 513d bf52 56bc 0d7e 3d3d
00000300: d58b 143d 71a9 363c d40a 74bd a28d 443d
00000310: d8bb 59bd cbaa 9ebd eb01 6abd e2cc 5e3d
00000320: bf9c 8f3c 3b5e 7c3d 95ee 953d e4ec 923d
00000330: d653 e7bc cba0 84bd 5bb4 0c3d a4f7 7e3d
00000340: 87a1 4d3d a92f 3d3d 29d7 8bbd 10d2 39bd
00000350: 534b 98bd ded4 41bd ee31 68bd a49c 51bd
00000360: e35e 80bd df32 77bd 96f7 7ebd 80e4 a2bd
00000370: df5e fa3c bc3d 123d 8ee7 db3c dc55 ecbc
00000380: a61d 16bd 7ad6 a437 53b1 4bbd 37a1 8dbd
00000390: 2c02 323c 29fc 233d 3f47 a7bd cd5f 77bd
000003a0: c57b 48bb 9d73 903d bb76 7fbd 5f80 91bd
000003b0: e8ee 46bd d8ae dabb 5ec6 313c 5584 943d
000003c0: ed7f 4b3d d7fa 9bbc d1bd 5ebd 2312 5cbd
000003d0: eb74 183d 434d 16bd c101 5e3d 138d 6d3d
000003e0: b268 5cbd 49d1 a1bc 836e 96bd f550 39bd
000003f0: 4b80 25bd 5f15 5bbd e4c7 88bb 28e3 3b3d
-0.050896864 -0.015573956 -0.014199441 -0.012726914 -0.043292347 -0.07885629 -0.03334164 0.027390463
-0.05684415 -0.00014710356 0.00078294834 0.013218055 -0.010991539 0.066189684 -0.015365277 0.045266822
-0.07442417 0.06900764 0.0068093813 0.05938404 -0.06927979 0.07753892 -0.00443847 0.03654236
0.058456462 0.0073038028 0.070325285 0.016657012 -0.057671446 0.06316708 -0.057875115 0.062306862
0.0057927095 -0.029914638 0.068647474 -0.005744369 -0.027815633 0.07079213 0.01338953 0.03701102
-0.066492945 0.015330642 0.07206118 0.06361366 0.015103977 -0.06524824 0.06672724 -0.048704866
-0.03677593 -0.034684967 -0.051293064 -0.0040514222 0.05691064 0.018566206 -0.022485077 -0.0017016109
-0.016882576 -0.05533046 -0.058761384 -0.019007763 -0.04919881 -0.042859536 0.027481591 -0.07875787
0.05895927 0.057638224 -0.005987515 -0.05898405 -0.053565636 0.010625254 -0.0435504 0.031895716
-0.03552009 0.06805879 0.060635827 -0.0068835225 -0.043946043 0.06994279 -0.04517983 0.030580368
-0.017353287 -0.02065084 -0.07056847 -0.08332379 -0.075462855 -0.028283669 0.065644644 0.005314544
-0.033698272 0.04875886 -0.020937733 0.037327982 0.056726865 0.06674121 -0.05917819 -0.027607162
-0.024847189 0.076157995 -0.0020269856 -0.08198463 0.04319838 0.014441805 -0.06834717 -0.012240017
-0.048985686 0.005564914 0.03510262 0.0067344434 0.025597442 -0.000790357 -0.0018886928 -0.07788604
0.0291183 0.054379057 0.052722547 0.0726766 0.02301322 0.07534662 0.039584134 -0.06258436
0.055615786 -0.059662785 0.038296778 0.035200536 0.06234864 0.009554061 -0.07526786 0.035670355
-0.0065514417 0.073261596 0.038533658 0.05535085 -0.079722 0.03864018 -0.04218482 -0.06233823
-0.066686325 0.04046354 0.06531716 -0.046153903 -0.054511484 -0.075556 0.031626634 0.011404351
0.014886126 0.0015270684 -0.036702063 0.070220545 -0.07444942 0.0024624595 0.0094845705 -0.02092749
-0.08289268 0.029005043 0.07816768 0.060721822 0.035199665 -0.055469327 -0.020614559 0.057057347
0.023732789 -0.016499406 0.04742285 -0.012874931 0.07458389 0.014949884 0.051871963 -0.03876083
-0.017913006 -0.04599814 0.06458051 -0.041576274 -0.0491201 0.027083637 0.005872843 -0.0116889505
0.048509926 0.038472887 -0.051564775 -0.041310262 -0.0722634 -0.04269465 0.04323423 -0.047005728
-0.052137084 -0.07169277 0.05087069 0.015684843 -0.0031965554 0.05103101 -0.013081252 0.04626279
0.036266167 0.011148796 -0.05958064 0.047986634 -0.053157657 -0.0774742 -0.057130735 0.05439461
0.017530797 0.061613303 0.073208965 0.071740896 -0.028238218 -0.06475981 0.034351688 0.062247887
0.050202873 0.04618803 -0.06828148 -0.045366347 -0.07436242 -0.047322147 -0.05668824 -0.051174775
-0.06268098 -0.06035125 -0.062247835 -0.07953739 0.030562816 0.035703406 0.026843812 -0.028849535
-0.03664937 1.9650197e-05 -0.049729656 -0.06915515 0.010864776 0.0400354 -0.08167886 -0.060394097
-0.003059135 0.070533015 -0.06236909 -0.07104563 -0.048567683 -0.006673675 0.010850517 0.07251803
0.049682546 -0.019040508 -0.05438024 -0.053728234 0.037220877 -0.036694776 0.05420089 0.057995867
-0.053810783 -0.019753115 -0.07345297 -0.045243222 -0.040405553 -0.053487178 -0.0041742194 0.04587093

lstm_encoder.bias_ih_l0 f4 [512]
00000000: 27aa 5bbc 46bb fbbc c3c7 1bbd c6d9 203c
00000010: bcd8 12bd d038 e93c dd4b 833d 9275 353d
00000020: 2b4a abbd ce46 b33c 075a d0bc 293d 4b3d
00000030: bf34 ebbc 1b89 0e3d 3944 a43d 7e79 e5ba
00000040: f3a0 e83b 9195 1ebd 7764 aebb 12f2 96bd
00000050: 0c03 90b8 55e4 89bd 0ca1 e4bc b790 3a3c
00000060: 8391 ad3b 7c01 a23d 5422 463c f63e 50bd
00000070: 99bd 653c f88d 663d b32a 103d 33e4 fabc
00000080: b5d3 dd3c 107d 853c dccc c4bc 2561 c8bc
00000090: 1174 1f3d 2a13 313d 611c 9fbd 3455 b8bc
000000a0: 16c3 20bd 0709 86bd a2e7 2d3d 2fbb 1f3d
000000b0: ae1c 753d 7bc7 6e3c c3af a9bb a3e6 923d
000000c0: 5411 0c3d f7be 603d b241 5f3d 9d73 ac3d
000000d0: 5c63 44bd 7745 ef3b fda2 7abd cd14 ecbc
000000e0: 07c3 c8bc 09b9 f63c 5f6e a73d 3184 d9bc
000000f0: 7e40 db3c dc0c 983d fa9a 043d 1b8f 7e3d
00000100: eb1e a3bd 99bf a7bd f200 863c 7c56 9fbd
00000110: 2bd1 9aba b970 8a3d a196 92bb 8eef b9bb
00000120: 3f76 c3bc 46c1 43bd d3ce 6a3d a648 13bd
00000130: ea1b 483d 02db ffbb d1c1 c93c 19cc 86bd
00000140: a79a 0ebd 1cff c23c 5612 26bd 16d6 7bbd
00000150: 6526 9fbd e8e9 06bd 7a01 eebb a7ed 7c3c
00000160: 8080 a6bd b033 e0bc bb62 efbc fbb4 dfbb
00000170: 8408 4dbd dc8e 31bd 2623 9bbd de8c 8e3d
00000180: ef19 0ebd 0134 a23d d1fe 7ebc 8d02 f03c
00000190: 9fdb 2c3d 6e32 043d 75d0 dbbc 6826 573d
000001a0: 4bf9 cf3c a2f5 a8bc a68e 0b3d a1bf abbc
000001b0: 0df4 debb 0388 01bd 87be 38bd e5bb a8bc
000001c0: 822a aebc a2dc 74bd 9a73 403b c982 0a3c
000001d0: 2a0d 8abc 2416 1d3d 3bd4 3dbd 76e9 e9bc
000001e0: 43c4 313c f1cf 88bd 2007 2dbc d4ef 35bd
000001f0: c13a 87bd c792 e3bc 7b76 513d d596 853d
00000200: 7cae 3c3d 4803 203d dc12 9bbc ba24 ff3c
00000210: d3dd 8bbd 6216 663d 8c39 303d 006b b13d
00000220: 0b1c b23b 55cd 35bc 9bf9 8d3b 2e24 fd3b
00000230: c25a 1cbd facf 7cbd 8d2f d83c d16e 8a3d
00000240: 3d19 253d 654e 7fbd b448 6cbd 688c 563c
00000250: f5d0 29bc 8d0a 98bd 24b5 93bd f1c7 163d
00000260: 3551 7f3d 321a 103b ce0a 4d3d fcd1 563d
00000270: a964 55bd 575e bfbc 364c a43d d85c 49bd
00000280: 3d5c 59bd 80d0 973d 0dcf 52bd 0974 a13d
00000290: 14da f9bc 3b37 cdbc 03a6 a03d 19fb 133d
000002a0: ba15 16bc f31c 0dba 7b7c a93c 1c48 5e3d
000002b0: 9cec 9ebd 8026 5cbc 8c15 5e3d f854 723d
000002c0: a644 973d 9a05 48bc 5d26 12bb e2c4 32bd
000002d0: 7f1e e7bc 289f 96bb fa65 dc3a 91c9 6d3d
000002e0: 1f54 aabd e795 dcbc 95f2 073d e9f6 39bb
000002f0: 326e 86bd 481c 243c 52cd 43bd 6f3e f1bc
00000300: 2fad 4a3d 4eae d93c 417d 2fbd 60f9 a3bc
00000310: 7020 513d ef82 43bd b223 98bd 253e ee3c
00000320: ab0e 563d 3d0b a5bc b062 813c 2a9f 84bd
00000330: 4112 9c3d 0895 a53d ebe2 7cbd 6eee 0c3d
00000340: 80ac a0bd 6f1f 46bb fa3f efbb 6e2c 59bd
00000350: 3218 9a3d d079 c43c cbcd a8bd 1a5c a33d
00000360: cf01 903d fc1b 873c 77d0 6fbd 4889 5b3d
00000370: 0894 e13c 6ce8 e83a 2646 9dbd b80f 8f3c
00000380: 160f 263d f267 603c 65ad 66bd 1358 a13c
00000390: ed46 4cbd 2c67 3ebd 6c3a 95bd 061f 1bbd
000003a0: 3a1b e13c 008d c93c c418 ef3a 5eb4 19bd
000003b0: 71f3 a43d b0f6 6d3d 8a52 98bd bd24 773d
000003c0: b875 a23d 77f0 a73d 25ce 0bbd 1621 76bd
000003d0: 8bab 8b3d b789 6e3c 1679 9ebd 479a 7ebd
000003e0: e2b8 07bc 0b03 75bc aa05 3c3d 4994 bbbb
000003f0: f522 1ebb 9d63 963d e65b 6cbd aa6a 30bd
-0.013407267 -0.030728947 -0.038032304 0.009817546 -0.035851225 0.028469473 0.06410954 0.044301577
-0.08363756 0.021884348 -0.025433553 0.049618874 -0.028711675 0.034798723 0.08020825 -0.0017507521
0.0070992648 -0.038716856 -0.005322035 -0.0737039 -6.8670226e-05 -0.06733004 -0.027908824 0.011387042
0.0052968874 0.07910439 0.012093145 -0.050841294 0.014022254 0.056287736 0.03519697 -0.030626392
0.027078489 0.016294986 -0.024023466 -0.024460385 0.03892905 0.043231167 -0.07769085 -0.022501566
-0.03924855 -0.065446906 0.04245723 0.03899687 0.059841804 0.014573927 -0.005178423 0.07172897
0.034196213 0.05486962 0.05450601 0.08420489 -0.04794632 0.007301982 -0.061190594 -0.028818512
-0.024507059 0.030117529 0.081753485 -0.026552292 0.02676415 0.07424328 0.03237436 0.062148195
-0.079648815 -0.08190841 0.016357873 -0.077801675 -0.0011811604 0.067597814 -0.004473523 -0.005674309
-0.023860095 -0.04779174 0.05732615 -0.035957955 0.048854746 -0.00780809 0.024628552 -0.06581897
-0.034815457 0.023803286 -0.04054483 -0.061483465 -0.07770995 -0.032937914 -0.0072633596 0.01543752
-0.08129978 -0.027368397 -0.029221883 -0.0068269945 -0.05005695 -0.043349132 -0.075750634 0.06960462
-0.0346927 0.07920075 -0.015563683 0.029298091 0.042201634 0.032274656 -0.026832798 0.05252686
0.025387427 -0.02062494 0.034071587 -0.0209654 -0.0068039955 -0.03162385 -0.045103576 -0.020597408
-0.021260504 -0.059780724 0.002936578 0.008454033 -0.01685198 0.038351193 -0.046344977 -0.028553706
0.010850015 -0.06680287 -0.010560781 -0.04441817 -0.06603003 -0.02777995 0.051138382 0.065229096
0.04606484 0.03906563 -0.018929891 0.031145442 -0.06829419 0.05617369 0.04302363 0.08662987
0.005435472 -0.011096318 0.004332734 0.00772526 -0.03817249 -0.06172178 0.026389861 0.06759418
0.040307272 -0.062330622 -0.057686523 0.013094999 -0.010364761 -0.074238874 -0.07212284 0.036811773
0.062333304 0.002198827 0.050059132 0.05244635 -0.05209795 -0.023360414 0.080223486 -0.04916081
-0.05306648 0.07412815 -0.05146699 0.0788346 -0.030499496 -0.02505075 0.07844164 0.036128137
-0.009160453 -0.0005383037 0.02068924 0.054267988 -0.077599734 -0.0134369135 0.054219767 0.059163064
0.073861405 -0.012208367 -0.0022300698 -0.043644793 -0.028212784 -0.0045966096 0.0016815059 0.058053557
-0.08316826 -0.026926948 0.03319033 -0.002837593 -0.06563987 0.010016508 -0.04780323 -0.029448716
0.049481567 0.026572373 -0.04284406 -0.020016372 0.051056325 -0.04773229 -0.07428683 0.029082367
0.052260082 -0.02014696 0.015794128 -0.06475671 0.07620669 0.08085066 -0.061739843 0.03440707
-0.07845402 -0.0030231138 -0.007301328 -0.053020887 0.07524146 0.023983866 -0.08242377 0.07976551
0.07031595 0.016492836 -0.058548417 0.05359772 0.027536407 0.0017769462 -0.076793954 0.01746355
0.04054173 0.0136966575 -0.056317706 0.019695317 -0.049872328 -0.04648511 -0.07286534 -0.037871383
0.027478803 0.024603367 0.0018241634 -0.037525527 0.08054245 0.058096588 -0.07437618 0.06033777
0.07932609 0.08200162 -0.03413214 -0.060090147 0.068198286 0.014559201 -0.07737939 -0.06215885
-0.008283826 -0.014954339 0.04590384 -0.005724464 -0.0024129723 0.073432185 -0.05770483 -0.043070473

lstm_encoder.bias_hh_l0 f4 [512]
00000000: b701 17bd c82c 883b 9cb8 2f3d 6523 d13c
00000010: 6c9f 21bc f5d8 853d e5b9 91bc 71d1 313d
00000020: ff62 a6bd 2ea9 eb3c f469 81bd 1df1 573c
00000030: 5bd4 973c d322 da3c fd34 3cbd 9c38 913d
00000040: a245 903d 3066 9dbd c57d 9f3b f7df 81bd
00000050: 6030 f13b 581f 51bd 5a86 68bd f213 efbc
00000060: a562 3ebc ed1d ee3c b6e0 f5bb 2aa4 923d
00000070: 1967 7bbb 7d3b 873d d57f 74bd b320 a33d
00000080: 2a58 fa3c 2c33 4abd 52c0 453c cdeb deba
00000090: bb09 bc3c 4fab 3fbd 3b8d 71bd ae53 bf3c
000000a0: 2833 9ebd 76a9 f5bc 8881 0c3c 9601 673c
000000b0: df73 52bd 298a a33d 9f79 5cbd ccab 253d
000000c0: 511e b9bc 4944 3c3d 2e42 313d 69b8 e83c
000000d0: 2cc3 2ebc 3920 893c 6c2c c53c c0d0 2e3d
000000e0: 7e7c a2bd d8f2 713d eb00 fcbb c4ed 78bc
000000f0: b956 9abd 93d0 9a3c 1f03 883d 8263 013d
00000100: b30a 3bbd 4ce1 433d e34b 533d eb48 a4bd
00000110: d734 e73b e8ef 823c b542 c13c 7ab7 14bd
00000120: 0f91 bbbc 96cb 30bd 924e 133d 1ffe 60bd
00000130: 3721 66ba 0179 8739 5a9a bf3c e60d 8a3d
00000140: fdaa 6cbd 48af 64bd 2283 8f3d e86f 0b3d
00000150: 1a32 d4bc af61 26bd 1247 84bd cf15 99bd
00000160: 58e3 833d c3f0 593c feaa a3bd 418b 6d3c
00000170: 9db7 d6bc 27b4 333d 9918 f33c c97e 07bd
00000180: e54b 7b3d 0712 e63c cdee 8f3d e16b 71bd
00000190: 1531 f73c b72b 1abd 95c0 afbb 086e 463d
000001a0: 59f8 b33c 0ba6 9cbc 5fdb 6d3d b34b bbbc
000001b0: 3c1a eb3b 6565 823d 71f3 c63b 01d4 2c3d
000001c0: 0592 84bd 74ed 993d fa94 23bd 66ed 6ebd
000001d0: 7a29 4dbd 1c39 24bd 2aad 313d ec15 88bd
000001e0: 8831 8a3d 6b9f 42bd 85ff 51bd 180f 98bd
000001f0: c964 ec3c ce91 213d f4c5 2abc b31a 82bc
00000200: 1d9a bbbc 3e69 25bd 5407 51bd a22a 83bd
00000210: c2a7 92b9 0d41 8abc 0a5e 723d fefc b23c
00000220: d72d 0c3c a9d9 d03b b43d 8f3d 3c3e 07bd
00000230: 2e7f 4bbd b470 88bc 8d1c c6bc 8842 5abd
00000240: 4d9a fd3c 8123 8d3d d4b6 77bd 0176 d5bc
00000250: 061f 003d 24de 343d fb8f cd3c d574 513d
00000260: 8f77 84bd 4dd5 ccbc a33d d6bb 67bb 72bd
00000270: 375f 2b3d 739c 54bd 0a96 2dbd 0028 553c
00000280: f88d 50bd f59b ff3a b09b 853d f3ee 853d
00000290: fdfa 83bd 734b 3d3d c535 8cbd b3bc 9f3d
000002a0: e85a 7bbc 7881 4ebd 2126 a83c 32f8 c93b
000002b0: 0830 343d 19af a33d 2d19 e4bc 0e1c 163d
000002c0: 6cf3 043d 7232 57bd ca8b b2bc 8b24 22bd
000002d0: f5b1 d0bc 400c 82bd b15e 4dbc 28ec 70bd
000002e0: 6e22 50bc 2139 b33c 6dcd 4d3d c36f 583d
000002f0: 9c48 b9bc 3869 5d3d 0999 91bd e030 ab3d
00000300: 3f5f 48bd 2fe9 e73b dad9 aebb 0af3 213d
00000310: d0e5 9c3d 800a 7b3d e580 af3d e94c bfbc
00000320: 0fd9 06bc 0fec 833d 27fd 67bd 00d4 c83c
00000330: e369 d1bc cddc 03bd 6022 193d 8dec 173d
00000340: a2be 55bc 8f16 623d c403 083d 7c9e 5c3d
00000350: 972d eabb 96f2 20bd 4433 4a3d be47 a2bd
00000360: 1234 49bd de0a 2cbd 036e cdbb cee3 c0bc
00000370: f817 2b3d 9630 3a3c 010d aa3d 68b9 db3c
00000380: 1298 213d e82e 9ebc 84b7 9bbc 34e0 4c3d
00000390: 449c f33c a32f 0a3d 4b61 03bb ad9f 4d3d
000003a0: 47fe dc3c 3c47 80bd 7946 9b3d 091c 143b
000003b0: 7648 82bb 10dd 973c 2052 46bc 4708 0fbd
000003c0: 11e6 893d 164a 0c3d ce27 c5bc 98bd 12bd
000003d0: 0221 9f3d d426 91bd 3d0b 29bd ad64 b2bc
000003e0: e1da 0abd e608 52bd f8eb 5b3d a13d f7bc
000003f0: deae 963d c8dc 0e3c 68fa 64bd 902f e03c
-0.03686687 0.004155729 0.042900667 0.025529573 -0.009864669 0.06535522 -0.017788837 0.04341263
-0.08124351 0.028767195 -0.06319037 0.0131800445 0.018533876 0.026627934 -0.04594897 0.070908755
0.070445314 -0.07685506 0.004867288 -0.06341546 0.007360503 -0.051055282 -0.056768753 -0.029184315
-0.011620198 0.029067004 -0.0075035943 0.07160218 -0.0038361012 0.06603143 -0.059692223 0.07965221
0.030559618 -0.049365208 0.0120697785 -0.001700753 0.022953859 -0.046794232 -0.05897258 0.023355331
-0.07724601 -0.029988032 0.0085758045 0.014099499 -0.051380035 0.07985336 -0.053826924 0.04044704
-0.022597464 0.04596356 0.043276004 0.028408246 -0.01066665 0.016738998 0.024069034 0.04267955
-0.07933901 0.059069484 -0.007690539 -0.0151934065 -0.07536072 0.018898284 0.0664122 0.03158904
-0.0456645 0.04782228 0.051586043 -0.080217205 0.0070558595 0.015983537 0.023591379 -0.03630779
-0.022896318 -0.043162905 0.035963602 -0.05492985 -0.0008778753 0.00025839361 0.02338903 0.06740932
-0.057780255 -0.055831224 0.070074335 0.03404227 -0.025902797 -0.040620502 -0.06458868 -0.07474863
0.06439847 0.013302031 -0.079915985 0.014498533 -0.0262106 0.04387298 0.029674815 -0.033079896
0.061351676 0.028084768 0.070279695 -0.058940772 0.030174771 -0.037639346 -0.0053635337 0.048444778
0.021969007 -0.019122144 0.058070537 -0.022863245 0.0071747582 0.06366996 0.006071501 0.04219437
-0.064731635 0.07515994 -0.039936997 -0.05833187 -0.050088383 -0.040093526 0.043378033 -0.06644806
0.067477286 -0.047515314 -0.051269073 -0.07424754 0.028856652 0.03944569 -0.010423172 -0.015881872
-0.022900635 -0.04038357 -0.05103238 -0.06404616 -0.0002797228 -0.016876722 0.059171714 0.021849152
0.008555851 0.0063736034 0.06994191 -0.033018336 -0.049681835 -0.016655304 -0.024183536 -0.053286105
0.030957365 0.068915375 -0.060477093 -0.026057245 0.031279586 0.044157162 0.02509307 0.05113681
-0.064681165 -0.025004053 -0.0065381094 -0.059260752 0.04183885 -0.051907014 -0.042379417 0.013010025
-0.050916642 0.0019501435 0.06523836 0.065397166 -0.064443566 0.046214532 -0.06846193 0.077996634
-0.015341498 -0.05041644 0.020525994 0.0061636204 0.04399112 0.079923816 -0.027844036 0.03664785
0.032458708 -0.052538343 -0.021795172 -0.03958563 -0.025475482 -0.06349993 -0.012534783 -0.058818966
-0.012703521 0.021877827 0.050244737 0.05284096 -0.02261763 0.054055423 -0.07109267 0.083589315
-0.04891896 0.007077358 -0.0053360285 0.03953842 0.07661021 0.06128931 0.085695066 -0.023352103
-0.008230462 0.06441509 -0.05663791 0.024515152 -0.025563186 -0.032192994 0.0373863 0.037090827
-0.013045939 0.055197295 0.033206716 0.05386208 -0.007146548 -0.039293848 0.049365297 -0.0792384
-0.049121924 -0.04200255 -0.006269218 -0.023546126 0.041770905 0.011364123 0.083032615 0.026821807
0.039451666 -0.019309476 -0.019008406 0.050018504 0.0297376 0.033736836 -0.0020047005 0.050201107
0.026976718 -0.06263587 0.07581801 0.0022599718 -0.003975923 0.018538028 -0.012104541 -0.034920003
0.06733335 0.03425034 -0.024066832 -0.035825342 0.077699676 -0.07087484 -0.041270483 -0.021776522
-0.033900145 -0.051278017 0.053691834 -0.030180754 0.07357572 0.008719631 -0.05590287 0.02736643

lstm_decoder.weight_ih_l0 f4 [512, 6]
00000000: 17d5 9fbd 3e3d 9ebd 2237 043e 54ca 5ebd
00000010: 0cb1 873b 619f 243d 3eb4 3f3c d54f 9639
00000020: 5ada 36bd 1d46 e2bb 6835 983c 2154 933d
00000030: b55c 20bd 1da7 8ebd d30a 5a3c 6776 9ebd
00000040: aaeb afbd 9b03 89bd 0b63 76bd 7c52 193d
00000050: ccae eabc 8d1e 80bd 587f 04bd 5c8d f3bc
00000060: 1b7c 84bd a514 353d 20bb 8ebd 485a 9ebd
00000070: 4006 87bc ca9b 0f3c 5d46 45bd cd19 443d
00000080: 21b1 1a3b c6b8 6a3d c504 d63b 6b9f 8fbc
00000090: 25f0 a0bd 2a6c 96bd 588c f5bb 5275 8c3c
000000a0: 1baf 833c 3d1e 8a3d fb65 e93d efe1 8a3d
000000b0: 333b 403d 250d 523b 439e 69bc e5f0 9abd
000000c0: dede 82bd c4aa a23d c740 693c f774 933c
000000d0: f911 23bd 833b 493d cd47 21be 26a9 bdbc
000000e0: d807 383c 2158 1bbd f260 73ba 7fcc 2d3a
000000f0: 1bbd 29bd 1153 053d afe3 3e3d 57f5 fdbc
00000100: 5c93 c8bd 12d8 0cbc 6aa5 c0bc 9e35 043d
00000110: fb41 43bd 4385 f5bb 8446 ca3b 6d69 6fbd
00000120: f3fe 0dbe badc f73c 39f1 023d 3178 8ebc
00000130: 5e49 d4ba 3ab4 10be 88de 6d3d d89b 58bc
00000140: 6ed1 87bd 610b b73b 761a 1b3c a114 813b
00000150: d883 f9bb 6132 53bd a6f0 023d 089c c8bd
00000160: b3b2 3f3b 3366 1f3c 0986 a6bd 4ee2 90bd
00000170: dd09 863d ee39 933d b578 84bd 9ace c2bd
00000180: 0269 11bc b3ee 003d 63ef 253c bb1d 58bd
00000190: 1fa1 89bc 398c 38bd b57d a63d 20da bb3d
000001a0: 1b14 54bd b4dd 9cbd cce7 7bbd f5ba 5e3d
000001b0: dc8f 6ebd d7fb ffbc 9ea2 93bd ac0a 2d3c
000001c0: 0d50 d43a fde7 93bd 8356 62bd d605 7e3d
000001d0: f323 d439 fcba 92bd b5e9 0abd 0e02 8abd
000001e0: 655c 6bbb 7997 99bd 01b8 693d 2979 1c3c
000001f0: 5bd3 d43d f207 c5bd 4fe3 62bd 705d 153d
00000200: beae 20bd 1f85 0abd 1b2e ba3d ddc2 8dbd
00000210: 58f8 97bc 0455 2b3d 6d83 c23d 0a59 20bc
00000220: be1f 97bd 802e 283d ed4e 99be 9483 5dbd
00000230: 9a77 953b dc05 403e 94d6 573e ead1 6e3d
00000240: a396 d73d 0207 c0bc afa8 92bd 76f2 a2bd
00000250: b21f febc 41de f33d d713 fcbd 6503 c9bd
00000260: 029f 9a3d 0abd b2bd 5c28 df3b ab7e 87bc
00000270: 7260 903d 2db0 66bd bb7e 8c3d d82f 5dbd
00000280: 4743 81bc 9cd8 223c 83f3 173d a5e1 293d
00000290: b4b7 afbd 0b4c 313d 4fca 9bbd af78 2dbd
000002a0: 3ef2 8338 a32f 003d 35a3 57bc c4fb ed3c
000002b0: 69bc 0dbd f705 703c d992 4d3d d829 2a3d
000002c0: 28b8 203d f7ff 8ebd dbea 01bd a775 0f3d
000002d0: 0617 2ebd fb01 84bd 6323 43bd 86b5 513b
000002e0: ae9b e43b 8316 19bc e537 bcbc 2878 253d
000002f0: 6a77 073d 73a4 53bd 7a9d 97bd 36aa 1fbd
00000300: c237 1b3d da06 7cbd 29b7 873c 4c05 1abd
00000310: f922 d7bd ed53 9f3d 5562 d33d 41d3 8bbd
00000320: cad8 c63b 06c7 9abd 2109 f5bd a045 a4bd
00000330: 6706 763d cc76 97bd 2b87 bcbc 5265 3fbd
00000340: b723 833c a0fe 96bd 30f6 b83a c130 b13d
00000350: e4ac da3d 5c2a 31bd 4ad6 ea3a 0967 c6bd
00000360: 6414 5abd e48a fbba bf93 7d3d a7f5 92bd
00000370: 6ffc bcbd 54b2 c6bc 7d81 58bd e8c3 7e3d
00000380: 54bf 49bd c13f 38bd 47ab 933d fccc 223d
00000390: ce12 97bc 3f68 4bbd c5b0 413d 0ca5 163d
000003a0: 77f5 293d f697 c13c 60cf f2bc 4df5 4abc
000003b0: 4db6 493d 440f c43c b6d0 4c3b 8891 35bd
000003c0: eaec 033d acc8 68bd 811c cbbc 0bc9 433d
000003d0: 5dca 4f3c 467d 2d3d fddc 84bd ea93 0fbd
000003e0: bbe6 88bd e16e 19bd 3716 8d3c 1675 4c3d
000003f0: 43f1 20be d20b 953d ae9e cabc 6570 84bc
-0.078043155 -0.07726525 0.12911656 -0.054392174 0.0041409787 0.040191058 0.011700688 0.0002866971
-0.04464183 -0.006905331 0.018580154 0.07193781 -0.039150912 -0.06965468 0.013308245 -0.07737427
-0.08589871 -0.06690141 -0.06015305 0.03743218 -0.028647803 -0.06255827 -0.032348007 -0.029730491
-0.06468984 0.04420914 -0.06969285 -0.077320635 -0.016482472 0.00876517 -0.048162807 0.047876168
0.0023604112 0.05730512 0.0065313303 -0.017532071 -0.07858304 -0.073448494 -0.007493537 0.017145786
0.016074708 0.06744049 0.11396404 0.06781375 0.046931457 0.0032051292 -0.014258924 -0.07565478
-0.06390165 0.07942727 0.0142366355 0.01800011 -0.039812062 0.04912902 -0.15750046 -0.023151945
0.011232339 -0.037925843 -0.00092841603 0.00066298986 -0.04144011 0.03254992 0.046603855 -0.031000776
-0.097937316 -0.008596437 -0.023516376 0.032277696 -0.047670346 -0.0074926927 0.006172957 -0.05845015
-0.13866787 0.030256618 0.03196833 -0.017391296 -0.0016196182 -0.14131251 0.05807355 -0.01322075
-0.066317424 0.0055860733 0.009466758 0.0039392267 -0.007614594 -0.051561717 0.03196778 -0.097953856
0.00292508 0.009728956 -0.08131034 -0.07074414 0.0654485 0.071887836 -0.064683355 -0.09512062
-0.0088751335 0.03147764 0.010127875 -0.05276273 -0.016800461 -0.0450556 0.081294455 0.091724634
-0.051776987 -0.07659474 -0.061500356 0.054377515 -0.058242664 -0.031248016 -0.07208751 0.010561626
0.0016198173 -0.07221983 -0.055258285 0.062017284 0.00040462575 -0.07164571 -0.033914287 -0.06738673
-0.0035913226 -0.07499594 0.057060245 0.009550371 0.10391875 -0.09620656 -0.05539256 0.036466062
-0.039229147 -0.03381836 0.09090825 -0.06921933 -0.018551037 0.041829124 0.09497724 -0.009786854
-0.07379101 0.04105997 -0.29943028 -0.05408056 0.0045613768 0.18752235 0.21077949 0.05830566
0.105267785 -0.023440842 -0.0716108 -0.07956402 -0.031020973 0.11907626 -0.12308472 -0.098151006
0.075498596 -0.087274626 0.006810231 -0.016539892 0.070496455 -0.056320358 0.068601094 -0.054000705
-0.01577915 0.009939339 0.037097465 0.041474957 -0.085799605 0.04328541 -0.07606947 -0.04235142
6.291688e-05 0.03129543 -0.01316147 0.029050715 -0.03460351 0.01464986 0.050188873 0.04154381
0.039238125 -0.06982415 -0.031718116 0.03502431 -0.042502426 -0.0644569 -0.04764117 0.0031999066
0.0069765663 -0.009343746 -0.022975871 0.040397793 0.033072866 -0.051670503 -0.07403083 -0.038980685
0.03789497 -0.06152997 0.01656683 -0.037602708 -0.105047174 0.077796794 0.1032149 -0.06827403
0.0060683237 -0.07557492 -0.11964632 -0.080210924 0.0600647 -0.073957056 -0.023013672 -0.046727486
0.016008241 -0.073727846 0.0014111456 0.08651877 0.106775075 -0.043253288 0.0017916646 -0.09687621
-0.053242102 -0.0019191173 0.06190848 -0.07175761 -0.092278354 -0.024254955 -0.052857865 0.06219855
-0.04925473 -0.044982675 0.07210403 0.03974627 -0.018441584 -0.049659964 0.04728772 0.036778495
0.04149386 0.023632031 -0.0296399 -0.012387586 0.04924612 0.02393306 0.003125233 -0.044328243
0.03220836 -0.056832 -0.024793865 0.04779915 0.0126825245 0.0423558 -0.06487463 -0.03505317
-0.06684633 -0.037459258 0.017222507 0.04991635 -0.15717034 0.07277645 -0.024733867 -0.016166875

lstm_decoder.weight_hh_l0 f4 [512, 128]
00000000: 6293 8b3d 197d 29bd cc84 38bc 3cf1 7abd
00000010: 93e0 1abd 1644 bb3b 37ec 233d 9c15 873d
00000020: 67d7 643d 6044 e33c 9e25 d0bc f988 0a3d
00000030: 26f1 203d 1a4b 91bd 28ab 543c f0dc a7bc
00000040: bc74 5dbc 4dcd f1bc 91c5 983d cb49 d8bc
00000050: 9c12 5dbd b3d0 79bd 7a8a 31bd b863 f53b
00000060: 6b56 58bd de57 813d 727c 2c3d bb19 d13c
00000070: 2d2c efbc 7037 2bbc fe96 e5bc a30d 513d
00000080: 396f 923c 5fb4 483d b180 c43c 32bb 34bc
00000090: 1f4b a8bd 8291 d43c 6b1f 58bd 6d86 193d
000000a0: 005a 523d 376c 9c3d e587 8bbd 54de 833d
000000b0: 9350 063d 6272 febc f022 56bc fb5f 9a3c
000000c0: f39e 9bbd 5a39 0b3d 8eb7 55bd 6378 7c3b
000000d0: 006c 36bb 1f57 6fbd 5992 483d eb67 d9bc
000000e0: 3788 9abd 6093 88b9 6b76 1fbd 39ff 0d3d
000000f0: 5010 7d3d 1936 ccbc 4578 ab3b e723 19bd
00000100: 919f 223d 8c7c 163d efec cdbc 86c2 3ebd
00000110: a34a 11bd c3ba a6bc c247 c0bc f25f 2b3d
00000120: 5c80 7a3d 529e 93bd 02ea 91bd 1eb8 563d
00000130: 3921 5a3d 639f 7ebd 566c 063d c844 b93c
00000140: b6ac 8f3c 5de4 45bc 941d 313d 848c b1bd
00000150: 130d 983d 6afb 90bd 7587 bfbc e7c8 193d
00000160: 5d28 66bc 225c 91bd b6a8 75bc 3fa6 253c
00000170: fca0 8ebd beb8 913d 047e e3bb 0d10 963d
00000180: 2394 99bd c703 9e3d 79cd 353d e828 7b3d
00000190: 0811 753d c9d4 a4bd 1de8 c23c e1ba 34bc
000001a0: b494 5fbd 7a3a ccbc 1a1c 95ba 12e8 abbc
000001b0: a5ae 873d c8a8 903d 58f6 abbd c102 273d
000001c0: 62ad 84bb f396 6c3d becc 473d 1999 3bbc
000001d0: 7dcc b23d fa3c 1e3c 1769 763d 1442 96bd
000001e0: ba4d b6bc ca1f 85bd 7f82 373d 67f4 873c
000001f0: cdb4 6bbd 056a 4dbd 8d22 96bd 5085 8abc
00000200: 9f5f da3c 5264 9f3d f26f 063d 9042 783d
00000210: d159 ac3d ec87 9fbd 42d7 9b3c 0c10 d4bc
00000220: 00e4 a2bd c8bf 8dbd 7162 9cbd e5c4 673d
00000230: dee5 8fbd 6c9c 0d3d 9af7 773d 723a 3fbb
00000240: e2fa 4a3d 34db 273c f408 0f3d f68c 903d
00000250: 9eef 0abd 80c9 b83b f97e d6bb 97b6 383d
00000260: ed20 35bd 4f2c 7f3d 6f1e 923d dec2 4abd
00000270: fa3d a63b c489 8a3d 9ec0 363d 69f3 2fbd
00000280: eede 43bd c410 9b3d 44e8 9b3d cfc3 02bd
00000290: 3e98 803c 82d1 11bd 61cf 073d f4cf 22bd
000002a0: b895 61bd 0fee 963d b68c b43b 9d5b b83c
000002b0: 7b37 b7bb 50c8 abbc 3972 093d d1e7 a1bb
000002c0: eb2a 9c3d 7f7e a93c da6c 443d 4e0e 533d
000002d0: 033b bdbb 649d 47bd 3d5d e13c 28e6 6d3d
000002e0: d259 a5bd fbda 23bd 17b0 923d 98b8 67bd
000002f0: 3f67 c03c 6eb1 0ebc 16f6 e13b 8c67 afbc
00000300: 3448 5bbd 45ca 9cbd 20cc f73c 4b17 8fbd
00000310: 7bda 45bd 628b 33bc 6365 543b 17b3 13bd
00000320: 780c fdba df61 a23c 4433 29bd feac 293d
00000330: dfb2 46bd 6eb7 a53d a9c1 64bd e7ab aebd
00000340: 9844 e9bb c0a7 a2bc fba1 5b3d 2f44 0ebd
00000350: 72a8 82bb 0bea 893c ccd9 a03c 8164 a6bd
00000360: 1ed8 d8bc e228 4bbd 2c4c aabd 8ef2 923d
00000370: 0726 86bd dccd 413c bd12 c13c 0bd3 03bd
00000380: f941 cb3c 5d59 8c3d f3eb 00bd 7915 27bd
00000390: b727 49bd 1236 2ebd a4e8 2fbd cd5f ae3b
000003a0: 751e a1bd 3cae 86bd 90eb 853d a2d4 523d
000003b0: 3977 183d 4430 103d ff03 a33d 65f8 173d
000003c0: 7a29 a63d 5329 69bd 5237 8e3d 72dc 813d
000003d0: 0531 553c 7544 9fbc 5347 b8bc f77f 93b8
000003e0: 7806 bab9 cbe8 a9bd 78fc 8cbb e456 af3d
000003f0: 3069 90bd eb5e e9bc 1b09 263d 73f4 be3c
0.068152204 -0.041379068 -0.01126213 -0.061265215 -0.037811827 0.0057149036 0.040020194 0.065959185
0.055869486 0.027742565 -0.025408562 0.033822034 0.039292477 -0.070944026 0.01298026 -0.020491093
-0.013516601 -0.02951684 0.07459558 -0.026402375 -0.053972825 -0.060990047 -0.043344952 0.007488694
-0.05281679 0.063155875 0.042110868 0.025524965 -0.02919587 -0.010450229 -0.0280261 0.051038396
0.0178753 0.04900014 0.023987146 -0.011030959 -0.08217453 0.02594829 -0.052764338 0.037481714
0.051355362 0.07637828 -0.06813029 0.0643889 0.032791685 -0.031060401 -0.013069853 0.018844595
-0.075986765 0.03399024 -0.052177005 0.0038523905 -0.002783537 -0.058432695 0.048967693 -0.02653881
-0.07545512 -0.00026049744 -0.03893129 0.034667227 0.061783135 -0.02492814 0.005232843 -0.037387755
0.039702956 0.03673987 -0.025137393 -0.04657223 -0.03547157 -0.020352727 -0.023471717 0.041839547
0.06115757 -0.072079316 -0.071247116 0.05242168 0.05325434 -0.06216372 0.03281816 0.022615805
0.01753841 -0.012078372 0.0432411 -0.08669379 0.07424369 -0.070792034 -0.02338002 0.03754511
-0.014047709 -0.07097651 -0.014993837 0.010110437 -0.06964299 0.07115315 -0.0069425125 0.0732728
-0.07498958 0.07715564 0.044385407 0.061318308 0.059830695 -0.08048398 0.02379232 -0.0110308835
-0.054585174 -0.024930228 -0.0011376173 -0.020984683 0.06625108 0.070634425 -0.08396596 0.04077411
-0.004048989 0.057761144 0.04877924 -0.011450076 0.08730409 0.009658093 0.060158815 -0.07336822
-0.02225386 -0.06500204 0.044802185 0.016596032 -0.057545472 -0.050149936 -0.07330809 -0.016909271
0.026656924 0.077828065 0.032821603 0.060610354 0.084155686 -0.07789597 0.019023541 -0.025886558
-0.07953644 -0.06921345 -0.07635964 0.056584258 -0.070262656 0.034573004 0.060538866 -0.0029179123
0.049555667 0.010245133 0.034920648 0.07058136 -0.033919923 0.005639255 -0.006545898 0.045096006
-0.044220854 0.062298115 0.07134711 -0.049502246 0.005073306 0.06764558 0.044617288 -0.042956743
-0.047820024 0.07571557 0.076126605 -0.03192502 0.015697595 -0.035600193 0.033156756 -0.0397491
-0.055074424 0.07369625 0.005509938 0.022504622 -0.0055913306 -0.02096954 0.033556197 -0.0049409647
0.076253735 0.0206902 0.04795537 0.051527314 -0.005774857 -0.048734084 0.02751028 0.058080822
-0.080737725 -0.040003758 0.07162493 -0.056572527 0.023486732 -0.008709295 0.006895791 -0.02141168
-0.053535655 -0.07655767 0.030248702 -0.06986865 -0.048304062 -0.010958524 0.0032409064 -0.036059465
-0.0019306084 0.01982206 -0.041308656 0.041424744 -0.04851043 0.08091627 -0.05584875 -0.085288815
-0.0071187727 -0.01985538 0.053621273 -0.034732994 -0.0039873654 0.016835233 0.019635104 -0.08124638
-0.02647024 -0.049599536 -0.0831531 0.0717517 -0.06550222 0.011828866 0.023568505 -0.032183688
0.024811732 0.06852982 -0.03147502 -0.040791962 -0.04911014 -0.042532034 -0.042946473 0.005321479
-0.07867137 -0.06576201 0.065390706 0.051472314 0.037223075 0.03520228 0.079597466 0.03710212
0.0811338 -0.056924175 0.06944145 0.06340875 0.013012175 -0.019441823 -0.022494948 -7.0333415e-05
-0.00035481504 -0.08296355 -0.0043025576 0.08561495 -0.07051313 -0.028487643 0.040536027 0.023309922

lstm_decoder.bias_ih_l0 f4 [512]
00000000: b575 8bbd 6364 063d e1c0 97bd e201 88bc
00000010: 574f 193d b039 8e3d a4e0 72bd 275a 81bd
00000020: ac75 35bb 8855 b33d 8981 593b e29b 35bc
00000030: 53b5 f5bb 6123 943d 0921 99bd 234f dabc
00000040: 7d39 6a3d 613b e1bc 1145 1e3d ebc8 98bc
00000050: 976a 623d 7c8e b33c d215 133d 10cc a6bc
00000060: a440 93bd 0e20 d5bc 9675 8abd 91a5 1038
00000070: f5c7 8ebc 9665 b03d 7139 23bc 0578 fcbc
00000080: 5793 513c 6a1c d9bb fc5f e8bc 3e22 8f3d
00000090: d6fb 4a3c e3b1 883c e4ca 5c3c 5bcb 0a3d
000000a0: 1a94 973c 06a3 4ebd b074 49bd 79e3 32bc
000000b0: e2cb a83d f636 77bd 3d65 1bbd b7ae 45bd
000000c0: 869e 3a3c 7fda 4fbd e4f5 a7bc 1b4c 393d
000000d0: 86fd 85bc 41cc e5bc 7e23 e43c da8a 70bd
000000e0: 64c0 83bd 3da8 b2bc 8ba1 333c 658f b53c
000000f0: d934 a03d d14c 8f3d a909 a43d eefc a83d
00000100: 39cf 333c 709b 4bbd 96ee 66bd 95cb 7dbd
00000110: 8679 6dbd a47e 75bd d0c0 5fbd 73f5 a0bc
00000120: f99a c23b ac2d 05bd d832 8bbc 0b05 ab3d
00000130: 0869 d3bc 5f7e a73d 4e6a 913c c8b4 94bc
00000140: b2b5 cd3c 4548 7f3d ece7 85bd 0aa1 06bd
00000150: 94a1 963d c1ef 993d 6f5e a53d 2479 643d
00000160: cd8b 93bd 19ad 87bc b0ea 93bd 72ac 1e3d
00000170: 6984 0f3c 8ab2 553c 0fe4 873d e66b 29bd
00000180: a601 88bc 6bba 543d fc24 e5bc 53e9 8bba
00000190: df3f 073d 26fa 5ebd b6b5 c03c 00f6 113c
000001a0: 056f 1e3d 1339 7abd 5aa5 473d e6ec a0bc
000001b0: 4c47 783d 09f8 893d 43b7 8d3d d6fa 90bd
000001c0: 43ac 34bd d50d 9abd db8a b33d d6f5 ac3d
000001d0: df01 7ebd 21b6 91bc 6f54 2abc 6e77 7cbd
000001e0: 7fbd 1bbc a4fd 253d 7612 26bd 3692 963d
000001f0: c40a d4bc 48ff b6bc 25cc e0bc 4bd5 e33c
00000200: 8b44 b3bc c4a9 06bc 3f72 f9bc 51c8 03bc
00000210: 7d25 563b 87e6 01bd 999c 17bd 8dff ae3d
00000220: 5cd2 10bd 0e0d 953d 273c 963d cea1 bcbc
00000230: 5ac4 a23d cc31 92bd 8495 193d 068b 47bd
00000240: 1e6f 6a3c 8ac0 2a3d e49d 48bd 7391 0ab9
00000250: 19e6 343d fa84 f8bc 7568 b53b 7d08 89bd
00000260: 599b b8bc 1194 c93d 3255 b7bc 0c78 d23c
00000270: c16c 7a3d bbeb 603d 0523 963d da14 773c
00000280: 0b82 cf3b 7196 63bb 3ae7 8fbd fb4a 8ebc
00000290: 200f afbc 2bc8 90bd d739 7e3d 338b 0ebc
000002a0: b543 a63c b9b0 573c d317 8f3c f58c a23d
000002b0: 194e d8bc 836e d03c 1549 cbbc 0b43 ab3d
000002c0: d8cb efbc f26a 2b3d 7242 d33b 82a3 8d3d
000002d0: 36f6 d53c 0714 673d 09a1 303d 2add 473c
000002e0: be12 85bd a68c 3fba a493 83bd 3f1c 6ebc
000002f0: 37ec f03b e170 b1bc a9b5 1ebd 2134 ab3c
00000300: 5730 8fbc 1a96 713d 6b71 98bd 765d a1bd
00000310: 8653 663d 6e21 e73c 1c9e 223d 7735 7d3d
00000320: 13ba a43d 3365 b9bb 9ef4 2dbd dd6b a53c
00000330: a12d f4bc 173a 00bc 42cb 143d fc01 78bd
00000340: 3527 903d 9540 84bd cfef 4bbd 5dcc 86bd
00000350: c592 a63d 8170 2fbd 3218 a53d a958 313c
00000360: 4650 fa3c 16d6 433d 8199 323d 8225 44bd
00000370: f5cd 6abd 1a27 28bd a6bb 4bbd 1721 0b3c
00000380: 76eb dbbc 15be 903d 30a9 503d 9b3c aebd
00000390: ddd8 013c 8c51 86bd c61a 923d 9957 813d
000003a0: 407f 143d 39ad 15bd 9317 21bd 9d61 a3bd
000003b0: faf3 133d 5a1a 283b 46a0 723d a899 763c
000003c0: cf18 2d3b 5e06 223d f067 7fbd 8924 003d
000003d0: 4a21 2a3d 7d71 96bc f0bf 97bd 9b5e 18bc
000003e0: 190d 2dbc bbac 41bd 6637 7dbd ff7c a2bd
000003f0: 052b 783d 0218 8b3d 9b13 aa3d 2173 b23d
-0.0680956 0.03281058 -0.074098356 -0.01660246 0.03742918 0.06944597 -0.059296265 -0.06316023
-0.0027688546 0.08756548 0.0033188781 -0.011084529 -0.007498422 0.072333105 -0.07477004 -0.026649063
0.05718373 -0.027494134 0.038640086 -0.018650493 0.055277433 0.021918528 0.03590948 -0.020360976
-0.071900636 -0.026016261 -0.06760709 3.448647e-05 -0.017429331 0.08613126 -0.009962426 -0.030818949
0.012791476 -0.0066257017 -0.028366081 0.06988953 0.012389144 0.016686385 0.013476107 0.03388534
0.018503238 -0.05044844 -0.049183547 -0.0109184915 0.082420126 -0.06035515 -0.037938345 -0.048262324
0.011390334 -0.050745483 -0.020502992 0.045238595 -0.016356241 -0.028051497 0.027848955 -0.05872617
-0.0643318 -0.021808738 0.010963808 0.022163102 0.0782258 0.069970734 0.08009655 0.082513675
0.010974699 -0.049708784 -0.056379877 -0.06196173 -0.057977222 -0.059935227 -0.05462724 -0.01964829
0.0059388843 -0.03251426 -0.016992018 0.08350571 -0.025806919 0.081784 0.017750885 -0.01815261
0.025111053 0.06232478 -0.06538376 -0.032868423 0.07355037 0.075164326 0.080746524 0.05577959
-0.07204399 -0.016562032 -0.072224975 0.038738675 0.008759596 0.013043055 0.066352956 -0.041362666
-0.016602349 0.051935595 -0.027971737 -0.0010674394 0.033019897 -0.05443778 0.023524147 0.008908749
0.038680095 -0.061089586 0.048741676 -0.019644212 0.06061487 0.06736762 0.0691972 -0.07079093
-0.044109594 -0.075221695 0.08766719 0.08445327 -0.062013503 -0.017787041 -0.010396107 -0.061637335
-0.009505629 0.040525094 -0.04054495 0.07352106 -0.02588404 -0.022338524 -0.027441094 0.027811667
-0.02188327 -0.008219186 -0.030449985 -0.008043365 0.0032676153 -0.03171399 -0.037014578 0.08544836
-0.035356864 0.072778806 0.07335692 -0.023026373 0.07947607 -0.07138404 0.037496105 -0.048716567
0.014308719 0.041687526 -0.0489787 -0.0001321489 0.04416475 -0.030336846 0.005536134 -0.06691072
-0.022535013 0.098426946 -0.022379491 0.025692008 0.061138872 0.05491231 0.07330898 0.015080655
0.006332641 -0.0034727121 -0.07026525 -0.017369738 -0.021369517 -0.07069429 0.06206688 -0.00870018
0.020295957 0.013164693 0.017467415 0.07937042 -0.026404427 0.025443321 -0.024815122 0.08362397
-0.029272005 0.041850038 0.00644713 0.06915952 0.02611838 0.056415584 0.043122325 0.012198726
-0.064977154 -0.000730703 -0.064246446 -0.014533102 0.0073523778 -0.02166027 -0.038747463 0.02089888
-0.017479105 0.05898104 -0.07443508 -0.078791544 0.056231998 0.028214183 0.039701566 0.061818566
0.08043303 -0.005657816 -0.042469613 0.020193035 -0.029806914 -0.00782635 0.036326654 -0.060548767
0.07038728 -0.064576305 -0.049789246 -0.06581948 0.08133463 -0.0428319 0.080612555 0.010824361
0.030555855 0.04781159 0.043603424 -0.047887333 -0.057325322 -0.041052915 -0.049739502 0.008491776
-0.026845675 0.07067505 0.0509426 -0.08507653 0.007925239 -0.065585226 0.07134013 0.06315536
0.036254168 -0.03654215 -0.039329123 -0.07977603 0.036121346 0.0025650472 0.05923488 0.015051283
0.0026412492 0.039556853 -0.062354982 0.031284843 0.041535653 -0.018364662 -0.07409656 -0.009299899
-0.010562205 -0.04728387 -0.06182041 -0.07933997 0.0605879 0.067916885 0.08304521 0.08713365
