transformer_no_tanh_with_past_12_Nm_144_Np_lr_0.001_hs_128_ahs_8_nll_1_bs_16_do_0.5_e_200_stride_10/model_transfer_A25_to_J25_0.0n_0.001lr_200e_7days.pth (torch, 831513 bytes, 14 tensors)

lstm_encoder.weight_ih_l0 f4 [512, 8]
00000000: 0859 c63c be8e 0c3d d15c a83d 0702 88bc
00000010: 503a 403c a307 7ebd f59f 073c 9493 9abd
00000020: 053a a9bd 94a6 36bd ae96 823d 952e 4e3d
00000030: 439a ad3c 7fcb ccbc d30e 423d e5fd 34bd
00000040: 6f46 6a3c b9a3 b23c 5214 003d 31cb bb3c
00000050: 8477 d0bc 9898 513d a952 783c 75ed 36bc
00000060: 3445 81bd 027a 0cbc 9706 84bd 86d5 1f3d
00000070: cf57 a3bd cd6b a63c 5b2b 793d f6ca a63d
00000080: 64dd 29bc 50f1 50bd 1b78 913a ed4e 843d
00000090: 4408 efbc 4c7e 7dbd 2f83 8dbd 4ebc 653d
000000a0: 988e 603d 1a04 253d 0510 3d3d 96df 4c3d
000000b0: 91e2 603d f74d ec3c b00c bbbb 279a 883d
000000c0: 79da 613c c56e 163d 60b8 8c3d 9952 3abd
000000d0: 3bc0 32bd 8592 a93c 126a 5c3d 43de ed3c
000000e0: 8226 8d3c 0d54 9c3b 1d24 463d 0b19 793b
000000f0: d56f 2f3d d8d9 85bd 9d58 243c 1694 95bd
00000100: 015b 6ebd 9e55 473d f19f 703d 2fba 8c3d
00000110: 3b08 ecbc c3ec 913d 55cb bbbc 8283 783c
00000120: 16c9 833c cffe eaba 4e78 a2bd 35ec 9e3d
00000130: 2e48 13bc 64f7 933d e27a 58bd 5f53 473d
00000140: 1941 c93c eedc 583d ff46 9cbd 3946 05bd
00000150: ffc1 91bb 5bb8 843d 9384 863d 713b 4dbd
00000160: 17e7 233d 53b1 153d 659e 253b c87b a5bd
00000170: 101b a73d d02b 043c 1879 37bd 1255 623d
00000180: 4443 993c 903f f33c 2b54 86ba b668 1cbd
00000190: 9523 01bd 69a8 96bc 205e 31bd 9b5e 983c
000001a0: 93d8 8a3d 7d03 21bd 4462 a03d 12bc 15bd
000001b0: bc5b 0f3d 1a79 1d3d 3cbe a4bb d376 aebc
000001c0: cf90 22bd 4eb6 663d cbd4 00bd 833a fcbc
000001d0: af67 4cbd 2c65 9cbd 788b af3c 0fc3 02bd
000001e0: 8d66 9f3d 81c6 923c 4433 2a3d 85d6 b6bc
000001f0: 560c 4abd 3af7 46bd c913 8c3d 8959 a03d
00000200: ec8b a7bd c3e2 25bd d638 433d 2b1e 9e3d
00000210: 74fa 103c a14e 8fbd 8cfb 52bd 3bc3 39bc
00000220: 817b 04bd 424f b5bc 8249 0a3c 519d 913d
00000230: aafe 213d eb2e 8abd 1d78 f6bc 17e3 2ebd
00000240: ead7 173d ac2a ec3c a747 91bd 7028 a2bc
00000250: 518c b93b c18b 14bd 6fdf 60bd c13b 923c
00000260: 8881 c6bb 0c00 1f3d d7ef 1a3d fe2d eabc
00000270: 3a57 5a3c 85ac 1f3d 5478 99bd e86d ba3b
00000280: a240 0a3d 9cec 893b 2ce2 243d d85a 6d3d
00000290: 5e7b 20bd f56d 6ebc 9cd0 5f3d a46f 67bd
000002a0: 453a a0bc c4f5 9d3c 76f1 59bd d9c4 0dbd
000002b0: a0cf 223d a4ec 6b3d 21e8 043d 70ad 503d
000002c0: 9f67 86bd a8a1 6bbd 682d a33d fd1b 21bc
000002d0: a573 2fbd 01cd 92bd 71a3 27bd c13f 9b3d
000002e0: 13e8 9a3d 84bc 50bd 3313 3fbd e486 5d3d
000002f0: afcd 3a3d 452a a73c d6d1 03bd 90fd 3d3c
00000300: 7210 2fbd a622 1e3d 829c a93d 316d a8bd
00000310: ac4a f0bc ff48 99bc 03cd 8c3d bc7c a63d
00000320: 3f61 9cbd 099e 493c 43ed 08bd 6c69 7b3d
00000330: 3eac 60bd 9bf7 2fbd a732 113d c112 613d
00000340: daf4 eebc bfa0 88bd a03e 95bd 0b62 8ebd
00000350: 3357 2cbd 40ff 17bd 448f 38bc d4ae 9fbd
00000360: fc59 5c3d 272c 86bd 5248 833d 2fdc 3c3c
00000370: f788 af3d f2a2 fabc 828a 17bd 3f3f 233d
00000380: cff1 a2bd 134c 58bd 6cd9 5cba 9162 81bd
00000390: c152 9a3d a658 963d a7f9 843d f532 8d3d
000003a0: a62b f93b e56f 453d 4982 a43d 67b9 2b3d
000003b0: 4cd9 82ba 2a16 9a3c 57f3 803d b54b b6bc
000003c0: 03d1 83bd 5f9f 9c3d af86 56bd 0e28 7fba
000003d0: 5692 823d 4339 513c 8234 01bd 0669 f3bc
000003e0: a33e 9bbb e878 abbc 8ea9 38bd 0618 963d
000003f0: c6be 173d e881 9d3d 9f4c a6b9 dc50 84bd
0.024212375 0.034315817 0.08220828 -0.01660253 0.011732653 -0.062019 0.008277883 -0.075476795
-0.082630195 -0.044592455 0.06376396 0.050337393 0.021191722 -0.024999378 0.04737742 -0.044187445
0.014299019 0.021806585 0.03126938 0.022924038 -0.025447614 0.051170915 0.0151564265 -0.011165013
-0.063120276 -0.008574011 -0.064465694 0.03902199 -0.079757325 0.020315075 0.060832363 0.081441805
-0.010367725 -0.051011384 0.0011098416 0.064603664 -0.029178746 -0.061888024 -0.06909787 0.056087784
0.054823488 0.040287115 0.046157856 0.050017916 0.05490357 0.02884577 -0.0057082996 0.06670027
0.013784998 0.03672673 0.06871104 -0.045488928 -0.043640357 0.020699749 0.053812094 0.029036647
0.017230276 0.004770762 0.048374284 0.0038009312 0.04283126 -0.06535691 0.010030893 -0.07303636
-0.058192257 0.048665635 0.058746282 0.06871449 -0.028812518 0.07125237 -0.022924105 0.015168073
0.016087096 -0.0017928722 -0.079331025 0.07759897 -0.008989377 0.072249204 -0.052851565 0.048663493
0.024567174 0.05294507 -0.07630729 -0.032537673 -0.004448175 0.064804755 0.06568255 -0.050105516
0.040015306 0.036546063 0.0025271412 -0.0808025 0.08159459 0.008067086 -0.04479322 0.05525691
0.018708833 0.029693395 -0.0010248473 -0.038185798 -0.031528074 -0.018390851 -0.043302655 0.018599799
0.067795895 -0.039309967 0.07831243 -0.03655631 0.034999594 0.03844557 -0.0050275605 -0.021296894
-0.03968888 0.056326203 -0.031452935 -0.03078962 -0.049903568 -0.076364845 0.021428809 -0.031924304
0.07783232 0.01791692 0.041552797 -0.022319088 -0.04932817 -0.048575617 0.06839711 0.078295775
-0.08180985 -0.04049946 0.047661625 0.07720598 0.008848775 -0.06997419 -0.051509425 -0.0113380505
-0.032344345 -0.02213252 0.008440377 0.07110084 0.039549507 -0.0674723 -0.030086571 -0.04269704
0.037071146 0.028828941 -0.07093745 -0.019794673 0.005662479 -0.036266092 -0.054900583 0.017850759
-0.006057922 0.038818404 0.037826385 -0.028586384 0.0133264605 0.038982887 -0.07493654 0.0056893714
0.033753045 0.0042091142 0.040254757 0.057947963 -0.039180152 -0.014552583 0.054642305 -0.056502953
-0.019559035 0.01928223 -0.05320879 -0.034611557 0.039748788 0.057598725 0.032447938 0.050946653
-0.06562733 -0.057527214 0.07967645 -0.009833333 -0.042834897 -0.07168008 -0.040927354 0.075805195
0.07563796 -0.050961033 -0.04664917 0.05408372 0.04560631 0.020405898 -0.032182537 0.011596099
-0.042740293 0.038607262 0.082818046 -0.082239516 -0.029332481 -0.018711565 0.068750404 0.0812926
-0.07635736 0.012305745 -0.033429395 0.061379835 -0.054851763 -0.042960744 0.035448696 0.054949526
-0.029169489 -0.06671285 -0.072873354 -0.06952294 -0.042075347 -0.03710866 -0.011264626 -0.07797018
0.053796753 -0.0655139 0.064102784 0.011527105 0.08571046 -0.030595277 -0.036997326 0.039855238
-0.079562776 -0.052806925 -0.00084247324 -0.06317628 0.07535315 0.07341127 0.0649293 0.06894485
0.0076040803 0.048202414 0.080326624 0.04192486 -0.0009982972 0.018809397 0.062964134 -0.022252897
-0.0643635 0.07647585 -0.052374538 -0.00097334466 0.063755676 0.01277 -0.031544216 -0.029713165
-0.0047376915 -0.020931676 -0.045083575 0.07328801 0.03704717 0.07690793 -0.00031719074 -0.06460735

lstm_encoder.weight_hh_l0 f4 [512, 128]
00000000: dc77 50bd a624 7fbc 51a3 68bc 538a 50bc
00000010: 5153 31bd 687f a1bd 3591 08bd 045f e03c
00000020: b0d5 68bd d678 19b9 d64c 4d3a c291 583c
00000030: c012 34bc 7c8e 873d b4c0 7bbc 6e6a 393d
00000040: 9a6b 98bd e153 8d3d 7a1f df3b ca3c 733d
00000050: 16e3 8dbd e0cc 9e3d 2670 91bb f4ac 153d
00000060: 3d70 6f3d f162 ef3b b406 903d 1e77 883c
00000070: 0a39 6cbd ba5d 813d ee0c 6dbd ac36 7f3d
00000080: 00c9 bd3b de0e f5bc 5f97 8c3d 5144 bcbb
00000090: 9fdd e3bc 70fb 903d ac60 5b3c d098 173d
000000a0: 742d 88bd a52c 7b3c df94 933d 0048 823d
000000b0: e676 773c 31a0 85bd 42a8 883d 737f 47bd
000000c0: d2a0 16bd e212 0ebd 2719 52bd 8fc0 84bb
000000d0: 201a 693d 7315 983c 6531 b8bc 4ff9 deba
000000e0: 434d 8abc 38a2 62bd d1af 70bd e4b3 9bbc
000000f0: b084 49bd 508d 2fbd 5921 e13c 684c a1bd
00000100: a080 713d de15 6c3d ca28 c4bb 4099 71bd
00000110: a467 5bbd 4015 2e3c 4460 32bd bea5 023d
00000120: 8b7d 11bd 3e62 8b3d 1c5f 783d d384 e1bb
00000130: ce00 34bd 2f3e 8f3d 610e 39bd 9e86 fa3c
00000140: d427 8ebc 422d a9bc 0887 90bd a4a5 aabd
00000150: 458c 9abd 54b4 e7bc b370 863d 1930 ae3b
00000160: 3307 0abd d0b6 473d c886 abbc 25e4 183d
00000170: 6e5a 683d dfaf 883d 9063 72bd 172b e2bc
00000180: 538d cbbc c9f8 9b3d c9e9 04bb 79e7 a7bd
00000190: e4f1 303d a998 6c3c 9af9 8bbd 418f 48bc
000001a0: 82a4 48bd 3752 b63b 93c7 0f3d 4ea7 dc3b
000001b0: bbb1 d13c 0643 4fba 5d9b f7ba e582 9fbd
000001c0: bb8a ee3c 69bd 5e3d 0ff5 573d 78d7 943d
000001d0: 3886 bc3c 544f 9a3d 9324 223d 3f2c 80bd
000001e0: f5cc 633d 0861 74bd 14dd 1c3d 702e 103d
000001f0: 2163 7f3d 758c 1c3c 0926 9abd 431b 123d
00000200: 81ab d6bb 2d0a 963d 78d5 1d3d 8db7 623d
00000210: 4a45 a3bd 2945 1e3d 14ca 2cbd 6e56 7fbd
00000220: d792 88bd 19bd 253d 01c5 853d e00b 3dbd
00000230: 6f47 5fbd 1bbd 9abd ed8a 013d e1da 3a3c
00000240: 56e6 733c 092c c83a e754 16bd cacf 8f3d
00000250: f178 98bd 0761 213b 6c64 1b3c 8270 abbc
00000260: a3c3 a9bd c59c ed3c 6016 a03d 81b7 783d
00000270: 862d 103d cf33 63bd 40df a8bc 06b5 693d
00000280: ff6a c23c c229 87bc 833e 423d eef2 52bc
00000290: 70bf 983d 63ef 743c b277 543d adc3 1ebd
000002a0: 4ebe 92bc 8c68 3cbd c942 843d e14b 2abd
000002b0: 2832 49bd e5de dd3c 526f c03b 5483 3fbc
000002c0: 63b2 463d b895 1d3d 9735 53bd f334 29bd
000002d0: d5fe 93bd 9fe0 2ebd 6016 313d 1c89 40bd
000002e0: b28d 55bd a9d3 92bd c95d 503d 697d 803c
000002f0: 6f7b 51bb e405 513d 9252 56bc f57d 3d3d
00000300: e38b 143d c3a8 363c b20a 74bd a28d 443d
00000310: d8bb 59bd cbaa 9ebd c601 6abd e3cc 5e3d
00000320: b79c 8f3c 385e 7c3d 97ee 953d e4ec 923d
00000330: 7054 e7bc cba0 84bd 5cb4 0c3d d2f7 7e3d
00000340: 87a1 4d3d a82f 3d3d 2bd7 8bbd 0fd2 39bd
00000350: 534b 98bd dfd4 41bd ee31 68bd 969c 51bd
00000360: e35e 80bd e032 77bd 97f7 7ebd 80e4 a2bd
00000370: df5e fa3c bf3d 123d 04e8 db3c 2d56 ecbc
00000380: a61d 16bd 6d2e a737 5ab1 4bbd 37a1 8dbd
00000390: cb03 323c 26fc 233d 3f47 a7bd df5f 77bd
000003a0: a97a 48bb 9d73 903d bd76 7fbd 5f80 91bd
000003b0: e8ee 46bd d3b1 dabb 3cc5 313c 5584 943d
000003c0: ee7f 4b3d 2cfb 9bbc babd 5ebd 2312 5cbd
000003d0: eb74 183d 434d 16bd e001 5e3d 138d 6d3d
000003e0: b268 5cbd 4ad1 a1bc 836e 96bd f550 39bd
000003f0: 4780 25bd 5f15 5bbd a1c7 88bb 29e3 3b3d
-0.050895557 -0.0155727025 -0.014199094 -0.012728292 -0.043292347 -0.07885629 -0.033341605 0.027389057
-0.056844413 -0.00014636232 0.0007831579 0.013218345 -0.0109907985 0.066189736 -0.015365768 0.045267515
-0.07442398 0.06900764 0.006809172 0.059384145 -0.06928079 0.077539206 -0.004438418 0.036541894
0.05845665 0.007305496 0.070325285 0.016658362 -0.057671584 0.06316705 -0.05787366 0.062308
0.0057917833 -0.029914316 0.06864809 -0.0057454486 -0.027815638 0.07079208 0.013389748 0.037010968
-0.066492945 0.015330468 0.07206129 0.06361389 0.015104031 -0.06524695 0.06672718 -0.04870553
-0.036774464 -0.034685977 -0.05129352 -0.004051275 0.05690968 0.018564915 -0.02248449 -0.0017011556
-0.016882544 -0.055330485 -0.05876142 -0.019006677 -0.049198806 -0.042859375 0.027481722 -0.078759015
0.058960557 0.05763804 -0.0059863077 -0.05898404 -0.053565636 0.010625184 -0.043548837 0.031896345
-0.035520118 0.068058476 0.06063758 -0.006882289 -0.04394608 0.069942825 -0.04517973 0.030581769
-0.017352976 -0.020651463 -0.07057005 -0.08332375 -0.075462855 -0.02828423 0.065644644 0.0053157923
-0.033698272 0.048758328 -0.020938292 0.03732695 0.056726865 0.0667417 -0.05917698 -0.027608437
-0.024847662 0.076158114 -0.0020280948 -0.08198447 0.043199435 0.014440694 -0.06834717 -0.012241186
-0.048985012 0.005564 0.03510244 0.0067338115 0.025597444 -0.00079064106 -0.0018890906 -0.07788638
0.029118886 0.054379854 0.05272394 0.0726766 0.02301322 0.07534662 0.03958566 -0.06258439
0.055615384 -0.05966285 0.038296774 0.035200536 0.062350396 0.009554972 -0.07526786 0.03567053
-0.0065512066 0.073261596 0.038533658 0.05535083 -0.079722 0.038640175 -0.042184904 -0.062338285
-0.066686325 0.04046354 0.06531716 -0.046153903 -0.054511484 -0.075556 0.03162663 0.011404724
0.014886459 0.0015271913 -0.036702063 0.070220545 -0.07444943 0.0024624483 0.009484392 -0.020927671
-0.08289268 0.029005418 0.07816768 0.060721878 0.035199665 -0.05546933 -0.020614266 0.057057403
0.02373266 -0.016499404 0.047422897 -0.012875302 0.07458389 0.014949652 0.051871963 -0.03876083
-0.01791301 -0.04599814 0.06458051 -0.04157627 -0.0491201 0.027083823 0.0058726454 -0.011689026
0.048509967 0.03847286 -0.05156478 -0.041310262 -0.0722634 -0.042694684 0.04323423 -0.047005758
-0.052137084 -0.07169277 0.05087069 0.0156848 -0.0031964441 0.05103101 -0.01308121 0.0462627
0.03626622 0.011148634 -0.059580512 0.047986634 -0.053157657 -0.0774742 -0.057130598 0.054394614
0.017530782 0.06161329 0.07320898 0.071740896 -0.028238505 -0.06475981 0.03435169 0.06224806
0.050202873 0.046188027 -0.068281494 -0.045366343 -0.07436242 -0.04732215 -0.05668824 -0.051174723
-0.06268098 -0.060351253 -0.06224784 -0.07953739 0.030562816 0.035703417 0.026844032 -0.028849686
-0.03664937 1.992957e-05 -0.049729683 -0.06915515 0.010865162 0.04003539 -0.08167886 -0.060394164
-0.003059069 0.070533015 -0.062369097 -0.07104563 -0.048567683 -0.0066740303 0.010850247 0.07251803
0.04968255 -0.019040667 -0.054380156 -0.053728234 0.037220877 -0.036694776 0.054201007 0.057995867
-0.053810783 -0.019753117 -0.07345297 -0.045243222 -0.040405538 -0.053487178 -0.0041741882 0.045870934

lstm_encoder.bias_ih_l0 f4 [512]
00000000: 329d 5bbc 24c0 fbbc 3bc6 1bbd 0de0 203c
00000010: 5bd7 12bd 5f35 e93c 404d 833d 847a 353d
00000020: 824a abbd ce44 b33c b45c d0bc 133d 4b3d
00000030: da2b ebbc f689 0e3d 9744 a43d 3676 e5ba
00000040: 737b e83b f198 1ebd 7e5e aebb bdf1 96bd
00000050: 41c5 96b8 bde3 89bd fa9e e4bc a4a0 3a3c
00000060: f67e ad3b ca01 a23d 1222 463c 5a3e 50bd
00000070: f7bb 653c c68d 663d 5b29 103d 9dea fabc
00000080: 61d7 dd3c 487b 853c 02c8 c4bc 9f64 c8bc
00000090: 1474 1f3d 9012 313d fc1b 9fbd bb5a b8bc
000000a0: 3fc5 20bd 2c0a 86bd 5bdd 2d3d b2bd 1f3d
000000b0: 081b 753d c3bb 6e3c b7a9 a9bb 7fe6 923d
000000c0: 8614 0c3d dfbd 603d fb43 5f3d 0973 ac3d
000000d0: a764 44bd 2e79 ef3b 5ea0 7abd 391a ecbc
000000e0: 3ec1 c8bc 96bb f63c 516e a73d 467f d9bc
000000f0: 453e db3c 2d0c 983d 9999 043d 538f 7e3d
00000100: f91c a3bd 60c0 a7bd 83f4 853c fb56 9fbd
00000110: 57e1 9aba 1f6f 8a3d b537 92bb 3400 babb
00000120: 8076 c3bc 99c1 43bd b8d2 6a3d 2d47 13bd
00000130: f01c 483d f3c8 ffbb 1ac3 c93c a7c9 86bd
00000140: 9c98 0ebd 86fd c23c b80f 26bd 6ed2 7bbd
00000150: 4625 9fbd 61eb 06bd e004 eebb cef0 7c3c
00000160: 8480 a6bd 5f33 e0bc af5d efbc f4ae dfbb
00000170: 6708 4dbd 3e89 31bd 6122 9bbd ee8d 8e3d
00000180: 8f1b 0ebd fb33 a23d 0afc 7ebc cbfe ef3c
00000190: b7da 2c3d e732 043d eccc dbbc 1827 573d
000001a0: c0f6 cf3c 5cfc a8bc 168b 0b3d 62c5 abbc
000001b0: 9bf4 debb 3885 01bd e8c1 38bd 80bc a8bc
000001c0: f826 aebc 76df 74bd 47b6 403b 297c 0a3c
000001d0: bd0c 8abc 6e12 1d3d 42da 3dbd cee5 e9bc
000001e0: 18c9 313c f2cf 88bd 280c 2dbc efef 35bd
000001f0: bc36 87bd be8f e3bc 1d77 513d 7394 853d
00000200: ebaf 3c3d 1301 203d 0310 9bbc d427 ff3c
00000210: 3edd 8bbd c414 663d 233c 303d 266d b13d
00000220: 2216 b23b 69cf 35bc 4af3 8d3b 1c24 fd3b
00000230: 5456 1cbd 3dcf 7cbd 3d31 d83c ca6e 8a3d
00000240: 5414 253d 8651 7fbd 5748 6cbd 418d 563c
00000250: 34de 29bc 3f0a 98bd f3b4 93bd 5dcc 163d
00000260: 474e 7f3d 0934 103b be0a 4d3d d2d2 563d
00000270: e964 55bd 0c5f bfbc 5e4b a43d a05f 49bd
00000280: 5d5a 59bd f7cf 973d 33cd 52bd 3c72 a13d
00000290: 1dda f9bc 9538 cdbc 4da6 a03d 72f8 133d
000002a0: 2a1c 16bc 9f99 0dba 1468 a93c 0e4b 5e3d
000002b0: 62ed 9ebd 2232 5cbc 5916 5e3d ff54 723d
000002c0: 8946 973d 1909 48bc c3f9 11bb 63c6 32bd
000002d0: ad20 e7bc 2d6a 96bb a9b4 dc3a afc6 6d3d
000002e0: 1c54 aabd ce93 dcbc 45f2 073d 5cce 39bb
000002f0: 506e 86bd 5116 243c 85ce 43bd 923e f1bc
00000300: fbb1 4a3d adaa d93c f482 2fbd 26fb a3bc
00000310: 4620 513d 4486 43bd 081f 98bd 0f3b ee3c
00000320: d30e 563d e90a a5bc e66a 813c 7d9e 84bd
00000330: d912 9c3d 4496 a53d 13e2 7cbd 3ef3 0c3d
00000340: 9bab a0bd c62c 46bb 8330 efbb 4d29 59bd
00000350: 3819 9a3d 6c77 c43c d7cd a8bd 975c a33d
00000360: ca01 903d fa1b 873c e0cd 6fbd d589 5b3d
00000370: b994 e13c fb8e e93a 8b45 9dbd 3d15 8f3c
00000380: 3a0d 263d c367 603c b2ac 66bd 1054 a13c
00000390: 1b48 4cbd 8866 3ebd 9339 95bd 701e 1bbd
000003a0: 9f18 e13c c385 c93c 94a5 ee3a ffb7 19bd
000003b0: 71f3 a43d 33f9 6d3d 2c54 98bd 4824 773d
000003c0: 9976 a23d 27ef a73d 36cb 0bbd 6322 76bd
000003d0: 8bab 8b3d a37c 6e3c d47b 9ebd 5d98 7ebd
000003e0: 15b4 07bc 9803 75bc 1b04 3c3d 6c94 bbbb
000003f0: 689b 1dbb 7f64 963d 705b 6cbd 636f 30bd
-0.0134041775 -0.030731268 -0.038030844 0.009819043 -0.03584991 0.028467832 0.06411219 0.044306293
-0.083638206 0.021883395 -0.02543483 0.04961879 -0.028707433 0.03479954 0.08020895 -0.0017506543
0.0070947944 -0.038720075 -0.005321323 -0.07370327 -7.189299e-05 -0.06732891 -0.027907837 0.011390839
0.005294676 0.079104975 0.012093084 -0.050840713 0.014021865 0.05628755 0.03519569 -0.03062945
0.02708024 0.016294137 -0.024021152 -0.024462042 0.03892906 0.043230593 -0.077690095 -0.022504201
-0.03925061 -0.06544909 0.04244743 0.038999267 0.059840232 0.014571133 -0.0051777023 0.0717287
0.03419926 0.054868575 0.05450819 0.08420379 -0.047947552 0.007308147 -0.061188094 -0.028821098
-0.024506208 0.030118745 0.08175338 -0.026549947 0.02676309 0.07424197 0.032373045 0.062148403
-0.079645105 -0.081909895 0.016351944 -0.07780262 -0.0011816424 0.06759476 -0.004462207 -0.0056762937
-0.023860216 -0.04779205 0.057329863 -0.03595655 0.048855722 -0.0078059374 0.024629164 -0.06581431
-0.03481351 0.02380253 -0.040542334 -0.06147998 -0.07770781 -0.03293932 -0.0072637647 0.015438272
-0.08129981 -0.027368246 -0.029219477 -0.006826276 -0.05005684 -0.043343775 -0.07574917 0.06960665
-0.03469425 0.07920071 -0.0155630205 0.0292963 0.04220077 0.032275107 -0.026831113 0.052527517
0.025386214 -0.020628147 0.03406819 -0.020968143 -0.0068040616 -0.031621188 -0.0451068 -0.020597696
-0.021258816 -0.05978342 0.002940552 0.008452454 -0.016851777 0.038347654 -0.046350725 -0.028551962
0.010851167 -0.066802874 -0.01056198 -0.04441827 -0.06602237 -0.027778503 0.051138986 0.06522455
0.046066206 0.039063524 -0.018928533 0.031146921 -0.06829308 0.056172147 0.0430261 0.086633965
0.0054347673 -0.011096814 0.004331981 0.007725252 -0.038168266 -0.061721075 0.026390666 0.067594126
0.04030259 -0.062333606 -0.057686176 0.013095201 -0.010367919 -0.07423829 -0.07212248 0.03681599
0.06233051 0.0022003672 0.050059073 0.052447148 -0.05209819 -0.023360752 0.08022188 -0.04916346
-0.053064693 0.07412713 -0.051465224 0.078831166 -0.030499512 -0.025051394 0.07844219 0.036125608
-0.009161988 -0.00054016145 0.020679511 0.054270796 -0.07760121 -0.013439687 0.05422053 0.05916309
0.073865004 -0.0122092 -0.0022274114 -0.043646228 -0.028213823 -0.004590294 0.0016838509 0.058050808
-0.08316824 -0.026925948 0.03319003 -0.002835176 -0.06564009 0.010015086 -0.047804374 -0.029448781
0.04948614 0.026570642 -0.042849496 -0.020017218 0.05105617 -0.047735468 -0.07427794 0.029080896
0.05226023 -0.020146804 0.015798043 -0.06475542 0.076207824 0.080853015 -0.06173904 0.03441166
-0.07845231 -0.003023909 -0.007299484 -0.053017903 0.07524341 0.023982726 -0.08242386 0.079766445
0.07031591 0.016492832 -0.058545947 0.053598244 0.027536737 0.0017819101 -0.0767928 0.017466182
0.040539958 0.013696614 -0.05631704 0.019693404 -0.049873453 -0.0464845 -0.07286372 -0.037870824
0.02747756 0.024599915 0.0018207305 -0.037528988 0.08054245 0.058098983 -0.074379295 0.060337335
0.07932777 0.081999116 -0.034129344 -0.060091387 0.068198286 0.014556083 -0.07738462 -0.062157024
-0.008282681 -0.01495447 0.045902353 -0.0057244804 -0.0024048928 0.07343387 -0.05770439 -0.043074977

lstm_encoder.bias_hh_l0 f4 [512]
00000000: 72fe 16bd 5819 883b 24ba 2f3d 9726 d13c
00000010: b799 21bc 55d8 853d 4bb4 91bc 63d6 313d
00000020: 5663 a6bd 2ea7 eb3c 8a6a 81bd a2f0 573c
00000030: 40dd 973c 7e24 da3c 0c34 3cbd ab38 913d
00000040: 5b43 903d e067 9dbd be83 9f3b a2df 81bd
00000050: 4f15 f13b 2f1e 51bd 5385 68bd fa0b efbc
00000060: e46b 3ebc 211f ee3c 45e1 f5bb 81a4 923d
00000070: 8b6d 7bbb 683b 873d 2d81 74bd 131f a33d
00000080: d65b fa3c 1734 4abd 1eca 453c 2623 dfba
00000090: b709 bc3c e9ab 3fbd f68b 71bd 274e bf3c
000000a0: 3b34 9ebd 33ae f5bc 3d58 0c3c 7c0b 673c
000000b0: 8575 52bd af88 a33d e078 5cbd 7cab 253d
000000c0: d717 b9bc 3143 3c3d 7744 313d 98b5 e83c
000000d0: 4cc8 2ebc 2a2d 893c aa31 c53c 08ce 2e3d
000000e0: 6b7c a2bd 13f4 713d 7003 fcbb e7e3 78bc
000000f0: 0957 9abd 84cd 9a3c a002 883d ba63 013d
00000100: d106 3bbd 7ddf 433d a745 533d 6a49 a4bd
00000110: c830 e73b 52e9 823c 775a c13c 83b9 14bd
00000120: 5091 bbbc e9cb 30bd 7752 133d a6fc 60bd
00000130: 6cdc 65ba 099a 8839 a39b bf3c 5810 8a3d
00000140: f2a8 6cbd 12b0 64bd 6e84 8f3d 9073 0b3d
00000150: 602d d4bc 2863 26bd 1f47 84bd 7115 99bd
00000160: 54e3 833d 88f1 593c ada9 a3bd 368e 6d3c
00000170: f5b6 d6bc c5b9 333d 951b f33c a97c 07bd
00000180: 454a 7b3d d711 e63c 20ef 8f3d c86d 71bd
00000190: 3a2f f73c 3e2b 1abd 9fb2 afbb b86e 463d
000001a0: cef5 b33c c5ac 9cbc cfd7 6d3d 7451 bbbc
000001b0: ae19 eb3b c766 823d 1cd8 c63b bad3 2c3d
000001c0: 3291 84bd 08ec 993d d490 23bd 0cef 6ebd
000001d0: 6929 4dbd d23c 24bd 23a7 313d fa14 88bd
000001e0: 2032 8a3d 8e9f 42bd c100 52bd 210f 98bd
000001f0: cc74 ec3c 5993 213d 11c3 2abc 6024 82bc
00000200: 3a97 bbbc 736b 25bd e905 51bd d729 83bd
00000210: fbe9 91b9 4c44 8abc a160 723d 8605 b33c
00000220: df2a 0c3c 80d5 d03b 5b3d 8f3d 3f3e 07bd
00000230: c07a 4bbd 406f 88bc dd1a c6bc 8d42 5abd
00000240: 7390 fd3c ed21 8d3d 77b6 77bd 9e75 d5bc
00000250: cf1b 003d ebde 343d 1192 cd3c 4179 513d
00000260: f778 84bd 1cd2 ccbc 5b3e d6bb 91ba 72bd
00000270: f75e 2b3d d99c 54bd bd97 2dbd d91c 553c
00000280: 188c 50bd 0f78 ff3a a29c 853d 26ed 853d
00000290: fdfa 83bd cb4a 3d3d 7b35 8cbd 54bb 9f3d
000002a0: 5861 7bbc 6d83 4ebd ba11 a83c 620f ca3b
000002b0: 672e 343d 9fad a33d 9517 e4bc 151c 163d
000002c0: 28f7 043d 4a33 57bd 3486 b2bc 0c26 22bd
000002d0: 23b4 d0bc fc08 82bd cf54 4dbc 0aef 70bd
000002e0: c21f 50bc 3a3b b33c 1dcd 4d3d 5672 583d
000002f0: 4d4a b9bc be67 5d3d 7699 91bd dc30 ab3d
00000300: 735a 48bd dada e73b 7a07 afbb 1cf2 213d
00000310: b6e5 9c3d 2b07 7b3d 8f85 af3d ff4f bfbc
00000320: 78d8 06bc 1eec 833d 02f9 67bd a7d6 c83c
00000330: 8d67 d1bc 49da 03bd 3823 193d 5df1 173d
00000340: 0fb7 55bc bc15 623d b305 083d 9da1 5c3d
00000350: 5e1c eabb c1f3 20bd d032 4a3d 4147 a2bd
00000360: 3134 49bd e40a 2cbd b759 cdbb b0e2 c0bc
00000370: 1518 2b3d 6d45 3a3c 9c0d aa3d edbe db3c
00000380: 3696 213d fb2e 9ebc 19b6 9bbc 3dde 4c3d
00000390: d199 f33c 4730 0a3d d244 03bb 43a0 4d3d
000003a0: acfb dc3c 0349 80bd a944 9b3d d3e1 133b
000003b0: 5d49 82bb 0fe2 973c 7a5f 46bc bc08 0fbd
000003c0: f2e6 893d 7d47 0c3d fa21 c5bc e5be 12bd
000003d0: 0221 9f3d 6c28 91bd c710 29bd c560 b2bc
000003e0: a9d9 0abd 0c09 52bd 69ea 5b3d b13d f7bc
000003f0: 16b3 963d c7e3 0e3c f2f9 64bd ff25 e03c
-0.03686375 0.004153412 0.042902127 0.025531096 -0.009863309 0.06535403 -0.017786166 0.043417346
-0.081244156 0.02876624 -0.06319149 0.01317993 0.018538117 0.026628729 -0.045948073 0.07090887
0.07044097 -0.07685828 0.004868 -0.06341483 0.0073572765 -0.051054176 -0.056767773 -0.029180516
-0.011622403 0.029067578 -0.007503661 0.07160283 -0.0038364853 0.06603128 -0.059693504 0.07964911
0.030561369 -0.049366083 0.012072114 -0.0017024025 0.022953851 -0.046794806 -0.058971368 0.023352696
-0.07724806 -0.029990291 0.0085659595 0.014101859 -0.051381607 0.07985055 -0.053826213 0.040446743
-0.022594376 0.045962516 0.043278184 0.028406903 -0.010667872 0.016745169 0.024071533 0.042676955
-0.07933887 0.059070658 -0.0076908395 -0.015191055 -0.07536132 0.018896826 0.06641126 0.031589247
-0.045660798 0.047820557 0.051580098 -0.08021815 0.0070553757 0.015980396 0.023602707 -0.03630973
-0.022896439 -0.043163214 0.035967316 -0.054928444 -0.0008768502 0.00026054707 0.023389643 0.067413986
-0.057778306 -0.055831976 0.07007681 0.034045756 -0.025900543 -0.040621907 -0.06458878 -0.07474793
0.06439844 0.013302214 -0.079913475 0.014499238 -0.026210288 0.043878336 0.029676238 -0.03307787
0.061350126 0.028084679 0.07028031 -0.058942586 0.030173887 -0.037638895 -0.0053618695 0.048445433
0.021967795 -0.019125352 0.05806714 -0.022865988 0.007174692 0.063672595 0.0060682427 0.042194106
-0.06473006 0.075157225 -0.03993304 -0.05833344 -0.05008832 -0.040097065 0.043372285 -0.06644626
0.06747842 -0.047515444 -0.05127025 -0.074247606 0.028864287 0.039447162 -0.010422484 -0.015886486
-0.022899259 -0.040385675 -0.051031027 -0.06404465 -0.00027830884 -0.01687827 0.059174184 0.02185322
0.008555143 0.0063731074 0.069941245 -0.033018347 -0.04967761 -0.01665461 -0.024182731 -0.053286124
0.030952668 0.068912365 -0.060476746 -0.02605706 0.03127652 0.044157904 0.025094064 0.051141027
-0.06468385 -0.025002532 -0.006538195 -0.059259955 0.041838612 -0.051907394 -0.042381037 0.013007366
-0.050914854 0.0019490736 0.06524016 0.06539373 -0.064443566 0.046213906 -0.06846138 0.07799402
-0.015343033 -0.050418306 0.020516265 0.0061663846 0.043989565 0.079921 -0.027843276 0.036647875
0.03246227 -0.052539147 -0.021792509 -0.039587066 -0.02547652 -0.0634937 -0.012532427 -0.058821715
-0.012702884 0.021878827 0.05024444 0.052843414 -0.022618437 0.054054014 -0.071093485 0.083589286
-0.048914384 0.0070756497 -0.0053414674 0.039537534 0.076610014 0.061286133 0.08570396 -0.023353575
-0.008230321 0.0644152 -0.056633957 0.024516417 -0.025562072 -0.032190595 0.037387103 0.037095416
-0.013044133 0.05519651 0.03320856 0.053865064 -0.007144495 -0.03929496 0.049364865 -0.07923747
-0.04912204 -0.042002574 -0.0062667984 -0.023545593 0.041771013 0.011369091 0.08303377 0.026824439
0.039449893 -0.019309511 -0.01900773 0.05001663 0.029736431 0.033737447 -0.0020030034 0.050201666
0.026975475 -0.06263926 0.07581455 0.0022565022 -0.0039760307 0.01854041 -0.012107724 -0.03492044
0.067335024 0.034247864 -0.024064053 -0.035826582 0.077699676 -0.07087788 -0.041275766 -0.021774659
-0.033898983 -0.05127816 0.053690348 -0.030180784 0.07358377 0.008721299 -0.05590243 0.027361868

lstm_decoder.weight_ih_l0 f4 [512, 6]
00000000: cccc 9fbd ad17 9ebd 9a29 043e e88d 5ebd
00000010: 851f 8a3b dcd4 243d 075f 3f3c e1f6 9639
00000020: 45b8 36bd c8ab e1bb fe90 983c 3957 933d
00000030: a860 20bd 0fa1 8ebd a5d7 593c 686e 9ebd
00000040: 1de5 afbd a512 89bd c55f 76bd 593d 193d
00000050: 536f eabc 8b22 80bd 6853 04bd c85d f3bc
00000060: 0e78 84bd 9d41 353d 30bd 8ebd ad43 9ebd
00000070: c03c 86bc 420a 103c c242 45bd 2b26 443d
00000080: dec2 183b 47c1 6a3d c8fa d63b b293 8fbc
00000090: 8ee7 a0bd 385e 96bd 3a06 f6bb 0e91 8c3c
000000a0: 37d7 833c 5117 8a3d b361 e93d 28ed 8a3d
000000b0: be22 403d aeff 523b 3939 68bc 52e6 9abd
000000c0: 33d5 82bd 86c1 a23d 45f4 683c 53d0 933c
000000d0: c3e0 22bd 922c 493d 773b 21be 5696 bdbc
000000e0: 6d0f 383c ca26 1bbd f192 63ba 94d1 273a
000000f0: fbd0 29bd 6239 053d e4f1 3e3d aaf8 fdbc
00000100: 096a c8bd 13c3 0cbc 68b2 c0bc e833 043d
00000110: 013a 43bd 6420 f5bb 73e6 ca3b 2e7a 6fbd
00000120: 35fb 0dbe 0009 f83c 04bf 023d 20c3 8dbc
00000130: 997a bdba 8eaf 10be abea 6d3d 1d9d 58bc
00000140: 17d0 87bd a48f b63b 801d 1b3c 2bd1 813b
00000150: e8b8 f9bb 0c52 53bd 622f 033d 899f c8bd
00000160: 4a70 403b a834 1f3c a878 a6bd bbe6 90bd
00000170: 1102 863d a73f 933d 825e 84bd a0ca c2bd
00000180: ee38 11bc 04ff 003d 5948 253c 7e0c 58bd
00000190: 97eb 88bc 896c 38bd 3682 a63d 95d2 bb3d
000001a0: 12c6 53bd 59d4 9cbd 4ddb 7bbd 27a9 5e3d
000001b0: 07a2 6ebd 1d06 00bd 7097 93bd 5e18 2d3c
000001c0: a680 da3a 3fe5 93bd 1253 62bd e11d 7e3d
000001d0: acd8 da39 57ac 92bd 56a1 0abd fbfd 89bd
000001e0: cbfc 6abb 8678 99bd c192 693d cb3c 1d3c
000001f0: a8f7 d43d effc c4bd f5c6 62bd b05d 153d
00000200: 59a7 20bd 2b77 0abd 3a39 ba3d 37c5 8dbd
00000210: 0be8 97bc 6b31 2b3d 0893 c23d 7991 20bc
00000220: 6917 97bd 6c2e 283d 6625 99be 754d 5dbd
00000230: 3d43 923b f819 403e c1c7 573e 91ba 6e3d
00000240: 218f d73d fd0f c0bc dd8a 92bd 56f3 a2bd
00000250: faf6 fdbc e1eb f33d dafa fbbd 78ed c8bd
00000260: 648a 9a3d cd9b b2bd be61 e33b d551 87bc
00000270: 2c50 903d 68c3 66bd 89a3 8c3d 552a 5dbd
00000280: 0604 81bc afb4 223c 71d4 173d 80ea 293d
00000290: f4bb afbd 285d 313d 0a95 9bbd 513e 2dbd
000002a0: cc0d 9638 de25 003d de69 57bc 1bfd ed3c
000002b0: a4b6 0dbd 0907 703c a77a 4d3d 652a 2a3d
000002c0: 94d5 203d b6f3 8ebd d7c5 01bd 6d64 0f3d
000002d0: 9dff 2dbd 1505 84bd 691a 43bd 7f5f 513b
000002e0: fd86 e33b 0431 19bc 9c38 bcbc 8381 253d
000002f0: be6f 073d 4897 53bd 7693 97bd 2baa 1fbd
00000300: bb14 1b3d f1ec 7bbd 4b2e 883c 91eb 19bd
00000310: bc0a d7bd d082 9f3d a059 d33d 5ed6 8bbd
00000320: ccaf c63b 74c3 9abd d6cc f4bd 162b a4bd
00000330: 24f7 753d 2975 97bd 9978 bcbc d66b 3fbd
00000340: 04f3 833c cfea 96bd d286 be3a d32c b13d
00000350: 6aa6 da3d 0710 31bd f0da f43a 3e65 c6bd
00000360: 5a11 5abd a744 fcba a7a4 7d3d b1f2 92bd
00000370: 23eb bcbd 22c4 c6bc d357 58bd 10ce 7e3d
00000380: 5dbb 49bd 4927 38bd bbc0 933d 2fd2 223d
00000390: 631c 97bc eb6c 4bbd c8ba 413d 13b4 163d
000003a0: d7fb 293d 9168 c13c 3b82 f2bc 9f92 4abc
000003b0: f6b6 493d 7258 c43c c239 4e3b d1b0 35bd
000003c0: a5f7 033d a4c6 68bd 0718 cbbc dfc8 433d
000003d0: 2b77 4f3c 236e 2d3d c3d8 84bd 1d74 0fbd
000003e0: 30ec 88bd 6c38 19bd a5a4 8d3c 0b61 4c3d
000003f0: 1aeb 20be 3220 953d 8dc0 cabc 6de3 83bc
-0.07802734 -0.077193595 0.12906495 -0.05433455 0.004215183 0.04024206 0.011680371 0.0002879417
-0.044609327 -0.006886933 0.018623825 0.07194371 -0.03915468 -0.06964313 0.013296043 -0.07735902
-0.08588622 -0.06693009 -0.060149927 0.03741202 -0.028617537 -0.062565885 -0.032306105 -0.029707804
-0.06468211 0.044252027 -0.069696784 -0.07727752 -0.01638639 0.008791508 -0.04815937 0.047887962
0.002330951 0.05731323 0.006560657 -0.017526481 -0.078566656 -0.073421896 -0.0075080665 0.017159011
0.016093833 0.067427285 0.11395588 0.06783515 0.046908133 0.0032195854 -0.014173799 -0.07563461
-0.06388321 0.07947068 0.014218395 0.018043673 -0.03976513 0.04911477 -0.1574534 -0.023142975
0.011234147 -0.03787879 -0.0008681259 0.0006401774 -0.041459065 0.032525428 0.046617404 -0.031002361
-0.097858496 -0.008591431 -0.02352257 0.032276064 -0.04766274 -0.007480668 0.0061920225 -0.05846613
-0.13865359 0.030277729 0.031920448 -0.017304957 -0.0014456093 -0.14129469 0.058085125 -0.0132210525
-0.06631487 0.0055713225 0.009467483 0.0039617023 -0.0076209195 -0.051591918 0.03202761 -0.09796054
0.0029363804 0.009717144 -0.08128482 -0.07075258 0.06543363 0.07189875 -0.064633384 -0.09511304
-0.008863671 0.0314932 0.01008805 -0.05274629 -0.0167139 -0.045025382 0.081303045 0.09171025
-0.051702566 -0.076576896 -0.06148844 0.054360535 -0.05825999 -0.03125583 -0.07206619 0.010564892
0.001667042 -0.072214596 -0.055255003 0.062040213 0.00041741633 -0.071617775 -0.03384527 -0.06737896
-0.0035856243 -0.07493691 0.05702472 0.009597014 0.10398799 -0.09618556 -0.05536552 0.0364663
-0.039222095 -0.033805054 0.09092946 -0.06922381 -0.018543264 0.041795176 0.095007 -0.009800308
-0.07377512 0.041059896 -0.29911345 -0.054028947 0.004463582 0.18759906 0.21072294 0.058283392
0.105253465 -0.023445124 -0.07155392 -0.07956569 -0.031001557 0.11910225 -0.123037055 -0.098109186
0.07545927 -0.08721123 0.006939142 -0.016518513 0.070465416 -0.056338698 0.06867129 -0.05399545
-0.015748989 0.009930774 0.037067834 0.041483402 -0.08580771 0.04330173 -0.07596786 -0.042295758
7.155127e-05 0.031286113 -0.013147799 0.029051354 -0.034598008 0.014650115 0.0501658 0.041544337
0.039266184 -0.06980078 -0.031682815 0.035007883 -0.0424801 -0.06446282 -0.04763261 0.003194779
0.006943582 -0.009350065 -0.022976212 0.040406715 0.03306555 -0.051657945 -0.07401173 -0.038980644
0.037861567 -0.06150526 0.016623637 -0.03757817 -0.10500094 0.077886224 0.10319829 -0.06827997
0.006063437 -0.07556811 -0.11953132 -0.080160305 0.060050145 -0.073953934 -0.023006724 -0.0467337
0.01610709 -0.07369005 0.0014536029 0.08651128 0.10676272 -0.043228175 0.0018680971 -0.09687279
-0.053239204 -0.0019246534 0.061924603 -0.07175196 -0.09224536 -0.024263445 -0.05281813 0.062208235
-0.04925095 -0.04495934 0.07214495 0.039751228 -0.018446153 -0.04966442 0.04729727 0.036792826
0.04149994 0.023609431 -0.029603114 -0.012364059 0.04924675 0.023967955 0.0031467532 -0.04435808
0.032218594 -0.056830063 -0.02479173 0.047798987 0.012662689 0.042341363 -0.064866565 -0.035022844
-0.06685674 -0.037407324 0.017290423 0.049897235 -0.15714684 0.072815314 -0.024750018 -0.016099656

lstm_decoder.weight_hh_l0 f4 [512, 128]
00000000: bd95 8b3d d776 29bd 55a4 38bc f7fb 7abd
00000010: 5fe6 1abd 0c02 bb3b 49f1 233d 0c12 873d
00000020: d0d2 643d 4f4b e33c 2e10 d0bc 0282 0a3d
00000030: 8df9 203d a946 91bd 499b 543c 5bd0 a7bc
00000040: c749 5dbc d6cc f1bc 7ac2 983d 4c37 d8bc
00000050: d11a 5dbd 79c9 79bd 4e92 31bd e499 f53b
00000060: 0553 58bd 7d5b 813d a177 2c3d ec30 d13c
00000070: ba35 efbc c122 2bbc c68c e5bc 7316 513d
00000080: 1a67 923c fda9 483d f594 c43c edd1 34bc
00000090: e04d a8bd f187 d43c 6e24 58bd af83 193d
000000a0: 2964 523d 6669 9c3d e084 8bbd 5ede 833d
000000b0: 074d 063d 495a febc 8b47 56bc a451 9a3c
000000c0: a19a 9bbd 4530 0b3d afab 55bd 073f 7c3b
000000d0: e9be 36bb d655 6fbd 6195 483d d95d d9bc
000000e0: d88a 9abd 6f4f 88b9 4a7b 1fbd 0407 0e3d
000000f0: 9c18 7d3d ef30 ccbc 619d ab3b ca29 19bd
00000100: a5a8 223d 3575 163d 6de8 cdbc b6b7 3ebd
00000110: f847 11bd a1b7 a6bc ed3b c0bc c966 2b3d
00000120: fc78 7a3d 10a5 93bd 9ae6 91bd debd 563d
00000130: 6f19 5a3d 899a 7ebd 6474 063d c14b b93c
00000140: c8b6 8f3c 2500 46bc 5914 313d 788d b1bd
00000150: 300e 983d 02fe 90bd de8a bfbc 54cd 193d
00000160: af42 66bc 975e 91bd 3f95 75bc a27d 253c
00000170: 8d9c 8ebd 6abb 913d 703f e3bb e30b 963d
00000180: 8895 99bd 9206 9e3d bcc5 353d 4f2a 7b3d
00000190: 261c 753d 0bd7 a4bd 37f6 c23c 34da 34bc
000001a0: 6c8e 5fbd f04d ccbc cb2b 95ba 68f2 abbc
000001b0: 1fab 873d 24ae 903d 0ff6 abbd d703 273d
000001c0: f384 84bb cfa4 6c3d ced1 473d 05a6 3bbc
000001d0: 89c8 b23d 234c 1e3c 0d6d 763d ae47 96bd
000001e0: ae55 b6bc 821c 85bd 6e7c 373d aae9 873c
000001f0: 48ae 6bbd 9365 4dbd 0b1e 96bd c46e 8abc
00000200: d467 da3c 4664 9f3d 4e6e 063d 773f 783d
00000210: 3157 ac3d 4f89 9fbd d8d8 9b3c aa14 d4bc
00000220: a3e4 a2bd 6cbe 8dbd 9e5f 9cbd dac4 673d
00000230: d1e1 8fbd 949d 0d3d b4f7 773d f1f5 3ebb
00000240: c600 4b3d abea 273c 4e08 0f3d 628f 903d
00000250: cdf2 0abd 16e6 b83b b194 d6bb 6cb5 383d
00000260: a823 35bd dc31 7f3d 721e 923d e0be 4abd
00000270: 9b3b a63b 498a 8a3d d7c2 363d 73f0 2fbd
00000280: d8dc 43bd 020e 9b3d 71ea 9b3d 26c8 02bd
00000290: 2e94 803c 16d5 11bd 14d1 073d 6cd2 22bd
000002a0: e791 61bd 92ec 963d 68ba b43b df53 b83c
000002b0: 6c4d b7bb b9bd abbc ef6e 093d 270a a2bb
000002c0: 082d 9c3d 2a78 a93c 256f 443d 4310 533d
000002d0: cc3c bdbb a09b 47bd 4661 e13c abe5 6d3d
000002e0: 6759 a5bd 3be0 23bd 87af 923d 03b4 67bd
000002f0: 4769 c03c 16a4 0ebc b203 e23b fa68 afbc
00000300: 4145 5bbd 10cb 9cbd dace f73c a415 8fbd
00000310: 04d8 45bd f973 33bc 872e 543b 00b2 13bd
00000320: 18a2 fdba 4657 a23c 3c31 29bd 67b1 293d
00000330: 79b2 46bd b9b9 a53d 8abd 64bd beaa aebd
00000340: f524 e9bb 22a8 a2bc e19e 5b3d 1a46 0ebd
00000350: 8d97 82bb dae6 893c a8df a03c 9e62 a6bd
00000360: f0d8 d8bc be29 4bbd 5d4a aabd 20f0 923d
00000370: 4e24 86bd 18d8 413c 2e15 c13c ced5 03bd
00000380: 073e cb3c c05b 8c3d 12ed 00bd fc13 27bd
00000390: b022 49bd 9e37 2ebd efe4 2fbd c257 ae3b
000003a0: a01d a1bd e4b0 86bd fdea 853d 7dd4 523d
000003b0: 1f77 183d 7135 103d a5ff a23d 1df5 173d
000003c0: 6528 a63d 1325 69bd af37 8e3d addb 813d
000003d0: af2e 553c f13b 9fbc 3546 b8bc f9e3 9fb8
000003e0: df7b bbb9 1ee7 a9bd f52d 8dbb ec55 af3d
000003f0: 4a6a 90bd 1f59 e9bc 3b0b 263d f2fc be3c
0.0681567 -0.0413731 -0.011269649 -0.06127545 -0.037817355 0.005707031 0.04002503 0.06595239
0.05586511 0.02774587 -0.02539834 0.03381539 0.03930049 -0.070935555 0.012976476 -0.020485094
-0.013506359 -0.029516619 0.074589685 -0.026393555 -0.053980652 -0.060983155 -0.043352418 0.007495152
-0.05281355 0.06316278 0.042106275 0.025536023 -0.029200424 -0.010445298 -0.028021228 0.0510468
0.017871428 0.04899024 0.02399681 -0.011036378 -0.082179785 0.025943728 -0.052769117 0.0374791
0.05136505 0.07637291 -0.06812453 0.064388976 0.032788303 -0.03104891 -0.013078581 0.018837757
-0.075978525 0.03398158 -0.052165683 0.0038489716 -0.0027884787 -0.05843147 0.048970584 -0.026534008
-0.075460136 -0.00025999124 -0.038935937 0.03467466 0.061791047 -0.024925677 0.005237267 -0.03739337
0.039711613 0.03673287 -0.025135243 -0.04656192 -0.035469025 -0.020351233 -0.023466075 0.04184607
0.061150536 -0.072092175 -0.07124062 0.052427165 0.05324691 -0.062159095 0.032825842 0.02261913
0.017543212 -0.012084995 0.043232296 -0.08669561 0.07424581 -0.07079698 -0.023381647 0.03754933
-0.014053985 -0.0709812 -0.014989196 0.010100754 -0.069634534 0.071158245 -0.0069350526 0.07326486
-0.07499224 0.07716097 0.044378027 0.061319645 0.059841298 -0.08048829 0.023799045 -0.011038352
-0.054579183 -0.024939507 -0.0011380849 -0.020989612 0.06624436 0.07064465 -0.08396541 0.040775146
-0.004044169 0.05777436 0.04878407 -0.011453156 0.08729655 0.009661707 0.060162593 -0.073378906
-0.022257652 -0.06499578 0.0447964 0.016590912 -0.057539254 -0.050145697 -0.07329949 -0.01689852
0.026660837 0.077827975 0.03282004 0.0606074 0.08415068 -0.077898614 0.019024298 -0.02588876
-0.07953765 -0.06921086 -0.07635425 0.056584217 -0.07025493 0.034574106 0.060538962 -0.0029138292
0.049561284 0.01024882 0.03492003 0.07058598 -0.03392296 0.0056426628 -0.006548487 0.045094892
-0.044223458 0.06230341 0.07134713 -0.04949844 0.0050730235 0.06764657 0.044619408 -0.04295392
-0.047818035 0.07571031 0.076130755 -0.031929158 0.015695658 -0.035603605 0.033158377 -0.039751455
-0.055070784 0.07369341 0.0055153854 0.02250093 -0.005593946 -0.02096449 0.03355306 -0.004945058
0.076257765 0.020687182 0.04795756 0.05152918 -0.00577507 -0.0487324 0.027512204 0.058080357
-0.08073693 -0.040008765 0.071623854 -0.056568157 0.0234877 -0.008706113 0.006897413 -0.021412361
-0.053532843 -0.076559186 0.030250002 -0.069865495 -0.04830171 -0.010952943 0.0032376365 -0.036058426
-0.0019350676 0.019817006 -0.04130672 0.04142895 -0.04851005 0.080920644 -0.05584482 -0.0852866
-0.0071150013 -0.019855563 0.053618316 -0.034734823 -0.0039853514 0.016833711 0.019637898 -0.081242785
-0.026470631 -0.049600355 -0.08314965 0.071747065 -0.06549893 0.011831306 0.02356967 -0.032186322
0.02480985 0.068534374 -0.031476088 -0.040790543 -0.049105346 -0.04253351 -0.042942937 0.00532052
-0.07866979 -0.06576708 0.06538961 0.051472176 0.037222978 0.035207216 0.079589166 0.037098993
0.081131734 -0.056920122 0.069442146 0.06340728 0.0130116185 -0.019437762 -0.022494415 -7.624174e-05
-0.0003575971 -0.08296035 -0.004308457 0.0856131 -0.07051523 -0.028484879 0.040538054 0.023313973

lstm_decoder.bias_ih_l0 f4 [512]
00000000: 2876 8bbd cc4d 063d ffba 97bd 5e31 88bc
00000010: 4757 193d fd3d 8e3d 5bd7 72bd df49 81bd
00000020: 037e 34bb 2b5d b33d 193a 5a3b 1199 35bc
00000030: 4acc f3bb a81e 943d 1330 99bd 8929 dabc
00000040: f051 6a3d a68c e1bc 5b3f 1e3d 10c2 98bc
00000050: 877e 623d 3992 b33c 730a 133d 0f8d a6bc
00000060: e954 93bd 77d7 d4bc fa82 8abd f19a 0838
00000070: 40f6 8ebc 9161 b03d 2661 23bc 9179 fcbc
00000080: b094 503c b66d d8bb 5b49 e8bc 312e 8f3d
00000090: 44fb 4a3c 36ba 883c f8e6 5c3c 5ccf 0a3d
000000a0: a186 973c 5894 4ebd c14e 49bd 0381 33bc
000000b0: 17d3 a83d 8431 77bd ce6c 1bbd b39d 45bd
000000c0: 4686 3a3c 33d0 4fbd e0f8 a7bc 744a 393d
000000d0: 2828 86bc 69cf e5bc fa30 e43c 3f9e 70bd
000000e0: 45c3 83bd 7d04 b3bc b096 333c f3b1 b53c
000000f0: d53e a03d dd4e 8f3d c209 a43d 9afe a83d
00000100: e897 333c e492 4bbd e5db 66bd 79c3 7dbd
00000110: 4184 6dbd 3894 75bd ebc2 5fbd 20eb a0bc
00000120: f65b c23b 132d 05bd 9d31 8bbc 7c05 ab3d
00000130: 2e7c d3bc 468e a73d f536 913c 14c2 94bc
00000140: 2cb4 cd3c f444 7f3d 53e7 85bd 0599 06bd
00000150: caa2 963d a1ea 993d f855 a53d db87 643d
00000160: 7f8a 93bd dad8 87bc 72df 93bd 8cbe 1e3d
00000170: 0e42 0f3c cb74 553c 75dc 873d a49c 29bd
00000180: 060a 88bc 8ed6 543d a71c e5bc e389 8cba
00000190: 1f3d 073d 28fd 5ebd f5ff c03c f8f9 113c
000001a0: 147d 1e3d 6847 7abd 8fa1 473d 5001 a1bc
000001b0: 0547 783d 5cff 893d 3d8b 8d3d 490b 91bd
000001c0: 3dc5 34bd 4e20 9abd 2183 b33d 8af7 ac3d
000001d0: a306 7ebd 1169 91bc eb2b 2abc 8647 7cbd
000001e0: a57d 1bbc d1f6 253d 5808 26bd 8f97 963d
000001f0: df31 d4bc a5f1 b6bc 83cd e0bc cecd e33c
00000200: 9740 b3bc 5b15 07bc 0f65 f9bc 5b15 04bc
00000210: adba 563b b7e0 01bd 258d 17bd 7a14 af3d
00000220: 5cb3 10bd 6b1e 953d a341 963d 20a5 bcbc
00000230: 1cea a23d c432 92bd 7c7e 193d 607c 47bd
00000240: f2ac 6a3c 348b 2a3d b7a7 48bd ffe3 09b9
00000250: eb03 353d 2578 f8bc fb29 b53b b1c3 88bd
00000260: 17f4 b8bc 49a4 c93d e58c b7bc 3871 d23c
00000270: 775f 7a3d fce0 603d 511f 963d e510 773c
00000280: ea77 cd3b 2bb1 62bb 37e5 8fbd 321b 8ebc
00000290: b310 afbc 05c4 90bd 6a3f 7e3d 893f 0ebc
000002a0: f137 a63c f3f2 573c dd58 8f3c 9179 a23d
000002b0: 2009 d8bc bf6e d03c ba5c cbbc 7347 ab3d
000002c0: 27c9 efbc 3d77 2b3d e46d d33b 6ea2 8d3d
000002d0: 3ace d53c 7028 673d e9ba 303d 0089 473c
000002e0: 1b18 85bd 6348 4bba 7793 83bd f5ca 6dbc
000002f0: c989 f13b 715b b1bc f1aa 1ebd a239 ab3c
00000300: 3844 8fbc b39b 713d 3f5e 98bd 885a a1bd
00000310: 7c54 663d 63d7 e63c 1193 223d 6d3b 7d3d
00000320: acb3 a43d 4b60 b9bb 22ef 2dbd 8581 a53c
00000330: f046 f4bc b82a ffbb 97b3 143d 0ef8 77bd
00000340: fb2a 903d 7d43 84bd 4eec 4bbd cfc0 86bd
00000350: 6c9c a63d aa72 2fbd d110 a53d 6de0 313c
00000360: 9658 fa3c d1c4 433d e9c0 323d 8510 44bd
00000370: 84d9 6abd f526 28bd bbca 4bbd 262a 0a3c
00000380: 8bd3 dbbc 11d1 903d 94af 503d f731 aebd
00000390: 0ae2 013c 284b 86bd d130 923d 4559 813d
000003a0: 4f93 143d f5bd 15bd c901 21bd 4466 a3bd
000003b0: cbf3 133d 3599 283b da25 723d 851e 763c
000003c0: d4c4 2b3b c9de 213d 7678 7fbd 3a37 003d
000003d0: 2e1d 2a3d a4f5 95bc 5eb3 97bd c7be 17bc
000003e0: bf86 2cbc 36b0 41bd 532e 7dbd 876e a2bd
000003f0: eb24 783d 4925 8b3d b313 aa3d 966c b23d
-0.06809646 0.032789037 -0.074087135 -0.016625103 0.03743675 0.06945417 -0.05928741 -0.06312918
-0.002754093 0.08758005 0.003329879 -0.011083857 -0.0074401246 0.0723241 -0.074798726 -0.026631134
0.057207048 -0.027532887 0.03863464 -0.018647224 0.055296447 0.02192031 0.035898637 -0.020330934
-0.0719393 -0.025981648 -0.06763263 3.2569227e-05 -0.017451406 0.08612359 -0.009971892 -0.030819686
0.012730762 -0.0066048754 -0.028355291 0.06991232 0.012389008 0.016690355 0.013482802 0.03388916
0.018496813 -0.05043444 -0.04914737 -0.010956052 0.08243387 -0.060349956 -0.03794556 -0.048246097
0.011384552 -0.050735664 -0.020504415 0.04523702 -0.01637657 -0.028053002 0.027855385 -0.058744665
-0.06433729 -0.021852726 0.01096122 0.02217958 0.07824484 0.06997464 0.08009674 0.082516864
0.01096151 -0.049700633 -0.05636205 -0.061953995 -0.057987455 -0.059955806 -0.054629248 -0.019643366
0.0059313728 -0.03251369 -0.01699143 0.083506554 -0.02581605 0.081814334 0.0177264 -0.01815895
0.025110327 0.06232162 -0.06538262 -0.032860775 0.07355268 0.07515455 0.08073038 0.055793624
-0.072041504 -0.016582895 -0.07220353 0.03875594 0.008743776 0.013028334 0.06633846 -0.04140915
-0.016606342 0.051962428 -0.027967764 -0.0010722246 0.033017274 -0.054440647 0.02355955 0.008909695
0.038693503 -0.061103255 0.04873806 -0.019653946 0.060614605 0.06738159 0.06911323 -0.070822306
-0.044133414 -0.07525693 0.08765245 0.08445652 -0.062018048 -0.017750295 -0.010386447 -0.061591648
-0.009490405 0.040518586 -0.0405353 0.07353126 -0.025902687 -0.022332022 -0.027441746 0.027808096
-0.021881385 -0.008244838 -0.030443696 -0.008061732 0.0032765076 -0.031708445 -0.03699984 0.085488275
-0.0353273 0.072811924 0.07336738 -0.023027956 0.07954809 -0.07138589 0.03747414 -0.048702598
0.01432346 0.04163666 -0.04898807 -0.00013150273 0.04419319 -0.030330727 0.005528686 -0.0667795
-0.022577329 0.09845788 -0.022406051 0.025688753 0.0611262 0.05490206 0.07330192 0.015079712
0.0062703984 -0.0034590464 -0.07026141 -0.017346952 -0.021370267 -0.07068638 0.062072195 -0.00868214
0.020290347 0.013180482 0.017498428 0.07933343 -0.026371539 0.025443433 -0.024824489 0.08363237
-0.029270722 0.04186176 0.006452309 0.06915747 0.026099313 0.05643505 0.043147 0.012178659
-0.064987384 -0.0007754622 -0.06424611 -0.014513721 0.0073711616 -0.021650048 -0.03873724 0.020901505
-0.017488584 0.058986377 -0.07439851 -0.078785956 0.056232914 0.028178876 0.039691035 0.06182425
0.08042082 -0.005657231 -0.042464383 0.020203361 -0.029818982 -0.007787075 0.036304083 -0.060539298
0.07039448 -0.06458185 -0.049785905 -0.06579744 0.08135304 -0.04283396 0.08059848 0.01085673
0.03055982 0.04779512 0.043641005 -0.047867317 -0.057336345 -0.041052777 -0.049753886 0.0084329005
-0.02683427 0.07071126 0.050948694 -0.08505624 0.007927427 -0.06557304 0.07138217 0.06315855
0.036273297 -0.03655811 -0.039308343 -0.0797849 0.03612117 0.0025726084 0.05911813 0.015021925
0.0026209848 0.039519105 -0.06237074 0.03130267 0.041531734 -0.018305607 -0.074072585 -0.009261793
-0.010530173 -0.04728719 -0.061811756 -0.07931238 0.060582083 0.06794221 0.083045386 0.087121174
