transformer_no_tanh_with_past_12_Nm_144_Np_lr_0.001_hs_128_ahs_8_nll_1_bs_16_do_0.5_e_200_stride_10/model_transfer_A25_to_J25_0.01n_0.0001lr_200e.pth (torch, 831457 bytes, 14 tensors)

lstm_encoder.weight_ih_l0 f4 [512, 8]
0	0x3d16b691	0.036795203
1	0x3d4abe5f	0.04949796
2	0x3db6b962	0.08922078
3	0x3aab8175	0.0013084846
4	0x3c3d5f5b	0.011558379
5	0xbd707eac	-0.058714554
6	0x3c65c5ea	0.014024237
7	0xbda161ab	-0.07879957
8	0xbdb6973e	-0.08915566
9	0xbcfb9cd3	-0.030714428
10	0x3d3f9db3	0.046781253
11	0x3d3335db	0.043752532
12	0xbaf4ef4b	-0.0018687038
13	0xbce6babd	-0.028165216
14	0x3d782252	0.060579605
15	0xbd23e819	-0.040016267
16	0x3cc2377c	0.023708098
17	0x3c895720	0.016765177
18	0x3cedbcad	0.029020632
19	0x3d149a89	0.03628019
20	0xbd3b9494	-0.045795992
21	0x3d196561	0.037450198
22	0x3c092327	0.008370197
23	0xbb6f91c9	-0.00365554
24	0xbd805abf	-0.062673084
25	0xb985f8ec	-0.00025553198
26	0xbd7a28c6	-0.06107404
27	0x3d2ab69e	0.041678064
28	0xbd79c297	-0.06097659
29	0xbb699f5e	-0.0035647969
30	0x3d9d1cf6	0.076715395
31	0x3db8d955	0.09025828
32	0xbc96d0f4	-0.018410183
33	0xbd1e3c68	-0.038631827
34	0xbb22a6cc	-0.0024818657
35	0x3d5f3ec5	0.05450322
36	0xbcdcbfa5	-0.026946852
37	0xbd9b0716	-0.07569711
38	0xbd6f05a9	-0.058355007
39	0x3d84c346	0.06482558
40	0x3d5da5f3	0.05411334
41	0x3d17f1a0	0.037095666
42	0x3d237e88	0.03991559
43	0x3d7ab7e1	0.061210517
44	0x3d687cc4	0.05675961
45	0x3cffc827	0.03122337
46	0xbc8404b4	-0.016115524
47	0x3d886d8d	0.0666152
48	0x3cac4ef6	0.021033745
49	0x3d479c66	0.048733138
50	0x3da3a3f3	0.07990255
51	0xbcd8c5e5	-0.026461551
52	0xbd367911	-0.04454905
53	0x3ca77d7e	0.020445582
54	0x3d8151a4	0.063144
55	0x3cf130e3	0.029442256
56	0x3c349b32	0.01102333
57	0x3a8ac599	0.0010587453
58	0x3d52b829	0.05144516
59	0x3cca0908	0.02466251
60	0x3d2d9c55	0.042385418
61	0xbd817e72	-0.06322946
62	0x3be8ef87	0.007108632
63	0xbd75de34	-0.060026363
64	0xbd60a11b	-0.054841142
65	0x3d6bddb1	0.05758447
66	0x3d4d91c1	0.05018783
67	0x3dac533a	0.08414312
68	0xbc930828	-0.017948225
69	0x3d94211b	0.07232877
70	0xbcef2e6c	-0.02919694
71	0x3c61bc4e	0.0137778055
72	0x3c93eb1f	0.01805645
73	0x3c29d822	0.0103664715
74	0xbdaec01c	-0.08532736
75	0x3d978d6d	0.07400022
76	0xba741d4a	-0.0009312226
77	0x3d8bf457	0.068337135
78	0xbd39c53e	-0.04535412
79	0x3d6dcbe6	0.05805578
80	0xbb284c03	-0.0025680072
81	0x3d41e38f	0.047336157
82	0xbdaf223e	-0.08551453
83	0xbc7d6913	-0.015466946
84	0xba0065e9	-0.00048979983
85	0x3d527d63	0.05138911
86	0x3d7156a2	0.05892051
87	0xbd83793e	-0.064196095
88	0x3d1f942d	0.03895967
89	0x3d0ac434	0.03387852
90	0xbc024463	-0.007950875
91	0xbdb2e4c0	-0.08735037
92	0x3da9befc	0.082883805
93	0x3a9d2847	0.0011990153
94	0xbd544d96	-0.051831804
95	0x3d8f2972	0.06990327
96	0x3c8a3e63	0.016875451
97	0x3cdaaf55	0.026694933
98	0xb982c703	-0.00024943808
99	0xbcfefb70	-0.031125754
100	0xbd2a272a	-0.041541256
101	0xbceba35c	-0.02876442
102	0xbd524612	-0.051336356
103	0x3bb67049	0.0055675847
104	0x3d53a5c0	0.051671743
105	0xbd2e8683	-0.04260875
106	0x3da49acc	0.08037338
107	0xbd01f414	-0.03172691
108	0x3d4737ca	0.04863719
109	0x3d019e1f	0.031644937
110	0xbb89458c	-0.004189199
111	0xbc87ea42	-0.016591195
112	0xbcefc1b5	-0.029267171
113	0x3d6085d9	0.054815147
114	0xbcc0b4d5	-0.023523727
115	0xbcd66968	-0.026173308
116	0xbd340d86	-0.04395821
117	0xbda3ef61	-0.08004642
118	0x3c468807	0.012117392
119	0xbd0ed75d	-0.034873355
120	0x3da7a5ed	0.08185945
121	0x3c88454e	0.01663461
122	0x3d1087cf	0.035285767
123	0xbc986507	-0.018602861
124	0xbd1f937b	-0.038959008
125	0xbd4854de	-0.04890906
126	0x3d8178ca	0.06321867
127	0x3d9f0886	0.077652976
128	0xbd8ac0f7	-0.067750864
129	0xbd487dcd	-0.048948098
130	0x3d354665	0.044256587
131	0x3dac8d2d	0.08425365
132	0x3bb48755	0.005509297
133	0xbd9638d5	-0.073350586
134	0xbd0ceff8	-0.03440854
135	0xbbe7c228	-0.007072706
136	0xbd1d13e8	-0.038349062
137	0xbca07741	-0.019588115
138	0x3c475194	0.012165446
139	0x3da0115e	0.078158125
140	0x3d21dcfe	0.039517395
141	0xbd917fb7	-0.07104438
142	0xbd264544	-0.0405934
143	0xbd5717b9	-0.052512858
144	0x3d3c85f0	0.04602617
145	0x3cf6458c	0.03006246
146	0xbd6e9d4b	-0.058255475
147	0xbc41191f	-0.0117857745
148	0x3ad794ff	0.0016447603
149	0xbd49e69e	-0.0492922
150	0xbd3d6195	-0.04623564
151	0x3c71c521	0.014756472
152	0x3b86b3b7	0.004110779
153	0x3d83a188	0.06427294
154	0x3cce627b	0.025193444
155	0xbccbcb0a	-0.02487709
156	0x3bdb773e	0.0066975644
157	0x3d119be5	0.035549063
158	0xbd520ae6	-0.051279925
159	0x3b95bcf3	0.0045696436
160	0x3cd5b7c4	0.026088603
161	0x3c2e4b9a	0.010638142
162	0x3d1c789f	0.03820097
163	0x3d9f76bd	0.077863194
164	0xbd177eff	-0.036986347
165	0xbc80b6a5	-0.015712092
166	0x3d5e174d	0.05422144
167	0xbd8603eb	-0.06543716
168	0xbc68ec08	-0.0142164305
169	0x3c9f4cbe	0.019445773
170	0xbd63459e	-0.055486314
171	0xbd0f8572	-0.035039373
172	0x3d42816f	0.04748672
173	0x3d77875f	0.060431834
174	0x3d0eb6b4	0.034842208
175	0x3d1c4509	0.038151775
176	0xbd81cb8c	-0.063376516
177	0xbd6f2ebf	-0.05839419
178	0x3d9280d3	0.071534775
179	0xbb1967fa	-0.0023407922
180	0xbd727669	-0.059194956
181	0xbd92d5e2	-0.07169701
182	0xbd4df62e	-0.050283603
183	0x3d9f9a4f	0.07793104
184	0x3d908987	0.07057481
185	0xbd440426	-0.04785552
186	0xbd17ee7c	-0.03709267
187	0x3d6d50fd	0.057938565
188	0x3d1ef34f	0.038806256
189	0x3d0b7ec6	0.034056447
190	0xbcccf4a1	-0.025018992
191	0x3c89dea9	0.016829805
192	0xbcd1d30d	-0.025613332
193	0x3d1275e8	0.035756975
194	0x3d80cc57	0.06288975
195	0xbd9ae0aa	-0.075623825
196	0xbd2df0b9	-0.0424659
197	0xbc3075ea	-0.0107703
198	0x3dcbf927	0.099596314
199	0x3dc5447c	0.09632203
200	0xbd9a27ae	-0.075270995
201	0xbb7d47cc	-0.003864753
202	0xbcfbd912	-0.030743156
203	0x3d651a5e	0.05593335
204	0xbd432644	-0.047643915
205	0xbd04accc	-0.032391354
206	0x3d2543a3	0.040347707
207	0x3d397f9a	0.045287706
208	0xbccdf39b	-0.025140574
209	0xbd90ccbc	-0.070703
210	0xbd96ab07	-0.073568396
211	0xbd8084fc	-0.06275365
212	0xbd32180b	-0.04347996
213	0xbd0dccf4	-0.034619287
214	0xbc9101ea	-0.017701108
215	0xbd8aa767	-0.06770211
216	0x3d7c1495	0.061543066
217	0xbdb54514	-0.08851066
218	0x3d887185	0.06662277
219	0x3c960f31	0.01831779
220	0x3da8123e	0.082066044
221	0xbcdcaf6d	-0.026939118
222	0xbce529ee	-0.027974095
223	0x3d60e9a9	0.054910336
224	0xbdb66517	-0.08906
225	0xbd3408e9	-0.04395381
226	0xbbc22a3a	-0.005925444
227	0xbd7664a1	-0.06015456
228	0x3d7855a3	0.060628545
229	0x3db11cb4	0.08648053
230	0x3d49acad	0.049236942
231	0x3d71226b	0.058870714
232	0x3c45452d	0.012040419
233	0x3d5b6833	0.05356617
234	0x3da03f91	0.07824624
235	0x3cd575aa	0.026057083
236	0x3ca5b8c9	0.020229714
237	0x3c9f2c67	0.019430352
238	0x3dabe470	0.0839318
239	0xbcb2ed82	-0.021841768
240	0xbd90ea07	-0.07075887
241	0x3d911080	0.07083225
242	0xbd7dae9e	-0.061934106
243	0xbce7e97e	-0.02830958
244	0x3d927e82	0.07153036
245	0xbb570fd4	-0.003281583
246	0xbcf630ad	-0.030052507
247	0xbd1ad5c0	-0.037801504
248	0x3b9bca54	0.004754344
249	0xbbb18354	-0.005417267
250	0xbd28d5de	-0.041219585
251	0x3d99b2f5	0.075048365
252	0x3d4b4810	0.04962927
253	0x3da8e430	0.08246648
254	0xba9c354f	-0.0011917743
255	0xbd2f7ca1	-0.042843465

lstm_encoder.weight_hh_l0 f4 [512, 128]
0	0xbd3f7d82	-0.046750553
1	0xbcb67e6f	-0.022277085
2	0xbcc568bf	-0.024097798
3	0xbca6e74d	-0.020373965
4	0xbd4a3694	-0.049368456
5	0xbdb08ee8	-0.08621007
6	0xbd01118b	-0.03151087
7	0x3cc83ba9	0.02444251
8	0xbd31e366	-0.043429755
9	0x3b120520	0.0022280887
10	0x3c0f7153	0.008755046
11	0x3c195a98	0.009359978
12	0xbc343a02	-0.011000158
13	0x3d9e7432	0.07737006
14	0xbcccb994	-0.024990834
15	0x3d34737c	0.044055447
16	0xbdaaecab	-0.08345922
17	0x3d9289da	0.07155199
18	0x3c2f5459	0.010701262
19	0x3d8b6d52	0.068079606
20	0xbd36d3a4	-0.04463543
21	0x3d9819fe	0.074268326
22	0xbc97cd86	-0.018530618
23	0x3d4e38f6	0.05034729
24	0x3d70ea1b	0.05881701
25	0x3b8d6b99	0.004315805
26	0x3dab2685	0.083569564
27	0x3cd91061	0.026497068
28	0xbd36b6aa	-0.044607796
29	0x3d3d8604	0.046270385
30	0xbd935f68	-0.07195932
31	0x3d8d2d0b	0.06893357
32	0xbbeaa288	-0.0071604885
33	0xbcecc548	-0.028902665
34	0x3d9a42ed	0.07532296
35	0xbc34f707	-0.011045224
36	0xbd0426c8	-0.032263547
37	0x3d8b8640	0.068127155
38	0x3cc2ce14	0.023779906
39	0x3cf2385b	0.029567888
40	0xbd8fe7b4	-0.07026616
41	0x3ca4dbcb	0.020124337
42	0x3d6a4dba	0.057203032
43	0x3d7e2c3c	0.062053904
44	0x3c97106b	0.018440446
45	0xbd85da01	-0.065357216
46	0x3d9f8178	0.07788366
47	0xbd0c2ec1	-0.034224275
48	0xbca895c4	-0.020579226
49	0xbd202f9b	-0.0391079
50	0xbd548e77	-0.051893678
51	0xbbec0d85	-0.00720376
52	0x3d7fe595	0.062474806
53	0x3a96bc44	0.0011500199
54	0xbb656b46	-0.0035006567
55	0xbb420904	-0.0029607425
56	0xbcee33a6	-0.029077362
57	0xbd6c29bb	-0.057656985
58	0xbd87dfba	-0.06634469
59	0xb940968d	-0.00018366631
60	0xbd155ff7	-0.036468472
61	0xbd2596dd	-0.040427078
62	0x3d3a4642	0.04547716
63	0xbdb43cf2	-0.08800687
64	0x3d5a17d6	0.053245388
65	0x3d1d13d5	0.03834899
66	0xbc1671d3	-0.009182411
67	0xbd67ed1c	-0.05662261
68	0xbd470d80	-0.04859686
69	0x3bbbfb0f	0.0057367156
70	0xbd3aa5a7	-0.045568135
71	0x3d111b87	0.035426643
72	0xbcd1ba2a	-0.025601465
73	0x3d9a0636	0.07520716
74	0x3d432df1	0.047651235
75	0x3c107a40	0.008818209
76	0xbd1f19fc	-0.03884314
77	0x3d9c8afd	0.076436974
78	0xbd711401	-0.058856968
79	0x3d29966b	0.041403215
80	0xbcc1a008	-0.02363588
81	0xbc4d3b60	-0.012526363
82	0xbd8267ba	-0.063674405
83	0xbdcdfa5b	-0.10057517
84	0xbd83d412	-0.064369336
85	0xbd1255db	-0.03572641
86	0x3d840200	0.06445694
87	0x3b9ecc4c	0.0048461314
88	0xbd201036	-0.03907796
89	0x3d44f47f	0.048084732
90	0xbb0dc4ad	-0.002163212
91	0x3d659ee4	0.056059733
92	0x3d4ea871	0.050453607
93	0x3d93f154	0.07223764
94	0xbd487a83	-0.04894496
95	0xbd052962	-0.03251017
96	0xbcbc40fe	-0.02298021
97	0x3d931327	0.071813874
98	0xbba313c3	-0.004976721
99	0xbda0e9bb	-0.078570805
100	0x3d27b6ec	0.040945932
101	0x3c6cb802	0.014448168
102	0xbd835be2	-0.0641401
103	0xb941c92d	-0.00018480858
104	0xbd565bbc	-0.05233358
105	0x3ca5643b	0.020189395
106	0x3c467723	0.012113365
107	0x3c658b9b	0.014010335
108	0x3ceef912	0.0291715
109	0xbba7cc95	-0.0051208236
110	0xba3daa98	-0.0007235198
111	0xbd93223f	-0.07184266
112	0x3d064501	0.03278065
113	0x3d88c10d	0.066774465
114	0x3d8249d8	0.06361741
115	0x3da56b09	0.08077056
116	0x3c6cc98e	0.014452351
117	0x3dac0e0b	0.08401116
118	0x3d49dbc4	0.04928185
119	0xbd83deab	-0.06438955
120	0x3d909a14	0.07060638
121	0xbd838dbc	-0.06423518
122	0x3d39c93a	0.04535792
123	0x3d39891c	0.045296773
124	0x3d7ab244	0.061205164
125	0x3abd2f10	0.0014433581
126	0xbd8cc5a4	-0.068736345
127	0x3d2d6578	0.042333096
128	0xbc16516a	-0.009174684
129	0x3dad30d6	0.0845658
130	0x3d2af18f	0.041734274
131	0x3d6cf51d	0.057850946
132	0xbdbb3b0b	-0.09142121
133	0x3d248ff2	0.04017634
134	0xbccb3c1c	-0.024808936
135	0xbd8c3835	-0.06846658
136	0xbd7f355c	-0.062306747
137	0x3d14e3d6	0.036350094
138	0x3d593224	0.053026333
139	0xbd3910e6	-0.04518213
140	0xbd3c07cb	-0.04590587
141	0xbda38308	-0.079839766
142	0x3d0830f1	0.0332498
143	0x3c876825	0.016529152
144	0x3c9a327d	0.018822903
145	0x3cf1caec	0.029515706
146	0xbd2118a2	-0.039330132
147	0x3d5d6dda	0.05405984
148	0xbd95bb9b	-0.073111735
149	0xbc69d8f8	-0.014272921
150	0x3cd4c774	0.025974013
151	0xbd1a9616	-0.03774079
152	0xbde09002	-0.10964967
153	0x3cca1c7d	0.024671787
154	0x3dc28b41	0.09499217
155	0x3d96e992	0.07368769
156	0x3d28e0fc	0.041230187
157	0xbd2c07a0	-0.04199946
158	0xbc815698	-0.015788361
159	0x3d7a145a	0.061054565
160	0x3c8ce065	0.017196843
161	0xba96721e	-0.0011478101
162	0x3d5cbc86	0.053890727
163	0xbb01e477	-0.0019820014
164	0x3da27cb6	0.07933943
165	0x3c007c54	0.007842142
166	0x3cc0486f	0.023472039
167	0xbd322570	-0.043492734
168	0xbcd4e22e	-0.025986757
169	0xbd22ad56	-0.039716087
170	0x3d9743e5	0.07385997
171	0xbd0f30a7	-0.034958508
172	0xbd653f2d	-0.055968452
173	0x3d42adf5	0.04752918
174	0x3be8ec06	0.0071082143
175	0xbbe6c7bc	-0.007042853
176	0x3d3606ca	0.04444007
177	0x3cbc1758	0.02296035
178	0xbd4fb0b9	-0.050705645
179	0xbcbe84d6	-0.0232567
180	0xbd95a9af	-0.07307755
181	0xbd476566	-0.048680685
182	0x3d2ed023	0.042678963
183	0xbd5e2f50	-0.05424434
184	0xbd1cf7f2	-0.038322397
185	0xbdb160e1	-0.08661056
186	0x3d53e7e6	0.051734827
187	0x3c7b480c	0.0153370015
188	0x3bfb2e30	0.007665418
189	0x3d6c656b	0.057713907
190	0xbcc21ed7	-0.023696346
191	0x3d2b2dce	0.04179173
192	0x3d396d39	0.04527018
193	0x3bf1020d	0.007354981
194	0xbd8095b7	-0.06278556
195	0x3d78933f	0.0606873
196	0xbd465af3	-0.04842658
197	0xbda74541	-0.08167506
198	0xbd6be762	-0.05759371
199	0x3d82e54e	0.06391393
200	0x3cea506c	0.028602801
201	0x3d637737	0.055533614
202	0x3d81e5dc	0.0634267
203	0x3d7a2334	0.06106873
204	0xbcbc3ea0	-0.02297908
205	0xbd9df423	-0.07712581
206	0x3cbed338	0.023294076
207	0x3d80c338	0.06287235
208	0x3d581813	0.052757334
209	0x3d13499b	0.035958868
210	0xbd9248b7	-0.071427755
211	0xbd67f9e1	-0.056634787
212	0xbd99fd51	-0.075190194
213	0xbd32f46b	-0.043690126
214	0xbd950177	-0.0727567
215	0xbd28a8aa	-0.041176476
216	0xbd8cf364	-0.068823606
217	0xbd263f04	-0.04058744
218	0xbd68808a	-0.05676321
219	0xbd9acfde	-0.07559179
220	0x3d387a19	0.045038316
221	0x3d1a765e	0.03771054
222	0x3d1fb080	0.038986683
223	0xbd4398ae	-0.04775303
224	0xbd3ff76c	-0.04686682
225	0x39db6c74	0.0004185174
226	0xbd4b39c9	-0.049615655
227	0xbd840210	-0.06445706
228	0x3c55a0c1	0.013038815
229	0x3c525008	0.012836464
230	0xbd8c0473	-0.06836786
231	0xbd52ce0c	-0.051466033
232	0x395b88c5	0.00020936418
233	0x3d9d44cc	0.076791376
234	0xbd3deb5a	-0.046367027
235	0xbd837da5	-0.06420449
236	0xbd8d4d23	-0.06899478
237	0xbc1eceae	-0.009692831
238	0x3bb05fa2	0.005382494
239	0x3dab25d2	0.08356823
240	0x3d2f4ba4	0.042796746
241	0xbca389a4	-0.019963093
242	0xbd8b7c81	-0.068108566
243	0xbd6af00a	-0.057357825
244	0x3d3614b2	0.04445333
245	0xbcc3482f	-0.02383813
246	0x3d6798a9	0.056542072
247	0x3d4acfcf	0.049514588
248	0xbd66c4eb	-0.05634014
249	0xbc90aa0e	-0.017659213
250	0xbd93d158	-0.072176635
251	0xbd5f323f	-0.054491278
252	0xbd8db0be	-0.069184765
253	0xbd636c2f	-0.055523094
254	0xbc14fb7f	-0.0090931645
255	0x3d4cf3c7	0.05003717

lstm_encoder.bias_ih_l0 f4 [512]
0	0xbc0ca356	-0.008583864
1	0xbd406e1f	-0.04698002
2	0xbcfb9612	-0.030711208
3	0x3c0bd850	0.00853546
4	0xbd128cda	-0.035778858
5	0x3cd5028f	0.026002197
6	0x3d646ef6	0.055769883
7	0x3d786d8a	0.06065134
8	0xbdafa6dc	-0.08576748
9	0x3cdc69ab	0.026905855
10	0xbd1aaa15	-0.03775986
11	0x3d0b98ec	0.034081385
12	0xbd029868	-0.031883627
13	0x3d38a9cd	0.04508381
14	0x3da5546c	0.08072743
15	0x39bf01b2	0.00036431622
16	0x3c83af20	0.016074717
17	0xbd4c2a56	-0.049845062
18	0x3ba4c73c	0.0050286334
19	0xbd82abc1	-0.06380416
20	0xbb35219f	-0.0027638448
21	0xbd82e1f7	-0.063907556
22	0xbccbe316	-0.024888556
23	0x3a51a293	0.0007996943
24	0xbc588800	-0.013216019
25	0x3d79bd1d	0.060971368
26	0x3c593ffe	0.013259886
27	0xbd7a65da	-0.06113229
28	0x3c334b3d	0.010943231
29	0x3d73939e	0.05946695
30	0x3cd3c892	0.025852475
31	0xbd58b2f7	-0.05290505
32	0x3b8a333d	0.004217534
33	0x3ca6ce43	0.020362025
34	0xbcfa4430	-0.030550092
35	0xbccb16d3	-0.024791157
36	0x3d1023cd	0.035190392
37	0x3d540583	0.05176307
38	0xbda4de82	-0.080502525
39	0xbc496ed3	-0.012294489
40	0xbd172a9d	-0.036905874
41	0xbd97406a	-0.07385333
42	0x3d4405ef	0.04785722
43	0x3ced2584	0.028948553
44	0x3d94c1a9	0.072635
45	0x3b7f4046	0.0038948222
46	0xbb96fa2d	-0.00460746
47	0x3d8435bb	0.06455561
48	0x3c9b3da2	0.018950287
49	0x3d6c9804	0.05776216
50	0x3d7269b3	0.059182834
51	0x3d9506ca	0.072766855
52	0xbd0c9625	-0.034322876
53	0xba974f10	-0.0011543948
54	0xbd846efe	-0.064664826
55	0xbd2944de	-0.041325442
56	0xbcdab138	-0.026695833
57	0x3d533856	0.051567398
58	0x3db7b450	0.08969939
59	0xbcfa0020	-0.030517638
60	0x3c75c794	0.015001196
61	0x3d98b90b	0.07457169
62	0x3cd62eec	0.026145421
63	0x3d7d91ec	0.06190674
64	0xbdb7bb44	-0.08971265
65	0xbdaa2d1b	-0.083093844
66	0x3c071187	0.008243925
67	0xbda5b34f	-0.08090841
68	0xbb1da1dd	-0.0024052777
69	0x3d88f4cf	0.066873185
70	0xbb8ee159	-0.0043603596
71	0x3cbba3e1	0.022905292
72	0xbc7dcea6	-0.015491163
73	0xbd7820cb	-0.06057815
74	0x3d8cae09	0.06869132
75	0xbd730806	-0.059333824
76	0x3d7b0ebe	0.061293356
77	0x3b70b547	0.0036729143
78	0x3cb2841f	0.021791516
79	0xbdb23f98	-0.08703536
80	0xbd27b99d	-0.0409485
81	0x3d0a66d7	0.033789482
82	0xbd14a18c	-0.036286876
83	0xbd7e4f97	-0.06208762
84	0xbd940ea1	-0.07229353
85	0xbd082b40	-0.03324437
86	0xbc7fd8e6	-0.015615677
87	0x3c0dcb31	0.008654402
88	0xbda01ec0	-0.07818365
89	0xbd07adf9	-0.033124898
90	0xbce04ddb	-0.027380874
91	0xbc100b79	-0.008791798
92	0xbd465c0b	-0.048427623
93	0xbd08b5d6	-0.033376537
94	0xbd9842a0	-0.07434583
95	0x3d95c05d	0.07312081
96	0xbca2edb8	-0.019888744
97	0x3db51b67	0.08843117
98	0x3a506044	0.0007948915
99	0x3cdfe268	0.027329639
100	0x3d6b6b77	0.057475533
101	0x3cb8fb21	0.022580685
102	0xbd1a8983	-0.037728798
103	0x3d0d51b5	0.03450175
104	0x3c9a3104	0.0188222
105	0xbcf7a62a	-0.0302306
106	0x3cf44bd5	0.029821316
107	0xbcdc9025	-0.026924202
108	0xbc871bef	-0.016492812
109	0xbd1e6248	-0.038667947
110	0xbcf33bba	-0.029691566
111	0xbcb1abf2	-0.021688435
112	0xbc648cf5	-0.013949622
113	0xbd5953be	-0.05305838
114	0x3b0b6c36	0.0021274216
115	0xba0ae21a	-0.0005297974
116	0xbca6b59d	-0.020350272
117	0x3cdfd3de	0.027322706
118	0xbd88e1cb	-0.066836916
119	0xbcef7874	-0.029232241
120	0x3c1e4d3c	0.009661969
121	0xbd8ac361	-0.06775547
122	0xbc8f2b2d	-0.017476643
123	0xbcef89fb	-0.029240599
124	0xbd849eb2	-0.06475581
125	0xbd127b31	-0.035762016
126	0x3d60fb32	0.05492706
127	0x3d8a8b67	0.0676487
128	0x3ceee167	0.029160215
129	0x3d18caa1	0.037302617
130	0xbcec8928	-0.028873995
131	0x3ccea147	0.025223387
132	0xbd929b6d	-0.07158551
133	0x3d5cf87f	0.05394792
134	0x3d061715	0.032736856
135	0x3dafaf11	0.08578313
136	0x3cbe17b2	0.023204658
137	0xbc35d1a7	-0.011097348
138	0xbc043b82	-0.008070828
139	0x3d02df38	0.03195116
140	0xbd0a73b7	-0.03380176
141	0xbd3fee10	-0.046857893
142	0x3cda45c6	0.026644599
143	0x3d8538b2	0.065049544
144	0x3d336fb9	0.04380772
145	0xbd5565dc	-0.052099094
146	0xbd607a20	-0.054803967
147	0x3bc6bb2c	0.006064793
148	0xbba75ee6	-0.0051077483
149	0xbda4855f	-0.08033251
150	0xbd978e26	-0.074001595
151	0x3d1fc957	0.039010372
152	0x3d82aa7f	0.06380176
153	0xbb96c54d	-0.004601157
154	0x3d42aa50	0.047525704
155	0x3d2f5d97	0.042813864
156	0xbd4e053a	-0.050297953
157	0xbc701740	-0.014653981
158	0x3d8b818c	0.068118185
159	0xbd5f1635	-0.054464538
160	0xbd5e9297	-0.054339018
161	0x3db6ef48	0.08932358
162	0xbd74d9b8	-0.059777945
163	0x3d94233e	0.072332844
164	0xbc97b2f0	-0.018517941
165	0xbcf526d0	-0.029925734
166	0x3d890a28	0.0669139
167	0x3d3b93fb	0.045795422
168	0xbabc2f09	-0.0014357279
169	0x3bb19328	0.0054191537
170	0x3c1096df	0.008825033
171	0x3d64b2a5	0.05583443
172	0xbd9f7db5	-0.077876486
173	0xbbfba6a9	-0.0076797795
174	0x3d35dbb6	0.044398986
175	0x3d19601f	0.037445184
176	0x3d8b61ca	0.06805761
177	0xbc81ec52	-0.015859757
178	0xbccdba21	-0.025113167
179	0xbd2a8e54	-0.04163964
180	0xbc481c63	-0.012213799
181	0xbc1708ce	-0.009218408
182	0xbbc99287	-0.0061515006
183	0x3d795c3c	0.060878977
184	0xbdb4fcab	-0.08837255
185	0xbd235b3c	-0.03988193
186	0x3cca6e7d	0.024710888
187	0xbc0f8ce4	-0.008761618
188	0xbda0666a	-0.07832034
189	0xbae0aab9	-0.0017140723
190	0xbd5cdc2d	-0.053920913
191	0xbcd2074b	-0.025638243
192	0x3d69f94f	0.057122525
193	0x3d1c91bf	0.03822493
194	0xbd5f154d	-0.054463673
195	0xba9dc8a1	-0.0012037941
196	0x3d603b73	0.054744195
197	0xbd48bf2c	-0.04901044
198	0xbd946b44	-0.07247022
199	0x3ce28788	0.027652517
200	0x3d307544	0.043080583
201	0xbc0dd0c1	-0.008655728
202	0x3c03e483	0.008050087
203	0xbd8a2aae	-0.06746422
204	0x3d95825b	0.07300254
205	0x3d9fc518	0.078012645
206	0xbdb1ec16	-0.08687608
207	0x3d471ff3	0.048614454
208	0xbd9c17e4	-0.07621744
209	0x3ba09b41	0.00490132
210	0xbbb97ddc	-0.0056607556
211	0xbd3f2fe1	-0.04667652
212	0x3d9d7ca1	0.07689787
213	0x3cbd9134	0.023140527
214	0xbdae2444	-0.08503011
215	0x3d8808c0	0.06642294
216	0x3d9a1101	0.075227745
217	0xbbf44498	-0.007454466
218	0xbd96564b	-0.07340678
219	0x3d2d2cfb	0.042279225
220	0x3d4a1600	0.049337387
221	0x3c660f72	0.014041768
222	0xbd8f684d	-0.07002316
223	0x3b12ab67	0.0022379996
224	0x3d45d4bf	0.048298594
225	0x3bb3a2ad	0.005482039
226	0xbd83eb06	-0.064413115
227	0x3d0425f4	0.032262757
228	0xbd28e10b	-0.041230243
229	0xbcb6961d	-0.022288376
230	0xbda53f53	-0.08068719
231	0xbd206aa3	-0.039164197
232	0x3d2a879f	0.041633245
233	0x3cb13362	0.021630947
234	0x3bd45df8	0.0064809285
235	0xbd308a55	-0.043100674
236	0x3da76b7b	0.08174797
237	0x3d614870	0.055000722
238	0xbdb58e63	-0.08865049
239	0x3da1df7d	0.07903955
240	0x3d9a8eb2	0.07546748
241	0x3db64b12	0.08901037
242	0xbd3da2a5	-0.046297688
243	0xbd684e96	-0.05671557
244	0x3d9a55c5	0.075358905
245	0x3c849d06	0.016188156
246	0xbdc247a5	-0.09486321
247	0xbdac6472	-0.08417596
248	0xbc005905	-0.007833724
249	0xbcb948db	-0.022617748
250	0x3cb53b92	0.022123132
251	0x3bdf6869	0.0068178666
252	0xbc1d2aca	-0.009592721
253	0x3dac1d2f	0.08404004
254	0xbd2628d6	-0.040566288
255	0xbd677928	-0.056512028

lstm_encoder.bias_hh_l0 f4 [512]
0	0xbd1db0e1	-0.038498763
1	0x3ca60407	0.020265592
2	0x3d05c219	0.03265581
3	0x3cd56893	0.026050841
4	0xbc9d5320	-0.019204676
5	0x3d92fd40	0.0717721
6	0xbd19e871	-0.03757519
7	0x3d3c9e37	0.046049323
8	0xbd9b51d8	-0.0758397
9	0x3cf0f48d	0.029413486
10	0xbd8c52f8	-0.068517625
11	0x3c00271c	0.007821824
12	0x3a85f7fb	0.0010220999
13	0x3c8257b1	0.015910955
14	0xbd2adcd9	-0.041714523
15	0x3dc38827	0.095474534
16	0x3d9e8e09	0.07741935
17	0xbda65e51	-0.08123458
18	0x3c76b360	0.015057415
19	0xbd61aac2	-0.055094488
20	0xbb8355e7	-0.004008043
21	0xbd6029d3	-0.054727387
22	0xbdb45567	-0.08805352
23	0xbc211748	-0.009832211
24	0xbc94a74e	-0.018146183
25	0x3caf6d26	0.02141435
26	0x3bf31f6e	0.007419518
27	0x3daaedd9	0.08346147
28	0xbc7d9405	-0.015477185
29	0x3d7308bb	0.059334498
30	0xbd787597	-0.060659017
31	0x3d9629f0	0.07332218
32	0x3d2b0839	0.04175589
33	0xbd51ee04	-0.05125238
34	0x3c9a61e2	0.018845502
35	0x3b83ad6e	0.004018477
36	0x3cc2b183	0.023766285
37	0xbd4fdc91	-0.050747458
38	0xbd585530	-0.052815616
39	0x3cb50f23	0.022101944
40	0xbdaeaeff	-0.085294716
41	0xbd384a84	-0.04499294
42	0x3b9cf7c6	0.004790279
43	0x3c111d72	0.008857118
44	0xbd62fbdb	-0.05541597
45	0x3da11011	0.078643925
46	0xbd542b17	-0.051798906
47	0x3d245a85	0.04012539
48	0xbd21b993	-0.039483618
49	0x3d0f9b9d	0.035060514
50	0x3d611a0c	0.05495648
51	0x3cc91e36	0.024550539
52	0xbb64652e	-0.0034850347
53	0x3c1faa32	0.009745168
54	0x3d097f8b	0.0335689
55	0x3d41aa38	0.047281474
56	0xbdafd9c0	-0.085864544
57	0x3d7c304c	0.061569497
58	0xbb0074d5	-0.0019600887
59	0xbce12b5a	-0.027486492
60	0xbda3708f	-0.07980453
61	0x3cb4f4f7	0.022089465
62	0x3d96c136	0.07361071
63	0x3d1db31f	0.0385009
64	0xbd061c50	-0.032741845
65	0x3d65e9d1	0.056131188
66	0x3d355e5a	0.044279434
67	0xbdc55bde	-0.09636663
68	0x3c2dfb9c	0.01061907
69	0x3c6ea5b9	0.014565879
70	0x3c214b73	0.009844649
71	0xbc9e360a	-0.019312877
72	0xbce92ee3	-0.02846474
73	0xbd4bca23	-0.04975332
74	0x3ceea79d	0.029132659
75	0xbd876391	-0.06610788
76	0x3c0ee957	0.008722625
77	0xbc3f2f1c	-0.011668947
78	0x3cb5a2e4	0.022172399
79	0x3d8b2287	0.06793695
80	0xbd57ccac	-0.052685425
81	0xbd45751d	-0.04820739
82	0x3d90694d	0.070513345
83	0x3d0bec07	0.03416064
84	0xbc81a807	-0.015827192
85	0xbcc1038d	-0.023561263
86	0xbd91cf89	-0.07119662
87	0xbd952fd0	-0.0728451
88	0x3d5e24f8	0.054234475
89	0x3af0422a	0.0018330265
90	0xbdc74bf8	-0.09731287
91	0x3c8a5c3a	0.01688968
92	0xbc94608a	-0.01811244
93	0x3d6497c2	0.05580879
94	0x3cf417b4	0.029796459
95	0xbd182323	-0.037142884
96	0x3d859588	0.065226614
97	0x3b91f694	0.004454443
98	0x3d967d87	0.07348161
99	0xbd8fe8fe	-0.070268616
100	0x3d09ef11	0.033675257
101	0xbd20e775	-0.039283235
102	0xbb481e9c	-0.0030535823
103	0x3d874484	0.06604865
104	0x3d00f54e	0.03148394
105	0xbc6ace55	-0.01433142
106	0x3d302367	0.043002512
107	0xbcbbb5e3	-0.022913879
108	0x3c42b120	0.01188305
109	0x3d88aa18	0.06673068
110	0xbbbdd80d	-0.0057935775
111	0x3d275f43	0.040862333
112	0xbd91e0d3	-0.0712296
113	0x3d6f7ec6	0.05847051
114	0xbd56f33a	-0.052478053
115	0xbd909c64	-0.07061079
116	0xbd965c71	-0.073418505
117	0xbd16fec7	-0.03686407
118	0x3d191b1f	0.03737938
119	0xbd7ad434	-0.06123753
120	0x3da85b6c	0.08220562
121	0xbd1f138b	-0.038836997
122	0xbd812687	-0.06306177
123	0xbd9250f7	-0.07144349
124	0x3d03472a	0.03205029
125	0x3d1754d3	0.03694613
126	0xbc38e9e3	-0.011286232
127	0xbd0f8701	-0.03504086
128	0xbcc999ae	-0.024609413
129	0xbcc368bd	-0.023853654
130	0xbd6302f8	-0.055422753
131	0xbd660108	-0.056153327
132	0x3c02e540	0.007989228
133	0xbd204a55	-0.03913339
134	0x3d7b54a3	0.061360013
135	0x3b414f06	0.0029496565
136	0x3c2d9e18	0.0105967745
137	0xba343e20	-0.00068757124
138	0x3d84a4fa	0.06476779
139	0xbcb0dba6	-0.021589112
140	0xbd54fab3	-0.051996898
141	0xbcb89a89	-0.022534626
142	0xbc9fc2b5	-0.019502023
143	0xbd66eab0	-0.05637616
144	0x3d029627	0.031881478
145	0x3d904fef	0.07046496
146	0xbd8ef619	-0.06980533
147	0xbd04eb9b	-0.032451253
148	0x3d152caa	0.036419548
149	0x3d486352	0.048922844
150	0x3d38be66	0.045103453
151	0x3d3a7b7b	0.045527916
152	0xbd8db87e	-0.06919955
153	0xbcd05a11	-0.025433572
154	0xba6a9c3b	-0.0008949672
155	0xbd7ac600	-0.061223984
156	0x3d081b3b	0.033229094
157	0xbd4fa1cf	-0.050691422
158	0xbd0c215b	-0.034211498
159	0xbb629100	-0.003457129
160	0xbd64fbe1	-0.055904273
161	0x3c330581	0.010926605
162	0x3d81cfc8	0.06338459
163	0x3d4dc5e7	0.050237563
164	0xbd39df9a	-0.04537926
165	0x3d444cbe	0.04792475
166	0xbd9bc294	-0.07605472
167	0x3d9bbf08	0.07604796
168	0xbb99ef6c	-0.0046977308
169	0xbd790e7a	-0.06080482
170	0x3cd537f7	0.026027663
171	0xbb70ef86	-0.003676386
172	0x3d6e6c71	0.058208887
173	0x3db6e83f	0.08931016
174	0xbccdd818	-0.025127456
175	0x3d2dfaa8	0.042475373
176	0x3d22bb66	0.0397295
177	0xbd874f77	-0.066069536
178	0xbcb7ab51	-0.022420557
179	0xbd31c89a	-0.0434042
180	0xbcab2b64	-0.020894714
181	0xbd6ec18a	-0.058290042
182	0xbb952b46	-0.0045522777
183	0xbd867938	-0.065660894
184	0xbc0a2f25	-0.008434092
185	0x3c0c92d2	0.008579927
186	0x3d2e2b11	0.04252154
187	0x3d85be17	0.065303974
188	0xbc793fa9	-0.015212932
189	0x3d56965e	0.052389495
190	0xbda1d28b	-0.07901486
191	0x3d97362f	0.073833816
192	0xbd21dffa	-0.03952024
193	0x3c03f6e6	0.008054471
194	0xbca6fedf	-0.020385204
195	0x3d25b2bd	0.04045366
196	0x3d89d920	0.067308664
197	0x3d6bded1	0.05758554
198	0x3dad0c5d	0.08449624
199	0xbcb0b9ab	-0.021572908
200	0x3b68cacc	0.0035521267
201	0x3d66b916	0.056328855
202	0xbd644cfd	-0.055737484
203	0x3ccc927c	0.024972193
204	0xbd0efcd0	-0.03490907
205	0xbd3b18a1	-0.045677785
206	0x3d3cdb3f	0.046107527
207	0x3d273f31	0.04083175
208	0xbc3a27a5	-0.011361991
209	0x3d2e74e6	0.04259195
210	0x3cfaceba	0.030616153
211	0x3d711319	0.058856104
212	0xbc581487	-0.013188488
213	0xbcec0007	-0.028808607
214	0x3d6c765b	0.05773006
215	0xbd8e7a8b	-0.06956967
216	0xbd4efa44	-0.05053164
217	0xbcefc3e5	-0.029268214
218	0xbc25a62c	-0.010110419
219	0xbc86e655	-0.016467253
220	0x3cf8f785	0.030391464
221	0x3c964232	0.018342111
222	0x3dd7858c	0.10523519
223	0x3d075d8d	0.0330482
224	0x3d67790e	0.05651193
225	0xbc87f9fa	-0.01659869
226	0xbcb4d358	-0.022073433
227	0x3d3535b7	0.04424068
228	0x3cc8e4f4	0.024523236
229	0x3d3d8803	0.04627229
230	0x3bf385e9	0.007431735
231	0x3d80c9b1	0.062884696
232	0x3cddad09	0.027060049
233	0xbd4d480a	-0.05011753
234	0x3d9ba155	0.07599131
235	0x3aee46b7	0.0018179034
236	0xbc438c12	-0.011935251
237	0x3cc5815b	0.024109533
238	0xbc26e24c	-0.010185789
239	0xbcf667ce	-0.030078795
240	0x3d80481d	0.062637545
241	0x3ced5af0	0.028974026
242	0xbce7b265	-0.028283307
243	0xbd23a730	-0.039954364
244	0x3d9b3f97	0.07580488
245	0xbd765258	-0.060137123
246	0xbd295e5a	-0.041349746
247	0xbd047656	-0.032339416
248	0xbc610708	-0.013734587
249	0xbd727a7b	-0.059198838
250	0x3d481d25	0.04885592
251	0xbcefdc5b	-0.029279878
252	0x3d8c5ab3	0.06853237
253	0x3b557ea7	0.0032576711
254	0xbd5e925f	-0.05433881
255	0x3c4c4770	0.012468204

lstm_decoder.weight_ih_l0 f4 [512, 6]
0	0xbc9edcc8	-0.019392386
1	0xbd264f98	-0.04060325
2	0x3ce1f1a6	0.027581047
3	0xbda50c16	-0.08058946
4	0xbcb8d71b	-0.022563508
5	0x3d997d98	0.07494658
6	0xbc8eef32	-0.017448042
7	0x3d0f47d4	0.03498061
8	0xbd2d3ef5	-0.04229637
9	0x3cc3d93d	0.023907298
10	0x3d6e8380	0.058230877
11	0x3d92d10c	0.07168779
12	0xbcded2fd	-0.027200216
13	0xbda91f8b	-0.082579695
14	0x3c75f6fc	0.015012499
15	0xbd85fbde	-0.065421805
16	0xbda25498	-0.07926291
17	0xbd701abc	-0.058619246
18	0xbd4fd38e	-0.050738864
19	0x3da29188	0.07937914
20	0xbcf70315	-0.030152837
21	0xbd0e1d08	-0.034695655
22	0x3cb93650	0.022608906
23	0xbbae46f0	-0.005318515
24	0xbc62cf2d	-0.01384334
25	0x3d789e7d	0.06069802
26	0xbd4b45b2	-0.049627014
27	0xbda7def0	-0.08196819
28	0xbcdeed43	-0.027212745
29	0x3c24272a	0.010019103
30	0xbd092f63	-0.033492457
31	0x3d477ec4	0.048704877
32	0xbc81565d	-0.015788252
33	0x3d870931	0.0659355
34	0x3cb60f36	0.02222405
35	0xbc13b31a	-0.009014869
36	0xbcc80fae	-0.02442154
37	0xbd7c57b4	-0.061607078
38	0xbbbe56be	-0.0058086803
39	0x3c910f4b	0.017707488
40	0xbbe57a64	-0.0070031155
41	0x3db603b7	0.08887427
42	0x3db4737e	0.08811091
43	0x3db7532b	0.0895141
44	0x3ca6d4ba	0.020365108
45	0x3c2a8cf0	0.010409579
46	0x3b1c9e80	0.0023898184
47	0xbd448833	-0.047981452
48	0xbb9ce11d	-0.004787578
49	0x3dc08c83	0.094018005
50	0x3cf4bba6	0.029874634
51	0xbadbc1ba	-0.0016766109
52	0xbd7845d9	-0.060613487
53	0x3d5b109f	0.053482648
54	0xbd77aa96	-0.060465418
55	0xbd1b772a	-0.03795544
56	0x3c02fb67	0.007994509
57	0xbd892572	-0.06696595
58	0xbcf481af	-0.029846994
59	0x3c85114e	0.016243603
60	0xbd253ceb	-0.0403413
61	0x3ca4aa23	0.020100659
62	0x3d9b892c	0.07594523
63	0xbcf9835e	-0.030458149
64	0xbdade0bb	-0.084901296
65	0x3bb4d15c	0.0055181216
66	0xbd5d824d	-0.054079343
67	0x3d56d890	0.052452624
68	0xbd4d283f	-0.05008721
69	0x3b072633	0.0020622134
70	0x3b3170fb	0.0027075398
71	0xbd83402e	-0.06408726
72	0xbd23971f	-0.039939042
73	0x3d873003	0.066009544
74	0x3c0259df	0.007955997
75	0xbc1de468	-0.009636976
76	0x3c1a6f64	0.009425972
77	0xbda9dec3	-0.082944416
78	0x3d05e1d0	0.032686055
79	0xbb78d870	-0.0037970804
80	0xbd7965b3	-0.060888004
81	0x3c71aefd	0.014751193
82	0x3d3dd8e6	0.04634943
83	0x3c808cc4	0.015692122
84	0xbcc3df45	-0.023910174
85	0xbd58330b	-0.052783053
86	0x3cea3866	0.028591346
87	0xbdb6f598	-0.08933562
88	0x3c94d385	0.018167267
89	0x3ba871b4	0.0051405076
90	0xbd3e43be	-0.046451323
91	0xbd16d5e8	-0.03682509
92	0x3cb69ac6	0.022290599
93	0x3d8b42fe	0.06799887
94	0xbd99463f	-0.074841015
95	0xbd8963fa	-0.06708522
96	0xbbb03e59	-0.005378526
97	0x3da03a2d	0.07823596
98	0x3a708d56	0.0009176334
99	0xbcd81350	-0.026376396
100	0x3ca979d8	0.020687982
101	0xbd08bb30	-0.03338164
102	0x3d5f78bf	0.05455851
103	0x3d85f894	0.06541553
104	0xbca9db93	-0.020734584
105	0xbd840944	-0.0644708
106	0xbd5a5df9	-0.053312276
107	0x3c695046	0.01424033
108	0xbd69211f	-0.056916352
109	0xbc2f46bb	-0.010698016
110	0xbd87212c	-0.06598124
111	0x3cd69518	0.02619414
112	0x3bb8d824	0.0056410003
113	0xbd91cace	-0.0711876
114	0x3cb47c53	0.022031939
115	0x3d285d29	0.04110447
116	0x3ca2a1cb	0.01985254
117	0xbd62ebbc	-0.055400595
118	0xbd23545b	-0.03987537
119	0xbd572093	-0.0525213
120	0x3d84c22d	0.064823486
121	0xbd4c2d66	-0.049847983
122	0x3d3cea58	0.046121925
123	0xbc31876e	-0.010835512
124	0x3daf3183	0.085543655
125	0xbd9d22fa	-0.07672687
126	0xbc610ed5	-0.013736446
127	0x3cd07cf6	0.025450211
128	0xbc923028	-0.017845228
129	0xbd92c47c	-0.07166383
130	0x3d85308a	0.06503399
131	0xbd9240cd	-0.07141266
132	0xbcce7f89	-0.025207298
133	0x3d8171d8	0.06320542
134	0x3daee134	0.08539048
135	0x3adfeeae	0.0017084682
136	0xbd38eb07	-0.045146015
137	0x3cd53374	0.026025511
138	0xbd7abf9b	-0.061217885
139	0xbd5f17b0	-0.05446595
140	0xbd7819ee	-0.060571603
141	0x3dce0fe4	0.10061625
142	0x3da56f14	0.08077827
143	0x3b2e43f3	0.0026590794
144	0x3d4e7c77	0.050411668
145	0xbd0428d1	-0.032265488
146	0xbca5f542	-0.02025855
147	0xbd5998c3	-0.0531242
148	0x3c927325	0.01787717
149	0x3d92cb1f	0.071676485
150	0xbd816273	-0.06317606
151	0xbd306d5b	-0.04307304
152	0x3d255686	0.04036572
153	0xbdabf6d3	-0.08396687
154	0x3ce015f8	0.027354226
155	0x3c13fbd3	0.009032208
156	0x3c1f982c	0.00974087
157	0xbd05d6d9	-0.032675598
158	0x3db840af	0.089967124
159	0xbd0bf9d5	-0.034173805
160	0x3d40c97f	0.04706716
161	0x3b0d66bb	0.0021576125
162	0x3ca1638c	0.019700788
163	0x3da88d60	0.0823009
164	0xbdba0f8b	-0.09084996
165	0x3db2a834	0.087234885
166	0xbc99378f	-0.01870325
167	0xbc10b257	-0.008831582
168	0x3cea8dd8	0.02863209
169	0x3d19c660	0.0375427
170	0xbcc778ff	-0.024349688
171	0x3ce2449c	0.027620606
172	0xbd209710	-0.039206564
173	0xbac78616	-0.0015222456
174	0x3d05bcdf	0.032650825
175	0x3d89ac41	0.06722308
176	0x3cb38aee	0.021916833
177	0xbd3bbe06	-0.045835517
178	0xbc1300a0	-0.008972317
179	0x3d214994	0.03937681
180	0xbd1c604f	-0.038177785
181	0xbd9d2e0d	-0.07674799
182	0xbd36086c	-0.044441625
183	0x3a523c7f	0.0008019879
184	0x3b06f79a	0.002059436
185	0xbc671d02	-0.014106037
186	0x3bd72a1f	0.0065663005
187	0x3d644309	0.055727992
188	0x3b909930	0.0044127926
189	0xbd589649	-0.052877698
190	0xbd33f609	-0.04393581
191	0xbcd4eb81	-0.025991203
192	0xbcb83a4c	-0.022488736
193	0xbd43e4bf	-0.04782557
194	0x3d627a5a	0.055292465
195	0x3c821b78	0.015882239
196	0xbd0897f0	-0.033348024
197	0x3d2529b3	0.04032297
198	0x3dbbcdd1	0.09170116
199	0xbd445c39	-0.047939513
200	0x3cdeb97c	0.027188055
201	0xbd1a0da1	-0.037610654
202	0xbd64f6d5	-0.05589946
203	0xbd4a1118	-0.049332708
204	0x3d212b5b	0.039347988
205	0xbcff9290	-0.031197816
206	0xbc6d778f	-0.014493837
207	0xbd036a02	-0.03208352
208	0x3d5d2cb3	0.053997707
209	0xbd275d99	-0.040860746
210	0x3d90f657	0.070782356
211	0x3db570dc	0.08859417
212	0x3dbe5222	0.09293009
213	0xbd8334b0	-0.06406534
214	0xbcfb1631	-0.03065023
215	0xbdc49565	-0.09598807
216	0xbd2c0f77	-0.042006936
217	0x3d2a4458	0.041569084
218	0x3c997f06	0.018737327
219	0xbd92e447	-0.07172447
220	0xbdbf0bae	-0.093283996
221	0xbc9d077c	-0.019168608
222	0x3cc23446	0.023706567
223	0x3d5a5de7	0.05331221
224	0xbd34f73e	-0.0441811
225	0xbd95d0df	-0.073152296
226	0x3d6fdd6b	0.05856077
227	0x3d24e4e5	0.040257353
228	0xbce33c48	-0.027738705
229	0xbcede24d	-0.029038573
230	0x3d2c08ee	0.042000704
231	0x3d4eeb7b	0.05051754
232	0x3d37286a	0.044716276
233	0x3a7f7f75	0.00097464706
234	0x3cb50859	0.022098707
235	0xbd3b0e4d	-0.045667935
236	0x3d7b3063	0.061325442
237	0x3c05d2b3	0.00816791
238	0xbcccd70d	-0.025004888
239	0xbd7e5221	-0.062090043
240	0x3d3cb431	0.04607028
241	0xbd94af6f	-0.07260024
242	0xbcf0f115	-0.029411832
243	0x3d3a1f6f	0.045440134
244	0x3c7064a4	0.014672432
245	0x3cd0a0e8	0.025467351
246	0x3c1ceac0	0.009577453
247	0xbd48671b	-0.048926454
248	0xbd21ddea	-0.039518274
249	0xbd595bb5	-0.053065974
250	0x3c08ebf8	0.008357041
251	0x3d4db481	0.05022097
252	0xbdaaa5a0	-0.08332372
253	0x3d9dbffd	0.077026345
254	0xbc675c73	-0.014121163
255	0xbc2ab42b	-0.010418932

lstm_decoder.weight_hh_l0 f4 [512, 128]
0	0x3d9b06e3	0.07569673
1	0xbd087d57	-0.03332266
2	0xbc96e5e3	-0.018420165
3	0xbd45ed93	-0.04832227
4	0xbd0c9c46	-0.03432872
5	0xbc1f56ac	-0.009725254
6	0x3d172aef	0.03690618
7	0x3d8fcc63	0.070214055
8	0x3d39f6fc	0.04540156
9	0x3d09f38b	0.033679526
10	0xbd319184	-0.043351665
11	0x3d0159d5	0.03157981
12	0x3d44c162	0.048035987
13	0xbd60d92b	-0.054894608
14	0x3c52af61	0.012859196
15	0xbc73520b	-0.014851104
16	0xbc38b1c2	-0.0112728495
17	0xbd057833	-0.032585334
18	0x3d81c975	0.06337253
19	0xbd31e15c	-0.04342781
20	0xbd476f9d	-0.048690427
21	0xbd79c691	-0.060980383
22	0xbd44b18a	-0.048020877
23	0x3bb72f39	0.005590346
24	0xbd52df92	-0.051482745
25	0x3d85864a	0.06519754
26	0x3d175f76	0.036956273
27	0x3c92bf55	0.0179135
28	0xbd087b0b	-0.033320468
29	0xbc8ff6c2	-0.017573718
30	0xbd0340c6	-0.032044195
31	0x3d6b468c	0.057440326
32	0x3cd0fa8e	0.025510099
33	0x3d4b8339	0.04968569
34	0x3cf897f6	0.030345898
35	0x3be889fb	0.0070965267
36	0xbd9339f1	-0.07188786
37	0x3cb18515	0.021669904
38	0xbd720ce0	-0.05909431
39	0x3d3d4aa3	0.046213757
40	0x3d4bb07a	0.049728848
41	0x3d872fd7	0.066009216
42	0xbdaa5764	-0.0831745
43	0x3da252e9	0.0792597
44	0x3cf8af0f	0.030356912
45	0xbd2bc564	-0.041936293
46	0xbd00212d	-0.03128164
47	0x3cdf46d3	0.027255451
48	0xbd92f468	-0.07175523
49	0x3cbd213f	0.023087142
50	0xbd203af9	-0.03911874
51	0x3c2750fc	0.010212179
52	0xbc9246de	-0.017856058
53	0xbd3b1966	-0.04567852
54	0x3d311a4c	0.04323797
55	0xbd3f3adb	-0.04668699
56	0xbd8f6346	-0.07001357
57	0x3ba59886	0.0050535826
58	0xbd1b6001	-0.037933353
59	0x3caa55a2	0.020792786
60	0x3d8dfaaf	0.0693258
61	0xbd0ed021	-0.034866456
62	0xbb8754f8	-0.004130002
63	0xbd2ef7ec	-0.042716905
64	0x3d2baeea	0.041914858
65	0x3d1ddcaa	0.03854052
66	0xbcb5c1c6	-0.022187125
67	0xbd3b2fcf	-0.04569989
68	0xbd45d2c3	-0.0482967
69	0xbc7599ab	-0.014990251
70	0xbcbd1a92	-0.023083959
71	0x3d487000	0.048934937
72	0x3d551c14	0.05202873
73	0xbd9b4c7b	-0.07582947
74	0xbd91727d	-0.07101915
75	0x3d353aca	0.04424552
76	0x3d4e4a84	0.050364032
77	0xbd8e9ec8	-0.06963879
78	0x3d47bcbd	0.04876398
79	0x3bc46d63	0.005994485
80	0x3c39047a	0.011292571
81	0xbc374e08	-0.011188038
82	0x3d7de42a	0.061985172
83	0xbd99bc01	-0.07506562
84	0x3d568e5d	0.052381862
85	0xbd88db26	-0.06682424
86	0xbd1eb2f9	-0.0387449
87	0x3d2e270e	0.042517714
88	0xbd04d82e	-0.032432728
89	0xbd94a119	-0.072572894
90	0xbc27de1f	-0.010245829
91	0x3c90e2e4	0.017686315
92	0xbd800177	-0.062502794
93	0x3db6077f	0.088881485
94	0x3aafc1ad	0.001340916
95	0x3d8e9a02	0.069629684
96	0xbd99017f	-0.074709885
97	0x3db9281f	0.090408556
98	0x3d4cceda	0.050001957
99	0x3d6e972b	0.058249634
100	0x3d62c197	0.055360403
101	0xbda5c181	-0.080935486
102	0x3cd796c9	0.026317017
103	0xb9ca6bca	-0.00038608751
104	0xbd3e2f6d	-0.046431947
105	0xbd08809d	-0.03332578
106	0xba842772	-0.0010082556
107	0xbcd8c3ae	-0.026460495
108	0x3d4a9a53	0.04946358
109	0x3d8d4bc4	0.06899217
110	0xbd93dbd2	-0.07219662
111	0x3d486463	0.04892386
112	0x3b24869c	0.0025104648
113	0x3d933371	0.07187546
114	0x3d6003d9	0.05469117
115	0xbc9d4eb7	-0.019202573
116	0x3dba843c	0.09107253
117	0x3c652c2f	0.013987585
118	0x3d76ba6c	0.06023638
119	0xbdac367b	-0.08408829
120	0xbc902a34	-0.017598249
121	0xbd58de3f	-0.052946325
122	0x3d4dd104	0.05024816
123	0x3ce8147f	0.028330086
124	0xbd5b72e2	-0.053576358
125	0xbd5df2dd	-0.05418669
126	0xbd86693b	-0.0656304
127	0xbc24ea04	-0.010065559
128	0x3ce6e7d8	0.028186724
129	0x3d99a600	0.07502365
130	0x3cd2a681	0.02571416
131	0x3d6c5e6f	0.057707246
132	0x3dce35ca	0.10068853
133	0xbdc155b4	-0.09440175
134	0x3d1b51f2	0.037919946
135	0xbd2cc69a	-0.04218159
136	0xbd9341c6	-0.0719028
137	0xbd917ac6	-0.07103495
138	0xbd9f2ece	-0.07772599
139	0x3d6aea1d	0.057352174
140	0xbd81ffa9	-0.063475914
141	0x3d60a766	0.054847144
142	0x3d730e35	0.05933972
143	0x3bffcdac	0.0078065004
144	0x3d58328f	0.05278259
145	0x3c44b01d	0.012004879
146	0x3d57d2fb	0.05269144
147	0x3d82bf12	0.063841
148	0xbd2fbe53	-0.042906117
149	0x3c763af3	0.015028703
150	0xbcdfeef4	-0.027335621
151	0x3d2aef58	0.041732162
152	0xbd52d454	-0.051472023
153	0x3d59d329	0.053179894
154	0x3d5d3f8a	0.054015674
155	0xbd5a9f52	-0.053374596
156	0xbba41105	-0.0050069117
157	0x3d8d0387	0.068854384
158	0x3d557eb3	0.052122783
159	0xbd11eb85	-0.035625
160	0xbd8c6917	-0.06855982
161	0x3d8873f3	0.066627406
162	0x3da8ca0b	0.08241662
163	0xbcc66981	-0.02422023
164	0x3d08025c	0.033205375
165	0xbcbc2b30	-0.022969812
166	0x3ce4a26a	0.027909476
167	0xbd83592c	-0.064134926
168	0xbd52ed0a	-0.05149559
169	0x3d7b127e	0.061296932
170	0x3b677b18	0.0035321172
171	0x3cd31ac5	0.0257696
172	0xbca01ade	-0.019544061
173	0xbd182867	-0.037147906
174	0x3c6fdb7b	0.014639731
175	0xbc9ec487	-0.01938082
176	0x3d8c6532	0.06855239
177	0x3bf57002	0.007490159
178	0x3d840e26	0.06448011
179	0x3d34bb44	0.044123903
180	0xbca1e612	-0.019763026
181	0xbd103fd0	-0.035217106
182	0x3c981c30	0.018568128
183	0x3d81fa12	0.06346525
184	0xbdbd2c95	-0.09237019
185	0xbd48cf6c	-0.049025938
186	0x3d92aad5	0.0716149
187	0xbd3aa2ca	-0.045565404
188	0x3cffad55	0.03121058
189	0xbc7bc695	-0.01536717
190	0x3bfe3168	0.0077573545
191	0xbce4ab32	-0.027913664
192	0xbd29e246	-0.041475557
193	0xbd9e6b30	-0.07735288
194	0x3d2dc32b	0.042422455
195	0xbd5304e0	-0.05151832
196	0xbd44eec5	-0.04807927
197	0xbcf91d2a	-0.030409414
198	0xb9c34ee2	-0.0003725207
199	0xbd0f10e8	-0.034928232
200	0xbc2d9c1a	-0.0105963
201	0x3bd096da	0.006365639
202	0xbd3188a7	-0.043343212
203	0x3cb7d9a8	0.022442654
204	0xbd1ae7ba	-0.037818648
205	0x3dc17b92	0.09447397
206	0xbd69829b	-0.05700932
207	0xbd8560db	-0.06512614
208	0xbba65f6e	-0.005077294
209	0xbcecd8ee	-0.028912034
210	0x3d8bf18a	0.06833179
211	0xbd19287f	-0.037392136
212	0x3c7135d9	0.014722311
213	0x3ca68397	0.020326419
214	0x3c046f47	0.008083171
215	0xbdb17363	-0.086645864
216	0xbc4274a6	-0.0118686315
217	0xbd474d10	-0.048657477
218	0xbd91ef86	-0.071257636
219	0x3db194bb	0.08670946
220	0xbda48cd4	-0.08034673
221	0x3d121625	0.03566565
222	0x3d16da8b	0.036829513
223	0xbd76d2f4	-0.060259774
224	0x3cfc777d	0.030818695
225	0x3d814a43	0.063129924
226	0xbd202365	-0.039096255
227	0xbcd9a636	-0.026568513
228	0xbd314738	-0.04328081
229	0xbd2db263	-0.04240645
230	0xbcec4868	-0.02884312
231	0x3bb3c3d6	0.005485992
232	0xbdaf3d32	-0.08556594
233	0xbd9b18fa	-0.07573123
234	0x3d7cb6db	0.061697822
235	0x3d3ece50	0.046583474
236	0x3cdacdbb	0.026709428
237	0x3d4c8931	0.049935523
238	0x3da32701	0.07966424
239	0x3d2db10f	0.042405184
240	0x3da9a0c7	0.08282619
241	0xbd49362f	-0.04912394
242	0x3d6d840f	0.05798727
243	0x3d5f4632	0.054510303
244	0x3aea07a5	0.0017855061
245	0xbbff886d	-0.0077982456
246	0xbcd764f4	-0.026293255
247	0x3a935318	0.0011239974
248	0xbb6f197c	-0.0036483696
249	0xbdb3765a	-0.08762808
250	0xbb5dc3f3	-0.0033838719
251	0x3d8df3c0	0.06931257
252	0xbd95cb24	-0.073141366
253	0xbc9dc120	-0.019257128
254	0x3d2e1383	0.042499077
255	0x3d4cd4f4	0.050007775

lstm_decoder.bias_ih_l0 f4 [512]
0	0xbd686d89	-0.056745086
1	0x3d25fa0e	0.040521674
2	0xbd94d3de	-0.07266973
3	0xbcc364f4	-0.02385185
4	0x3d2d1b3a	0.042262293
5	0x3d9834a8	0.074319184
6	0xbd862131	-0.065492995
7	0xbd8734a6	-0.06601839
8	0xbcabd8f6	-0.020977478
9	0x3dbe4032	0.09289588
10	0x3b5cd37c	0.003369539
11	0xbc754818	-0.014970802
12	0x3b8ff3af	0.004393063
13	0x3d948288	0.07251459
14	0xbda78da5	-0.081813134
15	0xbcc9b843	-0.024623996
16	0x3d2f4597	0.042790975
17	0xbce4d3d7	-0.027933044
18	0x3d5e464d	0.054266263
19	0xbc963583	-0.018336063
20	0x3d861103	0.065462135
21	0x3bff07f5	0.007782931
22	0x3d1d0d5f	0.03834283
23	0x3cf3bab6	0.029752117
24	0xbd9637a4	-0.07334831
25	0xbccc0b24	-0.024907656
26	0xbd9566a5	-0.072949685
27	0xbc026adb	-0.007960047
28	0xbd035324	-0.03206171
29	0x3dc98182	0.09839155
30	0xbb678705	-0.003532828
31	0xbd34fd76	-0.04418703
32	0x3bd9ac03	0.00664282
33	0x3b6ec529	0.0036433435
34	0xbce82584	-0.028338201
35	0x3da00f82	0.07815458
36	0x3c94582a	0.018108446
37	0x3aa79d0e	0.0012787895
38	0x3ca31669	0.019908147
39	0x3d0ec2de	0.03485381
40	0x3ce44e96	0.027869504
41	0xbd8a8395	-0.067633785
42	0xbd3eb8a6	-0.046562813
43	0xbaa4d66d	-0.0012576111
44	0x3dcdd736	0.10050814
45	0xbd5beb67	-0.053691294
46	0xbd03ccd4	-0.03217776
47	0xbd4234cd	-0.047413636
48	0xba08f8b9	-0.0005225051
49	0xbd2574aa	-0.040394463
50	0xbccfeed9	-0.025382446
51	0x3d60b17f	0.054856773
52	0xbcacddb1	-0.021101804
53	0xbcee8f85	-0.02912117
54	0x3ce70c33	0.02820406
55	0xbd90f956	-0.07078807
56	0xbda27bb4	-0.07933751
57	0xbc9166da	-0.017749239
58	0x3c88c8a3	0.016697234
59	0x3d131238	0.035906047
60	0x3d82856f	0.06373107
61	0x3d6538c0	0.055962324
62	0x3d747a40	0.0596869
63	0x3d8a7033	0.067596816
64	0xba72ab3c	-0.00092570833
65	0xbd5d2003	-0.053985607
66	0xbd568be6	-0.05237951
67	0xbd928442	-0.071541324
68	0xbd6843c3	-0.056705248
69	0xbd8d7e68	-0.06908876
70	0xbd5befd0	-0.0536955
71	0xbd10cc8a	-0.035351314
72	0xbc13acc1	-0.009013356
73	0xbc4ab154	-0.01237138
74	0xbc8b4519	-0.017000722
75	0x3d99a34e	0.07501851
76	0xbd07f268	-0.03319016
77	0x3dc20c6e	0.09475027
78	0x3b98a280	0.0046580434
79	0xbc00cae3	-0.007860872
80	0x3ce36e00	0.027762413
81	0x3d9d12b2	0.076695815
82	0xbda619eb	-0.08110412
83	0xbd0bf21a	-0.034166433
84	0x3d6c6c8c	0.057720706
85	0x3d8befc2	0.068328395
86	0x3da86d4f	0.08223974
87	0x3d6ec8a4	0.058296815
88	0xbd9e5355	-0.07730738
89	0xbd3bc3f6	-0.04584118
90	0xbd8cc6e4	-0.06873873
91	0x3d31cfe5	0.043411154
92	0xbb602c57	-0.0034206116
93	0x3ca61c6c	0.020277224
94	0x3d804894	0.06263843
95	0xbd30fa58	-0.043207496
96	0xbc7d2e02	-0.015452864
97	0x3d73953f	0.059468504
98	0xbceb640a	-0.028734226
99	0x3b87132c	0.0041221585
100	0x3d6b0577	0.05737826
101	0xbd522379	-0.05130336
102	0x3c9f22b7	0.019425733
103	0xba2d7d32	-0.0006618082
104	0x3d33f3db	0.04393373
105	0xbd82a0ee	-0.06378351
106	0x3cf2260a	0.029559154
107	0xbc930db5	-0.017950872
108	0x3d1dd1a0	0.038529992
109	0x3d769dd5	0.060209114
110	0x3d85609b	0.06512567
111	0xbd9d93be	-0.07694195
112	0xbd2fd175	-0.042924363
113	0xbd8991d8	-0.067172706
114	0x3daf244d	0.08551846
115	0x3da2acc8	0.07943112
116	0xbd36fe62	-0.044676192
117	0xbbd57c57	-0.0065150666
118	0x3bb9241a	0.0056500556
119	0xbd59db80	-0.053187847
120	0xbbef4517	-0.0073019373
121	0x3cbaec9b	0.0228179
122	0xbd63d363	-0.055621516
123	0x3d87e76a	0.066359356
124	0xbca024a2	-0.019548718
125	0xbc9c7a15	-0.019101182
126	0xbd3c006c	-0.04589884
127	0x3ca84e85	0.020545254
128	0xbce31300	-0.02771902
129	0xbc8b3225	-0.016991684
130	0xbd06ba5f	-0.03289258
131	0x3b170041	0.0023040923
132	0x3c0bd904	0.008535627
133	0xbc30737b	-0.01076972
134	0xbcbbfdc9	-0.022948163
135	0x3dac1358	0.08402127
136	0xbd01f8b4	-0.031731322
137	0x3da77376	0.08176319
138	0x3da55f95	0.080748715
139	0xbca9abca	-0.020711798
140	0x3d98e73a	0.07465978
141	0xbd89932b	-0.06717523
142	0x3cb736c2	0.022364978
143	0xbd28ab07	-0.04117873
144	0x3c59b361	0.013287396
145	0x3cb140b0	0.02163729
146	0xbd3c9d19	-0.046048257
147	0xbc8e607c	-0.017379992
148	0x3d6dc291	0.05804688
149	0xbd02b855	-0.031914074
150	0x3ab7d67e	0.0014025716
151	0x3b04f24f	0.0020286029
152	0xbd15587c	-0.03646134
153	0x3db12614	0.08649841
154	0xbcf28c0e	-0.029607799
155	0x3c90f06f	0.017692773
156	0x3d73ec63	0.059551608
157	0x3d63f267	0.055651095
158	0x3d93cdf8	0.0721702
159	0x3c158a05	0.009127145
160	0x3b77f977	0.0037837902
161	0xbc4eb512	-0.012616413
162	0xbd8bac62	-0.06819989
163	0xbcd30281	-0.02575803
164	0xbcee8f0c	-0.029120944
165	0xbd8a9c78	-0.06768125
166	0x3d86ea77	0.06587689
167	0xbbd7c0ab	-0.006584247
168	0x3cec20b1	0.028824182
169	0x3c607e6f	0.013702019
170	0x3cf610ea	0.030037362
171	0x3d9ccb0f	0.07655918
172	0xbcb4f1d3	-0.022087967
173	0x3cc1181f	0.023571072
174	0x3bead25b	0.0071661896
175	0x3dc2b97b	0.09508034
176	0xbd0d5459	-0.03450427
177	0x3d1f65aa	0.038915314
178	0x3beb4d14	0.0071808193
179	0x3da5e743	0.0810075
180	0x3ce1617e	0.027512308
181	0x3d792643	0.060827505
182	0x3d41dd2e	0.047330074
183	0x3cdd1e7c	0.026992075
184	0xbd8ba53f	-0.068186276
185	0xba062112	-0.0005116622
186	0xbd92c00b	-0.071655355
187	0xb9a9df29	-0.0003240046
188	0x3c617947	0.013761825
189	0xbca98e8d	-0.020697856
190	0xbd324211	-0.043520037
191	0x3d0e619b	0.034761053
192	0xbca4aae2	-0.020101015
193	0x3d4f495e	0.050607078
194	0xbd486a54	-0.048929527
195	0xbd8fdcd3	-0.07024541
196	0x3d846f56	0.06466548
197	0x3cf7131e	0.030160483
198	0x3d1adf58	0.037810653
199	0x3d7b7197	0.061387625
200	0x3d80c61f	0.062877886
201	0x3c0fd6cf	0.008779242
202	0xbd18a1ee	-0.037263803
203	0x3cc562c5	0.024094949
204	0xbd018029	-0.031616364
205	0x3bc17841	0.005904228
206	0x3d341a43	0.043970358
207	0xbd393a20	-0.045221448
208	0x3d99d15e	0.07510637
209	0xbd7f52d6	-0.062334858
210	0xbd920bc4	-0.0713115
211	0xbd867eae	-0.06567131
212	0x3da9caa9	0.082906075
213	0xbd324beb	-0.043529432
214	0x3daac945	0.0833917
215	0x3ce99cee	0.028517213
216	0x3ccae03d	0.024765128
217	0x3d48f276	0.049059354
218	0x3d6ad4b2	0.05733175
219	0xbcc3e90f	-0.023914842
220	0xbd53c11a	-0.051697828
221	0xbd2df707	-0.04247191
222	0xbd56e201	-0.052461628
223	0x3c2376cd	0.009977055
224	0xbcfda923	-0.03096444
225	0x3d6d4bed	0.057933737
226	0x3d876690	0.06611359
227	0xbd9cb3d2	-0.076514855
228	0x3b6e2683	0.0036338873
229	0xbd3cad1e	-0.046063535
230	0x3db2c558	0.087290466
231	0x3d4af61f	0.049551126
232	0x3d2a1995	0.041528303
233	0xbcdb4988	-0.02676846
234	0xbca9ea6a	-0.02074166
235	0xbd8fe0d2	-0.07025303
236	0x3d129874	0.035789922
237	0x3b459af5	0.0030152176
238	0x3d50fcb1	0.051022235
239	0x3cbe3f5a	0.023223568
240	0xbc048af0	-0.008089766
241	0x3cb00fa8	0.02149184
242	0xbd8cbfcb	-0.06872519
243	0x3d5fbfda	0.054626323
244	0x3cd45066	0.025917243
245	0xbc8a02cb	-0.016847035
246	0xbd8c16fe	-0.06840323
247	0x3c06e435	0.00823312
248	0x3c508231	0.012726353
249	0xbd35eb1e	-0.04441368
250	0xbd591a76	-0.05300375
251	0xbda80a53	-0.08205094
252	0x3db0b96e	0.08629118
253	0x3d8f0d8a	0.06985004
254	0x3dad96e6	0.08476047
255	0x3d97dd5e	0.07415269
