transformer_no_tanh_with_past_12_Nm_144_Np_lr_0.001_hs_128_ahs_8_nll_1_bs_16_do_0.5_e_200_stride_10/model_N25_0.001lr_200e.pth (torch, 831802 bytes, 14 tensors)

lstm_encoder.weight_ih_l0 f4 [512, 8]
000000 17 84 8b 3d a9 5a fc 3c 92 b3 24 3d 21 9a aa bd
       0.068123035 0.030804949 0.040210314 -0.08330179
000010 65 a0 85 3d f0 fc 33 bd c4 3b 2a bc e1 3d 4b 3d
       0.065247335 -0.043942392 -0.010390226 0.04961956
000020 f9 59 1f 3d 24 7d 71 bd cb 7e a0 bd 32 e4 4e 3d
       0.038904164 -0.058957234 -0.07836684 0.050510593
000030 ba bf e1 3b 85 a4 23 bc fc ce 53 bc cb 76 16 3d
       0.0068893107 -0.009987955 -0.012927767 0.036734384
000040 0b 22 25 bd e7 a2 3a bd 32 f7 61 3d 55 13 3b bc
       -0.04031567 -0.045565512 0.055167384 -0.011418183
000050 a0 49 c5 3c e8 54 9d bd 59 13 4a 3d a7 28 84 bd
       0.024082959 -0.0768221 0.049334858 -0.06453066
000060 16 af 49 3d b4 0a 82 3c 44 c0 50 3d 1a 09 cf 3c
       0.04923924 0.015874244 0.05096461 0.025272895
000070 90 03 1d bd 3e 8c 21 bd 48 e3 1b 3d 63 e6 3f bd
       -0.038333476 -0.039440386 0.03805855 -0.046850573
000080 c4 6b 7c 3d 3c 12 32 bb 0e 65 91 3d a9 06 c7 3c
       0.06162621 -0.0027171513 0.07099353 0.024295168
000090 dc 0a 59 3c 8a fd a9 bc 10 69 71 bd cc c6 a6 bd
       0.013247218 -0.02075078 -0.058938086 -0.08143386
0000a0 13 9e 57 3d f8 96 8e bd 31 1f 52 bc 9d fa 50 3d
       0.052640986 -0.06962389 -0.012824819 0.051020253
0000b0 fa 90 a0 bd 40 79 20 bc 9d ee 89 bc 8f d2 92 bd
       -0.07840152 -0.009794533 -0.016837412 -0.07169067
0000c0 de a5 9b bd 1f e5 b5 bc 6f 0f a0 bd 89 39 58 bd
       -0.07599996 -0.02220398 -0.07815444 -0.052789245
0000d0 2d 80 00 bd 85 bc b3 3d f6 b9 d5 bb c5 f1 13 3d
       -0.031372238 0.087761916 -0.0065224124 0.03611924
0000e0 fe 97 b4 bc 87 9a a0 3d 43 9a b1 bc 6e 49 7c 3d
       -0.022045132 0.07841974 -0.021680003 0.061593466
0000f0 3d 06 00 3d 4b f2 a2 bd f1 9d 9b 3d 13 98 8a bc
       0.03125595 -0.0795637 0.07598484 -0.016918218
000100 04 f1 c4 bc a8 d6 18 3d d7 81 ad 3d 58 7f 11 3d
       -0.024040706 0.037314087 0.084720306 0.035521835
000110 52 cc a4 3d 2b 85 6d bc 2a 1a 31 bd fd 85 af 3d
       0.080467835 -0.014497082 -0.043237843 0.08570478
000120 69 98 78 bd 6c f9 c7 3b c2 ca 9a bd 79 82 9b bd
       -0.060692225 0.0061027315 -0.07558204 -0.07593245
000130 ac 28 19 bb d2 82 b4 3d 93 30 0f 3d ca b4 53 3d
       -0.002337019 0.088140145 0.034958433 0.051686086
000140 a6 90 62 bb 4c 0d cb 3a ce e8 a9 bc e9 c9 80 bd
       -0.003457108 0.0015491634 -0.020740893 -0.06288511
000150 ed 23 40 bc eb d3 2d bd 52 95 a4 bb 2a 55 63 3d
       -0.011727315 -0.04243843 -0.005022683 0.05550114
000160 42 38 92 bd f2 b1 26 bd f9 f0 d7 bb 96 79 9b bd
       -0.071396366 -0.040697046 -0.0065900055 -0.0759155
000170 4e 0c da 3c f0 ab 03 bd bc 7e 7a bd 1d 81 ac bc
       0.026617195 -0.032146394 -0.06115602 -0.02105766
000180 92 27 8e bd 06 49 32 bd 3d 3a 08 bd 86 84 45 bd
       -0.06941141 -0.04352667 -0.033258665 -0.048222087
000190 5d ce 61 bd 48 82 8e 3d 81 44 79 bd ce aa b4 3b
       -0.055128444 0.06958443 -0.060856346 0.0055135256
0001a0 1b 5b b0 bd c9 ac 9f bd f2 96 0c 3d f0 a2 9e bc
       -0.08611127 -0.07796628 0.03432364 -0.019364804
0001b0 1c 60 a4 3d 6b 65 8d bc 30 76 9b bd 70 5a a9 3d
       0.08026144 -0.017260274 -0.07590902 0.08269203
0001c0 28 cf 3a 3b 3a 7d 99 bd ea 52 84 bd 5d 39 83 3d
       0.0028504822 -0.07494588 -0.06461127 0.064074256
0001d0 fb 16 0d 3d 50 58 8b bb 52 16 9c bd c9 dc a6 3d
       0.034445744 -0.004252471 -0.07621445 0.0814758
0001e0 d4 37 b3 3d bb 94 5c bd 78 26 82 bd 2e a4 5d bd
       0.08750883 -0.053852778 -0.063549936 -0.054111652
0001f0 a0 1d 01 3b 0a fb f8 bc e8 7b 21 3c 61 8c ad 3d
       0.0019701496 -0.030393142 0.009856202 0.08474041
000200 9a 86 24 bd 4d a6 8d 3d c3 fc a6 3d 1e b3 1b bd
       -0.04016743 0.06916485 0.08153679 -0.038012616
000210 15 5f 80 bd d5 7a ad bc 8d 55 22 3d 0a 4d 4c 3d
       -0.062681355 -0.021176735 0.03963237 0.049878158
000220 d3 c6 8b 3c 73 87 ab bb d9 c7 19 bc 78 e7 2f 3d
       0.01706258 -0.0052346527 -0.009386026 0.042945355
000230 fc f9 dc 3c 52 c0 b0 bc d6 de 4d bd da 73 34 3d
       0.02697467 -0.02157608 -0.05026134 0.044055797
000240 db 0c b2 bd 4d 1c 5b bd 43 64 a6 3d dc 01 5c bd
       -0.08693858 -0.053493787 0.08124592 -0.05371271
000250 b4 1a 4b 3b 6e 36 d3 bc a2 62 30 bd f1 ab b0 bd
       0.0030991258 -0.02578279 -0.043062814 -0.08626545
000260 4d 9c 10 bc 84 f9 9e 3d e9 ae a7 bc 73 56 f3 b7
       -0.0088263275 0.07762435 -0.020469146 -2.9008113e-05
000270 51 4c ae 3d 70 dc c0 3c 83 6a 03 bd 07 9d a5 3d
       0.0851065 0.023542613 -0.032084 0.08086591
000280 8c ae a2 3d 13 67 83 bd 58 ab 4c bd 21 20 1e bd
       0.079434484 -0.06416144 -0.049968094 -0.03860486
000290 b0 16 7b 3d 41 3e aa bd 7c 25 09 bc c2 63 64 3d
       0.061300933 -0.08312655 -0.008370753 0.0557592
0002a0 96 ff 21 bd be 51 1b 3d 2f c6 57 3d 31 8d 0a 3d
       -0.039550386 0.037919752 0.052679237 0.033826057
0002b0 e0 a7 1b 3d 44 d6 88 bd 4c f7 f9 bc fb 82 45 3d
       0.038001895 -0.06681493 -0.030513428 0.048220616
0002c0 e2 7c 97 3d f7 e0 8a 3d f2 e4 62 bd ea 5e a6 bd
       0.073968664 0.0678119 -0.05539412 -0.08123572
0002d0 8b a9 b3 bd 84 f2 08 3d 52 83 ed 3c 24 5c 0e 3d
       -0.08772572 0.033434406 0.028993282 0.03475584
0002e0 a0 b3 1f bd 0c 4a 9a bd 0b 96 2f bd f9 cb 8f bd
       -0.038989663 -0.075336546 -0.0428677 -0.070213266
0002f0 22 81 08 3b fc d8 2a bd 97 04 c9 3c ef 4c 0b 3d
       0.0020828922 -0.04171084 0.024538321 0.034008916
000300 02 c5 6e 3c 8b 51 8b 3b 50 98 b2 3d 46 63 79 bd
       0.0145733375 0.004251664 0.087204576 -0.06088569
000310 d3 37 2c bd 83 63 9d 3c ca 58 b1 bd 5b 97 b7 bc
       -0.042045426 0.01921249 -0.08659513 -0.02241104
000320 65 ad 70 bd 32 40 64 bc b7 bf 6d bc ef e2 26 3d
       -0.058759112 -0.013931321 -0.01451104 0.040743764
000330 45 b6 3d bd 42 a6 93 3d 69 2b a6 3d ce 17 0b 3d
       -0.046316404 0.072094455 0.081137486 0.03395825
000340 9c 47 76 bd d1 3c 52 bd a4 0f e6 3b 47 f2 52 bc
       -0.060126886 -0.05132753 0.0070209075 -0.012875146
000350 eb 4c 5e 3d 74 5c 8e 3d 3f b8 b0 bd 2e 8b 37 3d
       0.054272573 0.06951228 -0.08628892 0.044810466
000360 c2 6b 79 3d 42 3b 41 3d 5c c0 a2 bd 62 28 24 3d
       0.06089378 0.047175653 -0.07946846 0.040077575
000370 22 a9 56 bc 64 37 64 bd cc 22 b2 3d 92 90 9c 3d
       -0.013101848 -0.055716887 0.08698043 0.07644762
000380 29 8e 9b bc 18 32 67 bd 6e 2e c8 3c 77 8e 73 3d
       -0.018988686 -0.056444257 0.024436202 0.059462037
000390 4d 09 84 3c 7e 3f b3 bd 5d 6d 84 bd 32 f1 34 bd
       0.016117716 -0.087523445 -0.06466172 -0.044175334
0003a0 ea 91 4e bd 5b d1 0c bb d3 ab 9f 3d 41 7a 26 bd
       -0.050432123 -0.002148709 0.07796445 -0.040643934
0003b0 12 45 b3 bd 9d 59 2e bd 9d 0f 3f bd f6 e1 fb 3c
       -0.087534085 -0.04256593 -0.04664575 0.030747395
0003c0 8f ca 5b bd cb 90 00 bb 21 01 2d 3d ba 65 26 3d
       -0.05365997 -0.0019617553 0.042237405 0.040624358
0003d0 cc e9 62 bd 05 35 9a 3d ce 2d 8c bd 9a 9f e5 ba
       -0.055398747 0.07529644 -0.06844674 -0.0017518878
0003e0 ee a9 06 bc ab 75 8e 3d 61 28 50 bc eb 02 ab 3d
       -0.008219225 0.06956037 -0.01270494 0.08350166
0003f0 05 46 96 3c e5 58 19 3d 27 e0 59 bd f0 2d 98 bd
       0.018343935 0.037438292 -0.053192284 -0.07430637

lstm_encoder.weight_hh_l0 f4 [512, 128]
000000 99 f7 94 3a ce 57 f5 bb c9 85 5d bd 99 1c b1 bd
       0.0011365294 -0.007487274 -0.054082666 -0.08648033
000010 07 5d 94 bd 0c bd 58 3d 6e 1e 0e bd 6e b0 60 bd
       -0.07244306 0.052914664 -0.03469699 -0.054855756
000020 23 f0 a7 3d d5 61 17 3d 8b 9a 59 bc 30 b3 be ba
       0.08200099 0.036958534 -0.013281475 -0.0014549252
000030 1a fa 1e bd 0a 5b 87 3d 6f 79 9a 3d 53 62 c5 b8
       -0.038812734 0.06609161 0.07542693 -9.412006e-05
000040 ac 90 d8 3c f2 66 37 3d 7f 5c 43 3c 54 51 f7 bc
       0.026436172 0.04477591 0.011923908 -0.030190147
000050 dc b4 99 bd 3c 15 95 bd 3a 00 39 bd 7e 68 ad bd
       -0.07505199 -0.07279441 -0.04516623 -0.08467196
000060 9b 9c 12 3d f6 57 45 bd 50 b6 0c bd fd d7 c6 3c
       0.035793882 -0.04817959 -0.034353554 0.024272913
000070 c6 7b 10 3d 74 13 dc bc 7d f1 80 bc b6 d8 a3 3d
       0.03527429 -0.026864745 -0.01574015 0.08000319
000080 13 86 a4 bd 66 bb 7d 3d af 8d 84 3d aa de b6 bc
       -0.08033385 0.061946295 0.064723365 -0.022322971
000090 ee 25 ad 3d 55 6c 0b 3d b8 1e 91 bd 12 5e b2 bd
       0.084545 0.03403886 -0.07085937 -0.08709349
0000a0 d2 59 44 bd cd 4d ab bc a4 f0 34 3c 2e 75 8f 3d
       -0.04793722 -0.020911122 0.011043701 0.07004772
0000b0 2b 5c 34 3d 01 cc 5b bd b4 0f 00 3c f0 ed 26 bd
       0.04403321 -0.05366135 0.007816244 -0.04075426
0000c0 fd ca 5b bd 70 d7 b2 3d 9e 3a bd 3c a7 ef 68 3d
       -0.05366038 0.08732498 0.02309924 0.056869175
0000d0 f8 5c 60 3c b8 d4 3f bd 3c 27 a7 bd 5d 45 7b 3d
       0.0136940405 -0.046833724 -0.0816178 0.061345447
0000e0 72 14 a4 bc 91 bb 71 bd 9a 3f 75 bc 1c b3 80 bd
       -0.02002928 -0.059016768 -0.014968777 -0.062841624
0000f0 63 24 a3 bd 62 23 20 3d 9b b1 9b 3c f9 de 61 bd
       -0.079659246 0.039096244 0.019005587 -0.055144284
000100 b2 09 81 bd 7a 6d a8 bc 18 15 fe bb fb 1c a8 bc
       -0.06300677 -0.020560015 -0.0077539794 -0.020521631
000110 00 d4 c6 3c 0b 16 9b 3d 76 e3 a0 bc 22 29 f9 3b
       0.024271011 0.07572564 -0.019639712 0.0076037804
000120 40 58 39 bd 0c 30 a3 3d df b9 82 bd 7e e5 86 bd
       -0.045250177 0.079681486 -0.06383108 -0.06586741
000130 f4 73 57 3d 7b 62 9d bd b1 26 93 3d b2 64 45 bd
       0.052600816 -0.07684799 0.07185114 -0.048191734
000140 87 2a 80 3c 14 03 2d bd 4b 34 25 3c 01 17 e1 bc
       0.015645279 -0.042239264 0.010083268 -0.02747679
000150 49 29 a1 3d 0c 12 6e bc 18 99 a7 bb 2b a8 8e 3d
       0.07869203 -0.01453067 -0.0051146857 0.06965669
000160 8b 64 1e bd 5a 2f 8d 3b 6b a8 20 bc 7c 71 39 bd
       -0.038670104 0.0043086233 -0.009805779 -0.045274243
000170 84 f0 01 3c aa c6 1f 3d cd f6 2e 3d 81 b3 0d 3d
       0.007930879 0.03900782 0.042715836 0.034595016
000180 44 3f 64 3d 1f 76 82 bd 7c 0c 8f bd 5e 9d 12 3d
       0.055724397 -0.06370186 -0.06984803 0.03579461
000190 3a 0b 90 3d 0e b6 82 3c 2a ae 01 bd 8b 47 6f bd
       0.07033391 0.015955951 -0.031660236 -0.058417838
0001a0 e2 73 9b 3a c8 16 b7 bb 07 77 f1 3c 8d e5 8f 3c
       0.0011860097 -0.0055874325 0.029475702 0.017565513
0001b0 3b aa a7 3d 7e e0 1d bc fb 58 9f 3d 82 ee 8e bc
       0.08186766 -0.009636043 0.077806436 -0.017447714
0001c0 72 d1 aa 3d 2e ef 88 bb e7 2c 4b 3b 99 95 4a 3d
       0.0834073 -0.004178903 0.0031002106 0.049459074
0001d0 4a 57 e5 bc 9a 99 33 bd d9 25 2e 3d 18 36 19 3d
       -0.027995724 -0.043847658 0.042516563 0.037405103
0001e0 60 05 00 3d f6 7c 91 bd 77 3e b0 3c 0c 5c b6 3c
       0.031255126 -0.071039125 0.02151416 0.022260688
0001f0 80 d7 a1 bd d7 3d 1e bc 60 92 83 3c 76 9d 85 3c
       -0.079024315 -0.009658298 0.016061008 0.016310435
000200 72 76 82 bd 65 b9 0e bd 58 1b 85 3b 24 8b 6b bd
       -0.06370248 -0.034844775 0.0040620975 -0.05750574
000210 eb 59 52 3d f2 b1 0d bd bc f6 a6 3d 54 9b ac bc
       0.051355284 -0.03459353 0.081525296 -0.02107016
000220 8f 62 0a 3c d4 0a 8a bd 1c 3d 72 3d d0 79 92 bd
       0.00844635 -0.067403466 0.05914031 -0.0715214
000230 b1 b7 6c bd 54 85 a3 bb d7 30 9d 3c fe 5f 16 3d
       -0.05779237 -0.004990259 0.019188328 0.03671264
000240 d2 40 44 bd 49 c5 05 3c 1c 12 25 bd bf c9 5d 3d
       -0.04791338 0.008164712 -0.040300474 0.05414748
000250 a0 10 95 3d 4a d4 0e bd 44 1c 75 bd e0 58 19 bc
       0.072785616 -0.034870423 -0.05984141 -0.009359568
000260 39 ec 8b 3d 46 e0 73 bd c9 b6 ae 3d 53 04 8b bc
       0.06832165 -0.059540056 0.08530957 -0.016969835
000270 2d ad 9c bc 92 7c af bd 4b 6e ed 3b 37 e8 56 3b
       -0.019125545 -0.08568682 0.007245814 0.003279222
000280 73 70 16 bd b9 99 f8 bc e2 82 ac bc a8 9b 99 bc
       -0.036728334 -0.030346738 -0.021058504 -0.01875098
000290 c8 14 5c bd 85 39 1d bd 10 66 4d bc 73 cd 99 bb
       -0.053730756 -0.038384933 -0.012536541 -0.004693681
0002a0 d0 67 8c 3c f3 8c c2 3c 97 4b 3c 3d 68 71 72 3d
       0.017139345 0.02374885 0.045970526 0.059190184
0002b0 93 07 d8 3c c6 e0 3f 3b 63 d8 18 3c 16 7d 83 3a
       0.0263708 0.0029278263 0.009328934 0.0010031785
0002c0 56 d7 fc 3c be 4f 80 bd 22 d4 24 bc 8e 71 c6 bc
       0.030864399 -0.062652096 -0.010060342 -0.024224069
0002d0 5d 71 0b bd 24 0b 78 3d 7e 00 aa bd f3 a9 36 bd
       -0.03404366 0.0605575 -0.08300875 -0.04459567
0002e0 6a ab 72 bd f9 b7 a8 bd af c9 e5 bc 3f 03 8f bd
       -0.059245504 -0.08238215 -0.028050272 -0.06983041
0002f0 f1 7b 81 3d 9c 5a a9 3d 5f be 6d bd 8e e8 b8 bc
       0.06322468 0.082692355 -0.05804288 -0.022571828
000300 46 08 99 3c 57 d0 ed bc e9 72 8c 3b 5b 52 51 3d
       0.018680703 -0.029030008 0.0042861593 0.05110393
000310 9c bf 91 bd 48 eb 96 bd 5a 3f 8b bd dd 30 04 3d
       -0.07116625 -0.07369095 -0.06799193 0.032273162
000320 d5 51 af 3d 28 d8 ee bc 8c f7 cc bc 01 95 78 bc
       0.0856053 -0.029155806 -0.025020383 -0.015172244
000330 b1 cc 9a bd 5c 76 78 3b b3 83 55 bd 6e 56 6b bd
       -0.07558573 0.0037912345 -0.05212755 -0.057455473
000340 d4 3e 47 3d a9 d3 80 3d 2d e1 78 bc 31 cb c5 bc
       0.048643902 0.06290371 -0.015190405 -0.02414474
000350 b3 7a 46 bc da 1f 89 bd f3 9d d4 bc 5a 71 36 3b
       -0.012114215 -0.06695528 -0.025954222 0.002783856
000360 46 9b 89 3d 14 db 8c bd 9d 2c 59 3b 17 5b 47 bd
       0.06719069 -0.06877723 0.0033138164 -0.048670854
000370 5b f1 11 ba 8d d1 b7 bc f1 9d 17 3d b4 8d 88 bd
       -0.0005567276 -0.022438789 0.03701586 -0.06667653
000380 af 34 46 bd 95 40 52 3d fe 59 07 3d 45 28 a1 3d
       -0.048390087 0.05133112 0.033044808 0.07869009
000390 ec 94 00 3d da 67 b2 bd dd 2d 0a bd 26 31 58 3d
       0.031392023 -0.08711214 -0.033735145 0.052781247
0003a0 0d dc fa bb c9 99 12 3d 37 67 43 bb 8f 17 81 3d
       -0.0076556266 0.035791192 -0.002981616 0.063033216
0003b0 3e aa 12 bd c6 c4 f6 3b 54 70 c6 3c e5 a1 49 3d
       -0.035806887 0.0075307814 0.024223484 0.04922666
0003c0 92 56 53 3d 95 a8 ca bc 22 5c bd 3c 56 65 7d bd
       0.05159623 -0.02473859 0.023115221 -0.06186422
0003d0 e7 11 5b 3d af 90 f9 3c f5 99 55 3c 83 36 31 bd
       0.05348387 0.030464498 0.0130371945 -0.043264877
0003e0 f3 07 1e bd c5 18 a2 3d 96 2e 6d 3d d9 f5 88 3d
       -0.0385818 0.07914881 0.057905756 0.06687517
0003f0 7d 47 b1 3c b4 6d 94 3d f3 5b 95 bd b4 5d 08 bd
       0.021640534 0.07247487 -0.072929285 -0.033292487

lstm_encoder.bias_ih_l0 f4 [512]
000000 8e c1 9f bd a3 38 8b bd 3b 5c 74 3d 14 b1 8e bd
       -0.078005895 -0.06797912 0.05965827 -0.06967369
000010 b4 58 0f 3d fc a1 9f 3d 77 f0 69 3d 35 79 9a 3c
       0.034996703 0.07794568 0.05711409 0.018856624
000020 e1 ce 6c bc ab 6b 1e bc 1a 3c 7c 3b 9e ae e3 bc
       -0.014453621 -0.009669225 0.0038487972 -0.027793225
000030 c8 33 8a 3d 6b 51 f5 bc ce 64 60 3d 36 58 90 3c
       0.06748158 -0.02994605 0.054783635 0.017620187
000040 55 89 43 3d 7a c1 7d bd 79 1e 1c 3d 8c 09 e5 3c
       0.047738392 -0.06195209 0.038115 0.027958654
000050 df 0a b4 3c da 7c 4f 3d 1b 5a 9b 3d 60 b6 89 bd
       0.02197784 0.050656177 0.07585546 -0.067242384
000060 25 4a fb 3a 30 fa 50 3d 9d 9b 56 bd a9 90 95 bd
       0.0019171877 0.051019847 -0.0523945 -0.07302982
000070 a2 5f 97 3d 61 92 b1 3d c4 26 11 3d c2 fe 44 3d
       0.073912874 0.08670498 0.03543736 0.04809452
000080 ff 25 2e 3d 70 16 a7 bd 0d 5b 48 3a 59 39 8d 3c
       0.042516705 -0.081585765 0.0007642962 0.01723926
000090 f9 7d b0 3d 4f b8 88 3d 07 8f 2c bd 5d 3a 9a 3d
       0.086177774 0.06675779 -0.04212859 0.07530663
0000a0 e6 e6 5c 3d fb 3c 6d 3d 02 49 9f bd bc 6b 58 bd
       0.05393114 0.057919484 -0.07777597 -0.05283712
0000b0 eb 61 9a 3d 1e 13 b1 3d 20 18 a8 3d 20 fe ff 3c
       0.075382076 0.086462244 0.082077265 0.031249106
0000c0 3b 7d b3 3d 7b 8d 83 3d dd 7b ea 3c ce c5 a5 3d
       0.0876412 0.0642347 0.028623516 0.08094369
0000d0 3e ac b1 bd e6 fd 3d bd 80 4e 8c 3c 57 3f 26 bd
       -0.08675431 -0.046384715 0.017127275 -0.04058775
0000e0 29 6e 07 3d 77 3c ed bb 3f 25 a7 3b 08 c9 8d 3d
       0.03306404 -0.007239874 0.0051008756 0.06923109
0000f0 1c 83 28 bd 75 7e c0 3c bc 33 9e bd a8 2e 97 3b
       -0.04114066 0.0234978 -0.07724711 0.004613716
000100 ca 95 2a 3d 27 89 ae bd 43 fe 73 3d 41 20 ee 3b
       0.041646756 -0.085222535 0.059568655 0.0072670286
000110 02 0b 94 3c 4c 54 48 3d fe c7 0b 3c ed 69 c1 ba
       0.018071655 0.048908517 0.008531569 -0.00147563
000120 cf 81 98 3d 62 65 de bc b9 c7 92 bd c7 a8 e3 bc
       0.07446634 -0.027147952 -0.07167 -0.02779044
000130 4a 44 09 3d 20 d9 da bc cd ab 84 bb f2 78 08 3d
       0.03351239 -0.026714861 -0.0040488006 0.033318467
000140 8b e6 94 3c 2d d6 3b bd 2d 0b d0 bc b8 0a 26 bd
       0.018176338 -0.04585855 -0.025395954 -0.040537566
000150 d6 f3 97 3c 20 2b 0a 3d 75 ea 80 3d 46 cb 2e bd
       0.018548887 0.033732533 0.06294719 -0.042674325
000160 a7 2a 72 3d 07 ac 02 bd 20 84 9d 3c a8 8d 90 3d
       0.059122708 -0.03190234 0.019228041 0.07058269
000170 0b 4e 3b 3d 5e 90 86 bb d1 7e 20 3d e2 a2 9d bd
       0.045728724 -0.0041065654 0.03918344 -0.07697083
000180 43 77 33 bd 56 47 5f 3d 5e 61 82 bc 78 50 f1 3c
       -0.04381491 0.05451139 -0.015915569 0.029457316
000190 ee ba 75 3d f8 fa 22 bd 02 32 a0 3d 64 ea 99 3d
       0.059992723 -0.039790124 0.07822038 0.075154096
0001a0 6c f3 c9 bb f9 6c 71 bc e2 cf 85 bd 27 2d 2e 3d
       -0.0061630514 -0.014735454 -0.06533791 0.04252353
0001b0 f1 f1 96 3d 45 d4 2b 3d f9 cf b2 bd c1 f1 f8 bb
       0.073703654 0.041950483 -0.08731074 -0.0075971787
0001c0 ed 49 ca bc 40 b1 c0 bb 21 c2 88 bd ed 83 28 bd
       -0.024693454 -0.005880505 -0.06677652 -0.04114144
0001d0 d6 97 24 bd d3 f0 96 bb 2a f2 bd 3a 4f 05 43 3d
       -0.040183865 -0.004606345 0.0014491726 0.047612485
0001e0 85 c6 76 3d 83 ef 00 bb 66 60 32 bd 99 88 ad bd
       0.060247917 -0.001967401 -0.043548964 -0.084733196
0001f0 09 7b a7 bd 4d b9 af 3d 4a 2e 56 3c 19 30 0f 3d
       -0.08177764 0.08580265 0.01307256 0.03495798
000200 21 4d 64 3d fb bf 0c bc e1 a4 02 3d ef 50 55 bd
       0.05573762 -0.008590694 0.031895522 -0.052079137
000210 e3 4a 77 3d d9 b0 9e bb a7 c8 a5 3d 2d f0 aa bd
       0.060374152 -0.004842859 0.08094912 -0.08346591
000220 aa 89 87 bd a1 be 95 3d 84 5f 8d bc ab ea 8e bd
       -0.06618054 0.0731175 -0.01725746 -0.06978353
000230 fc 75 75 3c d3 55 55 3d c6 2a ac 3d 01 07 dc 3c
       0.014981743 0.0520838 0.08406596 0.026858808
000240 1e 31 88 3d ad 4f 1b 3d ed cf b1 3d 3a f7 91 3d
       0.06649993 0.03791778 0.08682237 0.07127233
000250 db c4 3f 3d d0 c6 31 3d e6 d0 2c 3d 8e d1 53 3d
       0.046818595 0.043402493 0.04219141 0.05171352
000260 58 fc b1 3d 2e 41 7f bc b4 ee 8d 3d c9 84 55 bd
       0.08690709 -0.015579505 0.06930295 -0.052128587
000270 da ac a0 3d c7 8e ad 3d a7 1d f4 3b 2c ec 6a 3d
       0.07845469 0.08474498 0.007449824 0.057354137
000280 c2 33 09 3c e8 f9 7b bd 78 29 0d 3d 32 e4 2d 3d
       0.008374156 -0.061517626 0.034463376 0.042453952
000290 de 99 8a bd db da 89 bd 33 0a a7 bd 38 b0 e8 bb
       -0.06767629 -0.067311965 -0.08156242 -0.007101085
0002a0 7d 96 ca 3c 38 cc a8 3a b8 dc fd 3c ac 70 56 bb
       0.024729962 0.0012878245 0.030989036 -0.0032720966
0002b0 8e 2a 83 bd a4 44 0a bd ec 29 95 bd 8c 66 5b bd
       -0.06404601 -0.033756867 -0.072833866 -0.053564593
0002c0 ee a1 6d 3d c3 2a 5e 3d 63 1f 6c bd 9f 71 69 bd
       0.058015756 0.05424 -0.05764712 -0.056993123
0002d0 bf 92 10 3d bc 1c 6a bd cf 17 da 3b a8 d6 7b bd
       0.035296198 -0.05715631 0.0066556702 -0.06148401
0002e0 a7 04 a2 3d 40 d8 80 3d 21 05 94 bd 7f f8 f2 bc
       0.079110436 0.062912464 -0.07227541 -0.029659508
0002f0 ae ef 31 3c 4e 4c f5 bc 22 28 b0 bd 9b 88 97 bc
       0.010860367 -0.029943611 -0.08601405 -0.018497756
000300 4a ba 97 bd 5b 2e 19 3d 70 13 b0 bd c3 f6 ae 3c
       -0.07408579 0.037397724 -0.085974574 0.0213579
000310 1e ea 9c 3d 20 35 f6 bc 9c 39 16 bc 3d 4f 02 3d
       0.07661842 -0.030054629 -0.009169009 0.03181385
000320 cc 09 6b 3d 71 70 76 3b c5 c2 51 3d 40 49 ea b9
       0.05738239 0.0037603641 0.051211137 -0.00044686534
000330 fa aa 82 bd 62 da 7b bc d5 14 50 3d a4 fe ae 3d
       -0.063802674 -0.015371891 0.050801117 0.085446626
000340 ea 6a 10 bd 2c 16 1f bd 7b b2 83 bd 89 1c 53 3c
       -0.03525821 -0.038839504 -0.06430527 0.012885221
000350 c0 70 30 3c 63 49 a4 3d b8 f1 d8 3c f3 75 a5 3d
       0.010769069 0.0802181 0.026482448 0.08079138
000360 a4 74 aa 3d a1 4d 83 bd 8f 38 ab bc 89 60 78 3d
       0.08323029 -0.06411291 -0.020900993 0.060638938
000370 56 3b 4f 3c 91 3c b2 3c 67 5e 85 bd 19 19 ea 3c
       0.012648424 0.021757396 -0.065121464 0.02857642
000380 05 85 15 3d 1c 96 24 3d b5 bb 65 bd f2 29 75 3d
       0.03650381 0.040182218 -0.056087214 0.059854455
000390 cc 48 ab bd ec ca 57 bd 0b a2 91 bb 5e f2 a8 3d
       -0.08363494 -0.052683756 -0.004444366 0.08249353
0003a0 2c ee 20 3d 13 83 81 bd 21 f2 8a 3d a1 b8 01 bd
       0.03928964 -0.063238285 0.06784464 -0.031670216
0003b0 05 d0 03 bd 5f 8c 61 3d d9 cb ae bc ea b8 8e 3d
       -0.032180805 0.05506551 -0.021337437 0.06968863
0003c0 a0 0c a7 bd e4 4b 1d 3d 82 96 90 3d 00 d8 84 3a
       -0.08156705 0.038402453 0.07059957 0.0010135174
0003d0 74 0e 05 bd fe 20 a0 3c 8a da 64 3d fd f7 1e bd
       -0.032484487 0.019546982 0.055872478 -0.03881072
0003e0 c3 90 1e bd 7b 52 4e bd 0c 64 e7 bb 86 dd a4 bd
       -0.038712274 -0.05037163 -0.007061487 -0.08050065
0003f0 f8 8e 61 3c 41 82 9a bd 6d 88 98 3d a0 9c 93 bd
       0.013766997 -0.07544375 0.07447896 -0.07207608

lstm_encoder.bias_hh_l0 f4 [512]
000000 83 f4 63 3d ac 3b 5a 3d 4c 4b 86 3c 1b ee 3b bd
       0.055653106 0.053279564 0.016393326 -0.045881372
000010 86 dc ab 3d 6a 48 9f 3d 84 82 8f bd 63 df fd 3c
       0.08391671 0.07777484 -0.07007316 0.030990308
000020 91 f1 ef bc 3b 37 b0 bb a8 32 9f 3d 0d fd 4b 3d
       -0.029289993 -0.0053776777 0.07773334 0.049801875
000030 d2 8c 19 3d bf a4 65 3d ad 7e 79 3d d3 fb 6e bd
       0.037487812 0.056065317 0.060911823 -0.058345627
000040 0c 33 9c bc 8c b7 bf bc 7f 83 90 3d 25 b8 c9 bb
       -0.01906731 -0.023402952 0.07056331 -0.006155985
000050 ee 6e 44 bb 31 ab d2 3c 54 b3 3a bd d2 f7 12 bb
       -0.0029973346 0.025716396 -0.045581177 -0.0022425544
000060 4a e0 56 bc 3d e0 d1 3c 97 e2 92 bd f6 93 9c bd
       -0.013114998 0.02561962 -0.07172125 -0.07645409
000070 87 19 17 bd 42 ba b1 3d 8e 87 81 bd 97 07 15 3d
       -0.03688958 0.08678104 -0.06324683 0.03638419
000080 84 01 9b bd ca 92 88 3c 8d 82 9f bc e7 fa 92 bd
       -0.075686485 0.016671557 -0.019471431 -0.07176762
000090 3d b6 a4 bd 0b bd 70 bb ee 82 c4 3c ef 0f 81 3d
       -0.08042572 -0.0036733772 0.023988213 0.06301867
0000a0 9c 02 27 3d 66 88 3d 3d dc 84 a6 bd e5 06 8e 3c
       0.040773973 0.046272658 -0.0813081 0.017337272
0000b0 3b 60 7e bc 28 b8 17 bd 46 95 fb 3c 98 f5 5d bc
       -0.015525873 -0.03704086 0.030710828 -0.013547324
0000c0 d9 18 93 3c dd a3 06 bd a1 23 4f 3d 68 b7 10 bd
       0.017956184 -0.032871116 0.050571088 -0.03533116
0000d0 35 12 ab 3c 6c 27 65 3c b8 65 86 bc 46 62 93 3d
       0.020882705 0.01398645 -0.016405925 0.071964785
0000e0 c1 02 7d 3d 7f 07 df bc 3b 7f 6c bd 59 bd 74 bc
       0.061770204 -0.027225254 -0.057738524 -0.014937722
0000f0 57 56 08 3d 93 55 35 bd d6 b9 08 3d 60 d1 ab 3d
       0.033285465 -0.044271063 0.033380352 0.083895445
000100 d6 5c de bc 8f c2 18 3d ba 41 d5 3c 5f 3c 06 3d
       -0.027143877 0.03729492 0.026032317 0.032772418
000110 f5 14 37 bd 99 c6 07 3d 28 84 ba 3c 2d 71 bc bc
       -0.04469772 0.03314838 0.022768095 -0.023003185
000120 81 15 24 3d ee 84 9a 3d 49 7e bd bb be 1f 85 3d
       0.04005957 0.075448856 -0.0057828766 0.06500195
000130 f6 4f 06 bd a8 fb 8f 3d f8 b8 6d bb 37 59 4b 3d
       -0.0327911 0.070304215 -0.003627358 0.04964563
000140 33 72 16 3d 11 16 ae bd de cf 18 bc 19 01 8a 3d
       0.036730003 -0.085003026 -0.009326903 0.067384906
000150 f0 6e 52 bc b1 31 2b bd 5c ee dd 3c 9e b5 2b bd
       -0.012843832 -0.041795436 0.027091198 -0.04192125
000160 21 bf 50 bc a7 60 a7 bd 50 0f 08 3d e6 7e 9a bd
       -0.012740881 -0.08172732 0.03321773 -0.07543735
000170 e5 d5 15 bd 97 30 63 3c 63 b7 6a bd 17 28 5e 3d
       -0.03658094 0.013866565 -0.057303797 0.05423745
000180 3a 7a 78 3d 31 fb 49 3c 0a 34 48 3c b7 3b 85 3d
       0.06066344 0.012327955 0.012219438 0.0650553
000190 d0 8a 39 bc 87 46 c6 3c 11 ff ff ba b5 3f 83 bc
       -0.011324599 0.024203552 -0.0019530972 -0.016021589
0001a0 3f e5 aa 3c e8 73 12 3d d7 78 8d 3d 81 bf 42 3d
       0.020861266 0.035755068 0.06907814 0.047545914
0001b0 fb eb 46 bd 09 48 a9 bd 0a 7a 0d bd 27 3e a3 bd
       -0.048564892 -0.08265693 -0.034540214 -0.07970839
0001c0 db 5b 49 3d 9c be ae 3d ca 0f 3d bc 7c fe 58 3d
       0.049159866 0.085324496 -0.011539409 0.05297707
0001d0 f6 21 ac bd bf e5 4a bd 3f 50 be bc f2 f3 b3 bd
       -0.08404915 -0.04953551 -0.023231624 -0.08786763
0001e0 40 67 93 bc 9f d8 4a bd f4 e7 4a 3d 10 e3 8a 3c
       -0.01799357 -0.049522992 0.049537614 0.016953975
0001f0 79 16 87 bb 0d f7 a0 bd 97 02 91 3c d0 e5 5c 3d
       -0.004122552 -0.07859621 0.01770143 0.053930104
000200 b3 72 be bc 22 43 8b 3c 04 b9 90 3d 07 b4 96 bd
       -0.023248052 0.016999785 0.07066539 -0.07358556
000210 6c e1 af bc f5 ac 08 bc 92 dc f8 3c 99 6a bb bc
       -0.021469794 -0.008342017 0.030378614 -0.022877978
000220 90 35 bc 3a 60 5b 5e 3d ce bb e8 3c ec b7 12 bc
       0.0014359225 0.05428636 0.028409865 -0.008954983
000230 96 13 f4 3c a7 8f 35 3d a6 c2 89 bb 6a 08 f5 bc
       0.029794496 0.04432645 -0.004204112 -0.029911239
000240 1e 0d 9a bd 72 99 70 3d 90 ca 27 3c 0f 9e b0 bd
       -0.07522033 0.058740087 0.010241166 -0.08623897
000250 fb 53 b3 3d 81 1b 5a 3d 0b 67 a7 3d bb 43 8c 3d
       0.087562524 0.053248886 0.08173951 0.06848856
000260 7c 7e d8 3c 73 6a 96 bd 9f 2d 11 bb 2c ae b0 bc
       0.0264275 -0.07344522 -0.0022152436 -0.021567427
000270 c2 c7 31 3d 9f 91 e0 3c 36 02 97 bd 4f 8a 14 3d
       0.043403395 0.027413188 -0.073734686 0.036264714
000280 e1 a7 84 3d 74 41 b9 bc 9e ca e9 3c 9d d1 9c bd
       0.06477333 -0.022614218 0.028538998 -0.07657168
000290 8c 38 f4 3c df f9 2b bd b7 60 2b 3c b4 ac 47 3d
       0.02981212 -0.041986343 0.01046007 0.048748687
0002a0 37 60 39 3d d3 66 34 bd 17 3b e5 3c f7 72 96 bd
       0.045257773 -0.044043373 0.027982278 -0.073461466
0002b0 c1 83 f2 3c 86 0d ab bd a9 a1 db 3c ad c7 80 bd
       0.02960384 -0.08352189 0.026810484 -0.06288085
0002c0 c0 8a 67 3d 74 26 8e bd ec bf ab 3d 26 e8 ea 3c
       0.056528807 -0.06940928 0.083862156 0.02867515
0002d0 56 f5 9f 3d 06 d9 9d 3d f4 fa 0e bd 9e 61 94 bd
       0.07810466 0.077074096 -0.034907296 -0.072451815
0002e0 ca b7 8d bb 94 5e 7f bd 88 f2 96 3c ba 67 85 bd
       -0.004324888 -0.062346056 0.018426195 -0.06513925
0002f0 72 5a 49 bd 0d 28 ad bd 30 a0 98 3d 0e 88 29 3b
       -0.04915852 -0.08454905 0.07452428 0.0025868448
000300 e2 1a f6 3c 32 27 8f bd 3c 45 f3 3b 47 c0 7b 3d
       0.030042116 -0.06989898 0.007424025 0.061462667
000310 59 7a 69 3d b8 8f 7d 3d 1a 9c 28 3c 13 9c b7 3c
       0.057001445 0.06190464 0.010291124 0.02241329
000320 5b be 5a bd 66 85 29 3d f5 fa 06 bd 97 46 e1 3c
       -0.053404193 0.041386984 -0.032954175 0.02749948
000330 31 b1 86 bd 5d 71 26 bd 47 b8 3d 3d 7f 32 05 bd
       -0.06576765 -0.040635455 0.04631832 -0.03251886
000340 fb bd 37 3d 5d e7 2e bc d0 0a f0 bc 83 c4 0b 3d
       0.044858914 -0.0106752785 -0.02930203 0.034122955
000350 c9 f0 e8 bc 21 2e 60 bd be a9 89 3d 11 a3 99 bd
       -0.028435128 -0.054731492 0.06721829 -0.075018056
000360 b9 e6 07 bd b3 5d b2 bd be 5f 44 bd 86 a5 a1 bd
       -0.03317902 -0.08709278 -0.04794287 -0.07892899
000370 51 e5 89 bd 55 8f 10 3c f1 75 ae ba 11 20 49 3c
       -0.06733192 0.0088232355 -0.0013310296 0.012275712
000380 71 86 21 3c 8c 37 30 3d 8e 2c 03 bd 36 d1 06 bc
       0.0098587135 0.043021724 -0.032024913 -0.008228591
000390 33 c2 77 bd 0d 57 27 bd ee 96 82 bb e5 bd 90 bd
       -0.060487937 -0.040854502 -0.0039852774 -0.070674695
0003a0 9e d6 92 bc 6c cf 1d bd b7 ce 64 3d 42 77 a9 3d
       -0.017924603 -0.03852789 0.0558612 0.082747
0003b0 a3 06 19 3d dc ab ed bc 96 40 3a bd bd bc 5a bd
       0.037359845 -0.029012613 -0.04547175 -0.05340265
0003c0 09 1d 6d 3b d5 06 af 3d 2b cf 55 bd 94 66 d5 bc
       0.0036180636 0.08546225 -0.052199524 -0.02604989
0003d0 7e 73 46 bd ae 75 5d bd 67 34 00 3d e1 d1 a7 bd
       -0.048449986 -0.054067306 0.031299975 -0.08194328
0003e0 76 e0 72 bd 57 4f 29 3b 0b 99 71 3d f4 53 b3 3d
       -0.059296094 0.0025834644 0.058983844 0.08756247
0003f0 3c de 22 3d a3 a2 d9 bc 39 64 1f 3c eb d4 82 bc
       0.03976272 -0.026566809 0.009728485 -0.015970668

lstm_decoder.weight_ih_l0 f4 [512, 6]
000000 2c 3c 2e bd 70 96 06 bd cf 65 74 3d 4a e9 a9 bd
       -0.042537853 -0.032858312 0.059667405 -0.082964495
000010 63 94 67 3d 19 08 41 bd f7 32 d4 3c 8e 98 6b bd
       0.056537997 -0.047126863 0.025903208 -0.057518534
000020 c2 1c 6d 3d ce 00 69 3d 11 26 7a bd c9 d3 95 3c
       0.057888754 0.056885533 -0.06107146 0.018289464
000030 9c ea 8a 3d 3a ce 63 3d ce 1d a6 3d c7 e9 32 3d
       0.067830294 0.055616595 0.081111535 0.04367998
000040 23 f8 c4 bc 84 ac 80 3d 33 26 1b bd 21 72 70 bc
       -0.024044102 0.06282905 -0.037878226 -0.014675648
000050 e3 2b ac bd 3a 6c 3b 3d 39 76 13 3d d3 69 3d bb
       -0.08406808 0.04575751 0.036001418 -0.0028902187
000060 03 bd a9 3b f1 cf 37 bd f9 5e a5 bd 79 fa 65 bd
       0.0051800027 -0.044876043 -0.08074755 -0.056147072
000070 a0 5d c4 bb 88 3a 07 bd 00 25 92 3d 8b fb 98 3d
       -0.0059926063 -0.033014804 0.071359634 0.07469853
000080 00 e4 82 3d a5 8d d1 ba a0 d3 c0 bc 49 d0 a3 3d
       0.06391144 -0.0015987648 -0.02353841 0.079987116
000090 3d 02 1a 3d 8d 52 6b 3d 87 1c 37 3d 77 0a 3c 3d
       0.03759979 0.057451773 0.04470494 0.045908418
0000a0 ac bd 90 3c f5 29 f0 bc ab 87 80 3d 87 07 75 3d
       0.017668568 -0.029316882 0.062758766 0.05982163
0000b0 5e 64 34 bc 5a d4 de bc 2b 7e 81 3d 91 f7 a2 bb
       -0.0110102575 -0.027200866 0.06322893 -0.00497336
0000c0 80 80 1c bd 3c 83 df bc cd 56 d7 3c d5 c5 e6 3c
       -0.038208485 -0.027284257 0.026286507 0.028170506
0000d0 6d 6a 6e bd ef 54 07 bd 36 c4 9d bd b2 2d 61 3d
       -0.058206964 -0.033039983 -0.0770344 0.05497522
0000e0 d9 ed 90 bd fc 8e 6b bc 2c ff 9a bd 47 9e 43 3d
       -0.07076616 -0.014377352 -0.075682014 0.047758367
0000f0 ea 2a 9b bd 71 03 35 3d f0 ba 0c 3d 22 00 87 3d
       -0.075765446 0.044192735 0.034357965 0.06591822
000100 39 20 39 bc ff ce 54 bc 01 4f 55 3d e8 ef a0 bd
       -0.011299186 -0.012988805 0.052077297 -0.078582585
000110 c0 45 77 3d 58 24 8a 3d fc 26 10 3c f4 db 94 bd
       0.060369253 0.06745213 0.008798357 -0.07268515
000120 43 d4 91 3d 82 8d 79 3d 87 90 4f bd 91 05 5a 3d
       0.07120564 0.060925968 -0.05067494 0.053227965
000130 0a 12 dc bc 4a a8 8c bb 55 cf 59 bd 9d 51 22 bd
       -0.02686407 -0.0042925226 -0.053176243 -0.039628614
000140 96 8f 69 bc 06 56 9e 3d 46 f8 58 3d 64 93 7b bd
       -0.014255425 0.077312514 0.052971147 -0.06141986
000150 06 35 9c bd e4 95 80 3d 0b b3 52 bd e0 c5 4d 3d
       -0.07627301 0.06278589 -0.05144028 0.050237536
000160 1e f9 c5 3b f6 db ad 3d 88 6c 4f 3d 5b 0a c6 3b
       0.00604166 0.0848922 0.050640613 0.006043715
000170 26 33 74 3d 83 74 6c bd 9e 62 90 bc 66 a9 ba bc
       0.05961909 -0.0577283 -0.01762515 -0.022785854
000180 92 86 82 3d 21 41 fb 3b 2b 4e a1 3c c8 38 0c 3c
       0.063733235 0.007667676 0.019690594 0.00855846
000190 8b 31 b4 3d 9a fe c2 bc ff c7 aa bc 04 cd 94 bc
       0.08798512 -0.023803044 -0.020847319 -0.018164165
0001a0 3f 61 21 3d e8 fd 8b 3d 44 88 b2 bc b0 90 8d 3c
       0.03939938 0.06835538 -0.021793492 0.017280906
0001b0 88 10 80 3d 08 b7 7b bd 1b 1e 05 bd cf e6 2f bd
       0.06253153 -0.06145385 -0.032499414 -0.042944726
0001c0 e2 b0 a6 bc 99 53 2c bc 46 e1 22 bd 87 b1 2a 3d
       -0.020348016 -0.010517978 -0.03976562 0.04167321
0001d0 d3 74 0b bd e0 8d 31 bd 63 6e bd 3c f8 e1 39 bc
       -0.03404696 -0.043348193 0.023123926 -0.011345379
0001e0 d1 a3 b4 bc 4d 8b a5 bc cb f1 d5 bc ca 6b 46 3d
       -0.02205077 -0.020208025 -0.026116272 0.04844264
0001f0 09 20 c8 3c c8 6d 4f 3b f0 9c 9d bd f8 f6 71 bd
       0.024429338 0.0031651128 -0.07695949 -0.05907342
000200 c0 7c 18 3d 6b 25 0d 3d 84 f7 a4 bd 61 6a 7b 3c
       0.037228346 0.034459513 -0.08055022 0.015345187
000210 34 fc 1c 3d 03 a9 93 bd 9e 43 16 bc 27 19 f6 3c
       0.038326457 -0.07209971 -0.009171395 0.03004129
000220 06 b7 15 bd 0d 0c 40 3c 37 f4 22 bd 3a 11 c3 bc
       -0.036551498 0.011721623 -0.039783683 -0.023811925
000230 b1 5f de bc f0 5c 7c 3d 3d e7 8e bd 94 c5 ae 3d
       -0.027145239 0.06161207 -0.06977699 0.08533779
000240 71 81 ac bd 1b f8 90 bd e7 8b 31 bd 15 97 c3 bc
       -0.084231265 -0.07078572 -0.043346312 -0.023875752
000250 70 80 d1 3c cd 00 53 bd 43 54 96 bc b7 3c 2c 3d
       0.02557394 -0.051514436 -0.018350726 0.04205009
000260 4e 1c 99 bd 08 e5 a4 bd b3 a2 ac bd 52 e7 35 3d
       -0.07476102 -0.08051497 -0.0842947 0.044410057
000270 e1 c9 a9 3d fc 5e 91 3d 12 06 85 bd 2a 86 0d 3d
       0.082904585 0.07098195 -0.064952984 0.034551777
000280 57 25 2e bd 0f 15 85 bc 59 b0 63 bd f2 7b 42 bc
       -0.04251608 -0.016245393 -0.0555881 -0.011870371
000290 a7 d7 af bb 68 2e a2 bc 13 25 3b bb 66 70 81 bc
       -0.005366284 -0.019797519 -0.0028556034 -0.015800666
0002a0 11 41 2a bd 56 b5 51 3c 2f d9 15 bd 6b 40 5b 3d
       -0.04156596 0.0127995815 -0.036584076 0.05352823
0002b0 37 1c 46 3d 28 91 93 bd 4b 05 0d 3c 5b f8 0d bd
       0.04836675 -0.07205421 0.008607219 -0.03466068
0002c0 84 51 af 3d 27 ff 9d bd 66 fe f5 bc 84 d6 b3 3d
       0.0856047 -0.07714682 -0.030028533 0.0878115
0002d0 75 ab ac 3d df e1 37 3c 64 66 24 3d 46 eb f1 bc
       0.0843114 0.011223285 0.04013671 -0.029531132
0002e0 79 c0 af bd 2a 5c e5 3c d4 b4 90 3d 34 2f 3f 3d
       -0.08581633 0.027998049 0.0706574 0.046675876
0002f0 1c 37 ff 3c 69 4d 59 bd a9 1d ec bc 45 13 a0 3d
       0.031154208 -0.05305234 -0.028822737 0.07816175
000300 83 d9 70 bc 86 4e b4 3d bc 89 29 3d bf a7 2c 3d
       -0.014700296 0.0880404 0.04139112 0.042152163
000310 10 b1 85 bd 8b 93 85 3c 3d c9 8b bd 96 fb 2e bd
       -0.065279126 0.016305706 -0.068254925 -0.0427204
000320 50 07 a2 3d 55 20 5b bd 87 f0 82 3c fe 4d 2b bc
       0.07911551 -0.05349763 0.015983833 -0.0104556065
000330 98 b8 6f bd 43 9f 7d bd d4 37 b2 3d e9 d7 99 3b
       -0.05852565 -0.061919462 0.087020546 0.004694928
000340 0f 05 96 bd 45 93 2d bc b5 f9 ae 3d 86 2e a8 3d
       -0.073251836 -0.010594194 0.085437216 0.08211999
000350 6e 81 ef 3c 3b 8b 07 3d 6a 3f 44 3d 4c 8a 58 3d
       0.029236522 0.033091765 0.04791204 0.052866265
000360 d5 82 94 bd 84 7f 84 bd 04 e8 60 bc 0d 21 b3 3d
       -0.07251517 -0.06469634 -0.013727192 0.08746538
000370 4b 3d 4b bd f6 cc 8e 3d 67 e1 7e 3c f2 4f 96 3c
       -0.049619 0.06972687 0.01555667 0.018348668
000380 10 45 f0 bc 82 3d a0 3c e4 5d c4 3c df bf 0e 3d
       -0.029329807 0.01956058 0.023970552 0.03485095
000390 fe f4 0c 3c 05 95 02 3d b1 58 80 bd 4f 39 94 3d
       0.008603333 0.031880397 -0.062669165 0.07237493
0003a0 7b 23 95 bd aa 59 39 3b 80 b2 79 bc 3d f8 d3 3c
       -0.07282158 0.0028282204 -0.015240312 0.025875205
0003b0 d2 52 26 bd 59 b1 64 3d a8 d9 73 3d 0e 7c 15 3d
       -0.040606327 0.055833194 0.059533745 0.03649526
0003c0 72 99 9d bc 5c 14 5e bd d5 b9 70 3c 70 14 8a 3d
       -0.019238207 -0.054218635 0.014692743 0.067421794
0003d0 ce 90 76 3d 78 e1 9f 3c 5f 38 34 3d ac a3 aa bd
       0.06019669 0.019516692 0.043999072 -0.08331999
0003e0 6b 08 5c 3c af 36 16 3d c2 ae 82 bb e6 c2 81 bc
       0.013429741 0.036673244 -0.003988118 -0.015840005
0003f0 a7 52 9c 3d 0e b0 7a 3d 9c 31 3d 3b 0d 39 88 3d
       0.07632952 0.061203055 0.002886868 0.066515066

lstm_decoder.weight_hh_l0 f4 [512, 128]
000000 c3 05 af bd 59 b1 d5 bc dc a1 a6 bd 3f 08 2a 3d
       -0.08546021 -0.026085543 -0.08136341 0.04151177
000010 94 d5 a6 bc ee 6c 15 3d 25 e8 85 bd 8e a6 fe bc
       -0.020365514 0.036480837 -0.06538419 -0.031085279
000020 b4 93 94 bd a8 bb 80 bd d0 3b 9c bd f8 2b a8 bd
       -0.07254735 -0.062857926 -0.07628596 -0.082115114
000030 ee ee 90 3d 08 e3 21 bd 02 9b ff bc de 78 1f 3d
       0.07076822 -0.039523154 -0.031201843 0.038933627
000040 6c 2f 9b bd 78 1a aa 3c b1 68 98 bd 14 7d bf 3c
       -0.075774044 0.020764574 -0.07441843 0.023375072
000050 fe 4a a9 3d c7 97 32 3d 2d b3 7b bd da 5c 88 3d
       0.08266257 0.043601777 -0.061450172 0.06658335
000060 f0 16 5f bc a4 3a 8f bd 8c 1d a8 bd 03 96 f7 bb
       -0.013616309 -0.06993607 -0.082087606 -0.0075557246
000070 e2 cb 2c 3c e2 6f 93 3d 5c 95 06 3d 2c 6a 91 bd
       0.010546656 0.07199074 0.032857284 -0.07100329
000080 b3 de 83 3d e9 04 42 bd 0e e9 9e bd 88 e1 95 bc
       0.06438961 -0.047367964 -0.077592954 -0.018296018
000090 c9 a2 66 bd 15 36 b2 bd 84 17 82 3d d5 44 2c 3c
       -0.056307588 -0.087017216 0.063521415 0.010514458
0000a0 6d 19 de ba c5 89 87 bd 2a a4 73 3d b4 42 92 bd
       -0.0016944833 -0.06618074 0.05948273 -0.07141629
0000b0 1d 62 41 bd 4a a3 d7 bc c4 5d 19 bc 28 b0 80 3d
       -0.04721271 -0.02632298 -0.009360734 0.06283599
0000c0 a2 65 07 3d bb 1d 92 bd 8c f7 f1 3c dd 40 5b 3d
       0.03305591 -0.07134577 0.029536985 0.053528655
0000d0 f5 69 a0 bd 8e 8f 40 3d 33 af eb 3a 90 7f 83 3d
       -0.0783271 0.047011904 0.0017981291 0.06420815
0000e0 c6 af 86 bd 13 8e f9 3b bc 27 28 3d bc 95 06 3d
       -0.06576495 0.0076158135 0.04105352 0.03285764
0000f0 7b ae 49 bd 05 15 56 3d 6a 15 04 bd b2 37 11 3c
       -0.049238663 0.05226614 -0.032246985 0.008863376
000100 69 80 5e bc 64 5a 8e bd 31 37 94 3d 45 31 95 3d
       -0.01358042 -0.069508344 0.072370894 0.07284788
000110 24 1e cd 3b bd dc c8 3a 19 d3 ee 3c 43 5f df 3c
       0.0062596966 0.0015324574 0.029153394 0.027267104
000120 06 a6 4e 3d b2 01 ad 3d ad 14 9a 3c 70 e3 87 b9
       0.0504513 0.08447589 0.018808687 -0.0002591866
000130 cc cf b0 3c 08 14 ad 3d a5 f4 f8 bc aa fa 9f 3d
       0.02158346 0.08451086 -0.030390093 0.07811482
000140 07 d4 85 3d 28 57 54 bc ed 0c 86 3c 32 35 5a 3d
       0.06534582 -0.012960233 0.016363585 0.053273387
000150 db a8 66 3d 6b 36 63 3d 1c 6e d7 bc 50 0b ed bc
       0.056313377 0.05547182 -0.026297621 -0.028936058
000160 4b 9d 91 3d c4 a5 5f bc ff 0f 53 bd 91 f1 96 bc
       0.071100794 -0.013650361 -0.051528927 -0.018425735
000170 f4 cf 5a 3d 87 f6 22 bd 32 c6 a0 bd 1b b7 3e 3c
       0.053420976 -0.039785888 -0.07850303 0.011640335
000180 36 a6 f3 ba 8f ba 52 3d 2c 69 60 3c 26 22 a6 bd
       -0.0018588963 0.051447447 0.01369695 -0.08111982
000190 1e c1 4a 3d 70 10 fe bc a5 fe c1 bc 72 88 9f 3c
       0.049500577 -0.031013697 -0.023680994 0.019474242
0001a0 52 9c f0 bc cb 53 93 3d 05 85 90 bd e2 88 85 3d
       -0.029371414 0.071937166 -0.070566215 0.06520249
0001b0 1a bc 3a bd a4 74 45 bc 0f 65 08 bd e7 e8 9f bc
       -0.045589544 -0.012051735 -0.033299502 -0.019520236
0001c0 56 e6 99 bd 33 06 80 bd 1c 5d 79 bd d1 16 0b bd
       -0.07514636 -0.062511824 -0.06087981 -0.033957306
0001d0 b6 75 17 3d dd be 84 bd 33 37 f6 3c bb 8e 74 3d
       0.036977492 -0.06481717 0.030055618 0.05970643
0001e0 70 6d 7f 3d 80 1f a9 3d 86 14 92 3d 1d b6 84 3d
       0.062360227 0.08257961 0.07132821 0.06480048
0001f0 e0 9c 9a 3d 42 43 1e 3d f6 62 d3 bc 66 ef a3 bd
       0.07549453 0.03863836 -0.025804024 -0.08004646
000200 2f 49 7c 3c 4c cd 8f 3d c4 c9 b9 bc 0a 36 85 3d
       0.015398308 0.07021579 -0.022679217 0.06504448
000210 6e 72 a8 bd 7f 08 39 bd 47 b2 bf bc 7e 3a 49 bc
       -0.08224951 -0.045174118 -0.023400439 -0.012282012
000220 8f 9c ab 3c eb d8 6d 3d 5e 34 31 bc 21 65 72 bc
       0.020948676 0.058068197 -0.010815708 -0.014794619
000230 b7 8d a7 3d a7 1e 7e 3d a1 73 1f 3b 82 02 31 3d
       0.08181327 0.06204095 0.0024330395 0.043215282
000240 e2 bd b3 bb 40 10 3f bd 60 2b c1 3c ac ac 2b 3d
       -0.0054852823 -0.046646357 0.023580253 0.04191272
000250 db 52 a7 bd 2c ed 85 bd 7b 1a 76 3d 67 6a 0e bd
       -0.081701 -0.065393776 0.060083847 -0.034769442
000260 5d 50 98 bd af 51 9f 3d e3 28 b1 3c 16 0e d7 3c
       -0.07437203 0.07779252 0.021625942 0.026251834
000270 d5 1f 86 bc 62 55 d8 bb 84 7d 98 3d 80 ce 39 bd
       -0.0163726 -0.0066019753 0.07445815 -0.04536295
000280 5d ea 60 3d 88 a9 db 3c 78 3c f8 bc e9 b8 16 bd
       0.054911006 0.026814237 -0.030302271 -0.036797438
000290 ef 1c be bb 4c 92 2e 3d c2 37 81 bd 23 31 6e 3c
       -0.005801789 0.04261999 -0.06309463 0.014538082
0002a0 48 d9 a1 3d af da 39 bd 2d a6 09 bc 74 85 58 bd
       0.07902771 -0.04537457 -0.008401436 -0.052861646
0002b0 56 49 ab bd 20 c9 a7 bd f8 64 70 bd c3 17 a8 3d
       -0.08363597 -0.081926584 -0.05869004 0.08207657
0002c0 e3 59 19 3d 00 08 94 bc 5e c3 d1 bc 27 d8 71 3d
       0.03743924 -0.018070221 -0.025605854 0.05904403
0002d0 b9 7c a9 bc 54 5b 75 bd eb 15 4e bd d7 2f 23 bd
       -0.020689355 -0.05990155 -0.05031387 -0.039840546
0002e0 07 f9 80 3d 03 cf 91 bd dd 00 79 bd bd c8 4a 3d
       0.06297498 -0.071195625 -0.06079184 0.049507845
0002f0 59 be 75 bc 37 30 97 bd b2 69 b1 3d 4a 1a 46 bd
       -0.014998996 -0.07382243 0.08662738 -0.048364915
000300 62 bf 97 bd 0a a6 71 3d 47 32 14 3d af 46 1e bd
       -0.0740955 0.058996238 0.03618076 -0.038641628
000310 da f5 2f bd ad 1d 2d bd 4d b0 8f 3d 52 06 5d 3d
       -0.04295907 -0.04226463 0.070160486 0.053961106
000320 4e c7 5a 3d 54 5b ac 3d 7f c5 9a 3d bf c4 8f 3d
       0.053412728 0.08415857 0.07557201 0.07019948
000330 e7 e2 7d 3c d9 9c f9 3c cd ce 8b bd f6 2b a2 3b
       0.015495992 0.030470299 -0.068265535 0.004949088
000340 5d 1a 4c bd cf 96 51 3d ef 18 9c bd f9 12 af 3d
       -0.04982983 0.051169213 -0.07621943 0.085485406
000350 29 b0 bf bb 8a ff 26 bd 00 c7 4f 3d 40 62 a5 3d
       -0.0058498573 -0.040771045 0.05072689 0.0807538
000360 e4 ee 6e 3d 43 c4 d7 bc 31 80 96 bd fe e0 94 3d
       0.058333293 -0.026338702 -0.07348669 0.07269476
000370 78 c9 98 bd 11 6c 60 bd c9 5d 27 bd 6b 25 82 3d
       -0.07460302 -0.05479056 -0.040860925 0.06354793
000380 63 0c 30 3d 05 67 89 bd a2 2c 40 bd 58 15 be bc
       0.042980563 -0.067091025 -0.046917565 -0.023203537
000390 ca ef 93 3d bf 78 8c 3d 81 c7 af 3d 33 20 7e 3d
       0.072234705 0.06858968 0.08582974 0.062042426
0003a0 84 0b 96 bd 3c fd ad 3d e2 28 35 bb 24 42 c5 3c
       -0.07326415 0.08495566 -0.0027642776 0.02407939
0003b0 87 e5 83 bc 97 ee 78 bd c4 7d ee 3c 66 7c a8 3d
       -0.016100658 -0.060774412 0.029112704 0.08226852
0003c0 52 22 9b 3b 9c 62 a5 3d 6a 0f 47 3d fa 8c 1e 3d
       0.004734316 0.08075449 0.048598684 0.038708664
0003d0 d4 03 08 bd fe 82 c6 bc 14 32 85 bd 21 0c 88 bd
       -0.033206776 -0.024232384 -0.06503692 -0.066429384
0003e0 02 d4 d9 bb 65 f1 2c 3c f5 3c 35 bc a3 53 3c 3d
       -0.0066475878 0.0105556 -0.011061897 0.0459782
0003f0 5d 4a 73 bd dd 23 80 3d 3c 21 68 3d 03 77 cf 3c
       -0.05939709 0.062568404 0.05667232 0.025325304

lstm_decoder.bias_ih_l0 f4 [512]
000000 17 9d 99 bb e5 88 5a bd 2b 79 81 bd 65 08 27 3d
       -0.004687916 -0.05335321 -0.06321939 0.04077949
000010 7c e8 a0 3d 41 eb 1c 3d 16 25 77 3d 1a bd a6 bd
       0.07856843 0.038310293 0.060338102 -0.08141537
000020 23 3c c8 3c 60 c5 4d bd 59 2f b0 bc 06 e7 3d bd
       0.024442738 -0.05023706 -0.021506952 -0.0463629
000030 39 e2 54 bd ca e3 d8 bc 1f 27 5b 3d 57 51 12 bc
       -0.051973555 -0.026475806 0.053504106 -0.008930526
000040 68 87 94 3d 89 5a 3a bd b3 56 3f 3d c7 ae db 3b
       0.07252389 -0.045496497 0.046713542 0.0067041847
000050 9f d6 f5 3c 11 12 73 bd c6 0d 23 3d 4b dd 9c 3c
       0.030009566 -0.0593434 0.039808057 0.01914849
000060 8a b0 c0 bc 6f 85 04 ba 26 9e 34 3d 33 aa b9 3c
       -0.02352168 -0.00050552835 0.044096135 0.022664165
000070 c8 f6 51 bc 04 5f 9a bb 3b b0 97 3d e2 ea f3 3c
       -0.012815185 -0.004711034 0.0740666 0.029775087
000080 d7 66 99 bc 19 33 ac 3d 01 f1 68 bd ef 00 6c 3d
       -0.018725796 0.084081836 -0.056870464 0.057618078
000090 5f e5 b7 3d a4 10 17 3d 08 15 a3 3d 85 6d a7 bd
       0.08979296 0.036881104 0.07962996 -0.08175186
0000a0 32 15 94 3d 0c e2 62 bc 60 03 b6 3d ed 0d 56 bd
       0.07230605 -0.013847839 0.088873625 -0.052259374
0000b0 4d aa 33 bd 31 c4 05 3d 68 9e a3 3d 38 a3 43 3c
       -0.043863583 0.032657806 0.07989198 0.01194077
0000c0 67 c1 1f 3d 3d 86 39 3d c0 98 c1 3d c6 5c 93 3d
       0.039002802 0.045294035 0.09452963 0.071954295
0000d0 7f 27 9a bd 14 62 0d 3d 44 e4 b1 bc 97 90 47 3d
       -0.075270645 0.034517363 -0.02171529 0.048721876
0000e0 54 66 80 3d 9d 38 49 3c 95 36 0b bd 29 8e f1 3a
       0.062695175 0.012281564 -0.0339876 0.0018429208
0000f0 08 d5 8d bd ad 92 e8 3c 74 1c 95 bd 1b ff 2c 3c
       -0.06925398 0.028390253 -0.07280818 0.010558869
000100 aa 53 1e bd ee 58 d5 bc a9 d4 41 bd a7 b0 f6 3c
       -0.038654007 -0.026043382 -0.04732195 0.030113531
000110 37 72 a8 3c 3d 12 ae bc 71 23 ea 3b b8 49 4f 39
       0.020562274 -0.021248931 0.007145338 0.0001976852
000120 6c aa a2 3d cf 70 a2 3d ba 94 27 bd 00 e5 81 bd
       0.07942662 0.07931673 -0.04091332 -0.063425064
000130 5c aa ad 3a fa 15 24 3d dc ca ba 3d 66 80 5b bd
       0.0013249624 0.04006002 0.091207236 -0.053589247
000140 50 6a 6e bd a5 58 aa 3d c4 0c 5f 3d e2 15 93 bb
       -0.058206856 0.08317689 0.054455534 -0.0044886926
000150 28 69 d2 3c 84 c9 83 bd 55 6e 53 bc 27 a8 1e 3c
       0.025684908 -0.064349204 -0.012904723 0.009683645
000160 da f8 b0 3d 6f 5e 1b 3c 0b 91 a8 bd 1c e9 f4 3c
       0.08641215 0.009482964 -0.0823079 0.029896311
000170 01 ae 56 3d c3 e1 88 3c 67 19 a3 3d 17 be 2e bd
       0.052412037 0.016709214 0.079638295 -0.042661753
000180 d3 ee 32 3d 86 61 2b 3d 3a a2 e4 bc 06 fe 1a 3c
       0.04368479 0.041841052 -0.027909387 0.009459978
000190 7c 17 ab bc c7 e8 11 3d 1f ab f1 bc e0 ce 9f 3d
       -0.020885222 0.035622384 -0.029500542 0.0780313
0001a0 66 a7 a3 bd 0a c5 a4 bd df 83 9d 3d 5e aa 78 3d
       -0.07990913 -0.08045395 0.07691168 0.06070935
0001b0 f2 9f 84 3d ed ff e5 bc 19 d0 b5 3d 13 79 70 3d
       0.0647582 -0.028076136 0.08877582 0.058709215
0001c0 af 7c c5 39 08 4c 62 3d a8 a3 66 bd 30 82 f9 3b
       0.00037667665 0.05524829 -0.05630842 0.0076143965
0001d0 ea eb 24 bd 89 01 94 3d 6a a8 10 bd 14 e2 aa 3d
       -0.040264048 0.07226855 -0.035316862 0.08343902
0001e0 39 12 ad 3d 74 4e c3 bc f6 a0 28 bc c6 99 b5 3d
       0.08450741 -0.02384112 -0.010292282 0.088672206
0001f0 eb e8 63 3b e3 75 9a bb 6f 08 ef 3c 8f f3 f3 bc
       0.003477628 -0.00471376 0.029178826 -0.029779224
000200 aa 92 9f ba 6c 0d b1 3d 15 e6 99 bd 41 ac 2c 3d
       -0.0012174447 0.08645138 -0.07514588 0.04215646
000210 42 52 a3 bc b4 d8 98 bd 2d 28 2b 3c ce 12 02 bd
       -0.019936685 -0.07463208 0.01044659 -0.031756215
000220 6f 8b b8 3d 6e bd a2 3d 18 86 78 bd 60 6b 00 3d
       0.0901097 0.07946287 -0.060674757 0.0313524
000230 f2 33 dd bc 4b f2 43 3d be 6c a5 bc f0 3d 00 3d
       -0.027002309 0.04783849 -0.020193454 0.03130907
000240 c0 45 17 3d 94 5a 8d 3d 55 02 5f 3d c8 37 dd 3c
       0.036931753 0.06902042 0.054445583 0.027004138
000250 fb 10 a6 3d 24 3a 93 bd 12 ab 39 3d cf 1e a2 bd
       0.081087075 -0.07188824 0.04532916 -0.079160325
000260 0c 48 9d 3c a7 a5 9c 3d d7 7d b4 3d 72 71 f0 3b
       0.019199394 0.07648783 0.088130645 0.0073377425
000270 92 23 74 3d b7 5d 3b bd 29 f8 38 bd 29 f9 44 bc
       0.059604235 -0.04574367 -0.04515854 -0.012022295
000280 8b f0 27 bd 98 37 b1 bd 11 2c bb 3b cf e7 ce 3c
       -0.041000884 -0.08653182 0.0057120402 0.02525702
000290 c5 87 a3 3d 79 ef 26 3d 79 09 b6 bc 9e 65 53 3d
       0.0798488 0.040755723 -0.022221314 0.05161058
0002a0 34 f9 89 bd f3 14 97 3d b9 28 9b bd b8 e0 84 bd
       -0.06736985 0.073770426 -0.075761266 -0.06488174
0002b0 0a 19 fd 3c c6 c6 93 3c 2f ee 9d 3d e3 d5 81 bd
       0.030895729 0.018039118 0.077114455 -0.06339624
0002c0 54 0c 8a bd 98 da 65 bd ad 49 0e bd fd c3 0c bd
       -0.06740633 -0.05611667 -0.03473823 -0.034366596
0002d0 1d f3 45 3d 65 0e 73 3d 0d ad 4d 3d 95 e4 25 bd
       0.048327554 0.0593399 0.050213862 -0.040501196
0002e0 93 4d 86 bd 62 89 17 3c ea 26 9b bd 40 72 9d bd
       -0.06557765 0.009249063 -0.07575782 -0.07687807
0002f0 de 30 7c 3d 35 ae 98 bd bb 3e a2 bd ef 5b e0 3b
       0.06157004 -0.07455102 -0.07922121 0.006846897
000300 49 49 9c bd cf 3f b5 3d 28 b8 57 3c 84 f6 23 3d
       -0.076311655 0.08850061 0.013166465 0.040030017
000310 46 9d 11 bc 5f 0e 67 bd 11 c3 4a 3d e5 64 90 3d
       -0.008887595 -0.05641019 0.049502436 0.07050494
000320 ab 9e a6 3d be 62 17 3d f5 48 9d 3d 88 a0 c9 3c
       0.08135732 0.036959402 0.07679931 0.02461268
000330 ed 80 d1 3c 54 87 5a 3d 9b 02 a9 bc 0c 72 82 bc
       0.025574172 0.053351715 -0.020631125 -0.015923522
000340 2e 33 5f bd 55 e8 61 3d d1 fb 82 bb 76 05 ab 3d
       -0.054492168 0.05515321 -0.003997304 0.08350651
000350 e1 49 2b bd a7 60 6b ba 30 f4 aa bd a1 b9 fa bc
       -0.041818503 -0.0008978941 -0.08347356 -0.030606093
000360 6d f0 a7 bd 3c 12 82 3c e0 e5 8a 3d 92 a7 4f bd
       -0.082001545 0.015877835 0.067821264 -0.050696917
000370 b8 61 a5 3d f4 24 00 bd ad 6d 0a 3d 37 68 86 3d
       0.08075279 -0.03128524 0.033796 0.06562846
000380 a7 74 d0 ba 80 6a 78 bd a1 5e b2 3d fe 27 9e 3d
       -0.0015903906 -0.06064844 0.08709455 0.07722472
000390 74 a9 1b 3d 75 02 a4 bd 89 4e 87 3b e4 1f a2 3d
       0.0380034 -0.08008281 0.004129235 0.07916239
0003a0 8b e7 4f 3d cc 4f f7 3c ec 96 1f 3d 25 45 d8 3a
       0.050757926 0.030189417 0.03896229 0.0016500099
0003b0 f0 08 ab 3d 5d 90 80 3d b9 34 6f bd e5 c6 5c bd
       0.08351314 0.06277535 -0.05839989 -0.053900618
0003c0 f5 c3 21 3c 27 f4 03 bd 05 95 1c 3d 83 a4 90 3b
       0.00987338 -0.032215264 0.038228054 0.0044141426
0003d0 2f 70 98 bc 76 63 03 bc 09 a0 24 bd 7d 67 c6 bc
       -0.01860818 -0.008019319 -0.040191684 -0.024219269
0003e0 6d f3 a1 3d d8 b1 8b bd 18 2e f4 bc 05 17 2b ba
       0.07907758 -0.068210304 -0.029807135 -0.00065265625
0003f0 07 35 6b bd b3 c4 a1 bc 0c c9 4d bd e3 06 27 3d
       -0.057423618 -0.019747114 -0.05024056 0.040778052
