transformer_no_tanh_with_past_12_Nm_144_Np_lr_0.001_hs_128_ahs_8_nll_1_bs_16_do_0.5_e_200_stride_10/model_W24_0.001lr_200e.pth (torch, 831802 bytes, 14 tensors)

lstm_encoder.weight_ih_l0 f4 [512, 8]
000000 32 8f 51 bb b8 16 00 3d e9 d4 2c 3d 9b 1c 81 3c
       -0.003197622 0.031271666 0.042195234 0.01576071
000010 e3 4d 91 bd 4b 9d 5a bd be f0 72 bd fd f7 51 3d
       -0.07094934 -0.053372663 -0.05931162 0.05126189
000020 8b a5 cc bc 42 f5 7f 3d c6 2e 17 bd 72 be 45 bd
       -0.02498128 0.062489755 -0.03690984 -0.048277326
000030 b9 63 9f bc e5 d1 21 3c 71 4b eb 3a 3d dd bc 3c
       -0.019456731 0.009876703 0.001795156 0.023054713
000040 d9 b3 90 bd 18 5c 1c bd 39 22 43 bd 0e 38 f0 bc
       -0.07065553 -0.038173765 -0.04764006 -0.029323604
000050 de 14 3e 3d f1 f1 87 3d 2a 10 77 3b ba 4c 49 bc
       0.04640662 0.066379435 0.0037698844 -0.012286359
000060 da 3c 2d bc 37 7c 51 bd 48 37 aa bc d9 a3 50 bd
       -0.01057359 -0.05114385 -0.020778313 -0.050937507
000070 a5 d3 d6 ba f0 32 88 bd e6 d4 f2 bb 4e d9 a0 bc
       -0.0016389979 -0.066503406 -0.0074106334 -0.019634869
000080 16 e3 45 3d 38 d1 44 bd a3 21 64 3c 88 1b 84 3c
       0.04831227 -0.04805109 0.013924035 0.01612641
000090 53 2f 0a 3d d7 51 2e 3d 56 62 75 bd 20 3e 80 3d
       0.03373654 0.042558517 -0.059908234 0.062618494
0000a0 34 1a 7f 3c 80 c3 88 bb 5f e7 0f 3b 89 e4 4e 3d
       0.015570212 -0.004173696 0.0021957976 0.050510917
0000b0 35 3a 64 bd 51 99 37 3d ee c1 3e 3d 1f f5 6e bd
       -0.055719573 0.04482395 0.046571665 -0.058339234
0000c0 02 db 82 3d 55 69 40 bc 98 6a 38 bd 74 b1 e7 bb
       0.06389429 -0.011743863 -0.04502353 -0.0070707146
0000d0 64 24 36 bd c1 1e 64 3b 0e ea 99 bd 18 24 1c bd
       -0.0444683 0.003480837 -0.075153455 -0.03812036
0000e0 53 91 1f 3d a5 00 27 bd 17 94 42 3d ca 06 81 bd
       0.03895695 -0.0407721 0.04750451 -0.06300123
0000f0 7e 67 3d 3d fe 88 5d bd 79 3b 96 3d ea 82 95 3d
       0.046241276 -0.054085724 0.07335562 0.073003605
000100 4d 80 28 3d 26 7d d8 bc 53 f8 a7 3c ca 5a 22 3d
       0.041137982 -0.026426863 0.020504152 0.039637364
000110 66 cf 59 bd 5f 82 6f bc a9 ca de 3b c3 20 66 bd
       -0.053176306 -0.014618485 0.0067990613 -0.056183588
000120 4b 35 6f 3c 66 6e 63 3d 9e 5c 5a bd d8 63 ee 3c
       0.014600108 0.055525206 -0.053310983 0.029100344
000130 10 b0 66 3d 64 23 a6 bb 02 f1 aa bb 6f 72 8b 3d
       0.05632025 -0.005070137 -0.0052167187 0.06808936
000140 55 04 88 bd d1 20 a4 bb c4 1b 83 3d 42 e6 46 3c
       -0.06641451 -0.005008795 0.0640178 0.012139859
000150 26 c2 e9 3c 70 75 30 3d 14 02 eb bc 8e e6 fd 3c
       0.02853496 0.043080747 -0.028687514 0.030993726
000160 08 3a b2 3c 77 55 10 3d 2a c9 88 3d 79 22 1e 3d
       0.021756187 0.035237756 0.06678994 0.038607094
000170 6b f3 8e bd a6 ab 44 bc a9 ae 44 bd 99 0a 97 bd
       -0.06980022 -0.012003815 -0.04801813 -0.07375068
000180 36 2c e8 3c 6b f9 52 bd 02 f4 21 bc 56 a3 09 bd
       0.028341394 -0.051507395 -0.009884836 -0.033603035
000190 27 4c 7e 3c 77 bb 5c bd a1 f1 95 3d a2 70 f7 bb
       0.015521086 -0.053889718 0.07321478 -0.0075512687
0001a0 64 a3 da 39 9a 80 82 3d 12 4b ad bc 8e 9a 16 bd
       0.00041701936 0.06372185 -0.02115396 -0.03676849
0001b0 7a ff 80 bd 05 9b 45 3d f7 98 c3 3c ea ec 47 3d
       -0.06298728 0.04824354 0.02387665 0.048809923
0001c0 e2 ae 81 3d 77 b9 8a bd 06 74 3d 3c 57 e7 99 3d
       0.063321844 -0.06773656 0.011563307 0.07514828
0001d0 91 47 d3 3c b7 d3 d5 bc 11 2d 57 bd e4 36 20 bd
       0.025790961 -0.02610193 -0.052533213 -0.039114848
0001e0 d2 b9 5c ba 30 d2 4c bc 0f 1d 2b 3d 8c 2d 15 bb
       -0.00084200234 -0.0125012845 0.04177576 -0.0022762744
0001f0 bf c7 48 bd 44 3a de 3c ec 24 42 3d 96 53 dc 3c
       -0.049018618 0.027127393 0.047398493 0.026895326
000200 03 e6 86 bc 4f 47 9c bd 0a 60 0b 3d 34 dd 6f bd
       -0.0164671 -0.076307885 0.034027137 -0.058560565
000210 62 10 8c 3b 3e 35 8a 3d b0 ca 94 3d c6 f6 c4 bb
       0.004274414 0.067484364 0.07265222 -0.006010863
000220 44 94 b4 3c d7 b8 4a 3c 85 78 96 3d ae 94 55 bc
       0.022043355 0.012373171 0.07347206 -0.013035936
000230 b7 4f cf bc 95 77 80 bd c3 60 51 3d 77 df f4 bb
       -0.025306566 -0.062728085 0.05111767 -0.007472928
000240 92 4f 8e 3d d3 0e c9 bc 95 4d 8d bd e8 6c 57 bd
       0.069487706 -0.024543202 -0.06899563 -0.052594095
000250 cf 82 e8 bc 7d 58 41 3b 7e 34 2d bd ee 46 34 bd
       -0.028382687 0.0029502206 -0.04228639 -0.044012956
000260 b0 fb 19 bd c1 d9 92 bc 5a 07 f5 bc fb b5 9a bd
       -0.037593544 -0.017926099 -0.029910732 -0.07554241
000270 69 8e 94 bd c8 be 2f bd ec ab ec 3c 09 ac 57 bc
       -0.07253725 -0.042906553 0.028890572 -0.013163575
000280 95 32 b3 bb 83 02 f1 ba c4 91 f8 3c 3f d3 3e 3d
       -0.0054686763 -0.0018387589 0.030342944 0.04658818
000290 41 29 85 bd 07 78 3a bd 60 b6 7b 3d 83 e3 72 bd
       -0.06502009 -0.045524623 0.061453223 -0.059299003
0002a0 5f 05 55 3c 73 cc 3e 3d 4b 4e 4c bc ce 92 47 bd
       0.013001769 0.046581697 -0.012469838 -0.04872399
0002b0 83 be 14 3b 31 8b 99 3b d4 bf 68 3d 6b 65 31 bd
       0.0022696562 0.0046857824 0.056823567 -0.04330961
0002c0 0d a6 e2 39 0d 5d 48 bd 8d 57 62 3d b4 f5 54 3c
       0.00043229797 -0.048916865 0.055259276 0.012998033
0002d0 be 53 54 3d c0 7a 17 bd 9e 4a 8d bd 86 70 77 3d
       0.051837675 -0.036982298 -0.06898998 0.060410045
0002e0 95 c5 8d 3d 6c 57 50 bc 8f 68 69 bd c4 ea 96 3d
       0.069224514 -0.0127161555 -0.05698448 0.07368997
0002f0 38 af 29 3c 81 cc 7e 3d 8b bc 0d 3c 9c f3 31 3d
       0.010356717 0.06220675 0.008650909 0.043445215
000300 cf b9 00 3d 5e 9b 3d bd 30 47 41 3d b6 c1 92 3c
       0.0314272 -0.046290748 0.04718703 0.017914634
000310 23 1f f2 3c 96 6b 5f 3d b0 6d 3b bd 94 d3 05 ba
       0.029555863 0.05454596 -0.045758903 -0.0005105075
000320 ab a6 cc bc 80 48 f9 bc b4 8a 4b 3d 81 a2 27 3d
       -0.024981817 -0.030430079 0.049692824 0.04092646
000330 2e 0d aa bc 88 c3 67 bd 1c 4d 96 bd c7 af 63 bb
       -0.020758238 -0.056582958 -0.07338926 -0.0034742223
000340 3b 1d fe 3c b7 2c 18 bd 89 f0 58 3d 52 57 24 3b
       0.031019798 -0.03715202 0.052963767 0.002507646
000350 65 86 9a bd c2 5b 4a bd c1 e3 14 3d 1c 19 92 bd
       -0.07545165 -0.049403913 0.036350016 -0.071336955
000360 21 0c 1f bc a3 d0 01 bd af 97 2d bd 39 95 06 bd
       -0.009707482 -0.031693112 -0.042380985 -0.032857154
000370 31 3b ff 3c 39 ab 78 3d 80 38 59 bc dd 73 7c 3d
       0.031156154 0.060710166 -0.0132581 0.061633933
000380 d0 de 00 bd e8 c5 54 3d 83 13 5a 3d 76 aa 66 3c
       -0.03146249 0.05194655 0.053241264 0.014078727
000390 53 2f 82 bd e1 0e 90 3d bb f2 01 3d 69 1f 4a 3b
       -0.06356683 0.07034088 0.031725626 0.0030841476
0003a0 da 31 b3 bb a5 11 7c bd 69 0f bc bc 75 09 66 3d
       -0.0054685893 -0.061540265 -0.022956567 0.056161363
0003b0 e2 57 92 3c 15 01 11 3d 51 0c 9b bd a5 13 8f 3d
       0.017864171 0.035401423 -0.075707085 0.06986169
0003c0 01 36 ca bc 3a 3c 80 3d 71 a4 22 3d 26 ca 51 bd
       -0.024683954 0.06261487 0.039707605 -0.051218174
0003d0 de 97 a6 3b 44 53 84 3c 1b bd c4 3c 84 0b 81 bd
       0.005084022 0.016152985 0.024015954 -0.063010246
0003e0 bb 50 55 3d 12 c9 66 bd a7 00 b4 3b cc 6d 60 3b
       0.052078944 -0.0563441 0.005493242 0.0034245132
0003f0 b6 e0 86 bd 0f 35 8a 3d 94 d3 9f 3b 5b 1b dd bc
       -0.06585829 0.067484014 0.004877517 -0.026990583

lstm_encoder.weight_hh_l0 f4 [512, 128]
000000 10 0d 10 3c 3d 96 d4 3c 0c d8 6a 3d 34 c2 93 bd
       0.008792177 0.025950545 0.057334945 -0.07214776
000010 ac f4 40 3d cb 27 0b 3d 2a fb 03 bd 82 12 10 3d
       0.047108337 0.033973496 -0.03222195 0.0351739
000020 e1 e4 25 3d 0b 4b b9 bc 7a 4f b4 bc ae db ad bc
       0.04050148 -0.022618791 -0.022010554 -0.021222916
000030 2d 33 2f bd fc 06 95 3d 6f 46 92 bd 51 dd 6d bd
       -0.042773414 0.07276723 -0.071423404 -0.058072392
000040 12 a1 6c 3d 78 0c 99 bd 5f 01 8f bd 75 98 3e 3c
       0.057770796 -0.07473081 -0.069826834 0.011633028
000050 6c 5b 5f 3c cc 30 13 3d 7d 62 84 3d 9b 9f 50 3d
       0.0136326365 0.03593521 0.06464098 0.05093346
000060 31 fd f0 3a 17 13 b2 3c a0 05 c5 bc b4 30 1d 3d
       0.0018386004 0.021737618 -0.024050534 0.038376525
000070 65 63 96 bc 14 8a 64 3d 8c 1c 2e bc 7b b9 29 bd
       -0.018357942 0.055795744 -0.010626923 -0.041436654
000080 80 2b 8b bd c9 6a 19 bd b2 59 9a 3d f6 10 67 3c
       -0.06795406 -0.037455354 0.07536639 0.014103165
000090 ef 49 22 3d 48 39 d7 3c 55 42 1d bd 55 20 83 3d
       0.03962129 0.026272431 -0.038393337 0.06402651
0000a0 78 f4 3f bd a8 40 3a bd c9 fd b4 bb 64 5b 60 bd
       -0.046864003 -0.045471817 -0.0055234176 -0.054774657
0000b0 77 3c 25 b9 0a 49 61 3d e9 3f 5d bd d4 15 62 bd
       -0.00015758151 0.055001296 -0.054016028 -0.0551966
0000c0 53 83 33 bd 1c 59 62 3d 54 65 2c bd e2 ff 27 3d
       -0.043826412 0.055260763 -0.04208882 0.041015513
0000d0 69 cf 23 bd d6 9a 73 3d b8 e6 29 bd 3a 0f 9e 3c
       -0.039992724 0.059473835 -0.041479796 0.01929437
0000e0 66 a8 8d bd 85 45 b3 bc 16 66 7e 3b d6 b7 8f bd
       -0.06916885 -0.021883735 0.0038818172 -0.07017486
0000f0 58 5b 89 3d 36 b1 62 3d 52 46 55 3d 2b f9 f6 bc
       0.067068756 0.055344783 0.052069016 -0.03014811
000100 95 3b 89 bd 8a 07 98 3c 58 30 82 bb 62 f0 85 3d
       -0.067008175 0.018558282 -0.003973048 0.0653999
000110 c1 b5 88 3d 08 90 2a 3d 3d e2 d4 bc ca dd 95 3c
       0.06675292 0.041641265 -0.025986785 0.018294234
000120 75 7b b6 bc 9e dc 8d 3b ad 1a 8b 3d a9 ac 90 3c
       -0.022275666 0.004329278 0.067921974 0.017660456
000130 e8 51 94 3b 30 ef 65 bd 20 a4 db 3c 13 39 45 3d
       0.0045263655 -0.05613631 0.02681166 0.048150133
000140 03 23 8d 3d 54 2f 65 3d 8d fb 43 ba e0 db 26 bd
       0.068914436 0.05595334 -0.00074761437 -0.040737033
000150 58 42 68 bd 3c 54 32 3c c9 96 b3 bc 66 99 76 3d
       -0.056703895 0.010884341 -0.021922486 0.060204886
000160 04 44 74 bb 49 58 da bb 2a 70 f4 ba 5b 58 d3 3c
       -0.0037271986 -0.0066633564 -0.001864915 0.025798967
000170 70 46 63 3d 06 67 91 3d 88 e2 8b 3c 7e 4e 53 3c
       0.055487096 0.07099728 0.017075792 0.012897132
000180 66 2b 81 3d 35 b4 e4 bc 21 2d e8 3c 78 3a 04 bd
       0.06307106 -0.02791796 0.028341832 -0.032282323
000190 46 96 59 3b 3d da dd 3c 15 d2 16 bc 95 fe 30 3d
       0.0033201142 0.027081603 -0.009205361 0.04321154
0001a0 c1 39 95 bd a9 7b c8 3c f2 8d 6a 3d 76 05 81 3c
       -0.07286406 0.024473028 0.057264276 0.015749674
0001b0 17 01 95 bd 18 76 83 3c 7b 21 3f 3d 59 53 82 3d
       -0.072755985 0.016047522 0.04666279 0.063635536
0001c0 64 66 77 bd e4 02 93 bc 69 6c 0d bc 78 49 91 bc
       -0.06040038 -0.017945714 -0.008631804 -0.017735228
0001d0 a7 0c 15 3d d8 80 62 3d cd f2 75 bd 27 14 62 bd
       0.03638902 0.055298656 -0.060046006 -0.055195
0001e0 2b 57 7e bc 10 fd c5 3c b8 b4 1e bc 18 c4 58 bd
       -0.015523712 0.024168521 -0.009686641 -0.052921385
0001f0 7a 54 bc 3c 3d 1a 54 3c 28 c2 af 3c 0a 1c db bc
       0.0229895 0.012945709 0.021454886 -0.026746769
000200 b6 b6 95 bd 5c e8 1b 3c 04 5e 2a bd 6a 25 0a 3d
       -0.0731024 0.009515848 -0.041593567 0.033727087
000210 de 31 22 3d 8a c4 8e 3d 77 59 43 3d d9 cc 8c 3d
       0.03959834 0.069710806 0.047692742 0.06875009
000220 b6 e8 fc 3c 50 b9 6e bd 61 0e 95 bc b4 ac 44 3d
       0.030872684 -0.058282197 -0.018195333 0.048016265
000230 3c 19 6b 3c 96 44 e2 bc dd 32 0d 3d 17 b2 06 bd
       0.014349278 -0.027620595 0.034472335 -0.032884683
000240 42 32 cb bb c8 41 9a 3d 0c a4 56 3c 7f 73 fe 3c
       -0.0062010596 0.07532078 0.013100635 0.031060932
000250 fe 52 ec bc e7 f8 11 bd 40 7e 0b bd 63 01 88 bd
       -0.028848168 -0.035637762 -0.03405595 -0.066408895
000260 07 bc c6 3c d3 44 95 3d 4c 9b 99 bd 3a b2 70 bd
       0.02425958 0.07288518 -0.07500324 -0.05876372
000270 36 ca 23 3c 96 7e 13 3d 59 0e 7d 3c 01 05 72 3d
       0.009996941 0.036009394 0.015445315 0.059086803
000280 14 0a 56 bd fd 01 63 bd 28 d9 24 bd 61 7d 5b 3d
       -0.052255705 -0.055421818 -0.04024616 0.053586368
000290 98 ad 85 3d 31 84 4e 3d 32 b5 3b bd 75 bf 96 bb
       0.06527251 0.050419036 -0.0458271 -0.00460046
0002a0 08 56 67 bb 58 82 4c bc f6 76 55 3d f1 a4 5e 3d
       -0.0035299081 -0.012482248 0.052115403 0.05435652
0002b0 08 cd 1d 3d 1e c5 22 3d f6 7a 8b 3d 7c f3 86 bd
       0.03852561 0.039738767 0.06810562 -0.0658941
0002c0 a1 98 be 3a aa c9 98 3d 30 ce 5c bd f2 70 d2 bc
       0.0014541337 0.07460339 -0.053907573 -0.025688622
0002d0 a4 c3 5f bc 57 7e a0 bc 32 1c 87 bd 61 d8 83 3d
       -0.013657484 -0.019591494 -0.06597175 0.064377554
0002e0 7f db 25 3d 73 da ab 3b cd 30 04 3d 9f ee 84 3d
       0.04049253 0.005244547 0.032273103 0.06490826
0002f0 2d cb 0e bc 79 ea c5 bb 12 08 39 bd 06 8e 06 bd
       -0.008715433 -0.006039914 -0.045173712 -0.032850288
000300 8e 7a 03 3a b0 4d 68 bd e2 5f b5 bb bf a5 97 bd
       0.00050155155 -0.056714714 -0.0055351118 -0.074046604
000310 f5 3b 82 3b 3d 10 69 bd 78 98 d8 3c 43 7b 32 3d
       0.0039744326 -0.05690025 0.02643989 0.043574583
000320 f9 6a 20 bd 7f 36 cc bc 63 11 82 3c 3c 21 8f bc
       -0.039164517 -0.02492833 0.015877431 -0.017471902
000330 9d 94 89 3c ee 2f 24 bd ba 3d a5 bc a5 29 75 bd
       0.016794497 -0.04008477 -0.020171035 -0.05985417
000340 50 2d 8f 3a 46 06 00 3d e0 8e 7b 3d 13 06 0b 3d
       0.0010923538 0.031255983 0.061415553 0.03394134
000350 4d 8b 75 bd c4 ea 3e 3d a0 b4 18 3d 7e 41 e3 bc
       -0.0599473 0.04661061 0.037281632 -0.02774119
000360 fd 17 ec 3b 95 cb 1a 3c 6e b1 15 3d 3d 5b 82 3d
       0.007205008 0.009447952 0.036546163 0.063650586
000370 1c 2c 8e bd 73 6d be 3b 6c e6 0c 3d c2 f0 39 bd
       -0.06942007 0.005811387 0.034399435 -0.04539562
000380 44 35 5c 3d 0a 20 af 3b c6 af 8f bd df 8b f3 b9
       0.053761736 0.0053443955 -0.07015948 -0.00046452784
000390 50 71 94 3d 5b 08 06 bd 79 41 37 3d f9 1f 53 bd
       0.07248175 -0.032722812 0.044740174 -0.051544163
0003a0 c4 66 a0 bc 24 02 e3 bc e1 3b 92 3d be b9 7e 3d
       -0.019580252 -0.027710982 0.07140327 0.062188856
0003b0 7a a9 a6 3c c4 19 08 bd 4b 74 00 3d f2 d6 67 3d
       0.020344485 -0.033227697 0.031360906 0.056601472
0003c0 2c 33 36 bc 34 7f 3d 37 6e 30 d9 bb 95 71 95 3d
       -0.011120599 1.1294895e-05 -0.0066280877 0.07297055
0003d0 14 27 9c bd 1c d3 73 bd c1 2e 04 3d 2e 8d e7 bc
       -0.07624641 -0.0595275 0.03227115 -0.028265562
0003e0 d0 2c 82 bd d7 4d 37 bd bf e7 43 bd fc fe 18 bd
       -0.063562036 -0.04475197 -0.047828432 -0.037352547
0003f0 ca 43 1d 3d 8d 3b 90 bd 84 bd e9 bc c8 85 11 bd
       0.038394727 -0.070426084 -0.02853275 -0.035527974

lstm_encoder.bias_ih_l0 f4 [512]
000000 15 30 1f 3d b0 c2 98 3d 1e 88 f3 bc 07 9a db 3c
       0.038864214 0.07459009 -0.029727992 0.026806844
000010 ce 0b 3e bd 2a 60 17 3a 68 f9 02 bd 28 b5 28 3c
       -0.046397977 0.00057745224 -0.031976134 0.010297097
000020 2d cd 2e bc 6d 00 9d 3c 43 05 b1 3b 96 c6 57 3d
       -0.010669035 0.019165242 0.0054022386 0.05267962
000030 4e 57 60 3d b2 de de 3c bf 84 89 3d 61 30 fd 3c
       0.05477076 0.027205799 0.067147724 0.030906858
000040 e3 eb 88 3d 42 51 9b 3d 42 49 2a 3b 74 08 ec bc
       0.06685617 0.07583858 0.0025983606 -0.028812625
000050 0c f4 9a bc f1 e0 d6 bc ee 02 58 3b ce 00 79 bd
       -0.018915199 -0.026230307 0.003296073 -0.060791783
000060 47 9f 9a bd 20 36 37 3d ea 2f 9a bd 9f 19 82 bd
       -0.07549911 0.044729352 -0.0752867 -0.06352543
000070 d9 e6 0e bd dc 90 b8 bb 24 b9 48 3d ec 7f 4e 3c
       -0.034888122 -0.005632503 0.04900469 0.012603741
000080 61 1b 1c bd e0 91 c5 3c f5 36 ef bb ca 71 b2 3c
       -0.038112048 0.02411741 -0.0073002526 0.021782774
000090 62 92 6e bc a0 96 16 3d 05 83 20 3c af b1 46 bd
       -0.014561268 0.03676474 0.0097968625 -0.048509296
0000a0 db 3a 27 bb 28 dd 6c 3d 0c f8 b4 3b 44 e6 93 bd
       -0.0025517258 0.0578281 0.0055227336 -0.07221654
0000b0 dd 42 4a 3c 47 75 2b bd 8c 1e b5 3c c2 f3 25 bc
       0.012345043 -0.04185989 0.022109292 -0.010128917
0000c0 0b 51 3c ba 3c da ca bc 26 44 af 3c 4e bf 23 3d
       -0.0007183707 -0.024762265 0.0213948 0.039977364
0000d0 49 b4 d0 bb 29 26 0d bd b6 9b 8b 3d 17 0e a3 bc
       -0.006369148 -0.03446022 0.06816809 -0.01990418
0000e0 b4 a8 08 bc 13 9a 29 bd b8 c1 7d 3d 9f 54 c3 bc
       -0.008341003 -0.041406702 0.061952323 -0.023844061
0000f0 32 55 25 bd 1d 65 0b 3d 3a 39 7e 3d 88 fa cc 3c
       -0.04036445 0.034031976 0.062066294 0.025021806
000100 ee f0 6f 3c b8 68 49 3c b7 3d 8c 3c 5d d5 02 bd
       0.014644844 0.012293033 0.017119272 -0.03194176
000110 fc b7 83 3c d8 1a 1c 3d a9 44 79 bd 3b dc ca 3c
       0.016078942 0.038111538 -0.060856495 0.024763217
000120 d2 55 8a 3d de 87 7e 3d 77 a0 80 3d 91 e1 95 3c
       0.0675465 0.06214129 0.06280606 0.018296035
000130 a6 36 0d bd 57 9a 9b 3c 77 e0 9f 3d 47 4f 92 bd
       -0.034475945 0.018994493 0.07806485 -0.07144027
000140 c6 db 88 bd 70 07 06 3d 42 0b 02 3d 47 4b 81 3d
       -0.066825435 0.032721937 0.031749018 0.06313186
000150 aa 55 90 3d 7e 89 64 3c 4c d1 de 3c 07 8a 99 3d
       0.07047589 0.013948796 0.02719941 0.0749703
000160 c4 10 5a 3c 39 da 79 3d 5f fc 7c 3d 28 06 98 3d
       0.013309661 0.06099913 0.061764117 0.07423049
000170 1b e0 d0 bc 11 94 37 bd b4 74 6d 3d 51 70 ef bc
       -0.025497487 -0.04481894 0.057972625 -0.029228361
000180 cf 82 22 3d 37 f9 32 bd 15 70 47 bd 3c 8a 4c bc
       0.03967553 -0.0436947 -0.048690874 -0.0124841295
000190 e4 81 3b bd dd 98 90 3d 49 ee 81 bd 2a 35 8f bd
       -0.04577817 0.07060406 -0.063442774 -0.06992562
0001a0 36 77 ef 3c e7 08 41 3d ed f9 68 bd fa e2 46 bd
       0.029231649 0.04712763 -0.056878973 -0.048556305
0001b0 58 2c ef bb 6d 4d 10 bd ac b5 9d 3d 94 20 47 bd
       -0.0072989874 -0.03523009 0.07700667 -0.048615053
0001c0 4d 50 44 3d bb f3 35 bb 71 a6 ab bc d8 4b 58 3d
       0.047928143 -0.0027763683 -0.020953389 0.052806705
0001d0 3c 01 88 3c 19 d7 1e bd 1a a2 b1 3c c9 c8 71 bd
       0.016602151 -0.03877935 0.021683741 -0.059029374
0001e0 90 6b c9 bb 5c 78 21 3d 1c 86 64 3d e8 8d 1f 3d
       -0.0061468557 0.039421424 0.05579196 0.03895369
0001f0 c6 72 2d bc 53 61 96 3d 52 09 3f bd dd 6d 07 3d
       -0.010586446 0.07342782 -0.046639748 0.03306376
000200 f3 3b 1b 3d 36 01 94 3d fa 89 17 3c 8b 4f 34 3d
       0.03789897 0.072267935 0.009249205 0.04402117
000210 52 98 87 3c 71 af 3f 3d 6c 6e f9 3c 39 2a 56 bd
       0.016552124 0.046798173 0.030448161 -0.05228636
000220 c3 88 7b 3d a2 be 95 3c 10 fd 1b 3d 36 30 a7 3c
       0.061409723 0.018279377 0.038083136 0.020408731
000230 4c d8 7d 3c c3 4d 87 bd c4 5a 4e bc 5c 14 9a 3d
       0.015493464 -0.06606629 -0.012594882 0.075234145
000240 52 4f 22 bd e8 ba a7 bc c8 f5 04 bd ec 2d 8a 3d
       -0.039626427 -0.020474866 -0.032460958 0.0674704
000250 79 3c a3 3d 94 a6 32 bd 02 85 49 bd 39 6b 36 3d
       0.079705186 -0.043615893 -0.04919911 0.04453585
000260 02 cf 0a bd f9 f3 95 bc 48 2d 09 3d a3 e2 d9 bc
       -0.033888824 -0.018304812 0.03349045 -0.026597327
000270 a9 7f 17 3c e3 83 49 3d e4 c4 6b bc b9 02 7c 3d
       0.009246745 0.049198043 -0.014390204 0.061526034
000280 dd 9c 1d 3d 33 da 88 bd 89 31 a1 bc 58 82 7e bd
       0.038479675 -0.06682243 -0.01967694 -0.062136024
000290 7d a3 05 3d 81 03 5e 3d 99 ec da 3b b6 5e 68 bd
       0.032626618 0.05420256 0.0066810367 -0.05673095
0002a0 e8 17 04 bc ac fc 78 ba 3c bf 75 3b d8 50 7e bb
       -0.00806234 -0.00094981 0.0037498018 -0.003880551
0002b0 e6 aa 18 3d 3b 84 33 bd 68 60 23 bd 14 24 88 3d
       0.037272356 -0.043827277 -0.039886862 0.06647506
0002c0 d1 3c 3b 3d 42 48 55 3d 2b e9 2e 3d c4 f1 53 3d
       0.045712296 0.052070864 0.042702835 0.051744238
0002d0 c5 44 91 3b f6 64 54 3d ab 83 8b 3b 3b 2a 1b 3d
       0.004433247 0.051854096 0.0042576394 0.03788207
0002e0 73 17 a3 3d 3a aa 7a 3d e6 01 10 bd be 5d c1 bc
       0.07963457 0.061197497 -0.03515806 -0.02360427
0002f0 9c 1d 11 bd 6f cd 8b 3d e7 37 59 bd 94 8b ca bc
       -0.03542863 0.06826293 -0.05303183 -0.02472476
000300 2c d2 7a bd bd bc 48 3c 46 ab 60 3d 24 ec 0a 3d
       -0.06123559 0.01225203 0.05485084 0.033916607
000310 ee 2d 4a 3d 46 d5 4d bd 4d b2 d6 bc c3 7b 57 bd
       0.04936021 -0.05025222 -0.026208067 -0.052608263
000320 e6 65 6c bd a8 ec 4f 3d aa d2 0d 3d 16 ed 36 bc
       -0.057714365 0.050762802 0.034624733 -0.011164924
000330 c9 f1 9f 3d 60 e6 20 bd be 72 08 3a f7 bb 0c 3d
       0.07809789 -0.039282203 0.0005205086 0.034358945
000340 8c 2f 28 3d 97 f0 36 bb 46 f7 ec ba 1c 08 2b bc
       0.04106097 -0.0027914399 -0.0018079064 -0.010438945
000350 18 7c d2 3b fa 42 a1 3d 68 2e 4c bd 9e 00 5d bd
       0.0064234845 0.07874103 -0.049848944 -0.053955667
000360 91 fd 24 ba d7 cb cd bc 19 dd 2d 3d 9a 88 87 bd
       -0.0006293888 -0.025121612 0.042447183 -0.066178516
000370 98 d6 bc ba bc 64 7a ba 71 b2 0d bd 6d 41 1e bd
       -0.0014407216 -0.0009551754 -0.034594003 -0.038636614
000380 90 40 88 bd 0b c0 4e bd 73 8b b1 3c 68 3b 82 3d
       -0.06652939 -0.050476115 0.02167294 0.06358987
000390 0b fb 0d bd 10 5f 6a bc d8 6c 09 3d b1 e8 82 bd
       -0.03466324 -0.014304891 0.033551067 -0.063920386
0003a0 3e 82 e7 bc 6d c2 91 bd 64 10 36 3d ad 8a 9c 3d
       -0.028260347 -0.07117162 0.044449225 0.07643638
0003b0 ff ba 8c bd 61 20 c1 3c 1c df bd bb bc 04 93 bd
       -0.06871604 0.02357501 -0.005794419 -0.071786374
0003c0 85 29 a4 bc 9c fc 72 bd ab 8a a4 3d 44 eb 86 3d
       -0.02003933 -0.05932294 0.08034261 0.06587842
0003d0 c3 f5 8c 3d 30 4c 51 bd 81 68 8e bd fb 53 03 3d
       0.06882813 -0.05109805 -0.06953526 0.032062512
0003e0 4c fb 38 bb 4f 61 58 bd 77 8c ad bc 1e bd 49 3d
       -0.0028225956 -0.052827176 -0.021185143 0.04925262
0003f0 0a df 71 bd 78 9b c5 3c d8 ff e1 bb e2 d6 fd 3c
       -0.059050597 0.024121985 -0.006896954 0.030986253

lstm_encoder.bias_hh_l0 f4 [512]
000000 98 15 0d 3b 76 32 07 bd 0f c8 f3 bc a6 81 bc 3c
       0.0021527763 -0.033007108 -0.029758481 0.02301104
000010 b3 2a d6 3c d0 ae 86 3d a6 95 5d bd 7f c0 85 3d
       0.026143407 0.065763116 -0.054097794 0.06530856
000020 73 4f aa bb 2e ad a6 3c 96 f2 6e 3c f8 a7 80 bc
       -0.0051974594 0.02034625 0.014584204 -0.015705094
000030 17 ce f6 bc 65 19 ba 3c cc 49 08 3c 7c 12 22 3d
       -0.030127568 0.022717187 0.008318376 0.03956841
000040 d0 44 72 bd 75 68 22 bd 2f 5a 99 3d d8 47 e1 bc
       -0.059147656 -0.0396504 0.07487904 -0.027500078
000050 f7 fe 80 bd 99 80 7b 3d 0a 20 51 bd 9e 47 33 3d
       -0.06298631 0.061401937 -0.051055945 0.04376947
000060 0d eb 08 3d ec c2 35 3d ad 60 62 bd da 6c be 3c
       0.033427287 0.044375345 -0.05526798 0.023245264
000070 74 b7 e8 bc 3b 07 0a 3d 5b 30 c2 3c 03 f3 45 bd
       -0.02840779 0.0336983 0.023704698 -0.048327457
000080 62 a7 92 3d 40 2b 02 3c 62 0b 21 3c 2c b2 80 3d
       0.07160832 0.007944882 0.009829374 0.062839836
000090 e5 60 74 3d 76 1f f3 3c 3a 94 9b bd 77 86 63 bd
       0.05966272 0.029678088 -0.07596631 -0.055548158
0000a0 82 18 7f 3d 27 25 f9 3c 6b a7 33 bd 8b 5f 8b bc
       0.06227923 0.030413223 -0.043860834 -0.017013332
0000b0 5d b4 4b bd 6d f1 6e 3d 5e d6 fc 3c b5 46 81 3c
       -0.049732555 0.05833571 0.030863937 0.015780786
0000c0 71 97 69 bd 57 8b 99 3d 17 6d 0b bc cc a7 3f 3d
       -0.05702919 0.0749728 -0.008509896 0.046790883
0000d0 af f4 16 bb 36 0d 75 3d e9 f0 2d 3d 84 7a 6a bc
       -0.0023034026 0.059827052 0.042466078 -0.014311437
0000e0 1f bb 09 bd 04 92 91 3d 22 6a 8a 3b 28 a9 55 3d
       -0.03362572 0.071079284 0.004224078 0.052163273
0000f0 cf 20 0a 3c 10 1e d3 3b d8 d2 8e bd 9f ac 14 bc
       0.008430674 0.0064427927 -0.06973809 -0.009074359
000100 cb 06 69 bd 61 04 34 bd 3f 6f 42 bd 45 ad f2 3c
       -0.056891244 -0.04394949 -0.047469374 0.029623637
000110 19 81 1e 3d d7 6c 6c 3d f2 81 9b 3d 1f d8 9c bc
       0.038697336 0.057720985 0.075931445 -0.019146023
000120 95 9e 9b 3d 3e df 1b 3c ad ef 45 3d 72 b5 e9 bc
       0.075986065 0.009513674 0.048324276 -0.028528903
000130 7a d7 97 bc eb 34 3c bd e1 47 09 bd 2d 5f 73 bd
       -0.018535364 -0.045948904 -0.033515815 -0.05941694
000140 b5 56 2b 3b 22 ed e8 3b 50 6e 1d bc 13 11 86 bc
       0.002614421 0.0071083466 -0.00960882 -0.016365563
000150 62 36 49 bd cb b8 89 3d 8e 3b 56 bd 6e 58 3d 3d
       -0.04912413 0.067246996 -0.05230289 0.04622691
000160 39 a3 72 3c cc 39 a9 bc 9a ef 2f 3d 78 6b e6 3c
       0.014809423 -0.020657443 0.04295311 0.028127417
000170 66 3d f9 bc 17 49 b4 bb 7a 64 92 bc bf 44 30 bc
       -0.030424785 -0.005501877 -0.017870177 -0.010758578
000180 a8 dc 7d 3c 03 bc 4c 3c 26 1c 99 bd b6 50 3e bd
       0.015494503 0.012495997 -0.07476072 -0.04646369
000190 3a 56 52 bd 10 4b 8d 3c 05 ea 82 bc 2f d6 a7 3c
       -0.051351763 0.017247707 -0.01598073 0.020487873
0001a0 b6 15 89 bd 3f f1 8d 3c a0 37 55 bc d6 d4 3c bc
       -0.06693594 0.01732695 -0.01301375 -0.011525353
0001b0 a7 86 3d 3d ea 6c 2a 3d 22 d3 93 3d ed be 86 3d
       0.046270993 0.041607775 0.07218005 0.06579385
0001c0 cc 9c 47 bd 6a 86 8f 3d e3 0a 4c 3d 33 10 86 bd
       -0.048733518 0.07008059 0.04981507 -0.065460585
0001d0 4c f8 7f 3d 26 de 29 3d 7b a3 09 bd d5 43 ed 3c
       0.062492654 0.041471623 -0.033603173 0.028963009
0001e0 42 88 67 3d 83 03 d6 3c d7 07 0d 3d 0f 16 77 bd
       0.05652643 0.026124721 0.034431305 -0.06032377
0001f0 de 4e a7 3b bb 02 98 3d 5b 3b 97 3d 29 4a 8f bd
       0.0051058372 0.07422396 0.07384368 -0.06996567
000200 4e b2 30 3d e9 7d a0 3c af 57 91 bd 27 46 87 bd
       0.043138795 0.019591289 -0.070968024 -0.066051774
000210 d3 b8 5c 3d c7 31 ad bb e8 a8 80 3c a1 83 57 bc
       0.0538872 -0.005285475 0.01570554 -0.013153941
000220 d9 93 09 3d 4c ef 7a bd 15 63 f2 b9 a5 d9 4b 3d
       0.033588264 -0.061263368 -0.0004623166 0.04976811
000230 de 65 84 3d 2b 31 47 3d 36 dc dd 3c b0 88 22 3d
       0.06464742 0.048630875 0.027082544 0.039681137
000240 a8 c7 e4 3c d0 d4 dd 3c 46 1a ee 3c 08 da 89 bd
       0.027927235 0.027079016 0.029065263 -0.06731039
000250 fd 22 7e bd 69 1e f6 bc e2 83 8e bd ae 8d 22 bd
       -0.062045086 -0.030043798 -0.069587484 -0.039685898
000260 49 ed 90 3d a0 e4 22 3d 58 7a 2a bd c8 95 2c bd
       0.070765086 0.039768815 -0.041620582 -0.04213503
000270 c5 81 b5 3c 9e 37 85 bd 35 ae 5a bd 4d 4e 46 3d
       0.022156605 -0.06504749 -0.053388793 0.048414517
000280 6a ec 08 bd f2 e4 4d 3d dd cf ab bc 0c a8 11 3d
       -0.033428587 0.050267167 -0.02097314 0.035560653
000290 f8 2d 05 3d be 06 9d 3c ff 96 4d ba 7a 74 8a bd
       0.032514542 0.019168254 -0.00078426296 -0.067604974
0002a0 ca 3c 98 bc 1d c1 20 3d 40 f6 15 3d 8a 78 7b 3d
       -0.018583674 0.039246667 0.036611795 0.061394252
0002b0 3d 1d 4e bc e6 39 61 bd 46 43 81 bc 0b 98 17 bd
       -0.012580213 -0.054986857 -0.015779149 -0.037010234
0002c0 bb 15 82 bd b9 5c a4 bc 1a 7a fb bc f3 d1 d6 bc
       -0.06351801 -0.020063745 -0.030697871 -0.026223158
0002d0 4f ec 7a 3b bf 5d f0 bc 33 98 38 3d e6 64 7e 3d
       0.0038287824 -0.029341577 0.045067023 0.062107943
0002e0 f5 f8 79 3d 9c f7 30 bc cd ae 56 bd 9a 9f 38 3d
       0.06102844 -0.010801222 -0.052412797 0.045074083
0002f0 31 77 c1 bc 00 46 4d 3d 34 bf 47 3d 14 45 e1 3c
       -0.023616405 0.050115585 0.04876633 0.02749876
000300 41 bb 77 bd 59 96 b8 bc b7 ec 81 bc 8d b3 d8 3c
       -0.060481314 -0.022532629 -0.015859945 0.026452804
000310 36 9f fc 3c 63 c0 37 3d 91 a6 ce 3c 85 7b 95 3d
       0.030837636 0.04486121 0.02522591 0.0729895
000320 31 7d ab bc 66 bf ce 3b 22 88 aa bc c4 ed 67 3d
       -0.02093372 0.0063094376 -0.020816866 0.056623235
000330 5b 3c 27 3c 83 ab 8d 3d ed 45 8c 3c 10 9e 1f bd
       0.010207261 0.06917479 0.017123187 -0.0389691
000340 47 cb 02 3d 23 43 6f ba 09 19 07 bd ab 8d 04 bc
       0.03193214 -0.00091271306 -0.03298286 -0.008090417
000350 92 24 4e bd 04 a8 23 bd 0c 86 81 bd 9e 61 96 bd
       -0.050327845 -0.039955154 -0.063243955 -0.07342838
000360 21 c3 73 3d 9f e1 b8 3d 4a d2 1b bd 7b 2d 6a 3d
       0.05951226 0.09027409 -0.038042344 0.05717228
000370 10 90 e4 3c 37 c5 8b 3c 33 c1 d7 bc 92 06 99 bc
       0.027900726 0.017061813 -0.026337242 -0.01867989
000380 fb 7c 66 bb 88 68 2c bd 66 36 8d bc a7 0e 00 bd
       -0.003516971 -0.042091876 -0.017237853 -0.031263974
000390 8a 9e 8e bd 81 74 99 3b b8 8f c3 bc b6 9c ba bc
       -0.06963833 0.004683078 -0.023872241 -0.022779804
0003a0 d5 0f 93 3d f4 45 b5 3c a3 e9 8c 3d 75 45 52 3c
       0.07180754 0.022128083 0.068805 0.012833943
0003b0 79 47 d6 bc 30 12 17 3d 87 8f 7e 3d d8 57 1b bd
       -0.026157128 0.03688258 0.062148597 -0.03792557
0003c0 0a c8 9b 3d ff a6 9a 3c f2 a9 53 3d c5 c2 93 3d
       0.07606514 0.018878458 0.051675744 0.07214884
0003d0 af a6 32 bb b7 3b e4 bc af d1 11 3d 0a 2d 1b bd
       -0.0027259996 -0.027860506 0.03560036 -0.03788475
0003e0 6c b3 02 bd 36 2e ec 3c 6c be 00 bd dc 60 5f 3d
       -0.03190939 0.028830629 -0.0314316 0.05453573
0003f0 cf a4 56 bd 53 8a dd bc 1a 49 46 3d 80 4c 61 3d
       -0.052403267 -0.027043497 0.04840956 0.055004597

lstm_decoder.weight_ih_l0 f4 [512, 6]
000000 e0 0b 2b bd 2b 7e 2f 3d 80 8d 18 3b 28 03 ba bc
       -0.04175937 0.042844933 0.00232777 -0.022706583
000010 0b cc 3b 3d c8 36 17 bd 6c e1 27 bc ba f6 81 bd
       0.045848887 -0.036917478 -0.010246616 -0.063458875
000020 8b b3 07 bc e0 1e bf 3c d2 12 d2 bc 0e a6 a3 bd
       -0.0082825525 0.023330152 -0.02564374 -0.07990657
000030 bb 33 44 bd 7a 9f 8f 3d 35 b0 c8 3c c3 fd 43 bd
       -0.047900897 0.070128396 0.024498085 -0.047849428
000040 dc e0 ab bd 75 6e c4 3c bd 5e 88 bd 6a 56 59 bd
       -0.08392498 0.023978451 -0.06658695 -0.053060926
000050 6e 1b c7 3c 29 30 94 3c f8 07 31 bd 70 28 bb 3c
       0.024305072 0.01808937 -0.04322049 0.02284643
000060 37 a1 76 bd aa 92 1f 3d d0 d1 ee 3c d8 3f 4e bc
       -0.06021234 0.03895823 0.02915278 -0.012588464
000070 16 d4 7d 3d 01 96 89 3d bf 2a 42 bd 6f 78 a8 bc
       0.06196984 0.06718064 -0.047404047 -0.02056524
000080 41 6f 8e 3d 4b d6 29 3d d5 c6 8e bd d3 8d a0 bc
       0.06954814 0.04146413 -0.06971518 -0.019598877
000090 e6 b0 dc ba ac 22 fe bc 36 d2 1f bd e5 53 ff 3b
       -0.0016837388 -0.031022392 -0.039018832 0.0077919834
0000a0 4e 0a 0e bd 35 97 79 bc f2 23 53 bd e7 6c 8b 3c
       -0.034677796 -0.0152338045 -0.051547952 0.017019702
0000b0 c1 96 1a 3d 6c be 19 3d 14 6d 60 bd 34 ea 3d 3d
       0.037741426 0.037535116 -0.054791525 0.04636593
0000c0 ab f6 c8 bd 49 15 35 bb 74 d4 2f 3d ae 47 1d bd
       -0.09812673 -0.0027631095 0.04292722 -0.038398437
0000d0 72 3c 0d 3d 39 51 c5 3d 63 83 a3 3d 47 4a b8 3d
       0.034481473 0.096346326 0.079840444 0.08998542
0000e0 3d 8a 06 bd 43 3a 6b bd 10 76 82 bd 9b 63 54 3d
       -0.032846678 -0.05742861 -0.06370175 0.051852804
0000f0 e9 d2 50 bb b5 f0 39 3d cb 66 d9 bc 47 ee 11 3d
       -0.0031863993 0.04539557 -0.026538273 0.03562763
000100 f2 46 b3 3d 6c f3 17 3d 22 10 cc 3c fd 89 23 3c
       0.08753766 0.03709738 0.024910036 0.009981629
000110 1d f2 9a bd e3 af 97 3d aa 73 e4 bc 84 98 1f 3c
       -0.07565711 0.074065946 -0.027887184 0.009740952
000120 1c a7 11 3c d0 5e c2 3b 07 b8 62 bd e0 d4 5e bd
       0.00888994 0.0059317127 -0.055351283 -0.054402232
000130 61 85 96 3c df 30 17 bd 2f 51 1f 3c 76 69 8f 3d
       0.018374147 -0.03691184 0.0097239455 0.07002537
000140 e3 ce 8d bd 0e c6 d7 3c 37 82 34 bd 2b da af 3d
       -0.06924226 0.026339557 -0.044069495 0.08586534
000150 22 e7 04 38 bb 3b 96 3d d5 30 0d be 8b c2 eb 3b
       3.168651e-05 0.073356114 -0.13788159 0.007194822
000160 48 3e 01 3d 77 16 bd bc b7 10 f0 bb 9c 45 3c bd
       0.031553537 -0.023082001 -0.0073262113 -0.045964822
000170 44 48 d6 bc 3b 70 aa bc bf d8 43 3c a0 ef ba bd
       -0.026157506 -0.020805469 0.011953532 -0.09127736
000180 5c 02 0b 3d 90 ee 0e bc 72 49 9b bb 14 f1 5f bc
       0.033937797 -0.00872387 -0.00473898 -0.013668317
000190 65 9d 03 3d fc 5d 8b 3c ee 03 69 bd c3 b3 74 3d
       0.032132525 0.017012589 -0.056888513 0.059741747
0001a0 df 9d f5 bc 3d 4a 93 3d 0f a9 23 3d f9 51 33 bd
       -0.029982505 0.07191894 0.03995615 -0.043779347
0001b0 3b 11 03 bd 74 f2 ad bc b9 4b 08 3d 74 5b 94 3c
       -0.031998854 -0.021233775 0.03327534 0.018110014
0001c0 a2 90 1e 3c a0 9d d7 3c 24 c3 5f bd 71 e0 59 3c
       0.009678038 0.026320279 -0.05462946 0.01329814
0001d0 51 b1 58 3d 9a 16 70 bc 8b 0d 32 3c 6a 2b 2c bd
       0.052903477 -0.014653826 0.010867487 -0.04203359
0001e0 81 0c 5d 3d e2 f0 92 3c 8c 4a 5e 3d da c2 29 bc
       0.053967003 0.017937128 0.054270312 -0.010361398
0001f0 6e bf e0 bb 86 19 24 3d 72 fb 56 3c 84 93 55 3d
       -0.0068587577 0.040063404 0.013121473 0.052142635
000200 d2 ff bd bc a6 74 94 3d 80 af d8 3b 76 7b 2c bd
       -0.023193274 0.072488114 0.006612718 -0.04210993
000210 de b8 52 bc ef 80 b8 3c 16 e6 7f bd b2 af 97 3d
       -0.012861459 0.022522418 -0.062475286 0.07406558
000220 43 df 92 3a 9c a2 aa bc 10 00 68 bc db 88 8e bc
       0.0011205453 -0.020829491 -0.014160171 -0.017399242
000230 ef 9c fa b8 96 02 5d 3d 41 bc 2d bd 0c 42 1e 3d
       -0.0001195016 0.053957544 -0.04241586 0.038637206
000240 c2 f9 f3 3c c3 78 8b bc a2 92 73 3d 3f db 4e bd
       0.02978218 -0.017025357 0.05946601 -0.050502058
000250 7e 2f 84 3d bb 17 be bc 05 88 ba bc 85 64 30 3d
       0.06454371 -0.023204675 -0.022769937 0.043064613
000260 b7 fc 77 bc 7b a4 71 bd f8 9d 46 bc 03 d2 d8 3c
       -0.0151359355 -0.05899475 -0.012122624 0.026467329
000270 75 10 8d bd 3d 13 ff bc 3e 24 f3 3c 40 5e e3 3b
       -0.068879046 -0.031137103 0.029680368 0.0069387257
000280 4e 3b 89 bd 29 3d 65 3c 10 d2 57 bd 72 7a b1 3c
       -0.067007646 0.0139916325 -0.052690566 0.021664832
000290 1a 45 8d bd 2c 6c a5 bc c6 28 9a 3b a8 38 7a bd
       -0.06897946 -0.020193182 0.0047045676 -0.061089188
0002a0 a9 21 1f 3c 7b 79 9a bd 69 01 83 3b 5d 26 84 bc
       0.009712615 -0.07542702 0.003997971 -0.016131574
0002b0 86 a7 89 bd 52 37 82 3c d3 7c bf 3d 91 db 9e 3c
       -0.06721406 0.01589552 0.0934998 0.019391807
0002c0 41 f8 6b 3b 6a 0a 91 bd 38 16 c3 bc fe 2e 15 bc
       0.0036006125 -0.070820644 -0.023814306 -0.009105442
0002d0 e6 4d 9c 3b 24 51 b5 bc 75 6b 06 bd df 44 80 3d
       0.0047700284 -0.022133417 -0.032817323 0.06263136
0002e0 5b e5 58 3d 4c 47 08 3c 83 01 5f 3d f6 ac 08 bd
       0.052953105 0.00831778 0.0544448 -0.033368073
0002f0 f5 27 75 3d c8 01 87 3d 70 d7 5b bd 57 b8 2c 3d
       0.05985256 0.065921366 -0.053672254 0.042167988
000300 0e 22 c4 bd f6 38 de 3d bf e4 ab 3b 61 40 df 3d
       -0.09576808 0.10850708 0.0052457745 0.10900951
000310 9d 40 fb 3d 11 c8 e4 3d fe d6 a9 bc e0 b7 81 3d
       0.122681834 0.11170972 -0.0207324 0.063338995
000320 6c 5c ef 3c be 1d 42 ba cc 0f bb bc b8 df bb bd
       0.029218875 -0.00074049446 -0.022834681 -0.0917353
000330 b9 44 d4 3b a6 4a 4a bc a0 4a 36 bd ed 9f 9f bd
       0.006477919 -0.012346899 -0.04450476 -0.07794175
000340 c4 26 5e 3d 84 42 75 3d 82 71 bd 3d 0b 7d be 3c
       0.05423619 0.059877887 0.092501655 0.023252985
000350 23 15 4d bd 6a 77 f6 3c bc 0c 35 3d 57 11 a7 bc
       -0.050068986 0.030086238 0.044201598 -0.02039401
000360 61 ff 18 bd a0 c5 6f bd 82 d9 8c 3d 6b 0f 6c 3d
       -0.037352923 -0.05853808 0.06877424 0.05763189
000370 94 e9 63 3c 47 79 e0 bc 09 3e 52 bd f9 9e c8 bc
       0.01391067 -0.02740158 -0.051328693 -0.024489867
000380 12 f0 2c bb ed 97 3b 3d 13 3d 11 bb c5 5b d5 bc
       -0.002638821 0.045799185 -0.0022161647 -0.026044736
000390 d2 fd 45 bd f2 64 8f 3d 02 8a 66 bc c6 3f f6 3b
       -0.048337765 0.07001676 -0.01407099 0.0075149266
0003a0 4f 7d 08 bd 5c 2a 4c 3d 06 20 c6 bd 0b 36 25 bc
       -0.03332263 0.049845085 -0.09674077 -0.010083686
0003b0 19 3e 91 3d 56 5d 0a bd 54 94 65 bd 4a 04 84 bd
       0.07091922 -0.03378042 -0.05604966 -0.064461306
0003c0 60 24 49 3d 9a 4f 80 3d 8b fd 8c bc ef e0 09 3d
       0.049106956 0.06265183 -0.017210742 0.03366178
0003d0 1a b1 3c 3d 06 81 95 bd 3b 55 88 bd 9d dd 13 bd
       0.046067335 -0.073 -0.066568814 -0.03610002
0003e0 31 00 f3 3c 48 6e e9 bc 5c 4e ff bc 60 31 a6 bc
       0.029663177 -0.028494969 -0.031165294 -0.020287216
0003f0 f5 b0 af bc 68 c6 a3 3d 2b 2c 83 3d 37 11 56 bb
       -0.021446684 0.07996827 0.06404909 -0.003266407

lstm_decoder.weight_hh_l0 f4 [512, 128]
000000 48 91 45 bd e5 17 ee bc 21 4e c9 3c 81 f5 0a bd
       -0.048234254 -0.029064128 0.024573388 -0.033925537
000010 1f 4f 40 3d 88 10 75 bd e9 99 bc 3c 7d 9b 3f 3d
       0.046950456 -0.05983022 0.023022609 0.046779145
000020 64 56 13 3d ca 4f 82 3d ab 1d 10 3c ba 37 01 3d
       0.03597106 0.06362875 0.008796136 0.031547286
000030 0d ee 82 3c 7d 32 86 bd d1 02 84 3c 31 82 0a bd
       0.015982652 -0.065525986 0.016114624 -0.033815566
000040 8a 03 31 bd bc 16 47 3d 82 ed 82 3c a8 7a 04 3d
       -0.043216266 0.048605666 0.015982393 0.032343537
000050 f0 74 c3 bc 86 2c 47 3d 81 16 81 3d 4a 1e 8d bd
       -0.023859471 0.048626445 0.063031204 -0.06890543
000060 1d bb 21 bc 1b 7a e0 bc e2 4e e4 3c cf 76 fa 3b
       -0.009871271 -0.027401974 0.027869646 0.0076435576
000070 42 bb 91 3a c4 cd c4 bb 68 b9 f2 bc 6d 65 36 bb
       0.0011118429 -0.0060059745 -0.029629424 -0.002783145
000080 52 48 58 ba 42 64 9b 3d 68 9b 93 3b 9a f0 4d 3d
       -0.00082505227 0.07587482 0.00450461 0.050278284
000090 9a 60 01 3d 11 5a 2b 3d 8e ff 83 3d 1a c8 4a 3d
       0.031586267 0.04183394 0.064452276 0.049507238
0000a0 5c 67 7e ba a9 b7 27 3d 1b 8e 16 3d 92 f8 1a bc
       -0.0009704733 0.040946636 0.036756616 -0.009458678
0000b0 a8 0b 27 3d 3a f2 82 bc 86 41 f7 bc b8 d9 3f bc
       0.0407826 -0.015984643 -0.030182611 -0.011709623
0000c0 87 85 ce 3c b8 ea bd bb 68 cf 93 bd 11 2d 0c 3d
       0.025210155 -0.005795803 -0.07217294 0.034222666
0000d0 fc 96 c3 3c 86 f5 2e 3c b9 b8 72 bd a0 18 60 3d
       0.023875706 0.010678655 -0.059258197 0.054710984
0000e0 fa e7 0a 3d ef 75 a8 bc 2d e9 27 bc a6 f6 72 bd
       0.033912636 -0.020564048 -0.0102484645 -0.059317254
0000f0 44 91 69 3d e9 40 0f bd d0 a7 5a 3d f8 24 f6 3c
       0.0570233 -0.034974013 0.053382695 0.030046925
000100 c6 1a e1 bc e9 0b 3a bd c5 2f b1 3c a0 3b 3d 3d
       -0.027478587 -0.045421515 0.021629224 0.04619944
000110 ee 6d 13 3d e4 e7 34 3c e9 21 7f 3d 89 83 40 bc
       0.03599351 0.011041615 0.0622882 -0.01175011
000120 04 49 42 3d 42 b9 db 3c a5 76 11 3d 28 67 5d 3d
       0.047432914 0.026821736 0.03551354 0.054053456
000130 81 40 96 bb 05 7d 0b bd 3e cd 53 bc af 63 1f 3d
       -0.004585326 -0.034054775 -0.0129273515 0.038913425
000140 11 f6 9c bc 83 7c 31 bd 6b 2e 67 3d 84 a2 9a bd
       -0.019160302 -0.043331634 0.056440752 -0.07550529
000150 10 22 5c 3c 2f 75 91 3d cf 8b 4b bd 62 d7 85 bc
       0.0134358555 0.07102429 -0.04969388 -0.016338054
000160 52 b5 93 3c f9 43 ea bb f4 a3 7d bd cd 79 79 bd
       0.018030796 -0.0071492163 -0.061923936 -0.060907174
000170 b8 5a 1e 3c f7 d3 2e bd c0 33 58 3c 18 fa 7f 3c
       0.009665184 -0.042682614 0.013195932 0.015623592
000180 3f e7 95 bd f5 4b 2d 3d cb 58 fc bc 54 6b 21 3c
       -0.07319497 0.042308766 -0.030804059 0.009852249
000190 8e b2 d6 bc f6 96 5f 3d 9a 05 ee 3c 46 b4 61 3d
       -0.026208188 0.054587327 0.029055405 0.055103563
0001a0 5c be 2e 3d 31 04 6c 3d eb 20 b8 3c aa 61 f4 3c
       0.04266201 0.057621185 0.022476634 0.029831726
0001b0 42 54 29 3d 30 3a 2b bd 21 55 92 3d e6 4c 71 3d
       0.04134012 -0.04180354 0.07145143 0.058911227
0001c0 84 10 80 bd 61 ec 62 3d a3 0f 20 bd 8b 79 c2 bc
       -0.0625315 0.05540121 -0.039077412 -0.023739597
0001d0 35 1f c3 3c f1 ad 36 bd 9a 1a 04 bd 77 88 cd bb
       0.023818592 -0.044599477 -0.03225193 -0.0062723714
0001e0 cf 9d 3f 3d 09 23 87 bd 65 84 1e 3d 56 87 34 bd
       0.046781357 -0.06598479 0.03870048 -0.04407438
0001f0 cc b3 22 3c 5a 29 4c 3c c6 fd 9c bd b2 e4 19 bc
       0.009930562 0.012461031 -0.07665591 -0.009392904
000200 e0 3f 7e 3d 75 59 1d 3d f1 05 61 bd ce 1c 4c bd
       0.062072635 0.03841539 -0.054937307 -0.049832158
000210 1f 0b 95 3d 79 24 44 3d ab 1a 3e bd d5 ea f3 3c
       0.07277512 0.047886346 -0.04641215 0.029775063
000220 e7 3c ae bc 88 02 41 bd 93 0b d5 bc 59 51 26 bc
       -0.021269275 -0.047121555 -0.026006496 -0.010151231
000230 66 71 67 3d e7 f1 53 3d 69 27 87 bd f3 7d 67 3b
       0.05650463 0.051744368 -0.06599314 0.0035322874
000240 d6 1b 93 bd 12 81 d3 3c ab 9a 36 bd 97 f1 9c 3d
       -0.07183044 0.025818381 -0.044581097 0.07663267
000250 18 17 80 3d 5a be 7c 3b b4 67 0f 3d 30 ae 90 3b
       0.06254405 0.0038565607 0.03501101 0.004415296
000260 49 4a 1b 3d 79 d7 0e 3c bb e5 74 3c 21 ea 49 3d
       0.03791264 0.008718365 0.01494735 0.04929555
000270 b9 8d 26 bc e4 ee 4b bd 78 a2 c1 3a 8b fb 08 3c
       -0.010165625 -0.04978837 0.0014773151 0.008360754
000280 8d 77 9a bb 70 77 55 3d bd d5 42 3d 91 de eb ba
       -0.0047139586 0.052115858 0.047567118 -0.0017995407
000290 4f 17 eb 3c b4 e9 d7 3c 11 c1 80 3d ef 7d 3c bd
       0.028697638 0.026356556 0.062868245 -0.046018537
0002a0 d3 14 6d 3c 8c 2e 1e 3c 62 65 8a 3c e7 f0 83 bb
       0.014470297 0.009654652 0.016894046 -0.0040265205
0002b0 90 5f 95 3d d2 01 87 3d 3f cb f7 bc 8f 89 05 3c
       0.07293618 0.06592144 -0.030248282 0.008150472
0002c0 0e ad 05 bd 9b e7 17 3d 3d 34 4d 3d 4f 2e 55 bd
       -0.03263574 0.03708611 0.050098646 -0.052046116
0002d0 64 01 c6 bc 4b 94 e6 bc d7 86 41 3c 5c 01 4f bc
       -0.024170585 -0.028146883 0.0118119335 -0.012634601
0002e0 8c 06 0f bd 04 6f 87 3d b0 26 2b bd b5 30 2e bd
       -0.034918353 0.066129714 -0.041784942 -0.04252692
0002f0 12 c2 57 3d e9 35 54 3c 4b 6f bf 3c 65 ce d2 bc
       0.052675314 0.012952306 0.023368498 -0.025733182
000300 db 24 83 bb 6d 18 93 bd f7 4f 59 bd f9 2b 33 3c
       -0.0040021962 -0.07182393 -0.053054776 0.010935777
000310 0b b6 c8 3c 8f 3b 3e 3d d6 fa 9a 3d 44 28 28 bc
       0.024500867 0.04644352 0.075673744 -0.010263506
000320 6c ab 6c bd 47 31 80 3d d7 b9 de 3c c7 0d 04 3d
       -0.05778067 0.06259399 0.027188225 0.0322397
000330 a0 8d f2 3c 20 0d 9a 3d 20 cd 1b 3d 1b fd c1 3c
       0.029608548 0.07522035 0.03803742 0.02368026
000340 27 13 c6 bb bd 56 aa bc 0e c1 41 bd 09 13 8b bd
       -0.0060447636 -0.020793313 -0.047303252 -0.0679074
000350 18 a1 2b bd ca 83 8c bd a6 eb 9a 3d 08 dd 22 3d
       -0.041901678 -0.06861074 0.075644776 0.039761573
000360 47 0b 68 3d 46 9d d0 bb 3b 2c 92 bd b6 d2 23 bd
       0.05665138 -0.0063664047 -0.071373425 -0.03999587
000370 52 0a 0e bd 9c 26 46 bc 71 40 43 3d 85 fc d0 bc
       -0.03467781 -0.012094166 0.047668878 -0.025511036
000380 9a 8f 50 3d cb 8b 19 bd b4 d7 48 bd 3c c7 f9 bb
       0.0509182 -0.037486833 -0.049033836 -0.0076226275
000390 f3 04 4a 3d 16 da 90 3d 19 8f 1b bd 7c 8b 27 3d
       0.049321126 0.070728466 -0.037978265 0.040904507
0003a0 9c a4 15 3d 55 b4 e4 3b 2a 55 d2 3c 5b f7 e7 bc
       0.036533937 0.006979505 0.025675375 -0.02831619
0003b0 93 6e a6 3c 31 3c 92 3d 9f 4b 98 3d 00 91 26 3d
       0.020316398 0.07140387 0.074362986 0.040665627
0003c0 6e ec 98 bc 5e 54 d9 3c a6 c7 3b bd 39 cd 87 3c
       -0.018667426 0.026529487 -0.045844696 0.01657735
0003d0 38 56 00 3d b0 a9 f7 3c 83 73 3e bd 45 c1 7d bd
       0.031332225 0.03023228 -0.04649688 -0.061951894
0003e0 12 c0 22 3d f7 99 fb bc 0d 95 12 3d 97 90 59 bd
       0.039733954 -0.030713065 0.035786677 -0.053116407
0003f0 f6 27 24 3d 27 6c 21 bd 3f 13 21 bc 03 a8 2d bd
       0.040077172 -0.039409783 -0.009831249 -0.042396557

lstm_decoder.bias_ih_l0 f4 [512]
000000 b0 05 9a 3d 2b 51 8c 3d 66 71 9a 3d 63 7e 8b bd
       0.07520616 0.06851419 0.0754116 -0.06811216
000010 78 46 7d 3c 87 be e8 bc 36 9e 03 bd 7c 73 45 3d
       0.015458696 -0.028411163 -0.032133304 0.048205838
000020 e3 02 de bc 36 48 7e 3d 29 7a 93 3d 88 20 ef 3c
       -0.027100986 0.062080584 0.072010346 0.029190317
000030 00 99 be bc 33 10 9e bc 96 e3 51 bc 2f e8 44 bc
       -0.023266315 -0.019294834 -0.012810608 -0.0120182475
000040 70 63 b6 bc 16 c5 33 bc c2 09 ee bc 82 fb f3 bc
       -0.022264212 -0.010972282 -0.029057387 -0.029783014
000050 c5 07 2b 3d 20 67 ae 3d 39 c8 36 3a 28 3c 2a bc
       0.041755456 0.08515763 0.00069725845 -0.010390319
000060 a5 e7 d2 3b 9e a2 5b 3d fe b9 ce 3c 54 89 7d 3d
       0.0064363056 0.05362188 0.025235172 0.061898544
000070 24 35 3f bd 6d 1d 01 bd 33 22 46 bd c1 24 2c 3d
       -0.04668154 -0.031522203 -0.04837246 0.04202724
000080 ae c2 e0 3d b8 7c 7a 3d 41 55 91 3d 49 8f 8e 3d
       0.10974632 0.061154097 0.07096339 0.06960923
000090 6e 25 66 3d 10 74 5d bc 57 fa d4 bb 93 f5 ba bc
       0.05618804 -0.013516441 -0.0064995694 -0.022822177
0000a0 c3 eb f6 3c 73 40 14 bd 30 83 20 3c 05 b7 2e 3c
       0.030141717 -0.036194276 0.009796903 0.010663752
0000b0 13 3a 1e bd 2f 97 97 3b f1 23 69 b9 ab bb 41 3d
       -0.038629603 0.004626177 -0.00022234001 0.047298115
0000c0 d8 af aa 3c 0d 2f 58 3c 6b 05 61 bb 46 ed 9c bc
       0.020835802 0.0131948115 -0.0034335505 -0.01915611
0000d0 6d b8 50 3d 53 1c e9 bc 69 75 65 bd 24 30 af bc
       0.050957132 -0.028455889 -0.056020174 -0.02138526
0000e0 04 fc 7a 3d 73 1d 70 3d aa a1 76 bc 60 95 93 3d
       0.061275497 0.058621835 -0.015053192 0.072062254
0000f0 04 3a 53 3d 52 61 6c bd 8d 2c 3f bd ff e1 37 bd
       0.051569 -0.05771 -0.046673346 -0.04489326
000100 06 3b 5a bd 64 eb 75 bd d9 33 86 bc ee 45 97 3b
       -0.053278945 -0.06003894 -0.016382145 0.0046164906
000110 59 5c 26 3d 57 b4 5d 3d 1f a8 e7 3c 10 bb 21 3b
       0.040615413 0.054127064 0.028278409 0.0024678148
000120 3e fc 4b 3d 5a ec 93 3d b0 b1 a2 3c 30 24 e4 3c
       0.049801104 0.07222815 0.019860119 0.027849287
000130 bb d8 0a 3c 2a 12 0f bc d2 4e b9 b9 2b ec 9f 3d
       0.008474524 -0.008732358 -0.00035344675 0.07808717
000140 7d b0 b3 bc ef 2f 31 3c dc 71 ca 3c ea b5 6a 3c
       -0.021934742 0.010814651 0.024712496 0.014325598
000150 24 bc 89 bd 77 19 09 bd 04 8d eb 3c c8 9c 4f bd
       -0.06725338 -0.03347155 0.028753765 -0.050686628
000160 ec 5b c0 bc e6 e1 c8 3d 1e a9 79 3d ee 3f 69 bd
       -0.023481332 0.09808712 0.0609523 -0.056945734
000170 ce fd fd bb 57 56 bc 3b 2a 9e f6 bb f9 d6 34 3d
       -0.007751203 0.005747597 -0.007526179 0.044150326
000180 d5 6b f0 bc 3f c8 be bc 96 ca 25 bd 90 1e db 3a
       -0.029348293 -0.023288844 -0.040476404 0.0016717482
000190 7d af 23 bd 44 d3 5f 3d d9 f3 88 3d 19 68 54 bd
       -0.03996228 0.054644838 0.06687135 -0.051857088
0001a0 a8 e6 aa 3d 58 2c 7a 3d 3e 43 c6 3a 7b a0 b7 3d
       0.083447754 0.061077446 0.0015126241 0.08966156
0001b0 b1 26 3e 3c 05 f0 57 3d d9 3d 84 3d 21 dc e3 bc
       0.011605904 0.052719135 0.06457109 -0.027814927
0001c0 fb a4 9c 3d fa 2d a0 3d 13 35 0d bd 9d d1 14 bd
       0.07648655 0.07821269 -0.034474444 -0.036332715
0001d0 72 4e 7f 3c 26 36 bc 3a 21 91 9d bc c2 5f 86 bd
       0.015582668 0.0014359399 -0.019234242 -0.06561233
0001e0 67 f5 88 bd ca ec f1 3c 63 0c ab 3c a7 b2 90 3d
       -0.06687432 0.029531855 0.02087993 0.07065325
0001f0 6f 92 48 3d 60 67 e0 3b d5 05 82 bc 49 ee ca 3c
       0.048967775 0.0068482608 -0.015871922 0.024771826
000200 ed 55 8d bc 75 18 06 bd 37 8b 80 bd 31 0f 8d 3d
       -0.017252887 -0.032738168 -0.06276553 0.06887663
000210 be 45 46 3d 26 86 9d 3c 82 b0 99 3d 17 6b 44 3d
       0.048406355 0.019229006 0.07504369 0.04795369
000220 ca e6 55 3d 71 05 b3 3d 51 e2 ac 3d 5d 4b 0d 3c
       0.05222205 0.08741272 0.08441604 0.008623925
000230 0b f3 c3 3c 95 ec fd bc ef 39 b6 3c 5c d5 50 3d
       0.023919603 -0.0309966 0.022244422 0.050984725
000240 f7 66 43 bc 6a 2c 75 3d c5 8a ab bb e0 83 63 bc
       -0.011926404 0.05985681 -0.0052350485 -0.013886422
000250 8e 1e 58 bd d9 69 8e 3d f0 c9 cd bb a5 f8 a7 bc
       -0.052763514 0.069537826 -0.0062801763 -0.020504305
000260 2f e8 39 bc c3 41 d8 bc 95 ec 49 bd b1 f7 3b 3d
       -0.011346861 -0.026398545 -0.049297888 0.045890514
000270 7b d4 1c bd bf 07 84 3d e6 d2 aa 3c 6a 1c 45 bd
       -0.038288575 0.0644679 0.020852517 -0.0481228
000280 8c c4 ae 3d 78 b0 de bc 3b 24 a7 3c 2d 25 31 bc
       0.08533582 -0.027183756 0.020403018 -0.010812086
000290 e5 ad eb 3c e9 b2 1a 3d 7c a1 1f 3d 97 a5 26 3d
       0.028769443 0.03776828 0.038972363 0.040685263
0002a0 52 e8 b7 3c 60 69 a9 3d c4 e2 1f 3d f8 9e 83 3d
       0.022449646 0.08272052 0.03903462 0.06426805
0002b0 30 e7 50 3d 79 2d 3c bc 55 9e 41 3d e0 d7 a2 3d
       0.051001728 -0.011485451 0.047270138 0.07951331
0002c0 9c ac 61 3d 43 99 a6 3d 22 37 c3 bc fd 82 1f bc
       0.055096254 0.08134701 -0.02383 -0.00973582
0002d0 4c 57 26 bd ed 07 ef 3c d7 fc 7f bd 76 fa 9b 3d
       -0.040610597 0.029178584 -0.062496986 0.07616131
0002e0 23 a1 57 3d 8f 81 71 3c 94 23 85 3d 25 c0 bc 3b
       0.052643906 0.014740362 0.065009266 0.00576021
0002f0 62 38 24 bd 75 45 6f 3c 52 c3 4c 3d ee eb ef 3c
       -0.040092833 0.014603962 0.04999096 0.029287305
000300 8e 77 f8 bc fb 51 69 bd 37 97 14 bc 1e 8e 36 3d
       -0.030330446 -0.05696295 -0.009069256 0.044569127
000310 5c 36 9d 3a 64 9c c2 bc dd 8b ca 3c f6 90 9d 3b
       0.001199435 -0.023756213 0.024724895 0.0048085405
000320 d6 65 25 3c 1c 60 bb 3b 7e fc b5 bc 64 7f 45 3d
       0.01009508 0.0057182442 -0.022215124 0.048217192
000330 20 cb 61 bd 8d 23 54 3d fd 39 48 3d 42 1a e9 bb
       -0.055125356 0.051791716 0.048883427 -0.007113726
000340 d3 49 db 3d 65 39 73 bd a7 42 b1 3c d0 20 5b 3c
       0.1070744 -0.059380908 0.021638228 0.013374522
000350 4c 2c 2f bc 14 c7 9a 3c 6a a3 3f 3d 14 a0 ab bc
       -0.010691714 0.018893756 0.046786703 -0.020950355
000360 e5 f6 0d bd 8c 5a 38 3e 15 02 65 3d 0a a3 3a bd
       -0.034659285 0.18003291 0.05591019 -0.045565642
000370 37 f0 7d bb 80 af ac 3d 6e dd ca 3d cc d1 83 bc
       -0.0038747916 0.084319115 0.099055156 -0.01609125
000380 3e 9d 59 bc d8 43 80 3d b0 7e 6a bd f7 64 1c 3d
       -0.013282118 0.0626294 -0.057249725 0.038182225
000390 17 d5 06 bd 29 7d 0f bd 60 a4 ec bc fe 8e 4d bc
       -0.032918062 -0.03503147 -0.028886974 -0.012546299
0003a0 bb af 00 bd 9d 64 5d bb ef 67 a8 3d 99 74 92 3d
       -0.03141759 -0.0033781894 0.08222949 0.071511455
0003b0 e4 0e 94 3d f2 60 a5 3c ab a1 42 3d 15 39 60 bd
       0.07229403 0.020187829 0.04751746 -0.054741938
0003c0 ef 6f 44 bc 20 f7 cb bc fe 19 89 3c 7b 9e 11 3d
       -0.011989578 -0.024898112 0.016736027 0.03555153
0003d0 49 40 bf bc 42 04 84 bd b1 00 40 bd 88 35 a9 3d
       -0.023346083 -0.064461246 -0.04687566 0.082621634
0003e0 4b 83 3d 3d 7a 1e f6 3d 92 bb 51 3c 73 9f 4c bd
       0.04626779 0.12017532 0.012801068 -0.04995675
0003f0 1a b9 66 bd fe 60 10 3d e3 84 95 3d 8c 7a 4a 3d
       -0.05632887 0.03524875 0.07300737 0.049433276
