transformer_no_tanh_with_past_12_Nm_144_Np_lr_0.001_hs_128_ahs_8_nll_1_bs_16_do_0.5_e_200_stride_10/model_transfer_A25_to_J25_0.0n_0.001lr_200e_6days.pth (torch, 831513 bytes, 14 tensors)

lstm_encoder.weight_ih_l0 f4 [512, 8]
0.02422166 0.034305673 0.082204394 -0.016591812 0.011723447 -0.062009774 0.008288178 -0.07547231
-0.08262594 -0.044593934 0.0637606 0.05033917 0.021192862 -0.024996316 0.047381647 -0.04418658
0.014301984 0.021804199 0.03126719 0.02292655 -0.025449924 0.051172175 0.015158337 -0.011164362
-0.063116655 -0.008575901 -0.0644677 0.039025236 -0.07975877 0.020318301 0.060836244 0.08144164
-0.010367633 -0.051012214 0.0011103947 0.06460444 -0.029180303 -0.06188734 -0.069097 0.0560885
0.05482414 0.04028645 0.046157796 0.050018582 0.05490359 0.02884647 -0.0057075424 0.06670075
0.013787391 0.036723632 0.06870821 -0.0454872 -0.04364381 0.020700775 0.053813204 0.02903805
0.017242048 0.0047590816 0.048367947 0.0038138574 0.04282059 -0.06534352 0.01004539 -0.07303266
-0.058194812 0.0486669 0.058748893 0.068713255 -0.028811894 0.07125123 -0.022925923 0.015168074
0.016087335 -0.0017935283 -0.079329595 0.077601396 -0.00898995 0.072253674 -0.052848183 0.04866335
0.024567956 0.05294549 -0.076308414 -0.032537527 -0.004447037 0.06480626 0.065684 -0.0501071
0.040015757 0.03654574 0.0025268442 -0.08080241 0.08159456 0.008067406 -0.044792864 0.055257086
0.018714594 0.029686704 -0.0010284564 -0.038178425 -0.031535517 -0.01838137 -0.043294005 0.018599225
0.06779496 -0.039309725 0.0783132 -0.036556978 0.034999162 0.038444463 -0.005028646 -0.021297297
-0.039687566 0.056325138 -0.03145339 -0.030788194 -0.049904376 -0.076363556 0.021430267 -0.031924345
0.07783579 0.017912682 0.04155122 -0.022315089 -0.049331475 -0.048572365 0.06840057 0.07829811
-0.081807464 -0.040502094 0.047660906 0.07720884 0.008848258 -0.06997078 -0.05150594 -0.011336731
-0.0323464 -0.022129595 0.008441708 0.071099155 0.039552853 -0.06747296 -0.0300878 -0.04269741
0.037072457 0.028827468 -0.07093824 -0.019793283 0.005661202 -0.036264595 -0.054899067 0.017851148
-0.0060553383 0.038816158 0.03782528 -0.0285837 0.013324885 0.038986344 -0.07493341 0.0056891907
0.03375272 0.004209401 0.040256787 0.05794947 -0.039178763 -0.014549212 0.05464452 -0.056502935
-0.019558743 0.019281166 -0.05320829 -0.034609962 0.039747 0.057600386 0.03244934 0.050946716
-0.06562752 -0.05752769 0.07967658 -0.009833165 -0.042836204 -0.07168034 -0.04092823 0.075805314
0.07564732 -0.050969914 -0.046655346 0.054094367 0.045598436 0.020424077 -0.032166645 0.011596738
-0.04273513 0.038605522 0.08281433 -0.08223636 -0.029331392 -0.01870801 0.06875467 0.08129295
-0.076346934 0.012293885 -0.033434447 0.06139192 -0.05486148 -0.042947438 0.0354621 0.05495448
-0.029170023 -0.06671328 -0.07287286 -0.06952272 -0.042076457 -0.03710814 -0.011264607 -0.0779702
0.05380641 -0.065522105 0.06409585 0.011534975 0.0857049 -0.030587798 -0.036988012 0.03985863
-0.07956287 -0.05280712 -0.0008422867 -0.063176215 0.075353175 0.07341121 0.064929366 0.06894494
0.007603874 0.048202988 0.08032723 0.041925214 -0.0009978398 0.01881044 0.06296462 -0.022252962
-0.06437428 0.07648333 -0.052365616 -0.0009814961 0.06376069 0.01276109 -0.031553473 -0.029715471
-0.004739053 -0.020930525 -0.045082316 0.07328681 0.037049167 0.076905474 -0.0003190868 -0.06460629
00000000: 816c c63c 1b84 0c3d c75a a83d 8deb 87bc
00000010: b313 403c f6fd 7dbd 23cb 073c 3a91 9abd
00000020: ca37 a9bd 21a8 36bd eb94 823d 7230 4e3d
00000030: a79c ad3c 13c5 ccbc 4213 423d fdfc 34bd
00000040: de52 6a3c b89e b23c 0612 003d 76d0 bb3c
00000050: 5c7c d0bc ea99 513d ac5a 783c baea 36bc
00000060: 4e43 81bd f081 0cbc a407 84bd edd8 1f3d
00000070: 9158 a3bd 9172 a63c 6d2f 793d e0ca a63d
00000080: 01dd 29bc 2ff2 50bd aa8a 913a 554f 843d
00000090: 880b efbc 947d 7dbd ba82 8dbd 0ebd 653d
000000a0: 478f 603d 6803 253d f50f 3d3d 49e0 4c3d
000000b0: 96e2 603d 6f4f ec3c 5606 bbbb 679a 883d
000000c0: 82e4 613c 856b 163d e4b6 8c3d c950 3abd
000000d0: dac3 32bd ac94 a93c 3c6b 5c3d 34e1 ed3c
000000e0: 323f 8d3c 12f2 9b3b 781d 463d e9f1 793b
000000f0: a564 2f3d d3d2 85bd 6b95 243c 2692 95bd
00000100: af5d 6ebd f156 473d aea2 703d 89b9 8c3d
00000110: ec06 ecbc 2aec 913d 25cf bbbc 8383 783c
00000120: 96c9 833c d314 ebba 8e77 a2bd 7bed 9e3d
00000130: 954a 13bc bcf9 933d 5677 58bd 3953 473d
00000140: bd42 c93c 5fdd 583d 9647 9cbd 1246 05bd
00000150: 73b8 91bb 25b9 843d 5585 863d 1a3d 4dbd
00000160: 90e7 233d fcb0 153d 6999 253b bc7b a5bd
00000170: 0c1b a73d 272d 043c b978 37bd 4155 623d
00000180: 594f 993c 8831 f33c 45cd 86ba fb60 1cbd
00000190: 632b 01bd 8794 96bc 0e55 31bd 675d 983c
000001a0: 16d8 8a3d 3c03 21bd ac62 a03d c5bc 15bd
000001b0: 485b 0f3d f177 1d3d 57c7 a4bb ab77 aebc
000001c0: 6e8f 22bd 30b5 663d 45d5 00bd 8637 fcbc
000001d0: 8868 4cbd 7f64 9cbd 878e af3c 1ac3 02bd
000001e0: 5f68 9f3d 9ebd 923c 9d31 2a3d 22ce b6bc
000001f0: cd0f 4abd d1f3 46bd 9915 8c3d c25a a03d
00000200: ac8a a7bd 86e5 25bd 1538 433d ab1f 9e3d
00000210: 49f8 103c d74c 8fbd e4f7 52bd b2bd 39bc
00000220: a97d 04bd 2049 b5bc 174f 0a3c 6f9c 913d
00000230: 2c02 223d 432f 8abd b17a f6bc 7be3 2ebd
00000240: 4ad9 173d 9527 ec3c 1148 91bd 8625 a2bc
00000250: 9b81 b93b 2f8a 14bd d8dd 60bd 923c 923c
00000260: dc6b c6bb b1fd 1e3d aeee 1a3d 5d28 eabc
00000270: 9e50 5a3c 25b0 1f3d b076 99bd 646c ba3b
00000280: 4b40 0a3d 04ef 893b 4de4 243d 6c5c 6d3d
00000290: e979 20bd d15f 6ebc efd2 5f3d 9f6f 67bd
000002a0: a839 a0bc 89f3 9d3c f0f0 59bd 2dc3 0dbd
000002b0: c0cd 223d 62ee 6b3d 99e9 043d 81ad 503d
000002c0: b967 86bd 28a2 6bbd 7a2d a33d 491b 21bc
000002d0: 0475 2fbd 24cd 92bd 5ca4 27bd d13f 9b3d
000002e0: fbec 9a3d d4c5 50bd ad19 3fbd 0e92 5d3d
000002f0: 6dc5 3a3d 6550 a73c 2cc1 03bd 3f00 3e3c
00000300: 080b 2fbd d320 1e3d 8f9a a93d 896b a8bd
00000310: 6348 f0bc 8a41 99bc 40cf 8c3d eb7c a63d
00000320: c85b 9cbd 4b6c 493c 8ff2 08bd 1876 7b3d
00000330: 6eb6 60bd a7e9 2fbd b540 113d f317 613d
00000340: f9f5 eebc f9a0 88bd 5e3e 95bd ee61 8ebd
00000350: 5d58 2cbd b4fe 17bd 308f 38bc d7ae 9fbd
00000360: 1c64 5c3d 7430 86bd af44 833d 31fd 3c3c
00000370: 0d86 af3d 4393 fabc be80 17bd ce42 233d
00000380: dcf1 a2bd 474c 58bd e7cc 5cba 8862 81bd
00000390: c452 9a3d 9e58 963d b0f9 843d 0133 8d3d
000003a0: eb29 f93b 7f70 453d 9a82 a43d c6b9 2b3d
000003b0: f3c9 82ba 5a18 9a3c 98f3 803d d84b b6bc
000003c0: aad6 83bd 4ba3 9c3d 547d 56bd 8ba5 80ba
000003d0: f794 823d e413 513c 373e 01bd dc6d f3bc
000003e0: 0f4a 9bbb 7e76 abbc 3ca8 38bd 6517 963d
000003f0: dec0 173d 9e80 9d3d 1b4b a7b9 4d50 84bd

lstm_encoder.weight_hh_l0 f4 [512, 128]
-0.050894205 -0.015571348 -0.01419874 -0.012729698 -0.043292347 -0.07885629 -0.033341616 0.027387599
-0.056844845 -0.00014558318 0.0007833226 0.013218591 -0.010990011 0.06618975 -0.015366335 0.045268442
-0.0744235 0.06900764 0.006808955 0.05938437 -0.06928196 0.07753946 -0.004438382 0.03654145
0.058457054 0.0073073376 0.070325285 0.016659867 -0.057671696 0.06316702 -0.057872064 0.062309224
0.0057907854 -0.029913988 0.06864891 -0.005746719 -0.027815642 0.070792004 0.013389901 0.037010886
-0.066492945 0.015330384 0.07206155 0.063614056 0.015104192 -0.065245554 0.06672711 -0.048706245
-0.03677287 -0.034687076 -0.051294092 -0.0040512774 0.05690853 0.018563477 -0.022483949 -0.0017006276
-0.016882513 -0.0553305 -0.058761533 -0.019005558 -0.04919881 -0.042859282 0.027481787 -0.07876027
0.058961835 0.057637732 -0.005985059 -0.058984023 -0.05356564 0.010625168 -0.04354707 0.031896982
-0.035520133 0.06805814 0.060639463 -0.006881042 -0.043946166 0.06994287 -0.045179535 0.0305832
-0.017352723 -0.020652162 -0.070571825 -0.083323695 -0.075462855 -0.028284855 0.065644644 0.005317111
-0.033698272 0.048757683 -0.02093891 0.03732589 0.056726854 0.066742204 -0.05917568 -0.027609864
-0.024848111 0.07615843 -0.0020293398 -0.08198425 0.043200664 0.014439472 -0.06834717 -0.012242501
-0.048984207 0.0055629876 0.035102125 0.0067331134 0.02559745 -0.0007909536 -0.0018896279 -0.07788674
0.029119536 0.054380603 0.052725427 0.0726766 0.02301322 0.07534662 0.03958734 -0.06258445
0.05561503 -0.05966299 0.038296767 0.035200536 0.06235219 0.009555988 -0.07526786 0.035670757
-0.006550836 0.073261596 0.038533658 0.05535081 -0.079722 0.038640175 -0.04218497 -0.062338363
-0.066686325 0.04046354 0.06531716 -0.046153903 -0.054511484 -0.075556 0.03162663 0.011405187
0.014886909 0.0015273296 -0.036702063 0.070220545 -0.07444943 0.0024624795 0.009484211 -0.02092785
-0.08289268 0.029005932 0.07816768 0.060721938 0.035199665 -0.05546933 -0.020613827 0.057057492
0.023732422 -0.0164994 0.047422953 -0.012875824 0.07458389 0.014949329 0.051871963 -0.03876083
-0.017913008 -0.04599814 0.06458051 -0.04157627 -0.0491201 0.0270841 0.0058723968 -0.011689152
0.04851001 0.03847285 -0.05156478 -0.041310262 -0.0722634 -0.04269472 0.04323423 -0.047005773
-0.052137084 -0.07169277 0.05087069 0.015684782 -0.0031962895 0.05103101 -0.013081147 0.04626258
0.036266293 0.011148452 -0.059580393 0.047986634 -0.053157657 -0.0774742 -0.05713039 0.054394614
0.017530764 0.061613288 0.07320899 0.071740896 -0.028238814 -0.06475981 0.03435169 0.06224829
0.050202873 0.046188027 -0.068281494 -0.045366343 -0.07436242 -0.04732215 -0.05668824 -0.05117469
-0.06268098 -0.060351253 -0.06224784 -0.07953739 0.030562816 0.03570342 0.026844356 -0.028849958
-0.03664937 2.0320416e-05 -0.0497297 -0.06915515 0.01086571 0.040035386 -0.08167886 -0.06039423
-0.0030589504 0.070533015 -0.0623691 -0.07104563 -0.048567683 -0.0066744587 0.010849869 0.07251803
0.04968255 -0.019040802 -0.05438004 -0.053728234 0.037220877 -0.036694776 0.05420117 0.057995867
-0.053810783 -0.019753119 -0.07345297 -0.045243222 -0.04040547 -0.053487174 -0.0041741463 0.045870934
00000000: 7176 50bd f81e 7fbc d5a1 68bc 3990 50bc
00000010: 5153 31bd 687f a1bd 3891 08bd f55b e03c
00000020: 24d6 68bd b0a7 18b9 e457 4d3a ca92 583c
00000030: 720f 34bc 7e8e 873d 15c3 7bbc 676b 393d
00000040: 596b 98bd e153 8d3d a81d df3b 063d 733d
00000050: b3e3 8dbd 02cd 9e3d d96f 91bb 7dac 153d
00000060: aa70 6f3d 6472 ef3b b406 903d 467a 883c
00000070: 2839 6cbd b65d 813d 420b 6dbd f537 7f3d
00000080: a1c0 bd3b 2e0e f5bc cd97 8c3d f94e bcbb
00000090: a1dd e3bc 66fb 903d 5161 5b3c ba98 173d
000000a0: 742d 88bd 4a2c 7b3c 0295 933d 1648 823d
000000b0: 9377 773c 769f 85bd 39a8 883d 3380 47bd
000000c0: 269f 16bd 0914 0ebd c119 52bd 94c0 84bb
000000d0: eb18 693d 6f12 983c 4230 b8bc 98e7 deba
000000e0: 324d 8abc 3ca2 62bd efaf 70bd 8bb1 9bbc
000000f0: b184 49bd 378d 2fbd 7c21 e13c 104d a1bd
00000100: f781 713d 8b15 6c3d 501e c4bb 3b99 71bd
00000110: a567 5bbd 2f15 2e3c 6a5e 32bd 69a6 023d
00000120: 8f7d 11bd 1162 8b3d 1661 783d 5d7a e1bb
00000130: e500 34bd 353e 8f3d 2d0e 39bd 9e89 fa3c
00000140: 4c27 8ebc b92e a9bc f687 90bd 9da5 aabd
00000150: 458c 9abd a4b5 e7bc b370 863d 293b ae3b
00000160: 3307 0abd 23b6 473d 1488 abbc 08e3 183d
00000170: 6b5a 683d 23b0 883d 3362 72bd 152e e2bc
00000180: 448e cbbc f3f8 9b3d acfe 04bb 5ce7 a7bd
00000190: 2ef3 303d 8993 6c3c 9af9 8bbd c594 48bc
000001a0: aaa3 48bd b949 b63b 3fc7 0f3d 73a1 dc3b
000001b0: beb1 d13c ff57 4fba 64ad f7ba 1583 9fbd
000001c0: 188c ee3c 32be 5e3d 9ef6 573d 78d7 943d
000001d0: 3886 bc3c 544f 9a3d 5626 223d 472c 80bd
000001e0: 96cc 633d 2e61 74bd 12dd 1c3d 702e 103d
000001f0: 0365 7f3d b890 1c3c 0926 9abd 801b 123d
00000200: 65a8 d6bb 2d0a 963d 78d5 1d3d 88b7 623d
00000210: 4a45 a3bd 2945 1e3d 26ca 2cbd 8356 7fbd
00000220: d792 88bd 19bd 253d 01c5 853d e00b 3dbd
00000230: 6f47 5fbd 1bbd 9abd ed8a 013d d2dc 3a3c
00000240: 39e8 733c ad30 c83a e754 16bd cacf 8f3d
00000250: f178 98bd 8d61 213b aa63 1b3c e270 abbc
00000260: a3c3 a9bd d99d ed3c 6016 a03d 91b7 783d
00000270: 862d 103d cf33 63bd 54de a8bc 1eb5 693d
00000280: 7f6a c23c c029 87bc 923e 423d 1ff5 52bc
00000290: 70bf 983d 08ee 743c b277 543d adc3 1ebd
000002a0: 4dbe 92bc 8c68 3cbd c942 843d e14b 2abd
000002b0: 2832 49bd 79df dd3c 3c6d c03b db83 3fbc
000002c0: 6fb2 463d b595 1d3d 9735 53bd f334 29bd
000002d0: d5fe 93bd a9e0 2ebd 6016 313d 2089 40bd
000002e0: b28d 55bd a9d3 92bd c95d 503d 5f7d 803c
000002f0: d778 51bb e405 513d 4f52 56bc d57d 3d3d
00000300: f78b 143d ffa7 363c 920a 74bd a28d 443d
00000310: d8bb 59bd cbaa 9ebd 8e01 6abd e3cc 5e3d
00000320: ad9c 8f3c 375e 7c3d 98ee 953d e4ec 923d
00000330: 1655 e7bc cba0 84bd 5cb4 0c3d 10f8 7e3d
00000340: 87a1 4d3d a82f 3d3d 2bd7 8bbd 0fd2 39bd
00000350: 534b 98bd dfd4 41bd ee31 68bd 8d9c 51bd
00000360: e35e 80bd e032 77bd 97f7 7ebd 80e4 a2bd
00000370: df5e fa3c c03d 123d b2e8 db3c bf56 ecbc
00000380: a61d 16bd c375 aa37 5fb1 4bbd 37a1 8dbd
00000390: 1706 323c 25fc 233d 3f47 a7bd f15f 77bd
000003a0: ac78 48bb 9d73 903d be76 7fbd 5f80 91bd
000003b0: e8ee 46bd 6bb5 dabb a6c3 313c 5584 943d
000003c0: ee7f 4b3d 75fb 9bbc 9bbd 5ebd 2312 5cbd
000003d0: eb74 183d 434d 16bd 0c02 5e3d 138d 6d3d
000003e0: b268 5cbd 4bd1 a1bc 836e 96bd f550 39bd
000003f0: 3580 25bd 5e15 5bbd 47c7 88bb 29e3 3b3d

lstm_encoder.bias_ih_l0 f4 [512]
-0.013401994 -0.03073403 -0.038029388 0.009820323 -0.03584902 0.028466232 0.06411525 0.04430973
-0.08363929 0.02188183 -0.02543598 0.049618777 -0.028703302 0.034800332 0.0802096 -0.0017511807
0.00708968 -0.038723696 -0.0053202845 -0.07370233 -7.6378135e-05 -0.067328155 -0.027906885 0.011394334
0.0052929684 0.07910424 0.012092848 -0.050840393 0.014021305 0.056287203 0.035193197 -0.030632516
0.027081972 0.016292775 -0.024019536 -0.024465023 0.03892907 0.043229453 -0.0776893 -0.022506867
-0.039253056 -0.06545151 0.04243711 0.03900256 0.05983868 0.014567683 -0.005176913 0.071728
0.03420158 0.054866996 0.05451061 0.08420286 -0.047949582 0.007315661 -0.06118566 -0.02882382
-0.024505405 0.030119639 0.08175323 -0.026548086 0.026761852 0.07424016 0.03237076 0.062147338
-0.07964254 -0.08191131 0.016344221 -0.077803865 -0.0011825605 0.06759144 -0.0044504274 -0.0056783604
-0.023860587 -0.047793016 0.057333115 -0.03595562 0.048856527 -0.007803929 0.024629658 -0.06581106
-0.03481169 0.023801548 -0.04054095 -0.061476175 -0.07770557 -0.03294104 -0.0072641363 0.015437817
-0.081299916 -0.027368221 -0.029216507 -0.0068252548 -0.050056696 -0.04333848 -0.07574841 0.06960795
-0.034696225 0.0792002 -0.015562613 0.029292576 0.042199932 0.03227512 -0.026828699 0.052527357
0.025384437 -0.02063231 0.034063235 -0.0209703 -0.006804362 -0.031618092 -0.04510998 -0.020598
-0.021257052 -0.05978668 0.002943536 0.008450496 -0.01685163 0.03834386 -0.04635844 -0.028549941
0.010852119 -0.06680287 -0.010563314 -0.044418346 -0.066015586 -0.027777888 0.05113944 0.06521966
0.046066705 0.039061 -0.018927198 0.031148199 -0.068292126 0.056170516 0.04302886 0.08663644
0.0054337066 -0.0110981 0.004331228 0.0077253035 -0.038164254 -0.061720364 0.026391322 0.06759347
0.040296983 -0.062336884 -0.057685565 0.013095547 -0.010372506 -0.07423808 -0.07212224 0.036819857
0.062328175 0.002200569 0.050058786 0.052447584 -0.052098613 -0.023361228 0.080219366 -0.049166128
-0.053062953 0.07412573 -0.051464245 0.07882603 -0.030499501 -0.025052547 0.07844275 0.036122974
-0.009163846 -0.0005422596 0.02066908 0.05427458 -0.077602856 -0.013443131 0.05422125 0.059162583
0.073867746 -0.012210505 -0.0022244696 -0.043647397 -0.028215596 -0.0045825983 0.0016860706 0.058047887
-0.083168216 -0.026925283 0.03318977 -0.0028331392 -0.06564047 0.010013032 -0.047806416 -0.029450236
0.049489822 0.02656885 -0.042856917 -0.020018272 0.051055536 -0.04773894 -0.07426919 0.029079273
0.052260116 -0.02014729 0.015801383 -0.06475467 0.07620876 0.08085525 -0.061738238 0.03441479
-0.078450866 -0.0030249339 -0.0072989124 -0.05301431 0.075245194 0.023981266 -0.082423955 0.07976617
0.07031587 0.016492613 -0.058542926 0.05359908 0.027537087 0.001786835 -0.07679242 0.017468238
0.04053776 0.013695979 -0.05631657 0.01968974 -0.04987468 -0.046484455 -0.0728615 -0.037870884
0.027475722 0.02459545 0.0018158875 -0.037531916 0.080542445 0.058101766 -0.07438234 0.060336653
0.07932951 0.08199608 -0.03412749 -0.06009291 0.068198286 0.014552786 -0.077391624 -0.062154997
-0.008281727 -0.014954517 0.045900766 -0.00572454 -0.002397696 0.07343458 -0.057704017 -0.043079898
00000000: 0994 5bbc efc5 fbbc b4c4 1bbd 6ce5 203c
00000010: 6cd6 12bd 0432 e93c db4e 833d 1f7e 353d
00000020: 134b abbd 8641 b33c 1e5f d0bc 0f3d 4b3d
00000030: 3023 ebbc cb8a 0e3d ee44 a43d e087 e5ba
00000040: 8c50 e83b bd9c 1ebd c855 aebb 3ff1 96bd
00000050: 332d a0b8 58e3 89bd fb9c e4bc 4daf 3a3c
00000060: a370 ad3b 6701 a23d 1521 463c 043e 50bd
00000070: 9eb9 653c 698d 663d be26 103d 0bf1 fabc
00000080: 03db dd3c 6d78 853c 9ec4 c4bc df6a c8bc
00000090: 1774 1f3d 5e11 313d 911b 9fbd 5260 b8bc
000000a0: d0c7 20bd 710b 86bd 89d2 2d3d 26c1 1f3d
000000b0: 6719 753d 4bad 6e3c 18a3 a9bb 21e6 923d
000000c0: f516 0c3d 37bc 603d 8446 5f3d 8d72 ac3d
000000d0: c866 44bd 36b8 ef3b d19d 7abd ef1f ecbc
000000e0: 8fbf c8bc 76bd f63c 3d6e a73d 5f7b d9bc
000000f0: ac3b db3c 3a0b 983d 3497 043d 358e 7e3d
00000100: a11b a3bd 1ec1 a7bd 51e4 853c a257 9fbd
00000110: 2500 9bba 626d 8a3d e4d4 91bb 8a11 babb
00000120: 4777 c3bc 9cc2 43bd 21d6 6a3d 3346 13bd
00000130: c81d 483d 1ab8 ffbb 23c4 c93c f3c7 86bd
00000140: b496 0ebd 77fb c23c 440e 26bd 71ce 7bbd
00000150: 1924 9fbd 2fed 06bd fe07 eebb e6ee 7c3c
00000160: 9280 a6bd 5233 e0bc 7557 efbc 63a6 dfbb
00000170: 4008 4dbd b183 31bd fb21 9bbd 9d8e 8e3d
00000180: a11d 0ebd b733 a23d 54fa 7ebc fcf6 ef3c
00000190: d6d9 2c3d eb32 043d dcc7 dbbc ed26 573d
000001a0: 06f3 cf3c 1705 a9bc e485 0b3d e8c9 abbc
000001b0: 20f7 debb f981 01bd 3ec5 38bd 23bd a8bc
000001c0: 4523 aebc e1e2 74bd 57e8 403b f373 0a3c
000001d0: 6e0c 8abc 740e 1d3d 59e2 3dbd 91e1 e9bc
000001e0: 16cd 313c f1cf 88bd c011 2dbc 03f0 35bd
000001f0: 2e33 87bd 748e e3bc 9777 513d e391 853d
00000200: 71b0 3c3d 6dfe 1f3d 360d 9bbc 822a ff3c
00000210: bedc 8bbd 0e13 663d 083f 303d 726e b13d
00000220: 3c0d b23b ced4 35bc f9ec 8d3b 8b24 fd3b
00000230: 1f52 1cbd 7ece 7cbd 9d32 d83c 726e 8a3d
00000240: 730e 253d f654 7fbd b347 6cbd b58e 563c
00000250: 72f1 29bc 220a 98bd d3b4 93bd 6bd0 163d
00000260: d44b 7f3d 6c37 103b 710a 4d3d 47d3 563d
00000270: 5b65 55bd 0c60 bfbc 0d4a a43d 6c62 49bd
00000280: 8a58 59bd 3bcf 973d 2ccc 52bd 8b6f a13d
00000290: 17da f9bc 003b cdbc 98a6 a03d aff5 133d
000002a0: f523 16bc 6d26 0eba 3452 a93c 064f 5e3d
000002b0: 3fee 9ebd 9440 5cbc 1a17 5e3d 7754 723d
000002c0: f947 973d 920e 48bc 68c8 11bb 9dc7 32bd
000002d0: 6524 e7bc 9f29 96bb 24ff dc3a 9fc3 6d3d
000002e0: 1954 aabd 6992 dcbc fff1 073d 30ac 39bb
000002f0: 836e 86bd b30d 243c a9d0 43bd 9f41 f1bc
00000300: d7b5 4a3d eba6 d93c bc8a 2fbd 5cfd a3bc
00000310: 9c1f 513d e889 43bd 721a 98bd a837 ee3c
00000320: b40e 563d ee0b a5bc e771 813c 199e 84bd
00000330: 5713 9c3d 7097 a53d 3ce1 7cbd 86f6 0c3d
00000340: d9aa a0bd f83d 46bb b72b efbb 8825 59bd
00000350: 271a 9a3d 5c74 c43c e4cd a8bd 725c a33d
00000360: c401 903d 841b 873c b5ca 6fbd b58a 5b3d
00000370: 7595 e13c 3c34 ea3a 5845 9dbd 8d19 8f3c
00000380: ec0a 263d 1965 603c 34ac 66bd 614c a13c
00000390: 6449 4cbd 7c66 3ebd 6938 95bd 801e 1bbd
000003a0: c414 e13c 667c c93c 1303 ee3a 11bb 19bd
000003b0: 70f3 a43d 1efc 6d3d c555 98bd 9123 773d
000003c0: 8377 a23d 90ed a73d 44c9 0bbd fc23 76bd
000003d0: 8bab 8b3d cf6e 6e3c 807f 9ebd 3d96 7ebd
000003e0: 15b0 07bc ca03 75bc 7102 3c3d ec94 bbbb
000003f0: aa22 1dbb de64 963d 0c5b 6cbd 8c74 30bd

lstm_encoder.bias_hh_l0 f4 [512]
-0.036861587 0.004150628 0.042903583 0.025532408 -0.00986233 0.06535287 -0.017782975 0.043420784
-0.081245236 0.028764676 -0.06319243 0.013179926 0.018542249 0.026629463 -0.045947295 0.07090835
0.07043576 -0.07686196 0.0048690382 -0.06341389 0.0073527894 -0.051053524 -0.056766883 -0.029176997
-0.011624089 0.029066825 -0.0075039044 0.07160317 -0.0038370334 0.06603086 -0.059695996 0.0796461
0.030563101 -0.04936748 0.01207372 -0.0017053745 0.02295389 -0.046795946 -0.058970213 0.02335003
-0.07725051 -0.029992824 0.008555619 0.014105157 -0.05138316 0.07984714 -0.053825397 0.040446
-0.02259204 0.045960937 0.0432806 0.028405774 -0.010669933 0.01675264 0.02407396 0.042674188
-0.07933877 0.05907159 -0.0076911184 -0.015189181 -0.07536209 0.018894844 0.06640923 0.03158818
-0.045658138 0.047818746 0.051572334 -0.080219395 0.0070544565 0.015976965 0.0236145 -0.036311787
-0.02289681 -0.04316418 0.03597057 -0.054927513 -0.00087602093 0.000262554 0.023390137 0.067417234
-0.05777649 -0.055832956 0.07007825 0.03404956 -0.025897982 -0.040623628 -0.06458891 -0.07474832
0.06439833 0.013302217 -0.07991058 0.014500244 -0.02620996 0.04388363 0.02967703 -0.033076458
0.06134815 0.028084144 0.07028068 -0.05894634 0.030173024 -0.03763888 -0.0053594494 0.048445273
0.021966018 -0.019129515 0.058062185 -0.022868145 0.0071743918 0.06367573 0.0060650436 0.042193748
-0.06472831 0.07515379 -0.039930042 -0.058335394 -0.0500883 -0.040100858 0.04336457 -0.066444315
0.06747917 -0.047515545 -0.05127157 -0.07424762 0.028871067 0.0394478 -0.01042192 -0.015891459
-0.022898767 -0.0403882 -0.051029727 -0.06404334 -0.00027720974 -0.016879864 0.059176944 0.021855673
0.008554095 0.006371831 0.06994069 -0.03301832 -0.0496736 -0.016653957 -0.024182076 -0.05328678
0.030947108 0.06890912 -0.060476135 -0.026056705 0.03127188 0.044158183 0.025095005 0.051144894
-0.064686276 -0.025002332 -0.0065384367 -0.05925952 0.041838188 -0.05190784 -0.04238361 0.0130047165
-0.050913114 0.0019476572 0.06524118 0.0653886 -0.064443566 0.046212655 -0.06846082 0.07799138
-0.015344891 -0.050420396 0.020505834 0.00617022 0.043987945 0.079917565 -0.02784254 0.03664737
0.032465003 -0.052540462 -0.021789573 -0.039588235 -0.025478294 -0.063485935 -0.012530219 -0.058824636
-0.012702231 0.021879492 0.05024418 0.05284543 -0.022619415 0.054051995 -0.071095325 0.08358784
-0.048910704 0.007073862 -0.0053488733 0.039536443 0.07660925 0.06128266 0.08571271 -0.023355197
-0.008230407 0.06441458 -0.056630623 0.02451724 -0.02556109 -0.032188285 0.037387904 0.037098546
-0.01304235 0.055195484 0.033209134 0.05386866 -0.0071422127 -0.039296392 0.049364526 -0.079237744
-0.049122136 -0.04200278 -0.0062637944 -0.023544796 0.04177116 0.011374021 0.08303415 0.026826495
0.039447695 -0.019310124 -0.019007303 0.05001296 0.029735226 0.03373749 -0.0020008162 0.050201606
0.026973637 -0.06264364 0.07580971 0.0022535617 -0.0039763646 0.018543184 -0.012110884 -0.03492112
0.06733677 0.034244914 -0.02406219 -0.035828106 0.077699676 -0.07088124 -0.041282732 -0.02177267
-0.033898074 -0.051278166 0.05368876 -0.030180817 0.07359089 0.008722046 -0.055902056 0.027356902
00000000: 2dfc 16bd fe01 883b abbb 2f3d 5729 d13c
00000010: 9c95 21bc bad7 853d 9aad 91bc fed9 313d
00000020: e763 a6bd e6a3 eb3c 086b 81bd 9ef0 573c
00000030: eae5 973c 0826 da3c 3b33 3cbd 6638 913d
00000040: a040 903d ce69 9dbd 748c 9f3b 24df 81bd
00000050: abef f03b 801d 51bd 6484 68bd 9904 efbc
00000060: f772 3ebc 8d1d ee3c 50e3 f5bb afa4 923d
00000070: bd76 7bbb 303b 873d ca83 74bd 7f1d a33d
00000080: 785f fa3c 8e35 4abd dad0 453c df86 dfba
00000090: cc09 bc3c 1bad 3fbd c08a 71bd 9048 bf3c
000000a0: 8435 9ebd 83b3 f5bc de2c 0c3c 5119 673c
000000b0: 2677 52bd e686 a33d 0578 5cbd b4aa 253d
000000c0: f112 b9bc 8941 3c3d 0047 313d 3ab3 e83c
000000d0: f1d0 2ebc d53c 893c c136 c53c 21cb 2e3d
000000e0: 5d7c a2bd 0df5 713d c705 fcbb 0bdc 78bc
000000f0: 7057 9abd 5cc9 9a3c 9001 883d 9c62 013d
00000100: 0704 3bbd 97dd 433d 833d 533d 114a a4bd
00000110: 1229 e73b 20e2 823c 3273 c13c abbb 14bd
00000120: 1792 bbbc eccc 30bd e055 133d acfb 60bd
00000130: c5a4 65ba 67a7 8939 ac9c bf3c 0c12 8a3d
00000140: 0aa7 6cbd 19b1 64bd 2f85 8f3d 8d77 0b3d
00000150: 0128 d4bc f664 26bd 3147 84bd a615 99bd
00000160: 46e3 833d 8bf1 593c 28a8 a3bd 6e92 6d3c
00000170: 45b6 d6bc 52bf 333d 3e1d f33c 2e7b 07bd
00000180: 3348 7b3d b810 e63c 51ef 8f3d b871 71bd
00000190: 6b2d f73c 3a2b 1abd 529e afbb 8d6e 463d
000001a0: 14f2 b33c 80b5 9cbc 9dd2 6d3d fa55 bbbc
000001b0: 2917 eb3b 6c68 823d 46bd c63b 5ad3 2c3d
000001c0: 4790 84bd 3bea 993d af8d 23bd 18f1 6ebd
000001d0: 6429 4dbd cc40 24bd 0c9f 313d f513 88bd
000001e0: 8532 8a3d a99f 42bd 2302 52bd 230f 98bd
000001f0: 0483 ec3c 0494 213d b3c0 2abc ce2e 82bc
00000200: 3296 bbbc 196e 25bd 8c04 51bd 2829 83bd
00000210: 7656 91b9 a447 8abc 8663 723d ab0a b33c
00000220: 7a26 0c3c cbca d03b 113d 8f3d 383e 07bd
00000230: 8b76 4bbd e16d 88bc 7d19 c6bc 3d43 5abd
00000240: ca84 fd3c 3a20 8d3d d3b5 77bd df74 d5bc
00000250: f116 003d 36df 343d 0a94 cd3c 4f7d 513d
00000260: 3d7a 84bd b1d1 ccbc 6240 d6bb 1cba 72bd
00000270: 855e 2b3d 519d 54bd 709a 2dbd bc11 553c
00000280: 458a 50bd 8848 ff3a 2b9d 853d 75ea 853d
00000290: fdfa 83bd 7b49 3d3d 3035 8cbd f2b9 9f3d
000002a0: 2369 7bbc 9e85 4ebd dafb a73c 8f2f ca3b
000002b0: b42c 343d d2ab a33d 0a16 e4bc 8d1b 163d
000002c0: 06fa 043d ab34 57bd 0c80 b2bc 4627 22bd
000002d0: dbb7 d0bc ea04 82bd 8c4b 4dbc 1af2 70bd
000002e0: 051d 50bc 9f3c b33c d7cc 4d3d 7374 583d
000002f0: 5a4c b9bc a065 5d3d 6d9a 91bd 1a30 ab3d
00000300: 9756 48bd dbcb e73b 9a45 afbb f7f0 213d
00000310: 4fe5 9c3d 8703 7b3d 258a af3d 6653 bfbc
00000320: d4d8 06bc cbeb 833d 83f5 67bd 61d8 c83c
00000330: 7e65 d1bc ddd7 03bd 0f24 193d a5f4 173d
00000340: 95af 55bc a914 623d 4d06 083d 62a5 5c3d
00000350: 3909 eabb 41f5 20bd 7532 4a3d 6647 a2bd
00000360: 4b34 49bd 1b0b 2cbd 8440 cdbb 04e1 c0bc
00000370: 3c18 2b3d 1a5a 3a3c cf0d aa3d 3dc3 db3c
00000380: e893 213d 4430 9ebc 34b5 9bbc 64da 4c3d
00000390: 4a97 f33c 5330 0a3d 2020 03bb 33a0 4d3d
000003a0: d1f7 dc3c 4f4b 80bd 1f42 9b3d 7eb0 133b
000003b0: 2a4c 82bb e0e7 973c bb6c 46bc 7309 0fbd
000003c0: dce7 893d 6544 0c3d 121e c5bc 7ec0 12bd
000003d0: 0221 9f3d 2f2a 91bd 1518 29bd 995c b2bc
000003e0: b5d8 0abd 0e09 52bd bfe8 5b3d c33d f7bc
000003f0: d2b6 963d eae6 0e3c 8ef9 64bd 951b e03c

lstm_decoder.weight_ih_l0 f4 [512, 6]
-0.07815057 -0.077117905 0.1289727 -0.054241747 0.0043087197 0.040275585 0.011625047 0.00027929043
-0.044582207 -0.0068601356 0.018673511 0.07193553 -0.03918142 -0.06961077 0.013268192 -0.07732947
-0.08585789 -0.06694846 -0.060170215 0.037385713 -0.028593915 -0.06257852 -0.03226969 -0.029692778
-0.06471041 0.044271134 -0.06969759 -0.07727276 -0.016322354 0.008817622 -0.0481734 0.047891576
0.0022989374 0.057314325 0.006585026 -0.017528744 -0.07857432 -0.073388234 -0.007542909 0.017177142
0.016115777 0.067407705 0.11394984 0.067836426 0.046878144 0.0032012905 -0.014123385 -0.075599454
-0.06385893 0.079512134 0.01418974 0.01807989 -0.03972575 0.049094073 -0.15741491 -0.023139555
0.011228484 -0.03783398 -0.0008129114 0.0006131019 -0.041448705 0.032473724 0.04664401 -0.03106429
-0.097827956 -0.008570007 -0.023541093 0.03227713 -0.047659438 -0.0074660014 0.0062135546 -0.05848347
-0.1386856 0.030261032 0.031893738 -0.017258985 -0.0013121233 -0.14124984 0.058093257 -0.013222463
-0.06631524 0.0055559473 0.009468385 0.0039727194 -0.0076544383 -0.051623747 0.032078095 -0.097954676
0.0029585706 0.009680729 -0.08130205 -0.07076642 0.06540637 0.07190894 -0.064584985 -0.09509866
-0.008841317 0.03148793 0.010056447 -0.05277122 -0.016660297 -0.045004934 0.08133897 0.091678
-0.05162304 -0.07657805 -0.061493095 0.054313302 -0.05827476 -0.031275783 -0.07203914 0.010549519
0.0017013839 -0.07221554 -0.055239495 0.062044587 0.00043684972 -0.071636975 -0.03381109 -0.067378335
-0.0036221705 -0.07488238 0.05697364 0.009634476 0.10404839 -0.09616896 -0.055347063 0.036462795
-0.03921801 -0.033798967 0.09094432 -0.069231965 -0.018575097 0.041756865 0.09502771 -0.0098039275
-0.07375295 0.041054156 -0.29895586 -0.053978894 0.0043933196 0.187759 0.2107531 0.05821294
0.105247304 -0.023464225 -0.071496226 -0.0795753 -0.030987699 0.11909838 -0.12305185 -0.09807191
0.0754062 -0.08714709 0.0070664175 -0.016495585 0.070441425 -0.056378037 0.06875175 -0.053990055
-0.015720727 0.009904308 0.037044138 0.041461132 -0.08579873 0.043279067 -0.07589791 -0.042246245
3.9053684e-05 0.031283136 -0.013149554 0.029077215 -0.034574024 0.014646173 0.050131425 0.04154049
0.03929906 -0.069762595 -0.031635176 0.034987647 -0.042435393 -0.06445583 -0.047635473 0.0032173353
0.0069259685 -0.009350721 -0.023001011 0.040410515 0.03305956 -0.051631264 -0.07398069 -0.0389865
0.037836142 -0.061504617 0.01669367 -0.03756127 -0.10495903 0.07792405 0.10317289 -0.06831547
0.0060745715 -0.07560651 -0.11945658 -0.0801246 0.060026966 -0.07398043 -0.022999706 -0.046798535
0.01615754 -0.07366002 0.0014436792 0.08647723 0.10674343 -0.04323455 0.0019133625 -0.09686833
-0.053288765 -0.001927178 0.061928578 -0.07172972 -0.09219763 -0.024281552 -0.052797783 0.062211372
-0.049252026 -0.044952277 0.072176136 0.03974496 -0.01846556 -0.049664464 0.047308255 0.03682425
0.041518483 0.023593169 -0.02955306 -0.012346615 0.049244497 0.023998046 0.0031605833 -0.044402268
0.032233763 -0.056817327 -0.024805706 0.047815934 0.012656592 0.04232485 -0.064833805 -0.035005134
-0.06687164 -0.03738591 0.017333413 0.049870912 -0.1570808 0.07283665 -0.024759717 -0.016070213
00000000: 680d a0bd feef 9dbd 6b11 043e 982c 5ebd
00000010: 2930 8d3b 03f8 243d fb76 3e3c ba6d 9239
00000020: d59b 36bd fdca e0bb 31f9 983c ef52 933d
00000030: b27c 20bd 1790 8ebd d562 593c ea5e 9ebd
00000040: 43d6 afbd 461c 89bd 0b75 76bd c321 193d
00000050: c93d eabc 2b29 80bd 392d 04bd 453e f3bc
00000060: e486 84bd a655 353d 9cbd 8ebd 2e41 9ebd
00000070: 75b6 85bc ca77 103c 7951 45bd f529 443d
00000080: c5a9 163b 6dc2 6a3d 34c7 d73b 7198 8fbc
00000090: 93eb a0bd 924c 96bd 822a f7bb 14b7 8c3c
000000a0: 3c05 843c 0d0d 8a3d 895e e93d d3ed 8a3d
000000b0: 4c03 403d becc 513b c565 67bc e3d3 9abd
000000c0: 78c8 82bd 42d7 a23d 157c 683c 471c 943c
000000d0: 78b7 22bd de16 493d 6031 21be 2a8f bdbc
000000e0: adf7 373c cef7 1abd 9019 55ba 92b8 203a
000000f0: 1ec6 29bd 2b03 053d ca0d 3f3d 8a7a febc
00000100: 065a c8bd 3769 0cbc 40d9 c0bc 0635 043d
00000110: 8b36 43bd 5ca5 f4bb 139b cb3b 5d8c 6fbd
00000120: 9903 0ebe fce5 f73c 02a3 023d b762 8dbc
00000130: 8dfb abba cca3 10be 32f3 6d3d 08a3 58bc
00000140: 49d0 87bd aa0e b63b 4921 1b3c 962d 823b
00000150: 15d2 fabb 6c73 53bd 5264 033d 769c c8bd
00000160: 94e4 413b ec9b 1e3c b081 a6bd fced 90bd
00000170: c6f3 853d ff44 933d 2245 84bd 16c3 c2bd
00000180: 2cdb 10bc 7df9 003d ccc3 243c a326 58bd
00000190: 2d7b 88bc 1857 38bd 0c95 a63d adc1 bb3d
000001a0: ae72 53bd f4d4 9cbd 2fe0 7bbd a077 5e3d
000001b0: 84b1 6ebd 091b 00bd 4289 93bd e4d7 2c3c
000001c0: f800 df3a bee5 93bd cf42 62bd 7722 7e3d
000001d0: fa08 e539 68b6 92bd 7f7d 0abd a7fd 89bd
000001e0: f061 6dbb ef5b 99bd 315d 693d ecd9 1d3c
000001f0: 5317 d53d 3bf4 c4bd 9ab3 62bd 035a 153d
00000200: 10a3 20bd c970 0abd 0441 ba3d 7dc9 8dbd
00000210: cd2a 98bc 3f09 2b3d e39d c23d a7a0 20bc
00000220: c90b 97bd 6728 283d be10 99be f918 5dbd
00000230: d6f5 8f3b e543 403e a9cf 573e b170 6e3d
00000240: e68b d73d 0c38 c0bc 9d6c 92bd 60f8 a2bd
00000250: ead9 fdbc dae9 f33d 9c02 fcbd edd9 c8bd
00000260: 916e 9a3d 2c7a b2bd 688d e73b c021 87bc
00000270: 9843 903d a8ec 66bd b8cd 8c3d ad24 5dbd
00000280: c1c8 80bc ae45 223c 98bb 173d 26d3 293d
00000290: 3fb7 afbd 6445 313d 5d70 9bbd 660a 2dbd
000002a0: 93cd 2338 bf22 003d 3a71 57bc 5733 ee3c
000002b0: 7e9d 0dbd 81f6 6f3c 9c56 4d3d 5c26 2a3d
000002c0: 0df8 203d b1df 8ebd e393 01bd 354f 0f3d
000002d0: bcd0 2dbd 6b01 84bd 6a1d 43bd eed9 523b
000002e0: 3cf3 e23b c433 19bc 9e6c bcbc 7f85 253d
000002f0: 7669 073d 4e7b 53bd 3083 97bd 4fb0 1fbd
00000300: 12fa 1a3d 44ec 7bbd 2ac1 883c d9d9 19bd
00000310: c3f4 d6bd a596 9f3d 4f4c d33d fbe8 8bbd
00000320: 330d c73b 96d7 9abd a7a5 f4bd 5e18 a4bd
00000330: d6de 753d 0d83 97bd e169 bcbc d2af 3fbd
00000340: d15c 843c 11db 96bd d639 bd3a f91a b13d
00000350: 4d9c da3d b616 31bd cbc9 fa3a e762 c6bd
00000360: 5245 5abd 5d99 fcba d2a8 7d3d 08e7 92bd
00000370: 1cd2 bcbd 1bea c6bc 7d42 58bd 5ad1 7e3d
00000380: 7ebc 49bd e11f 38bd 15d1 933d 9ccb 223d
00000390: 1645 97bc f76c 4bbd 4dc6 413d 06d5 163d
000003a0: 490f 2a3d 7646 c13c 4219 f2bc 7549 4abc
000003b0: 99b4 493d 8d97 c43c ca21 4f3b 27df 35bd
000003c0: 8d07 043d 49b9 68bd 5635 cbbc a4da 433d
000003d0: 985d 4f3c d25c 2d3d 96c7 84bd 8b61 0fbd
000003e0: 00f4 88bd f821 19bd cdfe 8d3c 7145 4c3d
000003f0: cad9 20be 622b 953d e4d4 cabc aea5 83bc

lstm_decoder.weight_hh_l0 f4 [512, 128]
0.06816733 -0.0413636 -0.011279495 -0.061288107 -0.037826866 0.0056960355 0.040034257 0.065946534
0.055857092 0.027751654 -0.025391504 0.0338037 0.039310787 -0.07092767 0.012969273 -0.02047572
-0.013496374 -0.029515758 0.07458411 -0.026383985 -0.05399826 -0.06097141 -0.04336658 0.0074827787
-0.052810542 0.06317238 0.042099513 0.025545297 -0.029212164 -0.010436198 -0.028006066 0.051060412
0.017867956 0.048981532 0.024006782 -0.0110435095 -0.08218825 0.025935449 -0.052775558 0.0374721
0.051378995 0.0763674 -0.06811974 0.06438659 0.032781295 -0.031033032 -0.01309257 0.018826218
-0.07596521 0.03397216 -0.052149925 0.003846561 -0.0027972113 -0.0584277 0.04897884 -0.026524348
-0.0754705 -0.00026347593 -0.038945958 0.034684405 0.061803266 -0.024924153 0.005249313 -0.037400812
0.03972372 0.03672168 -0.025128601 -0.04654871 -0.035452534 -0.020352261 -0.023464922 0.041855965
0.061135378 -0.07210853 -0.07123157 0.05243755 0.053234722 -0.062150564 0.032841314 0.022632854
0.017553326 -0.0120951785 0.04322051 -0.08670293 0.07425164 -0.07080873 -0.023376511 0.037559018
-0.014065947 -0.070991434 -0.014982488 0.010088616 -0.06962439 0.07117406 -0.006926916 0.07325495
-0.07500268 0.07716978 0.04436353 0.061326943 0.059854604 -0.08049676 0.023807386 -0.011054737
-0.05456987 -0.024957703 -0.0011473454 -0.020996002 0.06623235 0.070655234 -0.08396422 0.04077691
-0.0040401025 0.057792295 0.04879666 -0.011461292 0.087291874 0.009669984 0.060172465 -0.07339231
-0.022267457 -0.06498478 0.044788856 0.016581925 -0.057535063 -0.050136995 -0.0732886 -0.016887132
0.026667265 0.077828795 0.03281818 0.060603943 0.08414423 -0.07790163 0.019025788 -0.02589014
-0.0795396 -0.0692079 -0.07635053 0.05658323 -0.07024657 0.034574777 0.060538404 -0.0029088585
0.04956624 0.010252693 0.03492015 0.070590705 -0.03392883 0.0056471843 -0.0065527903 0.04508875
-0.044226374 0.062309798 0.071346745 -0.04949574 0.0050709345 0.06764859 0.0446249 -0.042949826
-0.047815613 0.07570581 0.076134995 -0.031933635 0.015693 -0.03560822 0.033160087 -0.03975487
-0.05506675 0.07369117 0.0055204853 0.022496564 -0.0055971066 -0.020958276 0.033548437 -0.0049505928
0.076263435 0.020684533 0.047960036 0.051531214 -0.005776234 -0.048730433 0.02751557 0.058080807
-0.080737144 -0.04001532 0.071620725 -0.05656312 0.023489151 -0.008703245 0.006901198 -0.02141332
-0.053528994 -0.07656097 0.030252276 -0.0698623 -0.048294738 -0.010948075 0.0032319145 -0.036057025
-0.0019425291 0.019811697 -0.04130439 0.041435033 -0.0485104 0.08092629 -0.055837993 -0.08528102
-0.007109459 -0.019856317 0.053614624 -0.034737796 -0.00398252 0.016830634 0.019643145 -0.08123722
-0.026472146 -0.049602933 -0.08314588 0.07174199 -0.0654957 0.011837237 0.023570707 -0.032189682
0.02480585 0.0685402 -0.03147906 -0.04078736 -0.049100276 -0.042536147 -0.042939395 0.0053172447
-0.078667626 -0.06577484 0.06538591 0.0514721 0.037221856 0.03521191 0.079580046 0.037095834
0.081129014 -0.05691562 0.06944512 0.06340456 0.013012453 -0.019432547 -0.022492329 -8.287296e-05
-0.00036207866 -0.08295612 -0.0043148757 0.085610405 -0.07051916 -0.028480895 0.040540215 0.023317438
00000000: 509b 8b3d e16c 29bd a2cd 38bc 3d09 7bbd
00000010: 58f0 1abd cfa5 ba3b f6fa 233d fa0e 873d
00000020: 68ca 643d 7057 e33c d801 d0bc c075 0a3d
00000030: 5904 213d 8742 91bd 137d 543c b2bc a7bc
00000040: e51f 5dbc 08cb f1bc 8ebf 983d 3a23 d8bc
00000050: 482d 5dbd 28bd 79bd 28a1 31bd 1932 f53b
00000060: de4f 58bd 8560 813d 8a70 2c3d 5f44 d13c
00000070: 594e efbc 96fc 2abc fa6c e5bc b924 513d
00000080: d25f 923c dca0 483d dfa9 c43c d6ef 34bc
00000090: 5052 a8bd 9476 d43c 2f2b 58bd 587c 193d
000000a0: c872 523d 8366 9c3d 5d82 8bbd 1edd 833d
000000b0: ae45 063d fc38 febc 3882 56bc 7139 9a3c
000000c0: a693 9bbd 6426 0b3d 299b 55bd 9616 7c3b
000000d0: 6b51 37bb e251 6fbd 099e 483d 9749 d9bc
000000e0: 4790 9abd 2423 8ab9 cc85 1fbd 3c11 0e3d
000000f0: 6c25 7d3d bd2d ccbc 6e02 ac3b 9831 19bd
00000100: 57b5 223d 7969 163d 7fda cdbc dca9 3ebd
00000110: ad36 11bd c9b9 a6bc 8239 c0bc 2971 2b3d
00000120: 1769 7a3d a3ad 93bd dbe1 91bd c2c8 563d
00000130: a70c 5a3d 9791 7ebd 9d84 063d 8968 b93c
00000140: fecb 8f3c db2a 46bc fd07 313d 4e91 b1bd
00000150: 3e11 983d 2b04 91bd 1980 bfbc 7cd7 193d
00000160: dc74 66bc f563 91bd 1c79 75bc b94a 253c
00000170: 3b97 8ebd b5c3 913d 2ffb e2bb b106 963d
00000180: 019b 99bd 310b 9e3d 88b6 353d f631 7b3d
00000190: 1a2a 753d 7cdb a4bd b507 c33c ed1e 35bc
000001a0: a884 5fbd 1974 ccbc 8662 96ba cfff abbc
000001b0: d4a4 873d b1b3 903d 6ff5 abbd b005 273d
000001c0: d662 84bb 9db7 6c3d 02df 473d 25c8 3bbc
000001d0: 15c6 b23d da6e 1e3c 6777 763d b54e 96bd
000001e0: 3e6a b6bc be16 85bd 8574 373d d1d6 873c
000001f0: e3a9 6bbd 735c 4dbd 5518 96bd e256 8abc
00000200: 4f75 da3c b464 9f3d 5b6c 063d d73b 783d
00000210: cf53 ac3d e48a 9fbd f8db 9b3c 8f17 d4bc
00000220: a8e5 a2bd dfbc 8dbd ab5d 9cbd d1c3 673d
00000230: 6fdd 8fbd 489e 0d3d 1ef7 773d 8ca2 3ebb
00000240: f805 4b3d e9fa 273c 6e08 0f3d dc91 903d
00000250: f5f8 0abd 040c b93b cab8 d6bb fbae 383d
00000260: b726 35bd 8f38 7f3d 3e1e 923d 0cbc 4abd
00000270: 152a a63b 588b 8a3d 99c8 363d 28ec 2fbd
00000280: 4eda 43bd a60b 9b3d aaec 9b3d d8cc 02bd
00000290: 9b8e 803c edd9 11bd dfd2 073d 01d6 22bd
000002a0: ac8d 61bd 65eb 963d 30e5 b43b b74a b83c
000002b0: ef67 b7bb b1b0 abbc 166a 093d 9538 a2bb
000002c0: 0130 9c3d 9c72 a93c be71 443d 6512 533d
000002d0: 9046 bdbb 9099 47bd 5568 e13c 24e6 6d3d
000002e0: 8459 a5bd 1be7 23bd e3ad 923d bbae 67bd
000002f0: 526c c03c 0e98 0ebc 7223 e23b fd6a afbc
00000300: 3841 5bbd ffcb 9cbd 9fd3 f73c f713 8fbd
00000310: b4d0 45bd 8e5f 33bc 87ce 533b 88b0 13bd
00000320: 769c feba 244c a23c cb2e 29bd c8b7 293d
00000330: d7b2 46bd afbc a53d 61b6 64bd d1a7 aebd
00000340: 77f6 e8bb b7a9 a2bc 029b 5b3d 3849 0ebd
00000350: cd7f 82bb 66e0 893c a9ea a03c b35f a6bd
00000360: 1ddc d8bc 722c 4bbd 6348 aabd 77ed 923d
00000370: 9c22 86bd f8f0 413c 5b17 c13c 54d9 03bd
00000380: a335 cb3c ce5e 8c3d 30f0 00bd a610 27bd
00000390: 5f1d 49bd 623a 2ebd 38e1 2fbd 483c ae3b
000003a0: 7e1c a1bd f6b4 86bd 0ce9 853d 69d4 523d
000003b0: f275 183d 5d3a 103d ddfa a23d cdf1 173d
000003c0: f826 a63d 5a20 69bd 3e39 8e3d 40da 813d
000003d0: 2f32 553c 0131 9fbc d541 b8bc 15cc adb8
000003e0: 60d5 bdb9 e6e4 a9bd cd63 8dbb 8254 af3d
000003f0: 596c 90bd c450 e9bc 7f0d 263d 3604 bf3c

lstm_decoder.bias_ih_l0 f4 [512]
-0.06804048 0.032786798 -0.0740914 -0.01663847 0.037424438 0.06946085 -0.059271898 -0.06310596
-0.0027384574 0.087596126 0.0032985327 -0.011087882 -0.0074454034 0.07231871 -0.07479912 -0.026599033
0.057182692 -0.027560977 0.038615987 -0.0186647 0.05533607 0.021927837 0.035909615 -0.020155264
-0.07194976 -0.025957555 -0.06764325 -8.791254e-06 -0.017452903 0.086115606 -0.009972527 -0.030818846
0.012695874 -0.006643823 -0.028379282 0.06992998 0.01239898 0.016690277 0.013470872 0.033894274
0.018489579 -0.05043317 -0.049144186 -0.010984347 0.08245721 -0.06034276 -0.03794073 -0.04820228
0.011401545 -0.05073948 -0.020552116 0.045253254 -0.016377544 -0.028060066 0.027867936 -0.058753014
-0.06433973 -0.021888189 0.011007704 0.022184066 0.078253224 0.06997001 0.08011997 0.08252172
0.010955293 -0.049696676 -0.056328904 -0.06195738 -0.057955895 -0.059971813 -0.05460689 -0.01963521
0.0059669064 -0.032532435 -0.01697906 0.08351712 -0.025823899 0.08184873 0.017736275 -0.018111734
0.025114363 0.062327035 -0.06537925 -0.03284018 0.073558256 0.075138554 0.08070169 0.055843007
-0.072027214 -0.016580524 -0.07218377 0.038771097 0.008733439 0.013048707 0.06632593 -0.04145571
-0.016606811 0.05197999 -0.027957391 -0.0010639955 0.03301287 -0.05443234 0.023583012 0.008899685
0.038706616 -0.0610999 0.048764173 -0.019641599 0.06060989 0.06737024 0.06905645 -0.07086093
-0.044151496 -0.07530167 0.08766161 0.0844728 -0.062034532 -0.017713388 -0.010360761 -0.061537884
-0.009460568 0.040521923 -0.04053968 0.0735479 -0.025896471 -0.022322044 -0.027435059 0.027785197
-0.021831904 -0.008248971 -0.030452596 -0.008067372 0.0032594854 -0.031702008 -0.03697364 0.08552759
-0.03529287 0.07284947 0.07334353 -0.023033882 0.079550646 -0.071379475 0.037481204 -0.04867498
0.014302591 0.041600026 -0.049007114 -0.00015055858 0.04423436 -0.030321894 0.0055435905 -0.0664137
-0.022587433 0.098480105 -0.022409653 0.025655841 0.061144184 0.054896828 0.07332056 0.015084384
0.006240817 -0.0034915893 -0.070277385 -0.017340282 -0.021362618 -0.070683256 0.062058058 -0.008659112
0.020292709 0.013185522 0.017500551 0.07930894 -0.026330095 0.025444174 -0.024816021 0.083671205
-0.029249337 0.04186078 0.006417913 0.069179125 0.026107118 0.056454994 0.043179866 0.012169748
-0.0649916 -0.0008029651 -0.06419965 -0.014506063 0.007383817 -0.021646274 -0.038702406 0.020909894
-0.01749004 0.05899376 -0.074346535 -0.07879108 0.056270625 0.028155318 0.03974253 0.061838347
0.0804504 -0.005666444 -0.042446684 0.020226607 -0.029827094 -0.0077510327 0.036329165 -0.0604881
0.07040256 -0.064573735 -0.049784236 -0.06576319 0.08137905 -0.042830132 0.080573425 0.010913193
0.030574586 0.0478048 0.043669887 -0.047844008 -0.057340033 -0.041017693 -0.049764037 0.008378248
-0.02680354 0.0707379 0.05096662 -0.08502302 0.00792667 -0.06554931 0.0714104 0.06316116
0.036294594 -0.036563754 -0.03923887 -0.079769045 0.036124118 0.0025619173 0.059028305 0.014988166
0.0026105372 0.03947838 -0.062357463 0.03133477 0.041523017 -0.018249262 -0.07402368 -0.009201141
-0.010486785 -0.04728156 -0.06182036 -0.079278015 0.060617667 0.06797107 0.08305196 0.087078124
00000000: cf58 8bbd 734b 063d 3bbd 97bd 674d 88bc
00000010: 5e4a 193d 7d41 8e3d 17c7 72bd b33d 81bd
00000020: b177 33bb 9965 b33d 322c 583b f3a9 35bc
00000030: 92f8 f3bb d51b 943d 4830 99bd 37e6 d9bc
00000040: 6638 6a3d 8fc7 e1bc cc2b 1e3d b7e6 98bc
00000050: 13a8 623d 02a2 b33c f615 133d a71c a5bc
00000060: 655a 93bd f0a4 d4bc 8b88 8abd 267e 13b7
00000070: 64f9 8ebc 615d b03d cf63 23bc ce77 fcbc
00000080: 5b02 503c 6db4 d9bb ab7b e8bc 7337 8f3d
00000090: 1725 4b3c 0cba 883c efb4 5c3c b9d4 0a3d
000000a0: 7577 973c 0393 4ebd 6a4b 49bd b1f7 33bc
000000b0: 53df a83d f829 77bd bd67 1bbd c16f 45bd
000000c0: 8ccd 3a3c 33d4 4fbd e95c a8bc 7a5b 393d
000000d0: 332a 86bc 39de e5bc 4c4b e43c 00a7 70bd
000000e0: 8cc4 83bd dc4e b3bc a859 343c 5cbb b53c
000000f0: 3a43 a03d 704c 8f3d f015 a43d 2601 a93d
00000100: d47d 333c be8e 4bbd 23b9 66bd 06c7 7dbd
00000110: 2963 6dbd 01a5 75bd 79ab 5fbd 05da a0bc
00000120: 0a86 c33b bb40 05bd ab17 8bbc 060b ab3d
00000130: a48c d3bc 4fa0 a73d aa4b 913c 0f5f 94bc
00000140: a3bc cd3c a24a 7f3d 8ee5 85bd 6d83 06bd
00000150: b6a5 963d 3ee2 993d ed46 a53d a3bb 643d
00000160: 0183 93bd e1d3 87bc 16d5 93bd 71ce 1e3d
00000170: b316 0f3c 3eca 553c e4d5 873d 76cd 29bd
00000180: 020b 88bc f8e8 543d e606 e5bc c475 8bba
00000190: 8138 073d 72f4 5ebd 2931 c13c fccf 113c
000001a0: d48a 1e3d e443 7abd f1bc 473d 6be7 a0bc
000001b0: 1342 783d 69f9 893d 786d 8d3d 891f 91bd
000001c0: 33d8 34bd c337 9abd ee87 b33d 1300 ad3d
000001d0: ec17 7ebd ab1b 91bc 2ec0 29bc 260f 7cbd
000001e0: 8000 1bbc 51fa 253d ef0c 26bd 48a0 963d
000001f0: d624 d4bc b8dc b6bc 7dbf e0bc c89d e33c
00000200: d2d8 b2bc b126 07bc b977 f9bc 032d 04bc
00000210: 179d 553b f7d9 01bd ac71 17bd 1729 af3d
00000220: 428f 10bd 1a32 953d 2235 963d 8db1 bcbc
00000230: 73eb a23d 672f 92bd e485 193d 6a5f 47bd
00000240: 6a55 6a3c ca64 2a3d afbb 48bd 43df 1db9
00000250: 172f 353d 9f65 f8bc 02a7 b53b e803 88bd
00000260: 4809 b9bc f0af c93d 7394 b7bc 332c d23c
00000270: 5372 7a3d 7fdb 603d 1729 963d 7e24 773c
00000280: c47f cc3b 26d3 64bb 97ed 8fbd 350d 8ebc
00000290: a800 afbc 62c2 90bd 9730 7e3d f3de 0dbc
000002a0: e53c a63c 1608 583c 515d 8f3c ba6c a23d
000002b0: 36b2 d7bc 4d70 d03c f84a cbbc cf5b ab3d
000002c0: 4e9c efbc 3676 2b3d 5b4d d23b c9ad 8d3d
000002d0: 98de d53c 5a3d 673d 5fdd 303d 9f63 473c
000002e0: 511a 85bd 137e 52ba 1b7b 83bd d7aa 6dbc
000002f0: f2f3 f13b 8753 b1bc 6a86 1ebd 3a4b ab3c
00000300: 4647 8fbc 71a3 713d ff42 98bd 385d a1bd
00000310: 077c 663d fba5 e63c 10c9 223d 354a 7d3d
00000320: 2ec3 a43d 94ad b9bb 93dc 2dbd 45b2 a53c
00000330: f357 f4bc 60fc fdbb e4cd 143d 5fc2 77bd
00000340: 382f 903d 3c3f 84bd 8eea 4bbd daae 86bd
00000350: 0faa a63d a66e 2fbd ae03 a53d 40cd 323c
00000360: 8e77 fa3c f7ce 433d 32df 323d 14f8 43bd
00000370: 62dd 6abd 2b02 28bd 60d5 4bbd eb44 093c
00000380: 1993 dbbc 08df 903d 60c2 503d 8d20 aebd
00000390: ddde 013c b73e 86bd 9e3f 923d a35a 813d
000003a0: a4a9 143d e0c3 15bd f0b8 20bd f45d a3bd
000003b0: e2f6 133d d7e5 273b aac7 713d ed90 753c
000003c0: 8c15 2b3b 15b4 213d 8a6a 7fbd e358 003d
000003d0: 0a14 2a3d 7a7f 95bc ba99 97bd 62c0 16bc
000003e0: c4d0 2bbc 4faa 41bd 5937 7dbd 835c a2bd
000003f0: 3b4a 783d 6b34 8b3d 2517 aa3d 0456 b23d
