transformer_no_tanh_with_past_12_Nm_144_Np_lr_0.001_hs_128_ahs_8_nll_1_bs_16_do_0.5_e_200_stride_10/model_transfer_A25_to_J25_0.0n_0.001lr_200e_9days.pth (torch, 831513 bytes, 14 tensors)

lstm_encoder.weight_ih_l0 f4 [512, 8]
0.024195813 0.03433235 0.08221655 -0.016619734 0.011745858 -0.06203283 0.008261686 -0.07548746
-0.08263613 -0.04459113 0.06376851 0.05033499 0.021189269 -0.025003985 0.04737105 -0.04418777
0.014294618 0.021810293 0.031272195 0.022919705 -0.025443917 0.051169343 0.015153839 -0.011166392
-0.06312717 -0.0085712215 -0.06446024 0.03901758 -0.0797572 0.020309914 0.060825955 0.0814408
-0.010369059 -0.051009398 0.0011098817 0.0646022 -0.029176395 -0.061889414 -0.06909985 0.056086585
0.05482324 0.0402873 0.046157256 0.050017394 0.054902975 0.028845154 -0.0057089585 0.066699676
0.013783955 0.036730766 0.06871262 -0.04549067 -0.04363466 0.020699881 0.05381218 0.029034536
0.017209526 0.0047891377 0.048385102 0.0037806437 0.04284589 -0.065376826 0.010007657 -0.07304323
-0.058188394 0.048663516 0.058742657 0.06871677 -0.028813949 0.07125402 -0.02292134 0.015168473
0.01608353 -0.0017915858 -0.07933049 0.07759494 -0.008990529 0.072241485 -0.052858405 0.048663124
0.024565408 0.0529438 -0.07630626 -0.03253759 -0.0044513266 0.06480236 0.06567988 -0.050102893
0.04001466 0.03654662 0.0025273114 -0.08080286 0.08159464 0.008066692 -0.044793677 0.05525629
0.018699104 0.029702893 -0.0010209195 -0.038197104 -0.03151868 -0.01840356 -0.043315597 0.018600434
0.06779754 -0.039310362 0.078311324 -0.036555115 0.03499993 0.038447324 -0.0050258823 -0.021296252
-0.03969141 0.05632755 -0.031450856 -0.030791283 -0.049902987 -0.07636701 0.02142645 -0.03192482
0.07782763 0.017923098 0.041555025 -0.022324838 -0.04932309 -0.048580155 0.0683922 0.07829192
-0.081813194 -0.040496837 0.04766245 0.07720266 0.008847986 -0.06997907 -0.051514592 -0.0113409525
-0.032342494 -0.022137186 0.00843968 0.07110363 0.03954291 -0.06747236 -0.030085748 -0.042696312
0.037069205 0.02883102 -0.0709368 -0.01979683 0.0056643216 -0.036267925 -0.05490265 0.017849846
-0.006060856 0.038820513 0.03782794 -0.028589228 0.013327716 0.03897836 -0.07494027 0.005689248
0.033750776 0.0042085066 0.040254254 0.057946138 -0.039184406 -0.014558873 0.054637026 -0.056503538
-0.019561239 0.019284269 -0.053207744 -0.03461395 0.039750297 0.057595797 0.03244509 0.050946306
-0.0656266 -0.057526443 0.07967592 -0.009833368 -0.04283244 -0.0716794 -0.040925328 0.07580493
0.07561697 -0.050946973 -0.0466373 0.05406719 0.04561346 0.020378195 -0.032210056 0.011593395
-0.042748366 0.038609285 0.08282457 -0.08224448 -0.029334802 -0.018717559 0.06874365 0.08129064
-0.07637562 0.012323813 -0.03342075 0.061361343 -0.054839406 -0.042979818 0.0354277 0.05493831
-0.029168412 -0.06671246 -0.072874434 -0.069522604 -0.042074103 -0.037109066 -0.011264245 -0.077970125
0.05378324 -0.06550207 0.06411127 0.011515016 0.08571891 -0.030605273 -0.037010532 0.039849166
-0.07956257 -0.052806795 -0.0008428669 -0.063176356 0.075353086 0.073411494 0.06492932 0.068944775
0.007603042 0.04820198 0.08032653 0.041923966 -0.0009996452 0.018807206 0.06296275 -0.022253443
-0.06434871 0.076465145 -0.05238459 -0.0009599887 0.063747026 0.012782804 -0.03153092 -0.02970976
-0.0047352454 -0.020933209 -0.04508597 0.0732891 0.03704551 0.07691158 -0.00031426686 -0.06460883
00000000: 4c36 c63c 14a0 0c3d 2761 a83d 1c26 88bc
00000010: b371 403c 2316 7ebd 065c 073c 2b99 9abd
00000020: 223d a9bd 30a5 36bd 1199 823d 102c 4e3d
00000030: 1e95 ad3c 28d5 ccbc 2508 423d 3cfe 34bd
00000040: f933 6a3c 80ab b23c 4617 003d 1bc2 bb3c
00000050: c36f d0bc f296 513d cf47 783c 3ef3 36bc
00000060: d148 81bd 4f6e 0cbc bb03 84bd e6d0 1f3d
00000070: be57 a3bd fa60 a63c a324 793d 6fca a63d
00000080: fce2 29bc 3bef 50bd 7379 913a 294e 843d
00000090: 5603 efbc c17f 7dbd 3984 8dbd 0cbb 653d
000000a0: 558e 603d 4c04 253d 640f 3d3d 0adf 4c3d
000000b0: f1e1 603d ac4c ec3c 3712 bbbb d799 883d
000000c0: 19d6 613c 0073 163d 34b9 8c3d 6d54 3abd
000000d0: 42ba 32bd cc92 a93c 296a 5c3d d6d9 ed3c
000000e0: fefa 8c3c 33ee 9c3b 752f 463d adc4 773b
000000f0: 2c7f 2f3d 49e4 85bd 28f7 233c b097 95bd
00000100: f456 6ebd 6553 473d 249c 703d 61bb 8c3d
00000110: 3b0b ecbc a1ed 913d 89c5 bbbc 3085 783c
00000120: 9bc1 833c a5d3 eaba 0678 a2bd 19ea 9e3d
00000130: 034d 13bc 58f3 933d 0e82 58bd fc52 473d
00000140: 653d c93c 99db 583d 7546 9cbd 2346 05bd
00000150: 6fdc 91bb 1ab7 843d 2c83 863d b138 4dbd
00000160: 6ae6 233d e9b1 153d 40a1 253b f87b a5bd
00000170: 171b a73d 292a 043c 9379 37bd 6b54 623d
00000180: dd2e 993c 7b53 f33c 60d0 85ba 9174 1cbd
00000190: bb19 01bd 10c3 96bc b26b 31bd f05f 983c
000001a0: 70d9 8a3d e703 21bd b061 a03d d1ba 15bd
000001b0: 165c 0f3d f17a 1d3d 28b0 a4bb 7a75 aebc
000001c0: 7693 22bd b8b7 663d 9dd2 00bd 003e fcbc
000001d0: 1367 4cbd 4f66 9cbd 8686 af3c 9ac3 02bd
000001e0: 1864 9f3d 76d3 923c 9a35 2a3d 94e2 b6bc
000001f0: 0207 4abd fcfb 46bd 3611 8c3d 8457 a03d
00000200: ad8d a7bd 03e0 25bd b339 433d 6e1c 9e3d
00000210: 25f7 103c 3051 8fbd f700 53bd 67cf 39bc
00000220: 9079 04bd 0b59 b5bc 9546 0a3c c89e 913d
00000230: bff7 213d f32e 8abd 6376 f6bc 54e2 2ebd
00000240: e1d5 173d 082f ec3c 5047 91bd f62c a2bc
00000250: c69b b93b ad8d 14bd 9ae1 60bd d739 923c
00000260: 259a c6bb 4202 1f3d 78f1 1a3d f533 eabc
00000270: 7e5c 5a3c c6a7 1f3d 497a 99bd df6c ba3b
00000280: 413e 0a3d 83e7 893b a5e1 243d ee58 6d3d
00000290: d47f 20bd 5788 6ebc 13cb 5f3d 4170 67bd
000002a0: e43e a0bc 0bfa 9d3c 5df0 59bd 5bc7 0dbd
000002b0: 35d1 223d 92e9 6b3d 25e5 043d 13ad 503d
000002c0: 3d67 86bd d9a0 6bbd 212d a33d 221c 21bc
000002d0: 1271 2fbd a6cc 92bd 51a1 27bd 9d3f 9b3d
000002e0: 12dd 9a3d c6ad 50bd c106 3fbd 8f75 5d3d
000002f0: 2ed5 3a3d 2cf0 a63c b1ee 03bd 39f2 3d3c
00000300: e918 2fbd c524 1e3d ee9f a93d cb6f a8bd
00000310: 8a4f f0bc 9155 99bc 79c9 8c3d b57b a63d
00000320: d26a 9cbd d1e9 493c 32e4 08bd 0856 7b3d
00000330: 499f 60bd 9b0b 30bd a31c 113d fe06 613d
00000340: 98f2 eebc 8ba0 88bd 313f 95bd de61 8ebd
00000350: e555 2cbd adff 17bd ab8d 38bc cdae 9fbd
00000360: d14b 5c3d f325 86bd c54c 833d 7aa9 3c3c
00000370: 658d af3d e9b7 fabc 5b98 17bd e138 233d
00000380: b3f1 a2bd f04b 58bd d7f3 5cba 9b62 81bd
00000390: b852 9a3d c458 963d aaf9 843d eb32 8d3d
000003a0: f022 f93b 706f 453d 3c82 a43d 77b8 2b3d
000003b0: 8706 83ba 9211 9a3c 9df2 803d da4c b6bc
000003c0: 42c9 83bd c299 9c3d 3991 56bd c0a7 7bba
000003d0: cd8d 823d f76e 513c 9126 01bd e261 f3bc
000003e0: 1e2a 9bbb 1f7c abbc 11ac 38bd 9818 963d
000003f0: 08bd 173d d283 9d3d 2fc4 a4b9 a251 84bd

lstm_encoder.weight_hh_l0 f4 [512, 128]
-0.05089798 -0.015574884 -0.014199713 -0.012725877 -0.04329234 -0.078856274 -0.033341687 0.027391452
-0.056843918 -0.00014764495 0.00078283873 0.013217799 -0.010991992 0.0661896 -0.015364871 0.04526627
-0.07442438 0.06900764 0.0068095126 0.059383955 -0.06927913 0.07753872 -0.0044384827 0.036542673
0.05845625 0.0073025185 0.070325285 0.016655989 -0.05767131 0.063167155 -0.057876367 0.06230611
0.0057934965 -0.029914793 0.06864691 -0.0057434444 -0.027815618 0.07079222 0.013389382 0.037011076
-0.066492945 0.0153308455 0.072061084 0.06361342 0.015103942 -0.06524925 0.066727296 -0.048704304
-0.036777057 -0.0346842 -0.051292676 -0.004051494 0.056911387 0.018567124 -0.022485493 -0.0017019317
-0.016882602 -0.05533043 -0.05876132 -0.01900859 -0.04919882 -0.042859685 0.027481472 -0.07875709
0.05895844 0.057638355 -0.0059884335 -0.058984067 -0.05356564 0.010625323 -0.043551713 0.031895276
-0.035520088 0.06805916 0.060634512 -0.006884458 -0.043945994 0.06994271 -0.045179963 0.030579247
-0.017353538 -0.02065029 -0.07056723 -0.083323866 -0.075462855 -0.02828319 0.065644644 0.0053136065
-0.033698272 0.048759323 -0.020937236 0.03732889 0.056726865 0.066740714 -0.059179097 -0.027606184
-0.024846876 0.07615786 -0.0020261141 -0.081984766 0.04319754 0.014442664 -0.06834717 -0.012239131
-0.048986226 0.005565616 0.03510277 0.006734946 0.025597433 -0.0007900835 -0.0018883147 -0.07788576
0.029117774 0.0543785 0.052721478 0.07267661 0.02301322 0.07534662 0.039582983 -0.062584326
0.055616148 -0.059662696 0.03829678 0.035200533 0.062347252 0.009553412 -0.07526786 0.035670158
-0.0065516527 0.073261596 0.038533658 0.05535087 -0.079722 0.03864018 -0.04218467 -0.062338118
-0.066686325 0.04046354 0.06531716 -0.046153903 -0.05451149 -0.075556 0.031626634 0.011404031
0.014885824 0.0015269493 -0.036702063 0.070220545 -0.074449405 0.0024624309 0.009484757 -0.020927247
-0.08289268 0.029004695 0.07816768 0.060721748 0.035199665 -0.055469327 -0.020614829 0.05705721
0.023732927 -0.016499413 0.047422763 -0.012874614 0.07458389 0.014950112 0.051871963 -0.03876083
-0.017913004 -0.04599814 0.06458051 -0.041576277 -0.0491201 0.027083443 0.005873045 -0.011688862
0.048509866 0.038472924 -0.051564775 -0.041310262 -0.0722634 -0.042694595 0.04323423 -0.047005694
-0.052137084 -0.07169277 0.05087069 0.015684873 -0.003196663 0.05103101 -0.01308132 0.046262905
0.036266066 0.011148973 -0.059580833 0.047986634 -0.053157657 -0.0774742 -0.057130907 0.054394607
0.017530834 0.061613325 0.073208936 0.071740896 -0.028237933 -0.06475981 0.034351688 0.062247634
0.050202873 0.04618803 -0.06828147 -0.045366347 -0.07436242 -0.047322147 -0.05668824 -0.051174838
-0.06268098 -0.06035125 -0.062247835 -0.07953739 0.030562816 0.035703387 0.02684358 -0.02884936
-0.03664937 1.9403531e-05 -0.049729634 -0.06915515 0.010864438 0.04003541 -0.08167886 -0.06039398
-0.0030592068 0.070533015 -0.062369082 -0.07104563 -0.048567683 -0.0066733677 0.010850763 0.07251803
0.049682546 -0.01904035 -0.054380383 -0.05372823 0.037220877 -0.036694776 0.054200705 0.057995867
-0.053810783 -0.019753115 -0.07345297 -0.045243222 -0.040405605 -0.053487185 -0.0041742604 0.045870923
00000000: 667a 50bd cc2d 7fbc eaa5 68bc 3280 50bc
00000010: 4f53 31bd 667f a1bd 4b91 08bd 0a64 e03c
00000020: 2bd5 68bd 24d1 1ab9 6b37 4d3a 788f 583c
00000030: c217 34bc 6a8e 873d f1bc 7bbc 2069 393d
00000040: cf6b 98bd e153 8d3d 5522 df3b 973c 733d
00000050: 37e2 8dbd 9fcc 9e3d b170 91bb c5ad 153d
00000060: d26f 6f3d f749 ef3b b406 903d 2472 883c
00000070: c038 6cbd c85d 813d c50f 6dbd b134 7f3d
00000080: 5fd7 bd3b de0f f5bc c096 8c3d 8133 bcbb
00000090: 94dd e3bc 83fb 903d 235f 5b3c ed98 173d
000000a0: 742d 88bd 3a2e 7b3c c394 933d c147 823d
000000b0: 8676 773c 66a1 85bd 52a8 883d 2a7e 47bd
000000c0: 8aa3 16bd 0511 0ebd 4518 52bd 65c2 84bb
000000d0: ea1b 693d 151a 983c 7f33 b8bc 5a13 dfba
000000e0: 624d 8abc 29a2 62bd b6af 70bd e7b7 9bbc
000000f0: b484 49bd a38d 2fbd d320 e13c 664b a1bd
00000100: 687e 713d 3216 6c3d 9f3a c4bb 4799 71bd
00000110: a567 5bbd d615 2e3c 4863 32bd 9fa4 023d
00000120: 837d 11bd 9a62 8b3d e55b 783d 0597 e1bb
00000130: b700 34bd 203e 8f3d a00e 39bd 5481 fa3c
00000140: 0229 8ebc cc2a a9bc 8d85 90bd b4a5 aabd
00000150: 458c 9abd 26b2 e7bc b370 863d c31d ae3b
00000160: 3307 0abd dbb7 473d 9184 abbc 2ee6 183d
00000170: 6e5a 683d 5baf 883d c865 72bd 5d26 e2bc
00000180: ad8b cbbc a7f8 9b3d 8ec8 04bb a1e7 a7bd
00000190: e7ef 303d eca0 6c3c 9af9 8bbd a386 48bc
000001a0: c8a5 48bd c55f b63b ecc7 0f3d d2b0 dc3b
000001b0: b5b1 d13c 9b1d 4fba 5481 f7ba 9282 9fbd
000001c0: 6688 ee3c fdbb 5e3d 7af2 573d 79d7 943d
000001d0: 3886 bc3c 544f 9a3d c421 223d 362c 80bd
000001e0: c2cd 633d df60 74bd 16dd 1c3d 6f2e 103d
000001f0: d55f 7f3d ea85 1c3c 0926 9abd df1a 123d
00000200: 3faf d6bb 2d0a 963d 78d5 1d3d 98b7 623d
00000210: 4a45 a3bd 2a45 1e3d d5c9 2cbd 4156 7fbd
00000220: d792 88bd 19bd 253d 01c5 853d e00b 3dbd
00000230: 7147 5fbd 1bbd 9abd ee8a 013d f9d7 3a3c
00000240: ace3 733c eb23 c83a e754 16bd cacf 8f3d
00000250: ee78 98bd bc60 213b f465 1b3c 9e6f abbc
00000260: a3c3 a9bd 419b ed3c 6016 a03d 5eb7 783d
00000270: 862d 103d ce33 63bd 6ee0 a8bc d2b4 693d
00000280: 8e6b c23c c729 87bc 5f3e 423d 0cf0 52bc
00000290: 70bf 983d 51f1 743c b277 543d adc3 1ebd
000002a0: 4bbe 92bc 8c68 3cbd c942 843d e34b 2abd
000002b0: 2832 49bd 19de dd3c ac72 c03b a482 3fbc
000002c0: 48b2 463d c995 1d3d 9635 53bd f334 29bd
000002d0: d5fe 93bd 87e0 2ebd 6016 313d 0b89 40bd
000002e0: b28d 55bd a9d3 92bd c95d 503d 907d 803c
000002f0: 1b7f 51bb e405 513d 0853 56bc 2c7e 3d3d
00000300: ba8b 143d 2faa 363c 080b 74bd a28d 443d
00000310: d8bb 59bd cbaa 9ebd 1902 6abd e1cc 5e3d
00000320: d39c 8f3c 415e 7c3d 91ee 953d e4ec 923d
00000330: 3d53 e7bc cba0 84bd 5bb4 0c3d 60f7 7e3d
00000340: 87a1 4d3d a92f 3d3d 28d7 8bbd 10d2 39bd
00000350: 534b 98bd ded4 41bd ee31 68bd b59c 51bd
00000360: e35e 80bd df32 77bd 96f7 7ebd 80e4 a2bd
00000370: df5e fa3c b73d 123d 11e7 db3c 7e55 ecbc
00000380: a61d 16bd c4c4 a237 4db1 4bbd 37a1 8dbd
00000390: c100 323c 2cfc 233d 3f47 a7bd ae5f 77bd
000003a0: f97c 48bb 9d73 903d b976 7fbd 5f80 91bd
000003b0: e8ee 46bd 44ac dabb 66c7 313c 5584 943d
000003c0: ed7f 4b3d 82fa 9bbc f7bd 5ebd 2212 5cbd
000003d0: eb74 183d 434d 16bd 8f01 5e3d 138d 6d3d
000003e0: b268 5cbd 49d1 a1bc 836e 96bd f550 39bd
000003f0: 5980 25bd 6115 5bbd 3cc8 88bb 26e3 3b3d

lstm_encoder.bias_ih_l0 f4 [512]
-0.013408572 -0.030727241 -0.03803336 0.009817436 -0.035852224 0.028470695 0.064107545 0.04429917
-0.08363707 0.02188595 -0.025432229 0.0496189 -0.028714241 0.03479839 0.08020819 -0.0017509924
0.007103253 -0.038713843 -0.0053226976 -0.07370361 -6.502656e-05 -0.06733051 -0.027909698 0.011386616
0.0052992012 0.07910591 0.012093497 -0.05084165 0.014022498 0.05628828 0.035198677 -0.030625256
0.027077923 0.01629563 -0.024023972 -0.024458442 0.03892905 0.04323131 -0.077691495 -0.022499783
-0.03924727 -0.065445095 0.042464677 0.038995113 0.059843156 0.014575869 -0.005179582 0.07172916
0.034195207 0.054870956 0.05450503 0.08420594 -0.047946066 0.0072975387 -0.061192617 -0.02881624
-0.02450768 0.030116359 0.081753604 -0.026553873 0.026764676 0.07424457 0.032375433 0.062148612
-0.079650864 -0.08190759 0.016364366 -0.077801324 -0.0011807405 0.067600384 -0.0044798367 -0.005673031
-0.023860108 -0.047791187 0.057324436 -0.035957955 0.04885363 -0.0078097265 0.024628041 -0.06582093
-0.034817014 0.023803812 -0.040545233 -0.061486505 -0.07771159 -0.032937307 -0.007262998 0.01543822
-0.08129979 -0.02736844 -0.029223606 -0.0068272445 -0.050057046 -0.043352187 -0.075750634 0.06960465
-0.034691546 0.07920154 -0.015563393 0.029300753 0.042202923 0.032274265 -0.026834115 0.052526228
0.02538842 -0.020621816 0.034074914 -0.02096274 -0.006803946 -0.031625837 -0.04510102 -0.020596793
-0.02126163 -0.059779033 0.0029344256 0.0084552355 -0.016852096 0.038354084 -0.046339143 -0.028555226
0.010848856 -0.066802904 -0.01055984 -0.044418115 -0.066035226 -0.027780972 0.05113797 0.065233074
0.046064764 0.03906722 -0.018930884 0.031145249 -0.06829501 0.056174867 0.04302182 0.08662803
0.005436001 -0.011095131 0.0043336023 0.0077252234 -0.038174972 -0.06172208 0.02638974 0.06759411
0.04031153 -0.06232784 -0.05768689 0.0130954785 -0.010361181 -0.074239165 -0.07212329 0.036811024
0.062336054 0.0021995895 0.050059505 0.052445997 -0.052097786 -0.023359718 0.08022519 -0.049159866
-0.05306715 0.07412884 -0.051467247 0.07883808 -0.030499484 -0.025050523 0.07844114 0.03612994
-0.009159415 -0.0005368164 0.020696698 0.054265942 -0.077598676 -0.01343494 0.054218724 0.059163075
0.07385976 -0.012207246 -0.002231395 -0.043643635 -0.028212493 -0.0046011778 0.0016796256 0.058055937
-0.08316827 -0.026927993 0.0331907 -0.0028391718 -0.06563978 0.01001789 -0.04780227 -0.029448122
0.049478743 0.026573429 -0.042838268 -0.020015977 0.051056426 -0.04772958 -0.074291505 0.029083336
0.052259874 -0.020146813 0.015792111 -0.06475668 0.07620547 0.080848835 -0.0617405 0.03440488
-0.07845548 -0.0030225012 -0.0073014474 -0.053023588 0.07524004 0.023984354 -0.082423635 0.07976582
0.07031594 0.016492963 -0.058550186 0.053597596 0.02753616 0.0017741813 -0.076793976 0.017463004
0.04054305 0.01369741 -0.056317553 0.019697826 -0.04987092 -0.046485566 -0.072866686 -0.037871998
0.027479846 0.024606599 0.0018275436 -0.03752237 0.08054245 0.05809473 -0.0743737 0.06033859
0.07932493 0.0820033 -0.034133658 -0.06008919 0.068198286 0.014561738 -0.07737427 -0.062160354
-0.0082849525 -0.014954369 0.045905035 -0.005724467 -0.0024184603 0.07343108 -0.05770518 -0.043066684
00000000: a1af 5bbc b2b7 fbbc dec8 1bbd 50d9 203c
00000010: c8d9 12bd 603b e93c d14a 833d 0c73 353d
00000020: ea49 abbd 2a4a b33c 4057 d0bc 303d 4b3d
00000030: 213a ebbc c288 0e3d 3144 a43d 8e81 e5ba
00000040: 68c2 e83b 6892 1ebd 066a aebb ebf1 96bd
00000050: de5e 88b8 94e4 89bd e1a2 e4bc ee8e 3a3c
00000060: eca4 ad3b 4802 a23d ce23 463c 563f 50bd
00000070: 9fbe 653c 8a8e 663d 7d2c 103d d1e1 fabc
00000080: 85d2 dd3c 6a7e 853c eccd c4bc 125d c8bc
00000090: 1174 1f3d 5013 313d b81c 9fbd 7751 b8bc
000000a0: bfc1 20bd 1408 86bd 71ef 2d3d 57b9 1f3d
000000b0: 191e 753d a0cf 6e3c 7cb9 a9bb bde6 923d
000000c0: 4610 0c3d 5ec0 603d ab40 5f3d 2a74 ac3d
000000d0: 1863 44bd 3120 ef3b 1ca5 7abd 0910 ecbc
000000e0: 55c4 c8bc 95b6 f63c 6f6e a73d 8287 d9bc
000000f0: 9841 db3c 8a0d 983d 1a9c 043d 8b8f 7e3d
00000100: fe1f a3bd 2bbf a7bd 900e 863c 4d56 9fbd
00000110: 14c3 9aba 1272 8a3d 98cb 92bb d5e4 b9bb
00000120: 4676 c3bc b1c0 43bd 07cd 6a3d a648 13bd
00000130: be1a 483d bce8 ffbb bfc0 c93c 20cd 86bd
00000140: 499c 0ebd 3600 c33c c212 26bd 46d9 7bbd
00000150: 4127 9fbd 45e9 06bd 71fe edbb 97f0 7c3c
00000160: 8180 a6bd c733 e0bc 5866 efbc 14b7 dfbb
00000170: 9e08 4dbd 1092 31bd 2623 9bbd e28c 8e3d
00000180: b918 0ebd 6b34 a23d 9afd 7ebc 2208 f03c
00000190: f9dc 2c3d 0532 043d 38d3 dbbc be25 573d
000001a0: 60fb cf3c 15ef a8bc 2392 0b3d 0dba abbc
000001b0: a3f3 debb 188a 01bd d9bb 38bd 9bba a8bc
000001c0: df2c aebc dcda 74bd 7e4f 403b d487 0a3c
000001d0: 680d 8abc 2c19 1d3d 1dce 3dbd a6ec e9bc
000001e0: 66bf 313c f6cf 88bd 2e03 2dbc c5ef 35bd
000001f0: 7a3d 87bd ec94 e3bc 0c76 513d eb98 853d
00000200: 68ae 3c3d f304 203d f114 9bbc 5224 ff3c
00000210: 41de 8bbd 9e17 663d a637 303d 096a b13d
00000220: 7b20 b23b 5ac8 35bc e400 8e3b df23 fd3b
00000230: 5c5d 1cbd 4bd0 7cbd 4c2f d83c c86e 8a3d
00000240: b41d 253d 7a4b 7fbd 1749 6cbd 6b8e 563c
00000250: f1c1 29bc b40a 98bd 60b5 93bd 28c7 163d
00000260: 1754 7f3d fd26 103b 320b 4d3d 9dd1 563d
00000270: 7d64 55bd e15c bfbc 1b4d a43d db5b 49bd
00000280: f15c 59bd dcd0 973d 52cf 52bd dc75 a13d
00000290: 0eda f9bc c136 cdbc c0a5 a03d fdfc 133d
000002a0: 5f11 16bc 24b9 0cba 1f8c a93c f745 5e3d
000002b0: 0eec 9ebd 391e 5cbc 7414 5e3d fb54 723d
000002c0: c943 973d e700 48bc 993c 12bb abc3 32bd
000002d0: e31d e7bc 7ac5 96bb e226 dc3a 10cc 6d3d
000002e0: 2054 aabd 1898 dcbc f9f2 073d 6611 3abb
000002f0: 266e 86bd 1322 243c 50cc 43bd 303d f1bc
00000300: 39aa 4a3d 85b0 d93c 2e77 2fbd 8cf8 a3bc
00000310: 8b20 513d 1880 43bd 2526 98bd 2d40 ee3c
00000320: 730e 563d ee0a a5bc 755e 813c 269f 84bd
00000330: 9d11 9c3d 1394 a53d 9be3 7cbd 22ec 0c3d
00000340: 44ad a0bd 2815 46bb fb40 efbb 432f 59bd
00000350: 7317 9a3d d67a c43c b9cd a8bd 435c a33d
00000360: ce01 903d 401c 873c 52d2 6fbd 2789 5b3d
00000370: 8393 e13c a58b e83a 2946 9dbd 930e 8f3c
00000380: 7810 263d 1a6b 603c 3cad 66bd 565d a13c
00000390: 7345 4cbd a667 3ebd 213b 95bd ab1f 1bbd
000003a0: 6a1d e13c c793 c93c 308a ef3a 0fb1 19bd
000003b0: 71f3 a43d bdf4 6d3d 3d51 98bd 9925 773d
000003c0: 1c75 a23d 59f1 a73d bccf 0bbd 1520 76bd
000003d0: 8bab 8b3d 5b94 6e3c 6776 9ebd db9b 7ebd
000003e0: 9cbd 07bc 2b03 75bc eb06 3c3d 4f94 bbbb
000003f0: 087f 1ebb 0963 963d 445c 6cbd b166 30bd

lstm_encoder.bias_hh_l0 f4 [512]
-0.036868203 0.004157427 0.042899612 0.025529463 -0.009865693 0.06535618 -0.017790888 0.043410223
-0.08124302 0.028768796 -0.06318918 0.013180087 0.01853131 0.026627626 -0.045949034 0.07090857
0.07044936 -0.07685199 0.004866625 -0.06341517 0.007364143 -0.051055692 -0.056769628 -0.029184729
-0.011617873 0.029068528 -0.007503237 0.07160178 -0.00383585 0.066032 -0.059690516 0.079653315
0.030559052 -0.049364544 0.012069266 -0.0016988163 0.02295384 -0.04679409 -0.058973506 0.023357114
-0.07724473 -0.02998622 0.008583256 0.014097762 -0.051378682 0.07985528 -0.053828046 0.040447313
-0.022598475 0.045964897 0.043275025 0.028409412 -0.01066639 0.016734578 0.024067016 0.04268179
-0.079339124 0.059068322 -0.0076901712 -0.015194988 -0.07536053 0.018899674 0.06641304 0.031589456
-0.045666557 0.047823343 0.05159251 -0.080216855 0.0070562777 0.015986143 0.023585059 -0.036306504
-0.02289633 -0.04316235 0.03596189 -0.05492985 -0.0008789875 0.0002567605 0.02338852 0.06740736
-0.05778181 -0.05583062 0.070073895 0.03403923 -0.025904547 -0.040619895 -0.064588554 -0.074747935
0.06439846 0.013301973 -0.0799177 0.014498268 -0.02621084 0.043869924 0.02967472 -0.033079796
0.06135283 0.028085565 0.07028001 -0.058938123 0.030176071 -0.037639737 -0.0053648646 0.048444144
0.02197 -0.01911902 0.058073863 -0.022860585 0.0071748076 0.063667916 0.0060740514 0.042195022
-0.06473272 0.07516158 -0.039939173 -0.05833065 -0.05008841 -0.040090635 0.043383867 -0.066449545
0.06747614 -0.047515344 -0.051268093 -0.07424748 0.028851494 0.039444648 -0.0104236575 -0.015877873
-0.022900704 -0.04038198 -0.051033366 -0.064046346 -0.00028076093 -0.016875543 0.059169903 0.021847278
0.008556378 0.0063747833 0.06994257 -0.03301836 -0.049684316 -0.016655628 -0.024183657 -0.053286213
0.030961601 0.06891823 -0.06047746 -0.026056774 0.03128314 0.04415689 0.025092205 0.05113606
-0.0646783 -0.02500328 -0.0065377555 -0.059261106 0.041839015 -0.05190636 -0.04237769 0.013010975
-0.050917313 0.0019508922 0.06523813 0.065400645 -0.064443566 0.046214726 -0.06846243 0.07799844
-0.0153404595 -0.050414953 0.020533452 0.0061615733 0.043992307 0.07992573 -0.027845094 0.03664786
0.032457124 -0.05253723 -0.021796502 -0.039584473 -0.025475191 -0.06350449 -0.012536665 -0.058816586
-0.012704011 0.021876782 0.05024511 0.052839395 -0.02261721 0.05405681 -0.07109196 0.08358987
-0.048921783 0.0070783976 -0.005330237 0.039538827 0.07661035 0.06129202 0.085690394 -0.023351135
-0.008230646 0.06441521 -0.056639925 0.024515133 -0.025564373 -0.032194797 0.037385643 0.037088636
-0.013047431 0.055197924 0.03320663 0.05385938 -0.0071481187 -0.039293356 0.04936571 -0.079238094
-0.04912188 -0.042002413 -0.00627097 -0.023546243 0.041770775 0.011361352 0.08303259 0.026821261
0.039452985 -0.01930872 -0.019008255 0.050021008 0.029739028 0.03373638 -0.0020060365 0.050200492
0.02697776 -0.06263266 0.07582134 0.0022631588 -0.0039758254 0.01853618 -0.0121020265 -0.034919184
0.067332186 0.03425195 -0.024068302 -0.035824385 0.077699676 -0.07087231 -0.04126537 -0.021778006
-0.03390122 -0.05127803 0.05369303 -0.030180765 0.073570244 0.0087185 -0.05590322 0.027370237
00000000: 1d03 17bd 073b 883b 81b7 2f3d 2a23 d13c
00000010: b7a3 21bc 76d9 853d 32be 91bc ebce 313d
00000020: be62 a6bd 8aac eb3c 5469 81bd 4bf1 573c
00000030: f9ce 973c 2e22 da3c 0e35 3cbd 8338 913d
00000040: c147 903d 9364 9dbd 3678 9f3b d0df 81bd
00000050: e94e f13b c61f 51bd 4587 68bd d014 efbc
00000060: e458 3ebc 1f21 ee3c b7dd f5bb f4a3 923d
00000070: e262 7bbb c93b 873d 0b7e 74bd 4721 a33d
00000080: fa56 fa3c 7a32 4abd 2cbe 453c d1aa deba
00000090: b109 bc3c 29ab 3fbd 348e 71bd 6b57 bf3c
000000a0: 7c32 9ebd a9a5 f5bc c9a0 0c3c 4dfa 663c
000000b0: 7472 52bd 2a8b a33d cc7a 5cbd 15ac 253d
000000c0: 7020 b9bc b045 3c3d 2741 313d dbba e83c
000000d0: 15c2 2ebc f416 893c 3128 c53c 1ad3 2e3d
000000e0: 8d7c a2bd a0f1 713d d5fd fbbb 66f4 78bc
000000f0: 9f56 9abd 7dd3 9a3c 8f03 883d f263 013d
00000100: db0c 3bbd 69e2 433d ab52 533d bc48 a4bd
00000110: 5938 e73b 5ff5 823c 7435 c13c 21b6 14bd
00000120: 1691 bbbc 01cb 30bd c64c 133d 1ffe 60bd
00000130: da6b 66ba d09d 8639 4899 bf3c df0c 8a3d
00000140: 9fac 6cbd a6ae 64bd e782 8f3d b86c 0b3d
00000150: c635 d4bc 0c61 26bd 0147 84bd 7215 99bd
00000160: 57e3 833d 85f0 593c e4ab a3bd 258a 6d3c
00000170: 1eb8 d6bc f3b0 333d 6618 f33c ae7e 07bd
00000180: 1b4d 7b3d b313 e63c f7ee 8f3d 1a69 71bd
00000190: cf33 f73c 202c 1abd bfcb afbb 5e6d 463d
000001a0: 6efa b33c 7e9f 9cbc dcde 6d3d 1f46 bbbc
000001b0: a61a eb3b 5364 823d d608 c73b b0d4 2c3d
000001c0: 9792 84bd 51ee 993d 4297 23bd 1fec 6ebd
000001d0: 8129 4dbd 1436 24bd 48b3 313d b316 88bd
000001e0: ee30 8a3d 739f 42bd 7efe 51bd 100f 98bd
000001f0: f859 ec3c b690 213d fdc7 2abc 5012 82bc
00000200: 429a bbbc 9367 25bd 5d08 51bd bb2a 83bd
00000210: 1833 93b9 943e 8abc 245c 723d 10f9 b23c
00000220: 0d30 0c3c 8fe3 d03b 0d3e 8f3d 433e 07bd
00000230: c881 4bbd 6271 88bc ce1c c6bc a542 5abd
00000240: 2fa3 fd3c 0025 8d3d 37b7 77bd 0475 d5bc
00000250: c022 003d dbdd 343d 2b8e cd3c 0c74 513d
00000260: 0e76 84bd aed3 ccbc ab3a d6bb c6bb 72bd
00000270: 635f 2b3d c39b 54bd 3b94 2dbd fc2b 553c
00000280: ac8e 50bd 14b5 ff3a 929b 853d c6f0 853d
00000290: fdfa 83bd a74b 3d3d 0836 8cbd a5bd 9f3d
000002a0: 8d56 7bbc e97f 4ebd c535 a83c 06e7 c93b
000002b0: 4731 343d 1ab0 a33d 651b e4bc 111c 163d
000002c0: c3f1 043d 4731 57bd 948e b2bc 5423 22bd
000002d0: 59b1 d0bc a40e 82bd 9666 4dbc a9e9 70bd
000002e0: 7c24 50bc f036 b33c d1cd 4d3d 1f6e 583d
000002f0: ba47 b9bc ac6a 5d3d a998 91bd 2a31 ab3d
00000300: 3562 48bd e7f1 e73b 45a9 aebb 77f3 213d
00000310: e3e5 9c3d 570d 7b3d 727e af3d e14a bfbc
00000320: d5d9 06bc 1fec 833d 44ff 67bd f6d3 c83c
00000330: 606c d1bc b1de 03bd b021 193d 41ea 173d
00000340: e4c4 55bc 3817 623d ad03 083d a79b 5c3d
00000350: c43a eabb 12f2 20bd b333 4a3d 9547 a2bd
00000360: 0634 49bd b90a 2cbd b67c cdbb 0de4 c0bc
00000370: d517 2b3d f724 3a3c fe0c aa3d 43b8 db3c
00000380: 7499 213d 522d 9ebc 33b7 9bbc d4e2 4c3d
00000390: 439f f33c 292f 0a3d b577 03bb 089f 4d3d
000003a0: 7700 dd3c 8d45 80bd 3848 9b3d 8151 143b
000003b0: a447 82bb 30d9 973c 9447 46bc 6b07 0fbd
000003c0: 75e5 893d c64b 0c3d e32a c5bc 97bc 12bd
000003d0: 0221 9f3d 8025 91bd e005 29bd ca67 b2bc
000003e0: 01dc 0abd e908 52bd 39ed 5b3d a73d f7bc
000003f0: ffab 963d 0ad8 0e3c c6fa 64bd 8c37 e03c

lstm_decoder.weight_ih_l0 f4 [512, 6]
-0.078030564 -0.07732436 0.12914564 -0.054450236 0.0040653935 0.040146727 0.01172657 0.00028729666
-0.044676166 -0.006928479 0.018535731 0.071929105 -0.039154526 -0.06966759 0.01332598 -0.07738195
-0.08590352 -0.0668673 -0.060142763 0.037454396 -0.028684907 -0.06256106 -0.032385755 -0.02974686
-0.06468072 0.044182148 -0.06970608 -0.077357285 -0.016545877 0.008741293 -0.048153415 0.047873862
0.0023765205 0.057292677 0.0065048784 -0.017532608 -0.07858332 -0.07347829 -0.007477388 0.017130278
0.01605668 0.06745302 0.11400056 0.06783044 0.046916068 0.0031837667 -0.014320829 -0.0756717
-0.06390508 0.079392195 0.014249316 0.017965736 -0.039844736 0.049140625 -0.15751435 -0.023153685
0.0112188645 -0.03796256 -0.0009694396 0.00067827 -0.041399382 0.032587856 0.046569593 -0.031013455
-0.09799473 -0.008601805 -0.023511076 0.0322796 -0.047677737 -0.0075052236 0.0061566564 -0.05843381
-0.13863015 0.030262379 0.031961113 -0.017480634 -0.0017593153 -0.14133213 0.058070574 -0.01322537
-0.0663176 0.00558958 0.00945792 0.00391428 -0.007602304 -0.051533602 0.031909436 -0.09795269
0.0029137395 0.009733093 -0.081308715 -0.070729986 0.06544794 0.07186913 -0.06472693 -0.09512278
-0.008854519 0.031490568 0.0101362895 -0.052787036 -0.01686412 -0.04508485 0.08128495 0.09174138
-0.051848434 -0.076600604 -0.061499983 0.054378282 -0.058220547 -0.03123518 -0.07211123 0.010553365
0.0015842275 -0.07222736 -0.055247556 0.06200223 0.00038185174 -0.07167148 -0.03395652 -0.06739343
-0.003585857 -0.0750389 0.057078063 0.009517722 0.10388051 -0.09622181 -0.05540739 0.036465235
-0.03924137 -0.033827823 0.09089504 -0.06921453 -0.018546322 0.041861083 0.0949443 -0.009782024
-0.073810965 0.04106132 -0.29963335 -0.05423919 0.0046799076 0.1874293 0.21074252 0.058292843
0.105281115 -0.02343408 -0.07166537 -0.07956235 -0.031034725 0.119039685 -0.123081945 -0.0981661
0.07550244 -0.08733542 0.006709036 -0.016560385 0.07052804 -0.056300964 0.068531536 -0.054013956
-0.01581546 0.00993908 0.03714668 0.04149452 -0.08582104 0.043257035 -0.076153256 -0.04240857
6.681968e-05 0.03129229 -0.013166998 0.029042698 -0.0346205 0.014651008 0.05021141 0.041540075
0.03921438 -0.06984918 -0.03175716 0.03503601 -0.042530365 -0.06445381 -0.04764683 0.0032149074
0.0070038787 -0.009336594 -0.022971928 0.04038412 0.033084016 -0.051685523 -0.074058436 -0.038979117
0.03792594 -0.061548624 0.016511787 -0.037622496 -0.10508381 0.077687375 0.1032686 -0.06822952
0.0060367472 -0.07559783 -0.11973541 -0.08026817 0.06010633 -0.07393342 -0.023046996 -0.04673853
0.015936779 -0.07376305 0.001414117 0.08653291 0.10676556 -0.043288767 0.001728155 -0.09687789
-0.053230636 -0.0019181868 0.061897673 -0.07177192 -0.09231161 -0.02424761 -0.0528771 0.062189758
-0.049262125 -0.04500468 0.072076 0.03973865 -0.0184394 -0.049661968 0.047284897 0.03676534
0.041483622 0.023653984 -0.029655943 -0.012406674 0.04924069 0.023906672 0.0031095329 -0.044311676
0.03220222 -0.056833263 -0.024791488 0.047798764 0.012688528 0.042367384 -0.064869754 -0.03506998
-0.06684775 -0.037501473 0.017177217 0.04993258 -0.15717354 0.07276313 -0.024745606 -0.016217405
00000000: 7dce 9fbd 3c5c 9ebd c13e 043e 3607 5fbd
00000010: fe36 853b e570 243d cd20 403c 4ea0 9639
00000020: 5bfe 36bd 4b08 e3bb 3fd8 973c 914f 933d
00000030: 7f60 20bd e2ad 8ebd 3655 5a3c 6e7a 9ebd
00000040: 2fee afbd b9f1 88bd 4258 76bd c869 193d
00000050: 9cfc eabc 0320 80bd eda6 04bd b0af f3bc
00000060: 5377 84bd 57f8 343d 10c2 8ebd 7f6d 9ebd
00000070: 388b 87bc a437 0f3c 843c 45bd 6217 443d
00000080: 66bf 1b3b baab 6a3d e026 d53b 8ba0 8fbc
00000090: 4bf0 a0bd c97b 96bd e004 f5bb cc54 8c3c
000000a0: 4c89 833c cf24 8a3d 2079 e93d b0ea 8a3d
000000b0: 102b 403d bea6 503b e9a1 6abc c4f9 9abd
000000c0: abe0 82bd 6098 a23d f775 693c e12c 933c
000000d0: 3c34 23bd ae47 493d 714b 21be ccac bdbc
000000e0: 54cf 373c a17e 1bbd fe21 7eba eecd 313a
000000f0: 6692 29bd d87a 053d c2bf 3e3d ee0f febc
00000100: 76b1 c8bd 96ee 0cbc 4d9a c0bc 9d37 043d
00000110: bb49 43bd 61ee f5bb c7bd c93b 4a58 6fbd
00000120: 10f5 0dbe cfe8 f73c a8e9 023d 8c33 8fbc
00000130: d398 e6ba 5fb9 10be 69db 6d3d 39af 58bc
00000140: 86d1 87bd cc28 b73b 64f5 1a3c 5c43 803b
00000150: c01c f9bb e614 53bd 78b3 023d 6c9b c8bd
00000160: 70f4 3e3b 8d77 1f3c 2f85 a6bd e2da 90bd
00000170: 9209 863d 1f30 933d 8d8f 84bd bbcf c2bd
00000180: 8b12 11bc 41fc 003d ae12 263c 3837 58bd
00000190: 9f26 8abc e4aa 38bd b978 a63d e8e2 bb3d
000001a0: 065f 54bd c7e0 9cbd 68e7 7bbd c3bb 5e3d
000001b0: ab78 6ebd ece0 ffbc 0daf 93bd 05e8 2c3c
000001c0: dba5 cf3a f0eb 93bd 434b 62bd 0df6 7d3d
000001d0: 4633 c839 7fc8 92bd fe15 0bbd 9105 8abd
000001e0: b300 6bbb ffad 99bd b0ca 693d 38f0 1b3c
000001f0: 4ebf d43d f10f c5bd dcf2 62bd 925c 153d
00000200: 8fbb 20bd 0b8f 0abd 2e27 ba3d 59c0 8dbd
00000210: 75ee 97bc 8776 2b3d 2872 c23d c844 20bc
00000220: 342a 97bd ea2f 283d 8b69 99be ea29 5ebd
00000230: e959 993b 77ed 3f3e e3cc 573e 7ac4 6e3d
00000240: a09d d73d d4f8 bfbc 4bc5 92bd 96f1 a2bd
00000250: 893c febc 14cb f33d 6312 fcbd 4f0b c9bd
00000260: 06a1 9a3d eadc b2bd 79d7 db3b a5a9 87bc
00000270: 0171 903d d79b 66bd 435a 8c3d bd3d 5dbd
00000280: 6c8f 81bc 86d7 223c 1e27 183d 28f6 293d
00000290: f1c2 afbd 4a2e 313d 3df6 9bbd 9cb4 2dbd
000002a0: 8b21 8c38 582c 003d 64ba 57bc f4ea ed3c
000002b0: 3ace 0dbd c80a 703c 7baa 4d3d ed25 2a3d
000002c0: 429f 203d 160d 8fbd cc13 02bd eb81 0f3d
000002d0: 5234 2ebd 5c00 84bd 5329 43bd 32b1 523b
000002e0: cb80 e53b 83f8 18bc a02f bcbc d269 253d
000002f0: 1b83 073d 33b4 53bd f3ab 97bd 91a8 1fbd
00000300: 3b58 1b3d 691a 7cbd ba43 873c 0c1a 1abd
00000310: 2e36 d7bd 8f1a 9f3d 7d7e d33d ebbb 8bbd
00000320: e8cf c53b 09d3 9abd d737 f5bd a363 a4bd
00000330: 0e32 763d 686a 97bd 0ecd bcbc e770 3fbd
00000340: d98d 823c 1511 97bd e559 b93a 2b38 b13d
00000350: e7a7 da3d 904f 31bd 4283 e23a ea67 c6bd
00000360: 5e08 5abd ab6b fbba 6a88 7d3d 28fd 92bd
00000370: df0d bdbd eca2 c6bc a895 58bd b0ba 7e3d
00000380: 15c7 49bd d456 38bd 959c 933d ffc4 223d
00000390: 390e 97bc 596a 4bbd cfad 413d 4197 163d
000003a0: bbea 293d 00c6 c13c 05f1 f2bc 5d45 4bbc
000003b0: 9bb0 493d edd7 c33c 4ec9 4b3b 2980 35bd
000003c0: 7ae6 033d ffc9 68bd 8517 cbbc a3c8 433d
000003d0: 8be3 4f3c 6c89 2d3d 6fda 84bd 8aa5 0fbd
000003e0: 79e7 88bd 259b 19bd 3cb7 8c3c 1b86 4c3d
000003f0: 1af2 20be d604 953d 4cb7 cabc 5dda 84bc

lstm_decoder.weight_hh_l0 f4 [512, 128]
0.06814753 -0.041383717 -0.011256369 -0.061256286 -0.037805595 0.005721876 0.040014975 0.06596479
0.0558742 0.027738748 -0.025417838 0.03382754 0.03928332 -0.070950575 0.012982669 -0.020496817
-0.013525746 -0.029518593 0.07460034 -0.026411278 -0.053965066 -0.060997445 -0.043338034 0.0074871364
-0.05281848 0.06314886 0.04211402 0.02551581 -0.02919086 -0.010453656 -0.028032009 0.05103125
0.017878022 0.049008686 0.023979165 -0.011025333 -0.08217056 0.02595362 -0.05276144 0.037485473
0.051345166 0.076383956 -0.06813674 0.064390406 0.03279578 -0.031071529 -0.013062885 0.018849833
-0.075994276 0.033998035 -0.05218588 0.0038532508 -0.0027796514 -0.05843532 0.048963737 -0.026542766
-0.075451285 -0.0002587243 -0.038927324 0.034660023 0.061776172 -0.02493127 0.005227798 -0.037383426
0.039695527 0.036747254 -0.025140677 -0.0465814 -0.035475977 -0.020355273 -0.023474334 0.041833375
0.061163742 -0.07206811 -0.07125246 0.05241582 0.053260412 -0.062168933 0.032811653 0.022611631
0.017532678 -0.01207284 0.0432486 -0.086690634 0.07424036 -0.07078629 -0.023380911 0.037540216
-0.01404206 -0.07097283 -0.0149995675 0.010118238 -0.06965084 0.071147144 -0.00694833 0.073278986
-0.07498564 0.07714945 0.044391774 0.061315786 0.059820663 -0.08047969 0.023785405 -0.011023883
-0.054590866 -0.024921011 -0.0011355111 -0.020980963 0.066256255 0.07062564 -0.083965495 0.040774513
-0.0040520453 0.057750247 0.048775375 -0.011445996 0.08730967 0.009652924 0.060154516 -0.073359646
-0.022249011 -0.06500888 0.04480893 0.016601816 -0.057549898 -0.05015474 -0.073315285 -0.01691941
0.026653666 0.07782873 0.03282215 0.06061273 0.08416074 -0.07789401 0.0190225 -0.025885552
-0.079534665 -0.06921608 -0.07636381 0.056584135 -0.0702701 0.034572694 0.06053798 -0.0029212108
0.049551178 0.010241078 0.034920767 0.070576645 -0.033916753 0.005635504 -0.0065439646 0.04509827
-0.044217873 0.062293414 0.07134623 -0.049504727 0.005074003 0.06764575 0.044614278 -0.042958707
-0.04782233 0.075719476 0.076123595 -0.031921476 0.015698759 -0.03559648 0.033154514 -0.039746217
-0.05507854 0.07369923 0.0055044712 0.022508778 -0.0055888 -0.020974655 0.033557963 -0.004938573
0.07625046 0.020693034 0.047954507 0.05152419 -0.005775167 -0.048736487 0.027507978 0.05808169
-0.08073895 -0.039998103 0.07162535 -0.05657645 0.023485864 -0.008712717 0.0068938034 -0.02141161
-0.053537734 -0.07655567 0.030246854 -0.069871195 -0.048306827 -0.010964358 0.0032455854 -0.03606055
-0.0019275064 0.019825755 -0.04130982 0.041420653 -0.04851115 0.08091222 -0.055851348 -0.0852912
-0.0071226996 -0.019855822 0.0536236 -0.034730703 -0.0039898707 0.016837282 0.019631382 -0.0812498
-0.026469894 -0.049599264 -0.083157115 0.07175478 -0.06550462 0.01182599 0.023568088 -0.032182205
0.024814466 0.06852511 -0.031474397 -0.040793896 -0.049114548 -0.04253047 -0.042950064 0.005322813
-0.078673095 -0.06575753 0.06539238 0.051471725 0.037222657 0.035198703 0.07960503 0.03710562
0.08113612 -0.056926724 0.06944136 0.0634106 0.01301188 -0.019446384 -0.022496006 -6.699242e-05
-0.0003517513 -0.08296661 -0.0042965147 0.08561761 -0.0705099 -0.028490588 0.040534813 0.023306236
00000000: ef90 8b3d f981 29bd a26c 38bc dfe7 7abd
00000010: 0ada 1abd 937e bb3b bee6 233d 8c18 873d
00000020: 58dc 643d 5f3c e33c 1239 d0bc bf8e 0a3d
00000030: 8ce7 203d 894e 91bd 43b5 543c f1e8 a7bc
00000040: 179b 5dbc fad0 f1bc 10c8 983d 775c d8bc
00000050: 790a 5dbd 75d8 79bd 3983 31bd a756 f53b
00000060: 3158 58bd 3154 813d c07f 2c3d 8806 d13c
00000070: ac21 efbc d045 2bbc 62a3 e5bc 2506 513d
00000080: ee74 923c 55bd 483d f46f c43c 99a3 34bc
00000090: 0a49 a8bd b09c d43c 611c 58bd 5e8a 193d
000000a0: 4f4f 523d 316f 9c3d 468b 8bbd 1edf 833d
000000b0: de54 063d b889 febc b605 56bc f76a 9a3c
000000c0: e3a2 9bbd 8641 0b3d dcc0 55bd d286 7c3b
000000d0: d02a 36bb e059 6fbd 338e 483d 3770 d9bc
000000e0: 3486 9abd 63a5 87b9 4272 1fbd abf7 0d3d
000000f0: 0309 7d3d aa3c ccbc f34d ab3b 5d1f 19bd
00000100: c797 223d 4a84 163d d2f3 cdbc 23cc 3ebd
00000110: 424f 11bd 1ac0 a6bc 3f4d c0bc 7959 2b3d
00000120: d586 7a3d 7298 93bd cfec 91bd f9b1 563d
00000130: 9727 5a3d daa4 7ebd 8365 063d 073c b93c
00000140: b1a0 8f3c 29cd 45bc 7225 313d dc8a b1bd
00000150: 540b 983d 67f8 90bd 5389 bfbc c5c3 193d
00000160: ab10 66bc 345a 91bd bfc0 75bc f7c6 253c
00000170: 19a5 8ebd 98b5 913d d1ae e3bb 4b13 963d
00000180: 1292 99bd 8800 9e3d 26d4 353d 4326 7b3d
00000190: 8306 753d 89d2 a4bd 9cd9 c23c 849d 34bc
000001a0: ac9a 5fbd 2627 ccbc 6ed5 94ba 45e0 abbc
000001b0: 5cb1 873d 2da4 903d 1af6 abbd 2d03 273d
000001c0: 05c7 84bb 868b 6c3d b0c8 473d fd87 3bbc
000001d0: 6acf b23d 4c27 1e3c 9564 763d 953d 96bd
000001e0: 8f43 b6bc 6023 85bd 9289 373d 8800 883c
000001f0: 71b9 6bbd 0f6f 4dbd 5326 96bd 939a 8abc
00000200: ca58 da3c ab64 9f3d 8570 063d 0e45 783d
00000210: 775c ac3d e586 9fbd 13d5 9b3c f00d d4bc
00000220: 12e3 a2bd 29c1 8dbd a164 9cbd c4c4 673d
00000230: c5e9 8fbd 199c 0d3d acf6 773d c971 3fbb
00000240: 2df6 4a3d 32ca 273c 1409 0f3d 7d8a 903d
00000250: 4bec 0abd 09aa b83b c16e d6bb f7b8 383d
00000260: cd1d 35bd 6127 7f3d f91d 923d 78c5 4abd
00000270: d243 a63b db89 8a3d 76bd 363d 78f5 2fbd
00000280: 59e1 43bd d012 9b3d b0e6 9b3d 18c0 02bd
00000290: af9a 803c 9dcd 11bd 07cd 073d eecc 22bd
000002a0: 099a 61bd 9fef 963d da5e b43b 5464 b83c
000002b0: 4122 b7bb 0ad3 abbc 1374 093d c1d3 a1bb
000002c0: 3429 9c3d 7084 a93c f26b 443d 070b 533d
000002d0: 9d3d bdbb e99f 47bd 6958 e13c 11e7 6d3d
000002e0: 765a a5bd 0dd5 23bd 50b0 923d b5bc 67bd
000002f0: 6d65 c03c c9bf 0ebc 6ae5 e13b 6767 afbc
00000300: 624a 5bbd 38c9 9cbd 40c8 f73c a118 8fbd
00000310: 61dd 45bd daa3 33bc e3b3 543b 3ab4 13bd
00000320: 62a4 fcba 9f69 a23c 7c34 29bd b4a8 293d
00000330: a1b3 46bd 4eb5 a53d 62c4 64bd 27ad aebd
00000340: 8965 e9bb ada8 a2bc 6ca4 5b3d c841 0ebd
00000350: 76bd 82bb 57ee 893c fed1 a03c 4c66 a6bd
00000360: 64d7 d8bc 9928 4bbd 474e aabd 2cf4 923d
00000370: 4927 86bd ccc1 413c dd11 c13c 7dd1 03bd
00000380: b547 cb3c e556 8c3d 4ceb 00bd 8017 27bd
00000390: 562c 49bd 6e34 2ebd 68ec 2fbd fe6a ae3b
000003a0: 5c1f a1bd e2ab 86bd 71ec 853d 04d4 523d
000003b0: c976 183d 842c 103d f607 a33d 10fc 173d
000003c0: b22a a63d ff2b 69bd 4637 8e3d 6bdd 813d
000003d0: c82f 553c 064e 9fbc 8b49 b8bc 487e 8cb8
000003e0: 436b b8b9 66ea a9bd c7c9 8cbb 4958 af3d
000003f0: 7f67 90bd 1865 e9bc d507 263d b8ec be3c

lstm_decoder.bias_ih_l0 f4 [512]
-0.06808603 0.032828905 -0.07411468 -0.016571414 0.03744198 0.069447555 -0.05930585 -0.06314251
-0.0027779874 0.08756615 0.0033438336 -0.01108688 -0.0074734357 0.07233754 -0.074743204 -0.026650466
0.057195522 -0.027456878 0.03865137 -0.018638138 0.055276208 0.02192685 0.035927705 -0.020417703
-0.071869336 -0.026011083 -0.06758195 6.934756e-05 -0.017417122 0.08613429 -0.009951586 -0.030825045
0.012845359 -0.0065906327 -0.028340736 0.06989786 0.012386295 0.016690101 0.01346741 0.033889715
0.018502004 -0.050452393 -0.04918772 -0.010881446 0.082427934 -0.060364224 -0.0379304 -0.048260476
0.011410034 -0.050746996 -0.02053161 0.045248292 -0.016339665 -0.02803914 0.027854556 -0.058711227
-0.06432821 -0.021767905 0.010979249 0.022167303 0.07820556 0.069990434 0.08010206 0.082513064
0.010987195 -0.049716778 -0.05638357 -0.06197635 -0.057970654 -0.059900343 -0.054589096 -0.019657403
0.005955827 -0.03247996 -0.016978871 0.0835113 -0.025802469 0.08179022 0.017776333 -0.01814155
0.025120435 0.062328454 -0.06537611 -0.03286269 0.07355387 0.075171314 0.080762655 0.055784732
-0.072041355 -0.016549008 -0.07222323 0.038742453 0.008769092 0.0130613195 0.066367194 -0.041316886
-0.016596548 0.05193817 -0.027975447 -0.0010562957 0.033031892 -0.054435845 0.023513706 0.008911353
0.038670518 -0.06105871 0.0487492 -0.019623287 0.06061187 0.067378886 0.06926096 -0.07075879
-0.044095844 -0.075182386 0.08767905 0.084458895 -0.06199798 -0.017791774 -0.010399652 -0.06161749
-0.009502688 0.04053143 -0.04052719 0.07351984 -0.02582901 -0.022332458 -0.027435223 0.027838983
-0.021877112 -0.008195665 -0.030462269 -0.008010476 0.0032828532 -0.031707916 -0.037029263 0.085475475
-0.03537597 0.072771244 0.07339128 -0.023027742 0.07950437 -0.07138228 0.037516378 -0.048715428
0.014334862 0.04173461 -0.048962355 -0.000116455194 0.04416367 -0.030330168 0.005552547 -0.067060195
-0.022501087 0.09843683 -0.022353025 0.02574045 0.061142273 0.0549173 0.0733171 0.015075982
0.0063876566 -0.0034192223 -0.07022869 -0.017358372 -0.021370588 -0.070691645 0.062059253 -0.008705449
0.020293405 0.013162597 0.017468616 0.07940867 -0.02640582 0.025438227 -0.024804544 0.083630756
-0.02925353 0.041849233 0.0064138807 0.069170326 0.026134288 0.056411784 0.043113768 0.012215046
-0.064969115 -0.00068850786 -0.06423274 -0.014527015 0.0073334137 -0.021642141 -0.038747456 0.020901645
-0.01746537 0.05897447 -0.07445316 -0.07880396 0.056229424 0.028260805 0.03976081 0.061808005
0.08045469 -0.0056174407 -0.042457677 0.020191023 -0.029800035 -0.007824083 0.036350902 -0.06054931
0.0703929 -0.06456837 -0.04978018 -0.06582371 0.081325874 -0.04283309 0.08062702 0.010816298
0.030557426 0.047822073 0.04359851 -0.047882706 -0.057318352 -0.041044015 -0.049721804 0.008549295
-0.026851319 0.07067632 0.05093746 -0.08508435 0.007936252 -0.065594144 0.0713286 0.06315523
0.036240775 -0.03650724 -0.03934376 -0.079754606 0.036118433 0.002584246 0.05932225 0.015081894
0.0026533836 0.039602973 -0.062342368 0.031280007 0.041553523 -0.018379923 -0.07411276 -0.009259186
-0.010571149 -0.04727975 -0.06179719 -0.07935365 0.06064719 0.06791122 0.083052084 0.08717568
00000000: b070 8bbd 9a77 063d 70c9 97bd c6c0 87bc
00000010: c35c 193d 853a 8e3d b1ea 72bd dc50 81bd
00000020: e50e 36bb e255 b33d 3824 5b3b bfa5 35bc
00000030: b9e3 f4bb b425 943d f712 99bd 1452 dabc
00000040: da45 6a3d 3fed e0bc e650 1e3d 02af 98bc
00000050: 4e69 623d f09f b33c ee28 133d 0743 a7bc
00000060: 3b30 93bd 3215 d5bc 6868 8abd b06e 9138
00000070: 5aae 8ebc 2d67 b03d fa0b 23bc ce84 fcbc
00000080: 5775 523c 3cf6 d7bb d52a e8bc 9c26 8f3d
00000090: e3ef 4a3c aeb9 883c 69a6 5c3c f1cf 0a3d
000000a0: 8491 973c 2ba7 4ebd 1079 49bd 1848 32bc
000000b0: facf a83d 7a40 77bd e85c 1bbd c7ac 45bd
000000c0: 27f1 3a3c 15dc 4fbd e831 a8bc 4656 393d
000000d0: c3da 85bc 57b2 e5bc 3d2f e43c 2f7b 70bd
000000e0: 82be 83bd 9b52 b2bc 4fe2 333c 3498 b53c
000000f0: 3d2a a03d 2557 8f3d 8d0c a43d 9cfc a83d
00000100: a303 343c d2a3 4bbd 75f2 66bd eada 7dbd
00000110: a372 6dbd 105a 75bd d198 5fbd 9008 a1bc
00000120: 1929 c33b b509 05bd 4617 8bbc f907 ab3d
00000130: b35f d3bc a281 a73d ac9f 913c 969d 94bc
00000140: 5fc9 cd3c 1f4c 7f3d e9e3 85bd 079b 06bd
00000150: 69a3 963d 6bf3 993d e466 a53d 887e 643d
00000160: 6b8a 93bd c991 87bc c6e9 93bd 68b0 1e3d
00000170: 3dac 0f3c 25ff 553c 86eb 873d e53b 29bd
00000180: 7cf5 87bc 1ebd 543d c42c e5bc 6773 8aba
00000190: 734c 073d 1ff8 5ebd d19f c03c ec00 123c
000001a0: fa64 1e3d b318 7abd 3ead 473d 04c1 a0bc
000001b0: 2744 783d f1fd 893d b1d8 8d3d fce9 90bd
000001c0: d89d 34bd 39f9 99bd 1391 b33d c9f8 ac3d
000001d0: 98f1 7dbd 0ec0 91bc 4d63 2abc 9f62 7cbd
000001e0: 2ab1 1bbc 4904 263d d7ff 25bd 9291 963d
000001f0: 5c97 d3bc 8ff2 b6bc d5bf e0bc 940e e43c
00000200: a137 b3bc 1c47 06bc 028c f9bc 5f3e 03bc
00000210: 2325 573b 29e0 01bd ffab 17bd c40d af3d
00000220: 65e6 10bd 1709 953d 2b4e 963d ada4 bcbc
00000230: 30d3 a23d df30 92bd c6aa 193d d489 47bd
00000240: c5dc 6a3c e9f1 2a3d c08c 48bd 6839 f4b8
00000250: f7e4 343d f976 f8bc 24f2 b53b db56 89bd
00000260: 3354 b8bc 4099 c93d b11d b7bc a3dd d23c
00000270: 5270 7a3d f6f0 603d 4727 963d 4001 773c
00000280: 8c4f d13b 0815 60bb 0fd4 8fbd 2533 8ebc
00000290: 5f11 afbc c8c6 90bd d831 7e3d 4da1 0ebc
000002a0: 5b3e a63c efa7 573c 581a 8f3c 03a1 a23d
000002b0: 0551 d8bc d463 d03c e632 cbbc 9a46 ab3d
000002c0: 19a5 efbc 1a6a 2b3d 882b d23b 2ca9 8d3d
000002d0: 9317 d63c 0b10 673d 1098 303d 9e21 483c
000002e0: 870e 85bd fb7c 34ba 748c 83bd b802 6ebc
000002f0: 224d f03b dc4a b1bc a7b5 1ebd ed39 ab3c
00000300: 8913 8fbc 378f 713d e67a 98bd f863 a1bd
00000310: d350 663d 3483 e73c 3bdc 223d 642a 7d3d
00000320: 6ec5 a43d 8212 b8bb 1ae8 2dbd a567 a53c
00000330: 341f f4bc 9530 00bc afe4 143d 8e02 78bd
00000340: 272a 903d 6c3c 84bd 4de6 4bbd 95ce 86bd
00000350: 2e8e a63d c071 2fbd c71f a53d d836 313c
00000360: 9153 fa3c 14e1 433d 5a94 323d a820 44bd
00000370: a6c6 6abd c51d 28bd 17a9 4bbd 5812 0c3c
00000380: 4cf7 dbbc bfbe 903d cca3 503d b440 aebd
00000390: 0e07 023c 3956 86bd bb14 923d 8757 813d
000003a0: 3571 143d 9e88 15bd ec26 21bd 6256 a3bd
000003b0: ecf0 133d 745c 293b e3fb 723d 0c1a 773c
000003c0: 64e4 2d3b ba36 223d b65a 7fbd 771f 003d
000003d0: 0734 2a3d 7e91 96bc 6ec8 97bd d7b3 17bc
000003e0: 9d32 2dbc 69a8 41bd 0d1f 7dbd 2b84 a2bd
000003f0: 3069 783d 0a15 8b3d 3617 aa3d 2a89 b23d
