transformer_no_tanh_with_past_12_Nm_144_Np_lr_0.001_hs_128_ahs_8_nll_1_bs_16_do_0.5_e_200_stride_10/model_transfer_A25_to_J25_0.01n_0.001lr_200e.pth (torch, 831443 bytes, 14 tensors)

lstm_encoder.weight_ih_l0 f4 [512, 8]
0.025437346 0.03680402 0.08185286 -0.0051205806 0.00026582612 -0.053342436 0.0056317467 -0.079219155
-0.06290066 -0.047638856 0.064885765 0.052678417 0.015125732 -0.028444285 0.042035036 -0.035582002
0.03213617 0.026587142 0.038549796 0.017441714 -0.011221318 0.066540204 0.01646235 -0.026181784
-0.05516566 0.014116222 -0.06395331 0.057654604 -0.06351093 0.026686752 0.06096287 0.09401007
-0.0072545926 -0.06928542 0.0024471916 0.056172363 -0.034470037 -0.057252757 -0.07092232 0.06294841
0.05624959 0.037820622 0.05534815 0.048165563 0.0626977 0.03362133 -0.019124001 0.06747119
0.016440682 0.032502454 0.07727656 -0.031631924 -0.06917817 0.0129579995 0.063302495 0.024076758
0.009908806 0.01455734 0.059770435 0.0007958922 0.030349003 -0.048136204 0.025329048 -0.08147199
-0.05581081 0.041647486 0.08245812 0.094473 -0.016607407 0.06181138 -0.028779328 0.0104908645
0.0342121 -0.0065854224 -0.07648423 0.08708242 -0.02000111 0.062609695 -0.05990729 0.03093998
0.018001584 0.04620826 -0.061628703 -0.029179705 -0.014707862 0.07035692 0.07236784 -0.05923597
0.0636983 0.013684114 0.016737243 -0.08463606 0.073822744 -0.012391372 -0.04894135 0.047182627
0.026877657 0.031101333 0.011041917 -0.035316356 -0.028719854 -0.021166768 -0.05337925 0.023263484
0.072092056 -0.036733154 0.06873186 -0.01794956 0.020534005 0.02679319 -0.0058224993 -0.028136555
-0.035959203 0.037361193 -0.02614715 -0.022252211 -0.049740322 -0.070107475 0.017361308 -0.029371843
0.06647009 0.039394252 0.04002781 -0.033582766 -0.029536558 -0.032600015 0.07908282 0.08510739
-0.06421914 -0.047563147 0.045560528 0.08228834 0.008792512 -0.06419951 -0.049655717 -0.012033002
-0.024375115 -0.030351007 0.0070583215 0.06001729 0.03837285 -0.07250851 -0.020490112 -0.04986634
0.037367262 0.041757733 -0.06611424 -0.04153283 0.026444819 -0.030642482 -0.05476086 0.0232
-0.021599203 0.035484042 0.03943312 -0.024414534 0.007911594 0.041317202 -0.069635205 -0.013839544
0.026114967 0.007664877 0.025394155 0.06597422 -0.018410318 -0.007608035 0.047019433 -0.06798663
-0.024278684 -0.00029036115 -0.051666338 -0.040085655 0.04134588 0.060072757 0.055345852 0.04352572
-0.072594866 -0.046080016 0.07545099 -0.02177813 -0.050580766 -0.07648839 -0.04177788 0.06543475
0.0632904 -0.06375504 -0.05476764 0.054360904 0.02358591 0.028492099 -0.04022827 0.0025225666
-0.054734834 0.024331432 0.10097915 -0.07947295 -0.025063464 -0.010024179 0.070881434 0.07921174
-0.06597419 0.004583748 -0.0072512473 0.04787044 -0.05738567 -0.0356758 0.02779649 0.04751527
-0.03687897 -0.07793951 -0.069586776 -0.060168453 -0.052852612 -0.03911995 -0.020249218 -0.07983107
0.040104497 -0.06309461 0.07377098 0.0143517405 0.09302908 -0.037882898 -0.028898638 0.027981829
-0.07993224 -0.02979353 -0.0028049129 -0.07210587 0.06917493 0.07052017 0.05835018 0.08288319
0.0013528351 0.052377097 0.068909846 0.037176117 -0.0030328557 0.028107097 0.05694603 -0.020086097
-0.078834236 0.08391172 -0.045781255 -0.010310279 0.05716893 0.026089862 -0.009808519 -0.0365108
-0.0063322736 -0.022620356 -0.03528863 0.06800949 0.0504972 0.08553781 0.012369329 -0.06434216
00000000: fb61 d03c d0bf 163d 79a2 a73d 8bca a7bb
00000010: 945e 8b39 997d 5abd 848a b83b a73d a2bd
00000020: 10d2 80bd f620 43bd d4e2 843d 53c5 573d
00000030: ebd1 773c fd03 e9bc ee2c 2c3d 6fbe 11bd
00000040: 37a1 033d 47cd d93c 64e6 1d3d ede1 8e3c
00000050: 9ed9 37bc 3b46 883d 0ddc 863c 2e7b d6bc
00000060: 63f5 61bd ba47 673c f4f9 82bd 3c27 6c3d
00000070: 0512 82bd 2d9e da3c 34b4 793d 5a88 c03d
00000080: efb7 edbb 84e5 8dbd 1061 203b fe14 663d
00000090: 7430 0dbd de81 6abd b93f 91bd 19eb 803d
000000a0: f865 663d cce9 1a3d beb4 623d 4149 453d
000000b0: a767 803d 85b6 093d f0a9 9cbc 562e 8a3d
000000c0: 9cae 863c 4b21 053d 2c43 9e3d 7a90 01bd
000000d0: 49ad 8dbd ca4d 543c bda4 813d 9f3c c53c
000000e0: 8b58 223c e981 6e3c d8d1 743d 6ca3 503a
000000f0: 799e f83c 782a 45bd dd7e cf3c c9da a6bd
00000100: e099 64bd 8e96 2a3d cedf a83d 0f7b c13d
00000110: 420c 88bc ee2d 7d3d a0c2 ebbc e0e1 2b3c
00000120: fd21 0c3d 87ca d7bb c4a3 9cbd 4558 b23d
00000130: 5ed9 a3bc 8339 803d 5961 75bd d775 fd3c
00000140: 0f78 933c df44 3d3d 616e 7cbd 470a efbc
00000150: 3ff9 70bc 4a17 903d 9735 943d 6ba1 72bd
00000160: 4174 823d 5633 603c 8b1c 893c ac55 adbd
00000170: 6130 973d 2e05 4bbc ba76 48bd 9242 413d
00000180: 882e dc3c 39c8 fe3c 28e9 343c e2a7 10bd
00000190: e645 ebbc ee65 adbc 33a4 5abd 1093 be3c
000001a0: 00a5 933d 8175 16bd 4ac3 8c3d f50a 93bc
000001b0: ee36 a83c 647d db3c aaca bebb a27e e6bc
000001c0: f549 13bd 0d08 193d 8c32 d6bc 454a b6bc
000001d0: 82bc 4bbd 8294 8fbd 4d39 8e3c 389d f0bc
000001e0: 7821 883d de5b 213d 33f4 233d 158e 09bd
000001f0: a7f6 f1bc 9887 05bd 2cf6 a13d c94c ae3d
00000200: 5385 83bd 93d1 42bd ad9d 3a3d ca86 a83d
00000210: 780e 103c 087b 83bd cb63 4bbd 1226 45bc
00000220: 52ae c7bc ada2 f8bc 7e49 e73b b1d4 753d
00000230: d92c 1d3d 577f 94bd e1da a7bc a640 4cbd
00000240: 6a0e 193d 280a 2b3d e766 87bd 541e 2abd
00000250: cea2 d83c f105 fbbc ec4c 60bd ed0d be3c
00000260: d0f0 b0bc b757 113d a084 213d fd00 c8bc
00000270: a19f 013c 3a3c 293d e79c 8ebd 41bf 62bc
00000280: 0eef d53c a629 fb3b 6707 d03c 7e1d 873d
00000290: 3cd1 96bc d34c f9bb 7397 403d 933c 8bbd
000002a0: 17e4 c6bc 9d3b 98b9 15a0 53bd db30 24bd
000002b0: 4c5a 293d da0e 763d 55b2 623d 0648 323d
000002c0: 9eac 94bd 66be 3cbd 0c86 9a3d 0d68 b2bc
000002d0: c72d 4fbd f2a5 9cbd 481f 2bbd a702 863d
000002e0: 669e 813d 0192 82bd 0854 60bd 8aa9 5e3d
000002f0: 3d37 c13c 4368 e93c 66c6 24bd a551 253b
00000300: a231 60bd b652 c73c 28ce ce3d b7c2 a2bd
00000310: e551 cdbc 743c 24bc 492a 913d c439 a23d
00000320: 7a1d 87bd 4433 963b df9b edbb cb13 443d
00000330: 3c0d 6bbd ca20 12bd 77b5 e33c 5f9f 423d
00000340: 670e 17bd c09e 9fbd 8383 8ebd 3273 76bd
00000350: fb7b 58bd 3e3c 20bd b0e1 a5bc 797e a3bd
00000360: 9d44 243d bf37 81bd 3d15 973d 9023 6b3c
00000370: 0886 be3d 192b 1bbd d6bc ecbc 263a e53c
00000380: 84b3 a3bd 9011 f4bc a1d2 37bb 3eac 93bd
00000390: 96ab 8d3d e16c 903d 9900 6f3d a9be a93d
000003a0: 9d51 b13a 5e89 563d 9b20 8d3d fc45 183d
000003b0: e0c2 46bb db40 e63c 3e40 693d 998b a4bc
000003c0: d873 a1bd e8d9 ab3d 2085 3bbd 72ec 28bc
000003d0: f829 6a3d 68ba d53c e9b3 20bc 598c 15bd
000003e0: f67e cfbb 534e b9bc cf8a 10bd 8f48 8b3d
000003f0: 27d6 4e3d 732e af3d baa8 4a3c d3c5 83bd

lstm_encoder.weight_hh_l0 f4 [512, 128]
-0.045116913 -0.031871065 0.00072429865 -0.028409744 -0.032037005 -0.06786803 -0.02807683 0.02365184
-0.06672446 0.010226502 0.0028732263 0.0008457076 -0.01665682 0.068339534 -0.0078403875 0.060158882
-0.06459409 0.07587038 0.034611907 0.051852837 -0.09040789 0.079379946 -0.003796158 0.033788197
0.064135395 0.0073149414 0.08010321 0.0059538954 -0.06766913 0.05931807 -0.054482356 0.057736497
0.011058091 -0.031478133 0.0775778 -0.0059372205 -0.019165855 0.06037452 0.0077180066 0.0494837
-0.061742507 -0.005260007 0.07953065 0.07047818 0.013172197 -0.07690601 0.070839785 -0.054633677
-0.034077782 -0.049512696 -0.040334363 -0.007898453 0.040455982 0.021473836 -0.028715173 0.008081018
-0.028302224 -0.054177627 -0.06772167 -0.015272191 -0.06040611 -0.03197773 0.028349372 -0.080560744
0.054804146 0.05633387 -0.009706979 -0.061414063 -0.059885666 0.024412587 -0.054676812 0.028767902
-0.02437135 0.081580326 0.06202469 -0.016055001 -0.044134688 0.0650713 -0.067349635 0.037487976
-0.021740172 -0.03378863 -0.080698214 -0.089659415 -0.079388805 -0.036877062 0.07156072 -2.3617258e-05
-0.022829944 0.052603163 0.01001413 0.046536475 0.03156782 0.056918953 -0.057035822 -0.03347068
-0.028644947 0.062994376 -0.0033608314 -0.0803515 0.031520978 0.020637883 -0.10381167 -0.016319524
-0.049344435 0.0019020523 0.025300154 0.0024430922 0.030687131 -0.02410922 -0.00060329365 -0.0706386
0.040371247 0.044304486 0.059913307 0.07727231 0.023198323 0.084665544 0.041386474 -0.05068797
0.04981697 -0.07468983 0.03907259 0.030177822 0.07146746 0.009234172 -0.06952818 0.038179517
-0.0004658062 0.08566591 0.04065075 0.0691765 -0.078365214 0.03991299 -0.040810343 -0.045296043
-0.070107244 0.035240084 0.06332388 -0.03335417 -0.061426073 -0.08737151 0.024844702 0.016174123
0.0150094405 0.003115705 -0.040425356 0.049346052 -0.0765994 0.0038125948 0.01186506 -0.027349068
-0.08342052 0.032423943 0.06978124 0.06488234 0.015921643 -0.06360895 -0.019087242 0.05434034
0.032106645 -0.0353106 0.026173063 -0.02425782 0.07395929 0.022777513 0.080780715 -0.054381657
-0.0289622 -0.035771098 0.06721647 -0.041210454 -0.056797586 0.025013138 -0.0029254297 -0.002151865
0.04529528 0.051601704 -0.04372957 -0.049803596 -0.07295613 -0.04179587 0.051891387 -0.054710396
-0.051679544 -0.055731926 0.053799197 0.015363223 0.014265274 0.041411098 -0.0149159385 0.056213804
0.042209934 0.017893089 -0.054806598 0.036593758 -0.046905637 -0.070028335 -0.052187126 0.05477865
0.0069207274 0.052690256 0.07071385 0.085233346 -0.021707468 -0.053123754 0.028611334 0.061603475
0.046622016 0.037080072 -0.06538069 -0.04337522 -0.05100315 -0.03657149 -0.057690896 -0.037863202
-0.05259634 -0.058001637 -0.06293546 -0.09444512 0.02838286 0.035689004 0.035086017 -0.04613726
-0.053986903 0.004570107 -0.057753973 -0.06449117 0.015505581 0.057813734 -0.07520321 -0.06606234
-0.0022981488 0.06713642 -0.06100552 -0.07374954 -0.06389445 -0.014514611 0.012002599 0.07977744
0.036919586 -0.019462328 -0.058557946 -0.05598919 0.034723636 -0.040499046 0.07406073 0.049548034
-0.059675198 -0.028362628 -0.07923248 -0.042065658 -0.052433714 -0.051360458 -0.017121624 0.04931286
00000000: 83cc 38bd 3c8b 02bd dcde 3d3a 8dbb e8bc
00000010: 3c39 03bd 65fe 8abd 6101 e6bc 81c1 c13c
00000020: d5a6 88bd 0f8d 273c bd4c 3c3b 7ab2 5d3a
00000030: e273 88bc 99f5 8b3d f874 00bc 2969 763d
00000040: e849 84bd ee61 9b3d 37c5 0d3d a463 543d
00000050: c627 b9bd f491 a23d f6c8 78bb 7e65 0a3d
00000060: 6b59 833d 2db2 ef3b 270d a43d e518 c33b
00000070: 1d96 8abd 81f7 723d e428 5fbd 1b7d 6c3d
00000080: ff2c 353c 37ef 00bd 1ce1 9e3d 048d c2bb
00000090: b601 9dbc 464b 773d 55e7 fc3b 6caf 4a3d
000000a0: b6e5 7cbd 235c acbb f7e0 a23d dd56 903d
000000b0: 33d0 573c e680 9dbd 7314 913d 90c7 5fbd
000000c0: 2595 0bbd d3cd 4abd a535 25bd 8368 01bc
000000d0: 2cb5 253d e6e9 af3c 153c ebbc 3f66 043c
000000e0: 11da e7bc 5ce9 5dbd a9b1 8abd 3638 7abc
000000f0: 666c 77bd 15fb 02bd f13c e83c 08fd a4bd
00000100: 507a 603d 58be 663d 050a 1fbc 508d 7bbd
00000110: ac4a 75bd e8fc c73c cbf4 5fbd aaaa eb3c
00000120: 6da6 c7bc 9613 a73d 9a0d 7e3d c785 83bc
00000130: 93c6 34bd 1a44 853d 9bee 89bd fe8c 193d
00000140: 7218 b2bc f265 0abd 1b45 a5bd 5b9f b7bd
00000150: 9996 a2bd 670c 17bd 6d8e 923d ad1d c6b7
00000160: dd05 bbbc 6a76 573d 4e12 243c 089d 3e3d
00000170: 424d 013d d923 693d 659e 69bd 8d18 09bd
00000180: cfa8 eabc 3203 813d 6541 5cbb 548f a4bd
00000190: 241c 013d c710 a93c 369b d4bd 86b0 85bc
000001a0: 641d 4abd 494e f93a 4542 cf3c 491c 203b
000001b0: 9463 fb3c b380 c5bc 5a26 1eba f8aa 90bd
000001c0: 525c 253d 9f78 353d a867 753d f240 9e3d
000001d0: 690a be3c 2165 ad3d dd84 293d 309e 4fbd
000001e0: e10c 4c3d fbf6 98bd 950a 203d 7b37 f73c
000001f0: 885d 923d ed4a 173c ca64 8ebd 2062 1c3d
00000200: 7337 f4b9 9c71 af3d 6781 263d 69ac 8d3d
00000210: f17d a0bd ce7b 233d bf28 27bd 5888 39bd
00000220: 6394 8fbd e857 103d f3af 813d 629e 08bd
00000230: e899 7bbd d6ef b2bd 1e87 cb3c 987f 843c
00000240: 28ea 753c db30 4c3b 0f95 25bd 161f 4a3d
00000250: 25e0 9cbd badc 793b ab65 423c 270b e0bc
00000260: 61d8 aabd f8ce 043d 77e9 8e3d 08e1 843d
00000270: 1b6e 823c 6945 82bd d95c 9cbc fa93 5e3d
00000280: 4282 033d d9a1 10bd e468 d63c 56b8 c6bc
00000290: f877 973d e897 ba3c 5c70 a53d 4dbf 5ebd
000002a0: 2342 edbc b784 12bd caa8 893d 4bcc 28bd
000002b0: 96a4 68bd 5ae8 cc3c 91b8 3fbb 4e06 0dbb
000002c0: 8b87 393d 4f5c 533d c71d 33bd dbfe 4bbd
000002d0: 066a 95bd 2532 2bbd 108c 543d 0218 60bd
000002e0: eead 53bd 2947 64bd 8c5c 5c3d 07b6 7b3c
000002f0: e5b8 693c af9e 293d fb61 74bc 7240 663d
00000300: 53e4 2c3d 8794 923c e27c 60bd 56e3 153d
00000310: 2020 40bd 046b 8fbd 2bc2 55bd 945f 603d
00000320: 45c7 e23b bdd1 573d 6cd2 903d d28e ae3d
00000330: dcd3 b1bc 4b98 59bd 5162 ea3c ed53 7c3d
00000340: baf6 3e3d 46e1 173d 50e6 85bd 37aa 31bd
00000350: aee8 50bd fdcb 15bd 4a4d 6cbd 7216 1bbd
00000360: 436f 57bd 2093 6dbd 4ee4 80bd 716c c1bd
00000370: 2c83 e83c a22e 123d 5bb6 0f3d 6cfa 3cbd
00000380: 5f21 5dbd d6c0 953b 6e8f 6cbd f213 84bd
00000390: 1f0b 7e3c 18ce 6c3d 2404 9abd b14b 87bd
000003a0: 8a9c 16bb d27e 893d ede0 79bd 000a 97bd
000003b0: 18db 82bd b1ce 6dbc 8da6 443c 5b62 a33d
000003c0: fe38 173d 766f 9fbc 75da 6fbd ec54 65bd
000003d0: 5f3a 0e3d 54e2 25bd 27ad 973d e1f2 4a3d
000003e0: fb6d 74bd be58 e8bc a344 a2bd 0a4d 2cbd
000003f0: bcc4 56bd 585f 52bd a642 8cbc 48fc 493d

lstm_encoder.bias_ih_l0 f4 [512]
-0.03065522 -0.032794543 -0.039969865 -0.011879458 -0.02289305 0.015745915 0.07563291 0.054654557
-0.086321115 0.017539894 -0.032627046 0.054943014 -0.02761553 0.024705427 0.07184182 -0.0006734059
0.007904535 -0.04845662 -0.019024566 -0.05805024 -2.8903523e-05 -0.0585181 -0.029979654 0.016900875
-0.0052299798 0.08019695 -0.007925523 -0.06032746 0.02393164 0.058816563 0.033945166 -0.020482507
0.016146213 0.01725451 -0.017860256 -0.028260475 0.037398916 0.040341627 -0.07564663 -0.012223788
-0.030053856 -0.045578066 0.052140724 0.036084455 0.043010693 0.012915214 -0.013030148 0.06178037
0.03581357 0.053830214 0.086245716 0.109912895 -0.045141768 0.026864829 -0.047142893 -0.035463907
-0.018231021 0.031544045 0.069545664 -0.031149087 0.0168168 0.060646843 0.030652262 0.049009636
-0.086302556 -0.08989197 0.0071219294 -0.072850995 -0.016370475 0.07032502 0.008982173 -0.019359251
-0.019986654 -0.040279433 0.06800368 -0.04264291 0.05778966 -0.01179326 0.011577513 -0.08226738
-0.046311967 0.02640729 -0.04550995 -0.06685714 -0.08026296 -0.03235634 -0.015720502 0.028362611
-0.076178774 -0.020255426 -0.025869146 0.0040431824 -0.062117673 -0.042443804 -0.0832429 0.074287616
-0.016751701 0.08772931 -0.013806276 0.037133537 0.043922596 0.04058697 -0.029915536 0.048195306
0.03622724 -0.03521664 0.03363732 -0.0262328 -0.0026904824 -0.013787329 -0.046169106 -0.019866018
-0.016306575 -0.06564241 0.007582472 0.0086265495 -0.0144938715 0.0412195 -0.055332858 -0.028743703
0.012975125 -0.08127961 -0.004232981 -0.060595024 -0.07409103 -0.016486952 0.05064378 0.065433964
0.036908202 0.029433044 -0.014913437 0.026180137 -0.07281645 0.050365727 0.04437899 0.07755192
0.002622558 -0.007163442 -0.00045479022 0.013813545 -0.037109997 -0.047835115 0.013926311 0.054215305
0.035265572 -0.061755877 -0.057010036 0.021039713 -0.009828005 -0.078580014 -0.0801159 0.041873824
0.05889554 -0.02467065 0.0410475 0.037458457 -0.04782551 -0.024149824 0.081906326 -0.058408875
-0.059519954 0.08334564 -0.059773732 0.073930204 -0.022749107 -0.03715215 0.06995535 0.041436322
-0.00564093 -0.005366979 0.01324258 0.05884912 -0.08102501 -0.02094 0.05374328 0.04329566
0.0732171 -0.013721687 -0.00955186 -0.04430584 -0.040702302 -0.007923827 0.0015215792 0.058819756
-0.07840878 -0.039579406 0.026789133 -0.025387177 -0.062306847 0.00043353398 -0.04771364 -0.025967289
0.048518535 0.016110726 -0.048336018 -0.029894808 0.052274555 -0.04590446 -0.06785914 0.038767837
0.049822267 -0.033035047 0.023448948 -0.056869682 0.070360176 0.067713074 -0.0672223 0.019940391
-0.0832844 -0.005230716 0.00025551498 -0.061183054 0.07344186 0.022919783 -0.092544 0.07418468
0.07968673 -0.003855332 -0.049324367 0.046713695 0.019558676 -0.0065561337 -0.08132765 0.011617861
0.046137143 0.018905295 -0.06380143 0.017544067 -0.06658687 -0.036525495 -0.070423916 -0.04274428
0.029472578 0.025042173 -0.0069010304 -0.036781162 0.069007866 0.060055435 -0.086958885 0.08290263
0.07240655 0.085666426 -0.021602055 -0.061931074 0.060789626 -0.0065989946 -0.0991451 -0.06891324
-0.015686342 -0.011734123 0.052137166 -0.0060557094 0.007819009 0.07848383 -0.08234445 -0.037684392
00000000: a820 fbbc 9253 06bd 71b7 23bd 0fa2 42bc
00000010: 358a bbbc 94fd 803c 6de5 9a3d 75dd 5f3d
00000020: 20c9 b0bd d3af 8f3c f0a3 05bd ed0b 613d
00000030: f739 e2bc 0963 ca3c ce21 933d 8187 30ba
00000040: 0682 013c 737a 46bd 68d9 9bbc 17c6 6dbd
00000050: d875 f2b7 adb0 6fbd e497 f5bc b473 8a3c
00000060: 4060 abbb 4c3e a43d 0eda 01bc ed19 77bd
00000070: 490c c43c a3e9 703d 160a 0b3d eeca a7bc
00000080: 1045 843c 5559 8d3c ac4f 92bc 8382 e7bc
00000090: 9b2f 193d 433d 253d 9fec 9abd 4846 48bc
000000a0: 8133 f6bc 11b0 3abd 8391 553d 4bcd 133d
000000b0: fb2b 303d 559a 533c 677c 55bc 6a0d 7d3d
000000c0: 40b1 123d 127d 5c3d 98a1 b03d 031a e13d
000000d0: 93e6 38bd a113 dc3c e818 41bd 9a42 11bd
000000e0: 3959 95bc 5434 013d f56d 8e3d 5f2c ffbc
000000f0: 63c3 893c d368 783d 741a fb3c 54be 483d
00000100: 65bf b0bd 4819 b8bd 135f e93b e732 95bd
00000110: 601b 86bc 9006 903d f729 133c 4b97 9ebc
00000120: 0dbb a3bc 0cfc 24bd 8345 8b3d 55aa 2ebd
00000130: dab4 6c3d 8538 41bc 9caf 3d3c cd7b a8bd
00000140: 9eb1 3dbd 1a54 d83c a468 3abd 65ec 88bd
00000150: e860 a4bd 1588 04bd 48c8 80bc b558 e83c
00000160: 9e03 9cbd b5ee a5bc 88eb d3bc ac7c 843b
00000170: 1a6f 7ebd 8ed9 2dbd 417b aabd 1b24 983d
00000180: dd3a 89bc 6dab b33d b833 62bc 5619 183d
00000190: 2ee8 333d 863e 263d 6d11 f5bc 7168 453d
000001a0: 0463 143d 533f 10bd 49c7 093d 2be6 d6bc
000001b0: ce52 30bb 40e4 61bc d11b 3dbd 0fbe a2bc
000001c0: 5e95 85bc 876f 86bd 6376 f83b 5f56 0d3c
000001d0: b477 6dbc c7d5 283d b5a4 62bd ea77 ebbc
000001e0: 9e95 543c ed75 a6bd d1b4 8abb 7d32 78bd
000001f0: 0abd 97bd a50f 87bc da6f 4f3d 3e02 863d
00000200: 0e2d 173d 911d f13c 7d57 74bc ba77 d63c
00000210: ca20 95bd 4b4c 4e3d bec6 353d 8bd3 9e3d
00000220: 39df 2b3b 4fbb eabb e970 eeb9 3552 623c
00000230: a700 18bd c1ee 43bd 2f2b 643c de10 5e3d
00000240: a272 103d bbf3 7cbd 5b83 69bd 7a5b ac3c
00000250: a405 21bc 8fee a0bd ce13 a4bd e383 2b3d
00000260: 733c 713d 1a1a cabc 6c21 283d 0a6e 193d
00000270: afe4 43bd dad5 c5bc 81be a73d 253e 6fbd
00000280: 32cb 73bd 1eb1 aa3d 4dd5 74bd b868 973d
00000290: 565c babc da2c 18bd c044 8f3d 22b9 293d
000002a0: 8dd7 b8bb 7cdd afbb 68f7 583c c60b 713d
000002b0: 71f0 a5bd 5d8a abbc ea21 5c3d ca56 313d
000002c0: d9f2 953d edd0 60bc 687f 1cbc 0a7a 35bd
000002d0: 75b7 26bd f0d2 01bc ba6f c73a fcec 703d
000002e0: c894 a0bd 041e 22bd e274 db3c c5f8 cfbc
000002f0: 7735 7fbd f24b e339 616f 43bd 5ab9 d4bc
00000300: 5fbb 463d a4fa 833c fdfb 45bd f5e5 f4bc
00000310: d81d 563d 5106 3cbd bcf9 8abd 06cb 1e3d
00000320: 6f12 4c3d c24f 07bd 0218 c03c 2ff0 68bd
00000330: ff18 903d 27ad 8a3d d8ab 89bd 085a a33c
00000340: 0391 aabd 6d66 abbb a4f6 8539 159b 7abd
00000350: b068 963d 45c2 bb3c b587 bdbd 23ee 973d
00000360: cc32 a33d bda9 7cbb 5908 4abd dc56 3f3d
00000370: 8439 a03c d6d4 d6bb 1c8f a6bd d758 3e3c
00000380: 4dfa 3c3d 47df 9a3c 53aa 82bd 93b8 8f3c
00000390: b25e 88bd c29b 15bd 6a3a 90bd a014 2fbd
000003a0: 7a70 f13c 3e25 cd3c 0a22 e2bb d8a7 16bd
000003b0: ff53 8d3d b0fc 753d 8017 b2bd dbc8 a93d
000003c0: e349 943d e171 af3d cbf6 b0bc 70ab 7dbd
000003d0: 8bfe 783d 613c d8bb 960c cbbd 6322 8dbd
000003e0: a580 80bc 7b40 40bc c88d 553d f96e c6bb
000003f0: 4d1b 003c 21bc a03d 35a4 a8bd f35a 1abd

lstm_encoder.bias_hh_l0 f4 [512]
-0.032083653 0.003287509 0.050077427 0.02983471 -0.0015949454 0.049473163 -0.032152057 0.06035711
-0.09246958 0.013820823 -0.05397262 0.012004782 0.027963387 0.0406088 -0.04188509 0.06585298
0.0703957 -0.061786935 -0.002794017 -0.07000364 0.00966504 -0.05251137 -0.05778672 -0.0309818
0.0006643404 0.011464742 -0.014154953 0.07906493 -0.008470246 0.07134971 -0.046964113 0.08014237
0.036387876 -0.06430568 0.02008508 -0.025177732 0.02108733 -0.025945105 -0.04416381 0.028700203
-0.06683029 -0.04064036 -0.007028826 0.011431033 -0.07210644 0.077785306 -0.05205455 0.036595535
-0.02106988 0.048916515 0.053995732 0.03905384 -0.015584767 0.023021024 0.046814777 0.038119804
-0.064605765 0.05705052 -0.00060873816 -0.015438286 -0.0663215 0.004097819 0.08352582 0.03523945
-0.0528145 0.053646788 0.036909696 -0.09238265 0.0015215247 0.018252756 0.03183312 -0.030223427
-0.011868063 -0.05094 0.047552038 -0.050164737 0.0015781205 0.008828726 0.020042349 0.06774354
-0.077198125 -0.04694571 0.057637054 0.031652384 -0.026053824 -0.04621028 -0.06202806 -0.068865255
0.070828885 0.005152393 -0.05783168 0.027636807 -0.023013439 0.052004077 0.020009972 -0.04351529
0.07023151 0.019497106 0.054490995 -0.062915914 0.028771501 -0.054944187 -0.010327771 0.038680952
0.030552583 -0.017811947 0.05558336 -0.032009456 0.009110437 0.04656402 0.017210262 0.038925607
-0.057951692 0.07415984 -0.045288652 -0.057485405 -0.05396561 -0.01895713 0.024192275 -0.06713546
0.073776476 -0.06644957 -0.039258208 -0.08133164 0.029764164 0.034454122 -0.0056296336 -0.013144807
-0.040456098 -0.04906104 -0.06022714 -0.07547169 0.0039805057 -0.023672806 0.049859896 0.009644035
0.01010414 0.013185559 0.071848005 -0.048573844 -0.060665634 -0.031928442 -0.02467586 -0.051524766
0.03984446 0.06206174 -0.06448528 -0.03061064 0.029568987 0.050947864 0.016459387 0.06462501
-0.055697337 -0.045289457 -0.0036012623 -0.046331476 0.029900134 -0.05411803 -0.043293994 0.014995434
-0.044292197 0.009190077 0.05071179 0.08223219 -0.07887143 0.052171294 -0.080134414 0.07122839
-0.011101041 -0.051184632 0.013202416 0.014605965 0.04199775 0.08138843 -0.034531865 0.056096304
0.023962501 -0.0639181 -0.024314936 -0.02598889 -0.018364457 -0.047663044 -0.028322304 -0.05798589
-0.013026121 0.024274878 0.056121733 0.047550663 -0.013030086 0.05537042 -0.08044714 0.07628059
-0.049928654 0.019293318 0.0009573419 0.059195403 0.08249535 0.06419447 0.09085249 -0.012139363
-0.0024840834 0.07183108 -0.040656894 0.031960115 -0.023924936 -0.018533729 0.015306498 0.02052593
-0.00839422 0.05323728 0.030406319 0.0526014 -0.014589015 -0.033602063 0.049372006 -0.078784265
-0.04796887 -0.053343445 0.001479972 -0.019835541 0.045457195 0.027596021 0.07264245 0.019803612
0.046646193 -0.024498325 -0.022286342 0.05738383 0.027888382 0.047881205 -0.018375248 0.038922857
0.0128592355 -0.07339597 0.059887547 -0.020952752 0.00041851253 0.018028354 -0.018484479 -0.029290585
0.05448679 0.027046943 -0.019728236 -0.031919234 0.095939554 -0.050410282 -0.038989846 -0.027372858
-0.03168387 -0.053676687 0.039927136 -0.028900634 0.055985685 -0.0049530715 -0.047325306 0.02311294
00000000: 266a 03bd 4073 573b fd1d 4d3d ec67 f43c
00000010: 7d0d d1ba 5fa4 4a3d e0b1 03bd 0439 773d
00000020: b160 bdbd bc70 623c 6512 5dbd b5af 443c
00000030: 7913 e53c 6a55 263d b38f 2bbd eddd 863d
00000040: 9f2b 903d 4c14 7dbd d41b 37bb 125e 8fbd
00000050: 1e5a 1e3c 2a16 57bd c5b1 6cbd 8bcd fdbc
00000060: 2127 2e3a 9dd6 3b3c 2dea 67bc cbec a13d
00000070: c9c6 0abc cc1f 923d 715d 40bd af21 a43d
00000080: 740b 153d b2b2 83bd 7789 a43c 8841 cebc
00000090: 56bf ac3c d48a d4bc 1ce5 34bd b01c eb3c
000000a0: 52de 88bd 8276 26bd 1152 e6bb 3a49 3b3c
000000b0: 8bac 93bd e74d 9f3d 2737 55bd 33e5 153d
000000c0: be9a acbc af5c 483d a12a 5d3d ebf6 1f3d
000000d0: 4057 7fbc 9696 bc3c dac0 3f3d 8323 1c3d
000000e0: 0750 84bd cead 693d ba93 1fba ddf0 7cbc
000000f0: 91d3 87bd ff46 863b 960f ab3d 3e57 103d
00000100: 0454 58bd bcbc 5b3d 9f2e 173d 1d33 bdbd
00000110: e66d c73a ce86 953c 7263 023d 1f97 f7bc
00000120: 4472 42bc 76a6 50bd edc5 423d 8a79 4dbd
00000130: f0d8 ce3a 5ca6 103c da2f a43c 20bd 8a3d
00000140: 0d1a 9ebd 254a 40bd d514 6c3d eea5 013d
00000150: d46e d5bc fe46 3dbd 2311 7ebd 3a09 8dbd
00000160: bc0e 913d 68d5 a83b e9e0 6cbd 9666 e23c
00000170: ae86 bcbc 3a02 553d f4eb a33c 173d 32bd
00000180: 8ad5 8f3d 65b8 9f3c f331 5f3d 0fda 80bd
00000190: 36b2 eb3c 280d 61bd d035 29bc eb6f 1e3d
000001a0: 6949 fa3c 5cea 91bc 61ab 633d 591c 03bd
000001b0: f143 153c eab9 3e3d 89fc 8c3c 7570 1f3d
000001c0: c15e 6dbd 1de1 973d 9880 39bd d175 6bbd
000001d0: 0b0b 5dbd fc4b 9bbc e12e c63c 517e 89bd
000001e0: 1f18 973d b616 88bd 37cd 20bd 3491 a6bd
000001f0: fad3 f33c c41f 0d3d ca78 b8bb 515d 57bc
00000200: 4bb5 25bd 3bf4 48bd bcb0 76bd e790 9abd
00000210: e76e 823b 79ed c1bc e439 4c3d 0402 1e3c
00000220: d68b 253c 3e08 583c 0c25 933d 5ef5 46bd
00000230: 877c 78bd 66c7 02bd 0725 cabc a20b 53bd
00000240: f233 233d 7334 7e3d dc10 84bd 2ac3 fabc
00000250: a93a f23c b5ae 503d d6d5 863c 1e5a 843d
00000260: e422 64bd 7081 39bd 2803 6cbb 13c6 3dbd
00000270: 20f1 f43c deaa 5dbd 0b55 31bd 69af 753c
00000280: bc6b 35bd fa91 163c 2ab7 4f3d 5a69 a83d
00000290: 5887 a1bd 91b1 553d 831d a4bd 31e0 913d
000002a0: 24e1 35bc faa6 51bd f24e 583c dc4d 6f3c
000002b0: d505 2c3d faae a63d 4971 0dbd 3dc5 653d
000002c0: 024d c43c 7ee7 82bd 1e30 c7bc a7e6 d4bc
000002d0: 0f71 96bc 533a 43bd 2d04 e8bc 9d82 6dbd
000002e0: 836b 55bc 1cdc c63c e7df 653d 7cc4 423d
000002f0: 247c 55bc 18cc 623d 78c1 a4bd ff38 9c3d
00000300: fd81 4cbd 050d 9e3c 21f6 7a3a e176 723d
00000310: 52f3 a83d 6478 833d df10 ba3d 2ee4 46bc
00000320: 01cc 22bb 2c1c 933d d887 26bd 9ce8 023d
00000330: 3afe c3bc 0cd4 97bc 1bc8 7a3c ff25 a83c
00000340: e987 09bc 560f 5a3d ac16 f93c 9174 573d
00000350: c406 6fbc 51a2 09bd 4d3a 4a3d a559 a1bd
00000360: 017b 44bd a87e 5abd 9ffb c13a 257e a2bc
00000370: 5331 3a3d 0d11 e23c 91c5 943d 2f3b a23c
00000380: 1410 3f3d b6b0 c8bc d991 b6bc 4f0b 6b3d
00000390: 2d76 e43c 151f 443d b087 96bc 936d 1f3d
000003a0: 8baf 523c a050 96bd a54c 753d 1ba5 abbc
000003b0: cd6b db39 33b0 933c c36c 97bc cff2 efbc
000003c0: 8a2d 5f3d 8d91 dd3c 1c9d a1bc bebd 02bd
000003d0: f57b c43d 037b 4ebd d1b3 1fbd 0b3d e0bc
000003e0: f2c6 01bd 16dc 5bbd a38a 233d 06c1 ecbc
000003f0: 3f51 653d 604d a2bb 2ed8 41bd 5957 bd3c

lstm_decoder.weight_ih_l0 f4 [512, 6]
-0.035954066 -0.034299932 0.053989995 -0.048059218 -0.037302304 0.058484804 -0.037681162 0.028863994
-0.058628216 0.01655224 0.03845089 0.06621736 -0.029751228 -0.060042467 0.01140333 -0.078891024
-0.07914354 -0.064096324 -0.083612844 0.036201056 -0.025417192 -0.027046468 -0.006444077 -0.02046694
-0.016314207 0.0444787 -0.067265116 -0.07228588 -0.028150205 0.035544936 -0.057877973 0.03758054
-0.010990663 0.059600055 0.014865817 -0.018266346 -0.055046074 -0.07471499 -0.01909106 -0.004537347
-0.007823317 0.08293981 0.084851116 0.07033513 0.061719336 0.0162917 0.008083211 -0.047890924
-0.012989099 0.09326215 0.02410785 -0.0011025127 -0.07763714 0.053527486 -0.07120568 -0.030578237
0.013895156 -0.041699942 -0.020151267 -0.0037224665 -0.049421262 0.020477002 0.07191055 -0.039579883
-0.08416657 0.009254601 -0.014110074 0.03451305 -0.043383326 -0.016934238 0.025314646 -0.060053926
-0.05750181 0.06853188 -0.0009875185 0.0006259154 0.031938653 -0.0910446 0.03140064 0.003720708
-0.050284896 0.009702955 0.03418866 0.0154552655 -0.04180797 -0.055469926 0.042211372 -0.09470027
0.024113454 -0.005674774 -0.07196755 -0.050322868 0.036931507 0.053007364 -0.076375216 -0.06881368
-0.024602214 0.055357233 0.022423657 -0.03808384 0.017796533 -0.02157671 0.045037307 0.06790482
-0.02571436 -0.044940908 -0.030886821 0.03614449 -0.07362411 -0.0334439 -0.06569186 0.0111375395
0.020223193 -0.06996281 0.0042420537 0.050312262 0.014942102 -0.09592858 -0.035342187 -0.060504016
0.030375838 -0.06650363 0.04564468 -0.016493224 0.067146555 -0.06764623 0.00092582894 0.03886726
-0.05004574 -0.054594014 0.07019177 -0.054117385 -0.041074295 0.04997912 0.07959831 -0.0021147856
-0.055640314 0.030965425 -0.09946384 -0.018813794 -0.080740266 0.09770443 0.09034898 0.045969523
0.05430939 -0.039861802 -0.036336094 -0.058147665 -0.00084533286 0.1269408 -0.08993411 -0.080796555
0.061409056 -0.08019797 0.009748849 0.005461059 0.019888427 -0.04812763 0.08584687 -0.028456302
0.018603606 0.005584978 0.014464642 0.042262975 -0.06376176 0.08993052 -0.0278721 -0.014290687
0.024502076 0.03417752 -0.02487622 0.025330493 -0.053461134 0.019258332 0.029892761 0.056747567
0.017966727 -0.04853977 -0.008740994 0.015392737 -0.017460365 -0.06372548 -0.06542957 0.0029744317
0.005639676 0.0036483621 -0.023850609 0.038531613 0.021331174 -0.058973767 -0.04741873 -0.029864687
-0.041424543 -0.062471237 0.075563565 0.018863304 -0.06526565 0.033787094 0.07065803 -0.058193002
0.03940527 -0.055678003 -0.091214515 -0.057023533 0.021744039 -0.067256615 -0.037577216 -0.038575526
0.03708392 -0.053998876 0.044766188 0.104633525 0.08140188 -0.061878696 -0.017385745 -0.06700639
-0.05387635 0.0111446455 0.02630853 -0.045190223 -0.08657417 -0.022449555 0.02108439 0.055540066
-0.023987582 -0.033717822 0.058331605 0.042907745 -0.042702686 -0.045852903 0.057291403 0.06052907
0.048896376 0.007479444 0.02290138 -0.0093188975 0.0697427 0.02020782 -0.004303868 -0.050133012
0.047524597 -0.061318144 -0.03856144 0.062779196 0.005368608 0.028910587 -0.019392591 -0.04364766
-0.037002392 -0.052817058 0.022803472 0.05701359 -0.09168459 0.088671155 0.007103837 -0.00049988576
00000000: 9244 13bd 167e 0cbd 9d24 5d3d bed9 44bd
00000010: 4dca 18bd c38d 6f3d 9057 1abd 2f74 ec3c
00000020: 2424 70bd 9098 873c ae7e 1d3d f89c 873d
00000030: d9b8 f3bc 17ef 75bd 08d5 3a3c 9e91 a1bd
00000040: 0216 a2bd ef44 83bd 363d abbd 8f47 143d
00000050: b737 d0bc 8e90 ddbc d628 d3bb 49aa a7bc
00000060: 5fa5 85bc 4c2f 363d 4bc2 89bd 9f0a 94bd
00000070: 429b e6bc 9197 113d 7411 6dbd 0dee 193d
00000080: 2f12 34bc 301f 743d c18f 733c 4ea3 95bc
00000090: fe77 61bd 2c04 99bd db64 9cbc 06ae 94bb
000000a0: 5f2d 00bc 59dc a93d 6cc6 ad3d dd0b 903d
000000b0: 6acd 7c3d 2c76 853c 726f 043c 4629 44bd
000000c0: 3bd0 54bc 3a00 bf3d d37d c53c 3082 90ba
000000d0: 3900 9fbd a33f 5b3d 49d4 91bd 367f fabc
000000e0: 82a8 633c 8fcd 2abd 4514 a5bc a0f4 73bb
000000f0: f36d 4abd 63bf a73c d745 933d 841e 22bd
00000100: 865f acbd 9ca0 173c f12d 67bc 8e5d 0d3d
00000110: b7b2 31bd acb9 8abc a960 cf3c 1bfb 75bd
00000120: 0587 6bbd 715a 8c3d 9f6f 81ba 7914 243a
00000130: 1bd2 023d 9775 babd f59d 003d 1fd7 733b
00000140: 89f7 4dbd 25f9 1e3c 6909 0c3d 1538 7d3c
00000150: d53e 2bbd 6f34 63bd d5e5 2c3d 37f2 c1bd
00000160: 9489 c53c 74f3 b9bb b963 93bd 5a1f 4ebd
00000170: 7e45 173d 401e 593d 9c6a 9cbd 30ee 8cbd
00000180: 958a c9bc 44be 623d d1b1 b73c cdfd 1bbd
00000190: 09ca 913c a4c1 b0bc 0a79 383d af11 8b3d
000001a0: eca6 d2bc f513 38bd 5c06 fdbc 3f0c 143d
000001b0: 3dc8 96bd 79fc 08bd 7489 86bd 3a7a 363c
000001c0: 1cab a53c a948 8fbd ed00 8b3b 3b14 4e3d
000001d0: b8cf 743c 3476 c4bd f8c2 10bd 0fd3 77bd
000001e0: c0d6 f83c 0e33 88bd eaf5 3a3d cc1c 87bc
000001f0: 2284 893d 1b8a 8abd 54b3 723a 4733 1f3d
00000200: c3fc 4cbd f99d 5fbd b4c0 8f3d 31aa 5dbd
00000210: 853d 28bd e8b6 4c3d 7004 a33d 3798 0abb
00000220: 19e7 63bd 34ab fd3c b3b3 cbbd 631f 9abc
00000230: 275b a5bd 4319 c83d e308 b93d 8a4a 3c3d
00000240: 8673 5e3d 2146 23bd 28d5 14bd 3f2c 6ebd
00000250: 5499 5dba c5fc 013e 602f b8bd aa78 a5bd
00000260: 1088 7b3d d53e a4bd a3b9 1f3c aff2 b23b
00000270: 0eed a23c 7a21 45bd 7cd0 af3d 311d e9bc
00000280: 9766 983c 3102 b73b 1bfd 6c3c f11b 2d3d
00000290: 8795 82bd 7e2d b83d 0854 e4bc 7c23 6abc
000002a0: 94b8 c83c bafd 0b3d 37c9 cbbc e581 cf3c
000002b0: 10fa 5abd a6c3 9d3c aae1 f43c 2370 683d
000002c0: f52e 933c a3d1 46bd 6336 0fbc d231 7c3c
000002d0: 0a09 8fbc 8182 82bd f0ff 85bd afee 423b
000002e0: 08cd b83b 5c19 6f3b 5a62 c3bc 53d3 1d3d
000002f0: b7be ae3c 7a8e 71bd 243a 42bd caa6 f4bc
00000300: c8ac 29bd d7e1 7fbd 12c1 9a3d 3787 9a3c
00000310: ffa9 85bd 5664 0a3d 28b5 903d c95b 6ebd
00000320: 6c67 213d 9e0e 64bd adce babd 8291 69bd
00000330: 8e20 b23c d6bd 89bd 91ea 19bd 5f01 1ebd
00000340: 4fe5 173d ed2d 5dbd c05c 373d 1a4a d63d
00000350: 07b6 a63d 8474 7dbd 8d6c 8ebc a53a 89bd
00000360: 73ad 5cbd 0898 363c fc84 d73c 6219 39bd
00000370: cc4d b1bd 21e8 b7bc 2cb9 ac3c fb7d 633d
00000380: 9b81 c4bc b31b 0abd 1fed 6e3d 08c0 2f3d
00000390: 03e9 2ebd 41d0 3bbd 64aa 6a3d 55ed 773d
000003a0: 9147 483d 2016 f53b ad9b bb3c 4aae 18bc
000003b0: 43d5 8e3d df8a a53c 7607 8dbb 4658 4dbd
000003c0: 27a9 423d bc28 7bbd 9af2 1dbd 6192 803d
000003d0: 26eb af3b e5d5 ec3c 36dd 9ebc e4c7 32bd
000003e0: d28f 17bd b356 58bd 59ce ba3c 1587 693d
000003f0: 21c5 bbbd 3999 b53d 4ec7 e83b c40a 03ba

lstm_decoder.weight_hh_l0 f4 [512, 128]
0.06720988 -0.04323295 -0.01590721 -0.06397478 -0.01884764 0.0007817826 0.033590496 0.06297353
0.0538043 0.029158918 -0.007598976 0.025277829 0.037359003 -0.0746791 0.02132697 -0.0048926496
-0.033792403 -0.05050046 0.08717187 -0.011946812 -0.062432345 -0.07583684 -0.049129523 0.0076243854
-0.053545494 0.063535154 0.030950975 0.00903421 -0.017727103 -0.015077104 -0.034527436 0.052207086
0.011002921 0.030731373 0.018312002 -0.021330187 -0.093596704 0.041421715 -0.05803975 0.07227916
0.05819635 0.06727118 -0.08119016 0.07061416 0.031300616 -0.027606346 -0.003351522 0.018137764
-0.052804608 0.029142432 -0.040546495 -0.011271118 -0.012170179 -0.06027474 0.045550812 -0.026413154
-0.08219995 0.018043017 -0.03843634 0.03213963 0.056749094 -0.015412904 0.0012974656 -0.061205618
0.04533801 0.019172136 -0.031537782 -0.050241876 -0.046855 -0.023784185 -0.006523074 0.04141854
0.061997857 -0.06803812 -0.054971945 0.033390224 0.062098637 -0.05822638 0.028650584 0.02308435
0.034847155 -0.025678772 0.05480563 -0.08093723 0.06595255 -0.06761989 -0.024643881 0.026136916
-0.027321545 -0.07222691 -0.03335726 -0.007024687 -0.07075769 0.07475904 0.006964353 0.06434504
-0.07957041 0.08550862 0.028167222 0.06845589 0.04034422 -0.076674126 0.032388 -0.021831606
-0.058641292 -0.018705906 0.0053285873 -0.02193728 0.058677543 0.07876583 -0.07004299 0.05163573
0.0016226985 0.058147285 0.047315292 0.0069088414 0.08094059 0.0051691434 0.064238355 -0.06856814
-0.016897116 -0.07088869 0.05445877 0.012402534 -0.031308897 -0.06160748 -0.0571539 -0.023719503
0.021526948 0.06938964 0.047736865 0.05415755 0.07926036 -0.07972227 0.015324589 -0.028552776
-0.082699746 -0.06215279 -0.070984274 0.06777659 -0.06502286 0.034525637 0.07409626 -0.00799048
0.050164014 -0.0025665436 0.049943425 0.09370666 -0.048158787 0.008238539 -0.004478131 0.038668737
-0.054472152 0.063008055 0.054584328 -0.04684113 0.009100665 0.060626492 0.047802947 -0.028093485
-0.05455502 0.07617785 0.084920295 -0.044595864 0.013388051 -0.032407217 0.040085465 -0.046223022
-0.0538131 0.058299117 -0.001139374 0.018763058 -0.00894346 -0.0033430976 0.030653091 0.00096820504
0.07802334 0.00068823755 0.06470843 0.05907159 4.830411e-05 -0.03989138 0.03323928 0.064076036
-0.07800835 -0.047681086 0.07778189 -0.06117274 0.022153623 0.006583685 0.022380872 -0.027857363
-0.05196354 -0.09309122 0.04012078 -0.067008115 -0.047877073 -0.006549131 0.014681483 -0.023025062
0.001568371 0.011275455 -0.04850493 0.03155269 -0.086682886 0.070543095 -0.035626274 -0.08100725
0.003786146 -0.029742237 0.042317 -0.064075395 0.012063635 0.01054073 0.026527928 -0.0891224
-0.023869172 -0.047905385 -0.0808363 0.05525354 -0.07254052 0.015431426 0.033110674 -0.03431674
0.013823827 0.068140544 -0.043998603 -0.036759593 -0.02816351 -0.04393133 -0.043425426 -0.0135373585
-0.08405582 -0.07323077 0.06300852 0.03931308 0.040061645 0.038824745 0.07963247 0.030253004
0.083368994 -0.052182823 0.06735005 0.045053355 0.011854699 -0.018500656 -0.029970177 0.0073016686
0.014752615 -0.08139193 -0.0060909633 0.08560128 -0.08295187 -0.022257937 0.05660052 0.007890466
00000000: 55a5 893d 0915 31bd d64f 82bc 3605 83bd
00000010: 5e66 9abc 8bf0 4c3a 3096 093d 44f8 803d
00000020: e661 5c3d afde ee3c d500 f9bb 7313 cf3c
00000030: c105 193d 5bf1 98bd e6b5 ae3c 8552 a0bb
00000040: e769 0abd 92d9 4ebd 2a87 b23d 90bc 43bc
00000050: 0fb9 7fbd 5850 9bbd 0a3c 49bd fbd5 f93b
00000060: 8552 5bbd b81e 823d e68c fd3c 3904 143c
00000070: 6e38 91bc f505 77bc a46c 0dbd 19d7 553d
00000080: 9845 343c 5cc0 fb3c 0d03 963c a5bc aebc
00000090: a1af bfbd d1a9 293d 17bb 6dbd 1907 943d
000000a0: 4c5f 6e3d 79c5 893d 0747 a6bd 289e 903d
000000b0: 1335 003d b426 e2bc 35a5 5bbb a695 943c
000000c0: a549 58bd 1cbc ee3c 1514 26bd 7faa 38bc
000000d0: 6e65 47bc a5e2 76bd 7d93 3a3d 6660 d8bc
000000e0: 7358 a8bd f3ce 933c 6c6f 1dbd d8a4 033d
000000f0: bd71 683d 6886 7cbc b90f aa3a beb2 7abd
00000100: 59b4 393d e20e 9d3c c32d 01bd 6dca 4dbd
00000110: 07eb 3fbd 0dd7 c2bc 83bf d5bb 7da6 293d
00000120: 77f1 7d3d 9257 8bbd 432a 61bd 30c4 083d
00000130: 245b 7e3d c97e 6ebd a1b4 ea3c 641b bd3c
00000140: e4bb 0e3d 4a5c d2bc de7b 603d 6bc2 a5bd
00000150: 2112 873d 4c7c 8abd f7e1 c9bc 161d d63c
00000160: 6fd1 dfbc b4eb 93bd 9fa1 08bd 582f e6bb
00000170: 68e9 90bd 441b 993d 3a35 e43b 55c7 833d
00000180: d0f5 a2bd 251f af3d f2be e63c 9a32 8c3d
00000190: fb3f 253d 5307 9dbd 48a9 043d 32d8 b2bc
000001a0: da31 70bd 213d 99bc 6e9b ae3b d0b5 b3bc
000001b0: dd57 703d fb4f a13d b372 8fbd fd7f 533d
000001c0: bab0 d43a d92b 6e3d aecd 413d 9063 e23b
000001d0: 2ec4 a53d eb61 a93b 668f 833d 746d 8cbd
000001e0: d26b 8abc 172e 91bd 2910 5f3d ff33 4b3c
000001f0: c23d 00bd 2058 7cbd 351a 6abd 674f c2bc
00000200: 4859 b03c 281c 8e3d bb87 433d 4fd4 5d3d
00000210: 4153 a23d 6e45 a3bd fc13 7b3c 83e7 e9bc
00000220: 7c5e a9bd ed93 7ebd 3460 91bd 74ce 8a3d
00000230: b52a 85bd c16a 0d3d c8bf 973d 81ea 02bc
00000240: c878 4d3d 7533 28bb 7a91 4c3d 47e9 bf3d
00000250: 2642 45bd f0fa 063c 49bd 92bb 1c63 1e3d
00000260: 311e 5fbd 5e0a 813d d193 5f3d 7cdc 3fbd
00000270: f51a 153c 7c53 783d 06cd 433d 4f24 e6bc
00000280: 1675 5fbd 2203 9c3d b1ea ad3d 27aa 36bd
00000290: 8e59 5b3c 6ebd 04bd a830 243d 5a54 3dbd
000002a0: 206b 5cbd 0ecb 6e3d 0c57 95ba fcb4 993c
000002b0: 9787 12bc df17 5bbb 311c fb3c 24cf 7d3a
000002c0: b3ca 9f3d d76a 343a da85 843d 0df5 713d
000002d0: 259a 4a38 2565 23bd e925 083d 4c3a 833d
000002e0: d8c2 9fbd 3e4d 43bd 1d4c 9f3d 4490 7abd
000002f0: 847b b53c f4bb d73b 1758 b73c 2035 e4bc
00000300: b9d7 54bd 9ca6 bebd b055 243d 8d3b 89bd
00000310: c01a 44bd 189a d6bb 9a8a 703c 0e9f bcbc
00000320: cc91 cd3a b0bc 383c 1bad 46bd 653d 013d
00000330: cc86 b1bd e678 903d dbec 11bd 21e7 a5bd
00000340: fd20 783b fea5 f3bc 9754 2d3d f639 83bd
00000350: 8da6 453c 07b3 2c3c 1951 d93c ce85 b6bd
00000360: 4889 c3bc 7038 44bd 818d a5bd 8951 623d
00000370: 2090 94bd 18d4 7c3c 0f9f 073d b68f 0cbd
00000380: 557d 623c 458d 8b3d e137 34bd 3a91 16bd
00000390: 29b7 e6bc 57f1 33bd dcde 31bd cccb 5dbc
000003a0: 7525 acbd 04fa 95bd 9c0a 813d c106 213d
000003b0: ae17 243d b206 1f3d 5916 a33d 26d5 f73c
000003c0: 5dbd aa3d a8bd 55bd d3ee 893d de89 383d
000003d0: 363a 423c b08e 97bc 0484 f5bc d642 ef3b
000003e0: f4b4 713c d0b0 a6bd b496 c7bb b94f af3d
000003f0: ace2 a9bd 4756 b6bc f2d5 673d 0347 013c

lstm_decoder.bias_ih_l0 f4 [512]
-0.07909428 0.02631185 -0.0766337 -0.012157019 0.038328543 0.070824035 -0.05319067 -0.06574882
0.00020149222 0.09195585 -0.004140958 -0.027775597 -0.007871469 0.08343386 -0.06172577 -0.01609121
0.052852876 -0.019220397 0.045247775 -0.023068273 0.046836276 0.01690944 0.026037464 -0.0044681984
-0.07086011 -0.018482547 -0.07597445 -0.01029981 -0.0072236676 0.063390136 -0.0046737287 -0.029005606
0.008720635 -0.012589977 -0.037458967 0.06724492 0.018316561 0.0018137031 0.0047550946 0.03736213
0.024491105 -0.05041942 -0.06390971 -0.021861743 0.09311688 -0.06155113 -0.025447821 -0.04246288
0.009753297 -0.051325906 -0.028600413 0.04371772 -0.019632773 -0.039056376 0.031571355 -0.06593886
-0.053020097 -0.021891342 0.011425761 0.0067786267 0.06856535 0.0750233 0.079407424 0.072231285
0.021728545 -0.06087617 -0.043701146 -0.061807267 -0.0511304 -0.061760318 -0.06879182 -0.019924432
-0.000991179 -0.03600047 -0.0003747798 0.08040986 -0.027639922 0.07834307 0.005969284 -0.012956898
0.02078126 0.058361568 -0.056308236 -0.037831593 0.07182619 0.069045275 0.08137408 0.045010723
-0.08147405 -0.012375971 -0.061409544 0.03859773 0.015112733 0.040764354 0.06941428 -0.046673298
-0.035836168 0.06049755 -0.02811299 0.013858033 0.053025033 -0.06585885 0.035190083 0.02792542
0.040542394 -0.07262119 0.0550038 -0.022915294 0.072751164 0.0697228 0.06292267 -0.05376181
-0.042017408 -0.056576364 0.09215044 0.08476148 -0.053832106 -0.019917505 0.011171082 -0.05002021
-0.011522255 0.043816596 -0.0372951 0.0666997 -0.01974353 -0.025035596 -0.044508617 0.031135445
-0.038499337 -0.009996654 -0.043018486 -0.01667238 -0.004028587 -0.035848342 -0.046242606 0.08207742
-0.025310613 0.0798769 0.08607918 -0.0066919383 0.07191178 -0.06920643 0.031901337 -0.045436814
0.011761277 0.020781167 -0.04018593 -0.001961178 0.054152247 -0.042303782 -0.004306542 -0.010159837
-0.032341346 0.09872577 -0.017486423 0.032564882 0.06851657 0.060854837 0.06258729 0.007480539
-0.0135761965 -0.020870838 -0.062154803 -0.018733293 -0.018430484 -0.07650895 0.06357111 -0.0036458757
0.019653462 0.024377575 0.025680277 0.07776245 -0.026878785 0.0263503 -0.00610222 0.075344004
-0.028430104 0.043131046 0.022828693 0.08065672 0.0076130987 0.060248252 0.05175147 0.025360327
-0.05631988 -0.0076508876 -0.058924217 -0.017936753 0.013942032 -0.03053511 -0.041654587 0.018115465
0.0087733 0.046184953 -0.066582836 -0.084525734 0.04111669 0.019834254 0.05914429 0.051154893
0.08401731 -0.005179999 -0.057454668 0.023609748 -0.032427907 -0.0018400791 0.032549907 -0.049594603
0.081145056 -0.068005204 -0.071275726 -0.06502861 0.081088975 -0.06606913 0.06311815 0.018248016
0.047092535 0.032518916 0.033016436 -0.02471772 -0.061450977 -0.056056097 -0.035463586 -0.006510219
-0.02607342 0.084150285 0.061217234 -0.06367088 0.0034141056 -0.07852769 0.062290814 0.0821774
0.04862495 -0.027409757 -0.030760406 -0.074175015 0.035596453 0.0063708047 0.039467238 0.009327371
0.012060068 0.036174744 -0.053287596 0.040977165 0.030252714 0.0075612725 -0.06452764 -0.02469747
-0.01575981 -0.03310518 -0.06378858 -0.09051 0.060788073 0.07104955 0.08530913 0.07773625
00000000: 2ffc a1bd f38b d73c 21f2 9cbd 3c2e 47bc
00000010: 64fe 1c3d 310c 913d 76de 59bd 51a7 86bd
00000020: a847 5339 5953 bc3d e0b0 87bb a689 e3bc
00000030: 55f7 00bc 5fdf aa3d 29d4 7cbd b7d1 83bc
00000040: 427c 583d 1874 9dbc bb55 393d adf9 bcbc
00000050: 65d7 3f3d aa85 8a3c 854c d53c f769 92bb
00000060: 1b1f 91bd b668 97bc 7e98 9bbd 89c0 28bc
00000070: 84b4 ecbb b0d2 813d 1426 99bb 2a9d edbc
00000080: ffe0 0e3c 3146 4ebc 936e 19bd b4b7 893d
00000090: 9d0c 963c c7b9 ed3a a0d0 9b3b 0809 193d
000000a0: 92a1 c83c 9884 4ebd 18e3 82bd 6617 b3bc
000000b0: 10b4 be3d 0a1d 7cbd f377 d0bc 8fed 2dbd
000000c0: 4bcc 1f3c 1d3b 52bd 6a4b eabc 5a11 333d
000000d0: e9d4 a0bc 94f9 1fbd f750 013d f40a 87bd
000000e0: 9a2b 59bd 7955 b3bc 1d33 3b3c 3e1f de3b
000000f0: fd6b 8c3d d1a5 993d 5ca0 a23d ffed 933d
00000100: 1000 b23c 4a59 79bd f9ff 32bd 9e29 7dbd
00000110: 1c6e 51bd 63f8 7cbd bae2 8cbd 9038 a3bc
00000120: 73ea 81ba 3b75 13bd 187e c4b9 edad a43d
00000130: 1e6d e2bc 5572 a03d fc99 c33b 2b49 54bc
00000140: 763d aa3c 8a0c 6f3d 77a3 66bd 4df5 1abd
00000150: 9c19 933d 9c67 8d3d 74a7 a63d 2a5d 383d
00000160: dedb a6bd 96c4 4abc 9388 7bbd a718 1e3d
00000170: 659b 773c 86f8 263d 1329 8e3d 802c 3fbd
00000180: f2c8 12bd 47cc 773d 374d e6bc ce0c 633c
00000190: c730 593d 01e1 86bd 7a23 103d dac3 e43c
000001a0: c80f 263d 6bba 94bd aa4b 613d dbb8 bbbc
000001b0: 90fe 943d d4ca 8e3d 9add 803d 5835 5cbd
000001c0: 721a 2cbd 9ebc 67bd 5fb9 bc3d 6d97 ad3d
000001d0: 0e7f 5cbd 092a a3bc ea06 373c fee1 4cbd
000001e0: d7c7 3cbc 0879 333d bfc2 18bd da99 883d
000001f0: 2fbd a1bc 7317 cdbc ab4e 36bd c30f ff3c
00000200: 7bb1 1dbd 01c9 23bc 2734 30bd 8494 88bc
00000210: 3d02 84bb b6d5 12bd e368 3dbd 3518 a83d
00000220: 3458 cfbc 8096 a33d 484a b03d 0c48 dbbb
00000230: 7c46 933d 1abc 8dbd faaa 023d f41b 3abd
00000240: 5fb2 403c 443d aa3c 009a 24bd 1b87 00bb
00000250: bfce 5d3d bb46 2dbd e51d 8dbb 7275 26bc
00000260: 5c78 04bd bd30 ca3d b03f 8fbc c162 053d
00000270: 6a52 8c3d ec42 793d c42d 803d 4f1f f53b
00000280: b26e 5ebc 52f9 aabc 0996 7ebd 9076 99bc
00000290: 87fb 96bc b9b0 9cbd 9231 823d a5ef 6ebb
000002a0: 4c00 a13c 7bb3 c73c 725f d23c eb41 9f3d
000002b0: e630 dcbc 96dc d73c 22f5 c7bb f54d 9a3d
000002c0: 40e6 e8bc 2eaa 303d 3d03 bb3c 5a2f a53d
000002d0: 4d77 f93b dfc6 763d 59f9 533d 76c0 cf3c
000002e0: adaf 66bd 4cb4 fabb 855a 71bd 19f0 92bc
000002f0: 1f6d 643c c424 fabc 009e 2abd e266 943c
00000300: e3bd 0f3c 6f2c 3d3d 955c 88bd d41b adbd
00000310: f969 283d 727b a23c 4841 723d cb87 513d
00000320: 4411 ac3d fbbc a9bb 9655 6bbd 3b69 c13c
00000330: 20d3 04bd cf2e f1ba 0d53 053d b623 4bbd
00000340: 612f a63d 5046 8bbd 02f9 91bd b82d 85bd
00000350: fa11 a63d 414f 87bd 1744 813d dd7c 953c
00000360: 1ae4 403d 8e32 053d 3e3c 073d d17c cabc
00000370: 05b4 7bbd 149b 65bd 4442 11bd ad53 d5bb
00000380: ed97 d5bc fc56 ac3d ecbe 7a3d e165 82bd
00000390: 30bf 5f3b 20d3 a0bd a724 7f3d a04c a83d
000003a0: f52a 473d 6d8a e0bc 3ffd fbbc 12e9 97bd
000003b0: 96cd 113d 2fc2 d03b 66a8 213d d4d1 183c
000003c0: 9797 453c f82b 143d 1844 5abd acd7 273d
000003d0: 8ad4 f73c 8dc4 f73b 1127 84bd 5952 cabc
000003e0: b81a 81bc 4c99 07bd 96a3 82bd 4f5d b9bd
000003f0: eafc 783d 6d82 913d 8eb6 ae3d 2f34 9f3d
