transformer_no_tanh_with_past_12_Nm_144_Np_lr_0.001_hs_128_ahs_8_nll_1_bs_16_do_0.5_e_200_stride_10/model_transfer_A25_to_J25_0.0n_0.001lr_200e_2days.pth (torch, 831513 bytes, 14 tensors)

lstm_encoder.weight_ih_l0 f4 [512, 8]
0	0x3cc6a977	0.024250729
1	0x3d0c4e52	0.03425438
2	0x3da85b8b	0.082205854
3	0xbc877560	-0.016535461
4	0x3c3f3aff	0.011671781
5	0xbd7ddb9a	-0.061977006
6	0x3c085d3c	0.00832301
7	0xbd9a862a	-0.07545121
8	0xbda92a43	-0.08260014
9	0xbd36b79b	-0.044608694
10	0x3d828a2e	0.06374012
11	0x3d4e3f9e	0.05035364
12	0x3cad98e4	0.021191068
13	0xbccc9b2b	-0.024976334
14	0x3d422d14	0.04740627
15	0xbd34f4ea	-0.04417888
16	0x3c6a96cb	0.014318178
17	0x3cb2826b	0.021790704
18	0x3d00056d	0.031255174
19	0x3cbbea33	0.022938823
20	0xbcd0994e	-0.025463726
21	0x3d51a499	0.051182363
22	0x3c7890dd	0.015171257
23	0xbc36d237	-0.011158518
24	0xbd814059	-0.063111015
25	0xbc0ca0f6	-0.008583298
26	0xbd8403ad	-0.064460136
27	0x3d1fe5be	0.03903746
28	0xbda35d49	-0.07976777
29	0x3ca68164	0.02032537
30	0x3d793a70	0.060846746
31	0x3da6c833	0.08143654
32	0xbc29fc85	-0.010375147
33	0xbd50f1a0	-0.05101168
34	0x3a92a2fe	0.0011187491
35	0x3d8450d6	0.06460731
36	0xbcef1f1c	-0.029189639
37	0xbd7d7b84	-0.06188537
38	0xbd8d82bb	-0.069097005
39	0x3d65c7d9	0.056098793
40	0x3d6096e0	0.054831386
41	0x3d24fc00	0.04027939
42	0x3d3d0a7c	0.046152577
43	0x3d4ce63a	0.05002425
44	0x3d60df98	0.054900736
45	0x3cec582e	0.028850641
46	0xbbbadd8c	-0.00570268
47	0x3d889cbf	0.06670522
48	0x3c622a52	0.013804035
49	0x3d165add	0.036707748
50	0x3d8caf14	0.06869331
51	0xbd3a49c0	-0.04548049
52	0xbd32d031	-0.043655578
53	0x3ca9a32a	0.020707686
54	0x3d5c735d	0.053820956
55	0x3cede112	0.029037986
56	0x3c8d8d9f	0.017279444
57	0x3b9a49f8	0.004708525
58	0x3d461129	0.04835621
59	0x3b7dcf9d	0.0038728483
60	0x3d2f2a0a	0.0427647
61	0xbd85b14e	-0.06527959
62	0x3c258f55	0.010104974
63	0xbd9585cd	-0.07300911
64	0xbd6e69e3	-0.05820645
65	0x3d475d6b	0.048673075
66	0x3d70ae73	0.058760118
67	0x3d8cb747	0.06870895
68	0xbcec0166	-0.02880926
69	0x3d91e950	0.07124579
70	0xbcbbe0af	-0.022934286
71	0x3c788740	0.015168965
72	0x3c83a257	0.01606862
73	0xbaea599f	-0.0017879492
74	0xbda268cf	-0.07930147
75	0x3d9ef1b4	0.07760945
76	0xbc13571b	-0.0089929355
77	0x3d9401e9	0.07226927
78	0xbd5872f8	-0.052844018
79	0x3d4751f1	0.04866213
80	0x3cc93e88	0.02456595
81	0x3d58e2fa	0.052950837
82	0xbd9c468b	-0.076306425
83	0xbd054703	-0.032538425
84	0xbb919a58	-0.004443448
85	0x3d84bbb8	0.06481117
86	0x3d8686ec	0.06568703
87	0xbd4d452e	-0.050114803
88	0x3d23e9ed	0.04001801
89	0x3d15aea1	0.036543492
90	0x3b256683	0.0025238104
91	0xbda57b51	-0.08080161
92	0x3da71ae3	0.08159425
93	0x3c04309b	0.008068229
94	0xbd377786	-0.04479172
95	0x3d625937	0.055260863
96	0x3c995dc8	0.018721476
97	0x3cf306b5	0.029666284
98	0xba8620c9	-0.0010233159
99	0xbd1c4460	-0.038151145
100	0xbd01534f	-0.03157359
101	0xbc96279f	-0.01832944
102	0xbd312ec3	-0.043257486
103	0x3c985ad7	0.018598003
104	0x3d8ad720	0.06779313
105	0xbd210447	-0.03931072
106	0x3da063d1	0.078315385
107	0xbd15bea7	-0.036558773
108	0x3d0f587a	0.034996487
109	0x3d1d747e	0.038441174
110	0xbba4dcbc	-0.0050311964
111	0xbcae77d4	-0.021297373
112	0xbd228d88	-0.039685756
113	0x3d66ad02	0.056317337
114	0xbd00cfcc	-0.03144817
115	0xbcfc2820	-0.030780852
116	0xbd4c7108	-0.049912483
117	0xbd9c61e8	-0.07635862
118	0x3caf9846	0.021434914
119	0xbd02c53b	-0.031926375
120	0x3d9f70a6	0.07785158
121	0x3c929036	0.01789103
122	0x3d2a2d4e	0.041547112
123	0xbcb6ab48	-0.02229847
124	0xbd4a1cc1	-0.049343828
125	0xbd46e5ba	-0.048558928
126	0x3d8c1d22	0.06841494
127	0x3da05977	0.07829564
128	0xbda784af	-0.08179604
129	0xbd25fcd2	-0.04052431
130	0x3d43398b	0.0476623
131	0x3d9e2a0b	0.07722863
132	0x3c10c2f5	0.008835544
133	0xbd8f4741	-0.069960125
134	0xbd52ec5a	-0.051494934
135	0xbc39a813	-0.011331576
136	0xbd048ba6	-0.03235974
137	0xbcb52a9e	-0.022115048
138	0x3c0a7932	0.008451747
139	0x3d91982e	0.07109104
140	0x3d221174	0.039567426
141	0xbd8a31c3	-0.067477725
142	0xbcf68c75	-0.030096272
143	0xbd2ee88b	-0.04270224
144	0x3d17dc6e	0.037075453
145	0x3cec1c5c	0.028822117
146	0xbd9148ca	-0.070939615
147	0xbca2193f	-0.019787429
148	0x3bb947dc	0.0056543183
149	0xbd148306	-0.036257766
150	0xbd60d800	-0.054893494
151	0x3c92403a	0.017852891
152	0xbbc5ed56	-0.0060402555
153	0x3d1eeea0	0.03880179
154	0x3d1ae623	0.03781713
155	0xbcea0ffe	-0.028572079
156	0x3c5a3b7b	0.013319845
157	0x3d1fc05b	0.039001804
158	0xbd996f44	-0.07491925
159	0x3bba4c66	0.005685377
160	0x3d0a2d3c	0.033734545
161	0x3b8a1d52	0.004214921
162	0x3d2504f1	0.040287916
163	0x3d6d6198	0.0579544
164	0xbd207774	-0.03917642
165	0xbc6e4e99	-0.014545106
166	0x3d5fcfc2	0.054641493
167	0xbd677535	-0.05650826
168	0xbca0500f	-0.019569425
169	0x3c9df705	0.019282827
170	0xbd59dfd3	-0.05319197
171	0xbd0dbef6	-0.034605943
172	0x3d22c4d5	0.039738495
173	0x3d6bedfd	0.05760001
174	0x3d04e74f	0.032447156
175	0x3d50aafd	0.050944317
176	0xbd8667f2	-0.06562795
177	0xbd6ba478	-0.057529896
178	0x3da32db5	0.07967702
179	0xbc2118cf	-0.009832575
180	0xbd2f7a4e	-0.04284125
181	0xbd92cd6e	-0.07168089
182	0xbd27a7f4	-0.040931657
183	0x3d9b3ff7	0.0758056
184	0x3d9ae235	0.07562677
185	0xbd50cd82	-0.050977238
186	0xbd3eebc3	-0.04661156
187	0x3d5db210	0.05412489
188	0x3d3aa324	0.04556574
189	0x3ca7d92f	0.020489303
190	0xbd039b68	-0.03213063
191	0x3c3dea75	0.011591543
192	0xbd2eedb0	-0.042707145
193	0x3d1e0bfd	0.03858565
194	0x3da99227	0.082798295
195	0xbda860ee	-0.08221613
196	0xbcf04c49	-0.02933325
197	0xbc992127	-0.018692566
198	0x3d8cda29	0.06877548
199	0x3da67b8b	0.08129033
200	0xbd9c4ded	-0.07632051
201	0x3c487c86	0.01223672
202	0xbd08e9a3	-0.03342594
203	0x3d7bb516	0.061451994
204	0xbd60eefe	-0.05491542
205	0xbd2fb2c5	-0.042895097
206	0x3d11704a	0.035507478
207	0x3d612a0a	0.054971732
208	0xbcef02ac	-0.029176079
209	0xbd88a147	-0.06671386
210	0xbd953ada	-0.07286616
211	0xbd8e6186	-0.06952195
212	0xbd2c5c35	-0.042080123
213	0xbd180014	-0.03710945
214	0xbc38a008	-0.011268623
215	0xbd9fafcb	-0.07797202
216	0x3d5c990d	0.053856898
217	0xbd8649c1	-0.06557036
218	0x3d833176	0.06405918
219	0x3c3dad07	0.011576897
220	0x3daf7533	0.08567276
221	0xbcfa3e7f	-0.030547379
222	0xbd174f64	-0.036940947
223	0x3d23551e	0.039876096
224	0xbda2f274	-0.079564005
225	0xbd584e25	-0.0528089
226	0xba5c2e61	-0.0008399245
227	0xbd81620b	-0.06317528
228	0x3d9a5285	0.075352706
229	0x3d96599b	0.0734131
230	0x3d84fa9f	0.06493115
231	0x3d8d33ef	0.06894671
232	0x3bf8e147	0.0075952145
233	0x3d4577d9	0.04821
234	0x3da48810	0.08033764
235	0x3d2bb89c	0.041924104
236	0xba824587	-0.0009938934
237	0x3c9a1a2f	0.018811313
238	0x3d80f1f5	0.0629615
239	0xbcb64ebc	-0.02225434
240	0xbd83f556	-0.064432785
241	0x3d9cb7ad	0.07652221
242	0xbd5640a8	-0.052307755
243	0xba85e82b	-0.0010216286
244	0x3d82a19d	0.063784815
245	0x3c504c0b	0.012713443
246	0xbd017071	-0.031601373
247	0xbcf39b78	-0.02973722
248	0xbb9b480a	-0.0047388123
249	0xbcab789b	-0.020931533
250	0xbd38a8d8	-0.045082897
251	0x3d9617af	0.07328736
252	0x3d17c282	0.03705073
253	0x3d9d7e5d	0.076901175
254	0xb9a8d2bf	-0.00032200475
255	0xbd844b01	-0.06459618

lstm_encoder.weight_hh_l0 f4 [512, 128]
0	0xbd506ee6	-0.05088701
1	0xbc7f051f	-0.015565186
2	0xbc6897cf	-0.01419635
3	0xbc50a8e7	-0.012735582
4	0xbd315352	-0.04329235
5	0xbda17f7f	-0.07885646
6	0xbd089005	-0.033340473
7	0x3ce04f7a	0.027381647
8	0xbd68d945	-0.05684783
9	0xb915baaa	-0.00014279285
10	0x3a4d3dc4	0.0007829333
11	0x3c589597	0.013219259
12	0xbc34046b	-0.010987381
13	0x3d878e7a	0.06618972
14	0xbc7bcf7d	-0.015369293
15	0x3d3970cc	0.045273587
16	0xbd98696c	-0.074419826
17	0x3d8d53e1	0.06900764
18	0x3bdf164b	0.0068080775
19	0x3d733ef4	0.05938621
20	0xbd8de60d	-0.06928644
21	0x3d9ecd52	0.077540055
22	0xbb916e35	-0.0044381865
23	0x3d15ac2b	0.036541145
24	0x3d6f743e	0.058460467
25	0x3befb7ff	0.007315635
26	0x3d9006b4	0.070325285
27	0x3c88889d	0.016666705
28	0xbd6c39bb	-0.057672244
29	0x3d815da1	0.063166864
30	0xbd6d0383	-0.057864677
31	0x3d7f3bdb	0.062312942
32	0x3bbd980f	0.005785949
33	0xbcf50c5f	-0.029913126
34	0x3d8c9a33	0.06865349
35	0xbbbc8b9e	-0.0057539484
36	0xbce3dd85	-0.02781559
37	0x3d90fb02	0.07079126
38	0x3c5b6135	0.013389875
39	0x3d1797e7	0.0370101
40	0xbd882d74	-0.066492945
41	0x3c7b2ba3	0.015330228
42	0x3d93960d	0.07206354
43	0x3d824853	0.06361451
44	0x3c777f8f	0.015106096
45	0xbd859c43	-0.06523945
46	0x3d88a820	0.06672692
47	0xbd478387	-0.04870942
48	0xbd1697a5	-0.036765713
49	0xbd0e18ce	-0.034691624
50	0xbd521d01	-0.05129719
51	0xbb84d2a8	-0.0040534325
52	0x3d69125e	0.056902282
53	0x3c9805c6	0.01855744
54	0xbcb82b55	-0.0224816
55	0xbade7709	-0.0016972731
56	0xbc8a4c3b	-0.016882053
57	0xbd62a263	-0.055330645
58	0xbd70b130	-0.05876273
59	0xbc9ba582	-0.018999819
60	0xbd4984b1	-0.04919881
61	0xbd2f8d88	-0.042859584
62	0x3ce120c3	0.027481442
63	0xbda1504d	-0.07876644
64	0x3d7185c6	0.058965467
65	0x3d6c1369	0.0576357
66	0xbbc3fbfe	-0.0059809675
67	0xbd71990e	-0.058983855
68	0xbd5b67ef	-0.053565916
69	0x3c2e165b	0.010625447
70	0xbd32555a	-0.04353843
71	0x3d02a96c	0.031899855
72	0xbd117dff	-0.03552055
73	0x3d8b6110	0.068056226
74	0x3d7868fb	0.060646992
75	0xbbe15449	-0.0068765027
76	0xbd3400e6	-0.04394617
77	0x3d8f3e15	0.06994263
78	0xbd390cf6	-0.045178376
79	0x3cfa9552	0.03058878
80	0xbc8e2548	-0.017351761
81	0xbca936f2	-0.020656083
82	0xbd908c37	-0.07057994
83	0xbdaaa578	-0.08332342
84	0xbd9a8c45	-0.075462855
85	0xbce7bc36	-0.028287988
86	0x3d8670b4	0.06564465
87	0x3bae6d08	0.005323056
88	0xbd0a0730	-0.03369826
89	0x3d47b1f0	0.04875368
90	0xbcab8e4e	-0.02094188
91	0x3d18ddf3	0.037321042
92	0x3d685a3f	0.05672669
93	0x3d88b1a1	0.06674505
94	0xbd725ca8	-0.059170395
95	0xbce23df7	-0.027617438
96	0xbccb919e	-0.02484971
97	0x3d9bfa47	0.07616096
98	0xbb055ff9	-0.0020351394
99	0xbda7e6cf	-0.0819832
100	0x3d30f923	0.043206345
101	0x3c6c77e8	0.014432885
102	0xbd8bf99e	-0.0683472
103	0xbc48acad	-0.0122482
104	0xbd489f37	-0.048979964
105	0x3bb61e54	0.0055578146
106	0x3d0fc549	0.035100255
107	0x3bdc8000	0.006729126
108	0x3cd1b245	0.0255977
109	0xba4fa9b4	-0.0007921711
110	0xbaf81bd4	-0.0018929192
111	0xbd9f8393	-0.07788768
112	0x3cee9452	0.029123459
113	0x3d5ec229	0.054384384
114	0x3d57fe4e	0.05273276
115	0x3d94d764	0.07267645
116	0x3cbc8632	0.023013208
117	0x3d9a4f54	0.07534662
118	0x3d222d8a	0.03959421
119	0xbd802c3e	-0.062584385
120	0x3d63ca9d	0.05561315
121	0xbd74627f	-0.059664246
122	0x3d1cdce6	0.038296603
123	0x3d102e71	0.03520054
124	0x3d7f6e45	0.06236102
125	0x3c1ca49a	0.009560728
126	0xbd9a260a	-0.075267866
127	0x3d121bf8	0.035671204
128	0xbbd6908f	-0.0065479944
129	0x3d960a2d	0.073261596
130	0x3d1dd578	0.038533658
131	0x3d62b723	0.055350434
132	0xbda3454a	-0.079722
133	0x3d1e4529	0.038640175
134	0xbd2cca64	-0.042185202
135	0xbd7f571c	-0.062338933
136	0xbd8892d7	-0.066686325
137	0x3d25bd1b	0.04046355
138	0x3d85c501	0.06531716
139	0xbd3d0be0	-0.046153903
140	0xbd5f476b	-0.05451147
141	0xbd9abd1b	-0.075556
142	0x3d018aed	0.03162663
143	0x3c3ae8cc	0.011408042
144	0x3c73f462	0.014889808
145	0x3ac8451d	0.0015279386
146	0xbd1654e7	-0.036702063
147	0x3d8fcfca	0.070220545
148	0xbd9878f4	-0.07444945
149	0x3b216f9a	0.002463317
150	0x3c1b60c1	0.009483517
151	0xbcab72e1	-0.020928802
152	0xbda9c3a3	-0.08289268
153	0x3ceda558	0.029009506
154	0x3da01660	0.07816768
155	0x3d78b82c	0.060722515
156	0x3d102d86	0.035199665
157	0xbd6333d0	-0.055469334
158	0xbca8d7e7	-0.020610763
159	0x3d69b5d7	0.05705818
160	0x3cc266f1	0.023730727
161	0xbc8729af	-0.016499368
162	0x3d423f49	0.047423635
163	0xbc5303d8	-0.012879334
164	0x3d98bf70	0.07458389
165	0x3c74e5ba	0.014947349
166	0x3d5477b2	0.051871963
167	0xbd1ec3ad	-0.03876083
168	0xbc92be4f	-0.017913012
169	0xbd3c688c	-0.04599814
170	0x3d8442c9	0.06458051
171	0xbd2a4be1	-0.04157627
172	0xbd493228	-0.0491201
173	0x3cdde3f5	0.027086237
174	0x3bc05ff0	0.0058708116
175	0xbc3f881f	-0.011690169
176	0x3d46b2d9	0.048510406
177	0x3d1d95a2	0.03847278
178	0xbd533599	-0.051564787
179	0xbd2934f3	-0.041310262
180	0xbd93fed5	-0.0722634
181	0xbd2ee102	-0.042695053
182	0x3d31165f	0.043234225
183	0xbd408927	-0.0470058
184	0xbd558db2	-0.052137084
185	0xbd92d3a9	-0.07169277
186	0x3d505dc9	0.05087069
187	0x3c807e7f	0.015685318
188	0xbb516917	-0.0031953508
189	0x3d5105e4	0.05103101
190	0xbc5650d1	-0.013080792
191	0x3d3d7cc0	0.04626155
192	0x3d148c7e	0.036266796
193	0x3c36a338	0.011147313
194	0xbd7409a5	-0.05957951
195	0x3d448da2	0.047986634
196	0xbd59bbd8	-0.053157657
197	0xbd9eaacb	-0.0774742
198	0xbd69ffc7	-0.057128694
199	0x3d5ecce2	0.05439461
200	0x3c8f9c9b	0.01753073
201	0x3d7c5e22	0.06161321
202	0x3d95ee9f	0.07320904
203	0x3d92ece4	0.071740896
204	0xbce757a7	-0.028240038
205	0xbd84a0cb	-0.06475981
206	0x3d0cb45c	0.03435169
207	0x3d7ef99c	0.062249765
208	0x3d4da186	0.05020287
209	0x3d3d2fa4	0.04618801
210	0xbd8bd734	-0.06828156
211	0xbd39d20f	-0.045366343
212	0xbd984b53	-0.07436242
213	0xbd41d4e2	-0.04732216
214	0xbd6831ee	-0.05668824
215	0xbd519c2a	-0.05117432
216	0xbd805ee3	-0.06268098
217	0xbd7732e0	-0.060351253
218	0xbd7ef797	-0.06224784
219	0xbda2e480	-0.07953739
220	0x3cfa5ee0	0.030562818
221	0x3d123dd4	0.035703495
222	0x3cdbed56	0.026846569
223	0xbcec5b61	-0.028852167
224	0xbd161da5	-0.036649365
225	0x37bf721e	2.2822114e-05
226	0xbd4bb1b4	-0.049730018
227	0xbd8da137	-0.06915515
228	0x3c321488	0.010869153
229	0x3d23fc17	0.040035333
230	0xbda7473f	-0.08167886
231	0xbd77607e	-0.060394756
232	0xbb4864ea	-0.0030577728
233	0x3d90739d	0.070533015
234	0xbd7f76c2	-0.062369116
235	0xbd91805e	-0.07104562
236	0xbd46eee8	-0.048567683
237	0xbbdac704	-0.0066765565
238	0x3c31ba56	0.010847649
239	0x3d948455	0.07251803
240	0x3d4b7fef	0.049682554
241	0xbc9bfbb2	-0.019040916
242	0xbd5ebc71	-0.05437893
243	0xbd5c1224	-0.053728238
244	0x3d1874eb	0.037220877
245	0xbd164d43	-0.036694776
246	0x3d5e036b	0.05420248
247	0x3d6d8d12	0.057995863
248	0xbd5c68b1	-0.05381078
249	0xbca1d156	-0.01975314
250	0xbd966e83	-0.07345297
251	0xbd3950f5	-0.045243222
252	0xbd257f4c	-0.040404603
253	0xbd5b155e	-0.053487174
254	0xbb88c531	-0.0041738977
255	0x3d3be32d	0.04587095

lstm_encoder.bias_ih_l0 f4 [512]
0	0xbc5ba361	-0.013405652
1	0xbcfbdffb	-0.03074645
2	0xbd1bc769	-0.03803197
3	0x3c20c1cd	0.009811831
4	0xbd12d78c	-0.035850093
5	0x3ce92a34	0.028462507
6	0x3d8356cc	0.064130396
7	0x3d35803f	0.044311758
8	0xbdab4daf	-0.08364426
9	0x3cb32386	0.021867525
10	0xbcd077a3	-0.025447672
11	0x3d4b3def	0.04961961
12	0xbceb36ab	-0.028712591
13	0x3d0e8a97	0.03480014
14	0x3da440e1	0.08020187
15	0xbae633a5	-0.0017562999
16	0x3be77d7d	0.00706452
17	0xbd1eafe1	-0.03874195
18	0xbbae3fba	-0.0053176554
19	0xbd96f06f	-0.07370078
20	0xb8e376fc	-0.00010846366
21	0xbd89e50f	-0.067331426
22	0xbce49574	-0.027903296
23	0x3c3a7847	0.011381215
24	0x3bad2e10	0.005285032
25	0x3da1f86d	0.079087116
26	0x3c462365	0.0120934
27	0xbd503a78	-0.05083701
28	0x3c65b43d	0.014020023
29	0x3d6687f5	0.056282002
30	0x3d10050a	0.035161056
31	0xbcfaf51a	-0.030634452
32	0x3cddf29f	0.02709323
33	0x3c856d59	0.016287493
34	0xbcc4bba9	-0.024015265
35	0xbcc87b26	-0.024472784
36	0x3d1f7521	0.038930062
37	0x3d310bd2	0.043224163
38	0xbd9f1a2c	-0.07768664
39	0xbcb87000	-0.022514343
40	0xbd20d1e8	-0.039262682
41	0xbd860fa3	-0.06545951
42	0x3d2daec9	0.042403016
43	0x3d1fd36f	0.03902
44	0x3d750d36	0.059827052
45	0x3c6e6b84	0.014552001
46	0xbba97e66	-0.0051725386
47	0x3d92e680	0.07172871
48	0x3d0c17ca	0.034202375
49	0x3d60afeb	0.05485527
50	0x3d5f565e	0.054525726
51	0x3dac6f68	0.084196866
52	0xbd44728a	-0.047960795
53	0x3bf0b010	0.007345207
54	0xbd7a93d9	-0.061176155
55	0xbcec3612	-0.028834376
56	0xbcc8b973	-0.024502492
57	0x3cf6bd55	0.030119577
58	0x3da76d99	0.08175201
59	0xbcd974a0	-0.026544869
60	0x3cdb3224	0.026757307
61	0x3d9802bb	0.07422396
62	0x3d048563	0.03235377
63	0x3d7e7b60	0.06212938
64	0xbda31d6c	-0.07964596
65	0xbda7c2e1	-0.08191467
66	0x3c857bfb	0.01629447
67	0xbd9f5a7f	-0.07780933
68	0xba9d3ac2	-0.0011995661
69	0x3d8a65e8	0.06757718
70	0xbb908678	-0.004410561
71	0xbbba3fd2	-0.0056838775
72	0xbcc37723	-0.02386052
73	0xbd43c8f9	-0.047799084
74	0x3d6add20	0.057339787
75	0xbd1350d0	-0.03596574
76	0x3d48225a	0.048860885
77	0xbbff86ca	-0.0077980505
78	0x3cc9da6f	0.02464029
79	0xbd86c96d	-0.06581388
80	0xbd0e9068	-0.034805685
81	0x3cc2f77d	0.023799652
82	0xbd261079	-0.040543053
83	0xbd7bbe8e	-0.061461024
84	0xbd9f2027	-0.077698044
85	0xbd06f362	-0.03294695
86	0xbbee1c49	-0.0072665554
87	0x3c7cb35d	0.015423623
88	0xbda680f9	-0.08130068
89	0xbce03704	-0.027369983
90	0xbcef4005	-0.029205332
91	0xbbdf814b	-0.006820833
92	0xbd4d077f	-0.050055977
93	0xbd316e27	-0.04331794
94	0xbd9b25df	-0.07575583
95	0x3d8e89f7	0.069599085
96	0xbd0e25ed	-0.034704138
97	0x3da22cb7	0.07918685
98	0xbc7f200a	-0.015571604
99	0x3cef9b7c	0.029248945
100	0x3d2cd486	0.042194866
101	0x3d0433ba	0.032275893
102	0xbcdbbdbc	-0.02682387
103	0x3d571f56	0.05252012
104	0x3ccfe04c	0.025375508
105	0xbca94018	-0.020660445
106	0x3d0b5a37	0.034021582
107	0xbcabdede	-0.020980295
108	0xbbdf0dbc	-0.006807057
109	0xbd0180fe	-0.031617157
110	0xbd38dc98	-0.04513225
111	0xbca8c377	-0.020601017
112	0xbcae1830	-0.021251768
113	0xbd74fd0a	-0.05981163
114	0x3b40c37c	0.0029413393
115	0x3c0a4d44	0.008441273
116	0xbc8a0cdb	-0.016851833
117	0x3d1d0251	0.038332287
118	0xbd3e1369	-0.04640523
119	0xbce9e1e9	-0.028550105
120	0x3c31da96	0.010855338
121	0xbd88cf9e	-0.06680225
122	0xbc2d2e69	-0.010570147
123	0xbd35ef4d	-0.044417668
124	0xbd8724a4	-0.065987855
125	0xbce38d66	-0.027777385
126	0x3d517857	0.051140156
127	0x3d858534	0.06519547
128	0x3d3ca4d8	0.046055645
129	0x3d1ff1ff	0.039049145
130	0xbc9b13c6	-0.018930327
131	0x3cff1b48	0.031140938
132	0xbd8bdcd6	-0.068292305
133	0x3d660e04	0.05616571
134	0x3d304ca0	0.043041825
135	0x3db16bff	0.08663177
136	0x3bb1e448	0.0054288246
137	0xbc36103a	-0.011112267
138	0x3b8d9917	0.0043212282
139	0x3bfd2b46	0.007726106
140	0xbd1c5a57	-0.038172092
141	0xbd7cce20	-0.061720014
142	0x3cd824de	0.026384767
143	0x3d8a6aeb	0.06758674
144	0x3d24f176	0.040269338
145	0xbd7f6634	-0.062353328
146	0xbd6c46be	-0.057684653
147	0x3c568aaa	0.0130945835
148	0xbc2a7252	-0.010403233
149	0xbd980be4	-0.07424143
150	0xbd93b485	-0.07212166
151	0x3d16c533	0.036809158
152	0x3d7f3e1b	0.062315088
153	0x3b0f4e38	0.002186669
154	0x3d4d0ac5	0.0500591
155	0x3d56d47d	0.05244874
156	0xbd556649	-0.0520995
157	0xbcbf6a33	-0.02336607
158	0x3da43b1a	0.08019085
159	0xbd496478	-0.04916808
160	0xbd594d42	-0.053052194
161	0x3d97ccb3	0.0741209
162	0xbd52cad5	-0.051462967
163	0x3da165e0	0.07880759
164	0xbcf9d748	-0.030498162
165	0xbccd4663	-0.025057977
166	0x3da0a790	0.0784446
167	0x3d13edb9	0.036115382
168	0xbc16427f	-0.009171127
169	0xba0fd790	-0.00054871384
170	0x3ca90687	0.020632995
171	0x3d5e6358	0.05429396
172	0xbd9ef43c	-0.07761428
173	0xbc5c8152	-0.013458567
174	0x3d5e1a9c	0.054224595
175	0x3d725627	0.059164193
176	0x3d97499e	0.07387088
177	0xbc48383f	-0.012220441
178	0xbb10a2a1	-0.002206959
179	0xbd32cd5b	-0.043652873
180	0xbce739c5	-0.028225789
181	0xbb9527ac	-0.0045518484
182	0x3ade07a1	0.001693953
183	0x3d6db7a4	0.05803646
184	0xbdaa53f8	-0.08316797
185	0xbcdc9478	-0.026926264
186	0x3d07f012	0.033187933
187	0xbb396981	-0.0028291645
188	0xbd866f8f	-0.06564247
189	0x3c23c453	0.009995538
190	0xbd43e0ca	-0.047821797
191	0xbcf1691a	-0.029469062
192	0x3d4ab883	0.04949237
193	0x3cd99c8f	0.02656391
194	0xbd2fbc24	-0.042904034
195	0xbca4073a	-0.020022977
196	0x3d510fcb	0.051040452
197	0xbd4399c3	-0.04775406
198	0xbd980bd4	-0.07424131
199	0x3cee2e54	0.029074825
200	0x3d560fdf	0.05226123
201	0xbca516e8	-0.020152524
202	0x3c817db9	0.01580702
203	0xbd84a25c	-0.0647628
204	0x3d9c1593	0.076213025
205	0x3da59b8e	0.0808631
206	0xbd7cd5b2	-0.061727233
207	0x3d0cf448	0.034412652
208	0xbda0a801	-0.07844544
209	0xbb46692c	-0.003027509
210	0xbbef5d2f	-0.0073048095
211	0xbd5915a9	-0.052999172
212	0x3d9a1d3c	0.07525107
213	0x3cc4696e	0.023976054
214	0xbda8ce59	-0.08242483
215	0x3da35632	0.07975425
216	0x3d900188	0.07031542
217	0x3c871593	0.01648978
218	0xbd6fbe66	-0.058531187
219	0x3d5b8d96	0.053601824
220	0x3ce19864	0.027538486
221	0x3aeca4c8	0.001805448
222	0xbd9d494c	-0.07679996
223	0x3c8f0d07	0.017462267
224	0x3d2601e3	0.040529143
225	0x3c603216	0.013683816
226	0xbd66b38c	-0.056323573
227	0x3ca0fe0d	0.01965239
228	0xbd4c4fd1	-0.049880806
229	0xbd3e655a	-0.046483375
230	0xbd953604	-0.07285693
231	0xbd1b24eb	-0.037877005
232	0x3ce101f5	0.027466753
233	0x3cc93fa9	0.024566488
234	0x3ae8f489	0.0017773072
235	0xbd19c8e1	-0.03754509
236	0x3da4f354	0.08054224
237	0x3d6dfd23	0.058102738
238	0xbd986104	-0.07440379
239	0x3d771e3f	0.06033158
240	0x3da27a5f	0.07933497
241	0x3da7e027	0.081970505
242	0xbd0bcc85	-0.034130592
243	0xbd762aac	-0.06009929
244	0x3d8bab8a	0.06819828
245	0x3c6e466f	0.01454316
246	0xbd9e953a	-0.077433065
247	0xbd7e9794	-0.062156275
248	0xbc07a248	-0.008278437
249	0xbc750009	-0.014953622
250	0x3d3bf9e2	0.045892604
251	0xbbbb8bf6	-0.0057234718
252	0xbb1b6297	-0.0023709887
253	0x3d96658d	0.07343588
254	0xbd6c5acf	-0.05770379
255	0xbd308da8	-0.043103844

lstm_encoder.bias_hh_l0 f4 [512]
0	0xbd16fff8	-0.036865205
1	0x3b8799cd	0.0041382075
2	0x3d2fb8f6	0.042901002
3	0x3cd11788	0.025523916
4	0xbc219a1b	-0.009863402
5	0x3d85d63b	0.06535002
6	0xbc918db7	-0.01776777
7	0x3d31dc1e	0.04342281
8	0xbda66683	-0.08125021
9	0x3ceb85e6	0.028750371
10	0xbd8170cf	-0.06320345
11	0x3c57f466	0.013180828
12	0x3c97d26f	0.01853296
13	0x3cda25d3	0.026629364
14	0xbd3c3b92	-0.04595525
15	0x3d91359f	0.070903055
16	0x3d90337b	0.07041069
17	0xbd9d7322	-0.076879755
18	0x3b9fa282	0.0048716674
19	0xbd81de54	-0.06341234
20	0x3befe286	0.007320705
21	0xbd5120da	-0.05105672
22	0xbd6880bf	-0.056763407
23	0xbcef201d	-0.029190117
24	0xbc3e9428	-0.011632003
25	0x3cedf9b4	0.029049732
26	0xbbf5deee	-0.007503382
27	0x3d92a676	0.07160656
28	0xbb7b8caa	-0.0038383403
29	0x3d873882	0.06602575
30	0xbd74a57e	-0.05972814
31	0x3da31c7a	0.07964416
32	0x3cfa7714	0.030574359
33	0xbd4a3b11	-0.049372736
34	0x3c45e2f3	0.012078035
35	0xbae0898c	-0.0017130836
36	0x3cbc0df7	0.022955878
37	0xbd3fb2a7	-0.046801236
38	0xbd718691	-0.058966223
39	0x3cbf38e2	0.023342554
40	0xbd9e3a90	-0.07726014
41	0xbcf5c4bc	-0.030001037
42	0x3c0b9d53	0.008521396
43	0x3c6762ab	0.014122645
44	0xbd528357	-0.051394787
45	0x3da37eb6	0.079831526
46	0xbd5c7382	-0.053821094
47	0x3d25ab4d	0.04044657
48	0xbcb91133	-0.022591209
49	0x3d3c353d	0.04594921
50	0x3d3156da	0.04329572
51	0x3ce8a689	0.028399723
52	0xbc2efff8	-0.010681145
53	0x3c897ab7	0.016782148
54	0x3cc54aa6	0.024083447
55	0x3d2ebff5	0.042663533
56	0xbda27bfb	-0.07933804
57	0x3d71f50c	0.059071586
58	0xbbfc13fe	-0.007692813
59	0xbc78ce90	-0.015185967
60	0xbd9a5935	-0.07536546
61	0x3c9aa6d9	0.018878387
62	0x3d87f93b	0.06639334
63	0x3d014fc7	0.031570222
64	0xbd3b07a8	-0.0456616
65	0x3d43d8b9	0.047814105
66	0x3d53092b	0.051522415
67	0xbda44cee	-0.08022486
68	0x3be69a6f	0.007037453
69	0x3c82c290	0.015961915
70	0x3cc1c6dd	0.023654396
71	0xbd14c16f	-0.036317285
72	0xbcbb91f3	-0.022896742
73	0xbd30d349	-0.043170247
74	0x3d135cdf	0.03597724
75	0xbd610649	-0.054937635
76	0xba647f03	-0.0008716436
77	0x398cbdef	0.00026844392
78	0x3cbfb2f8	0.023400769
79	0x3d8a1092	0.06741442
80	0xbd6ca0be	-0.057770483
81	0xbd64b31e	-0.055834882
82	0x3d8f8423	0.07007625
83	0x3d0b8770	0.03406471
84	0xbcd4140c	-0.025888465
85	0xbd266b29	-0.04062954
86	0xbd8447c3	-0.06459
87	0xbd991d19	-0.07476253
88	0x3d83e2df	0.064397566
89	0x3c59ea28	0.013300456
90	0xbda3a2c7	-0.07990032
91	0x3c6da4e2	0.014504643
92	0xbcd6b332	-0.026208494
93	0x3d33d4dc	0.04390417
94	0x3cf30d6d	0.029669488
95	0xbd078475	-0.033085305
96	0x3d7b3fe7	0.06134024
97	0x3ce5f4ef	0.028070895
98	0x3d8fea75	0.07027141
99	0xbd719f75	-0.05898996
100	0x3cf72353	0.030168211
101	0xbd1a2a6b	-0.03763811
102	0xbbaf7589	-0.0053545875
103	0x3d4666f6	0.048438035
104	0x3cb3df5a	0.021957088
105	0xbc9cf081	-0.01915765
106	0x3d6da6f0	0.058020532
107	0xbcbb6af0	-0.02287814
108	0x3beb008d	0.0071716965
109	0x3d8268fe	0.06367682
110	0x3bc60297	0.006042789
111	0x3d2cd051	0.042190854
112	0xbd848db5	-0.06472341
113	0x3d99dd3d	0.07512901
114	0xbd239013	-0.03993232
115	0xbd6efab2	-0.05834455
116	0xbd4d299e	-0.050088517
117	0xbd244cef	-0.040112432
118	0x3d316dfc	0.04331778
119	0xbd8813fb	-0.06644436
120	0x3d8a340e	0.0674821
121	0xbd429e93	-0.04751451
122	0xbd52091a	-0.05127821
123	0xbd980f3b	-0.0742478
124	0x3cecbd08	0.02889873
125	0x3d21947d	0.03944825
126	0xbc2abcfe	-0.010421036
127	0xbc826207	-0.015915884
128	0xbcbbad4f	-0.022909788
129	0xbd257a87	-0.040400054
130	0xbd5107bb	-0.051032763
131	0xbd832cc7	-0.06405025
132	0xb9912936	-0.0002768726
133	0xbc8a51ad	-0.01688465
134	0x3d72711e	0.05918991
135	0x3cb300e9	0.02185102
136	0x3c0c11e1	0.008549185
137	0x3bd05448	0.0063577034
138	0x3d8f382e	0.06993137
139	0xbd073d4a	-0.033017434
140	0xbd4b7ec3	-0.049681436
141	0xbc886d1b	-0.016653588
142	0xbcc6273c	-0.02418863
143	0xbd5a4a2f	-0.053293403
144	0x3cfd4abe	0.030919429
145	0x3d8d1841	0.06889392
146	0xbd77b4de	-0.060475223
147	0xbcd576d6	-0.026057642
148	0x3cffed4a	0.031241078
149	0x3d34dbab	0.044154804
150	0x3ccd9b7f	0.02509856
151	0x3d517217	0.051134195
152	0xbd848128	-0.06469947
153	0xbccceec8	-0.025016204
154	0xbbd63e19	-0.0065381643
155	0xbd72b8e6	-0.059258364
156	0x3d2b5d97	0.0418373
157	0xbd54a254	-0.05191262
158	0xbd2db84f	-0.0424121
159	0x3c55092e	0.013002677
160	0xbd507efd	-0.050902355
161	0x3afe9966	0.0019424378
162	0x3d859dc2	0.065242305
163	0x3d85e0ca	0.06537016
164	0xbd83fafa	-0.06444354
165	0x3d3d43ca	0.046207227
166	0xbd8c3438	-0.068458974
167	0x3d9fb628	0.077984154
168	0xbc7b87ad	-0.015352172
169	0xbd4e8c4b	-0.050426763
170	0x3ca7b02d	0.02046975
171	0x3bcad242	0.0061896155
172	0x3d342045	0.043976087
173	0x3da3a3d2	0.079902306
174	0xbce40ed7	-0.027839107
175	0x3d161d3d	0.036648978
176	0x3d04fd9a	0.032468416
177	0xbd573f0e	-0.052550368
178	0xbcb25b42	-0.02177203
179	0xbd222d04	-0.03959371
180	0xbcd0cd3b	-0.025488487
181	0xbd81f4df	-0.063455336
182	0xbc4d2a64	-0.012522314
183	0xbd70fe15	-0.05883606
184	0xbc501369	-0.01269994
185	0x3cb33a90	0.02187851
186	0x3d4dcaea	0.050242342
187	0x3d587894	0.052849367
188	0xbcb95402	-0.022623066
189	0x3d5d535c	0.054034576
190	0xbd91a1d9	-0.07110948
191	0x3dab2659	0.083569236
192	0xbd4853eb	-0.048908155
193	0x3be7a27b	0.0070689297
194	0xbbb0d10f	-0.0053960155
195	0x3d21ec02	0.039531715
196	0x3d9cdd72	0.07659425
197	0x3d7af3ac	0.06126754
198	0x3daf98c3	0.08574059
199	0xbcbf5cba	-0.023359645
200	0xbc06d3b2	-0.008229183
201	0x3d83e926	0.06440954
202	0xbd67efad	-0.056625057
203	0x3cc8c779	0.024509178
204	0xbcd15bd1	-0.025556477
205	0xbd03cfc5	-0.032180566
206	0x3d192f99	0.03739891
207	0x3d17f267	0.037096407
208	0xbc5594fe	-0.013036011
209	0x3d6211d5	0.055192787
210	0x3d080027	0.03320327
211	0x3d5cb541	0.053883795
212	0xbbe9c211	-0.00713373
213	0xbd20fab3	-0.039301585
214	0x3d4a3016	0.049362265
215	0xbda24da6	-0.079249665
216	0xbd493595	-0.049123365
217	0xbd2c0e1a	-0.042005636
218	0xbbccde27	-0.0062520686
219	0xbcc0db60	-0.023542106
220	0x3d2b18d3	0.04177172
221	0x3c3aa829	0.011392632
222	0x3daa09db	0.08302661
223	0x3cdbb6b7	0.026820524
224	0x3d218adf	0.03943908
225	0xbc9e49ad	-0.01932224
226	0xbc9bc3f6	-0.01901434
227	0x3d4cb355	0.04997571
228	0x3cf38a6c	0.02972909
229	0x3d0a3175	0.033738572
230	0xbb02d354	-0.0019962387
231	0x3d4d99c8	0.050195485
232	0x3cdce502	0.026964668
233	0xbd805a7b	-0.06267258
234	0x3d9b2dc8	0.075770915
235	0x3b12d161	0.0022402632
236	0xbb826451	-0.003979244
237	0x3c97e9b1	0.01854405
238	0xbc46c619	-0.012132191
239	0xbd0f0ec5	-0.034926195
240	0x3d89eab8	0.06734222
241	0x3d0c297a	0.034219243
242	0xbcc52480	-0.024065256
243	0xbd12c72e	-0.035834484
244	0x3d9f2101	0.07769967
245	0xbd912f46	-0.07089095
246	0xbd29437b	-0.04132412
247	0xbcb25f33	-0.02177391
248	0xbd0ad538	-0.033894747
249	0xbd520823	-0.05127729
250	0x3d5be030	0.0536806
251	0xbcf73b72	-0.030179713
252	0x3d96c4c6	0.0736175
253	0x3c0eec5f	0.008723347
254	0xbd64f951	-0.05590183
255	0x3cdfe95b	0.027332952

lstm_decoder.weight_ih_l0 f4 [512, 6]
0	0xbda06d11	-0.07833303
1	0xbd9d0266	-0.07666473
2	0x3e033d92	0.12816456
3	0xbd5c3eb6	-0.053770743
4	0x3b9a5160	0.0047094077
5	0x3d25b9df	0.040460464
6	0x3c39f360	0.011349529
7	0x396dd2d4	0.00022680621
8	0xbd36691c	-0.044533834
9	0xbbdd80bc	-0.006759731
10	0x3c9a89f0	0.018864602
11	0x3d92f422	0.07175471
12	0xbd20fa97	-0.03930148
13	0xbd8e1134	-0.06936875
14	0x3c559e25	0.013038193
15	0xbd9df89f	-0.07713436
16	0xbdaf8721	-0.08570696
17	0xbd88e3a4	-0.06684044
18	0xbd76e8f2	-0.060280748
19	0x3d192c16	0.03739556
20	0xbcead6b2	-0.028666828
21	0xbd7fdf92	-0.062469073
22	0xbd0337c3	-0.0320356
23	0xbcf30563	-0.029665655
24	0xbd84510b	-0.0646077
25	0x3d35ed2f	0.04441565
26	0xbd8efb78	-0.069815576
27	0xbd9e11f8	-0.07718271
28	0xbc8491de	-0.016182836
29	0x3c14530a	0.009053001
30	0xbd45b1da	-0.048265316
31	0x3d4468d5	0.047951538
32	0x3b061a76	0.002046255
33	0x3d6b2e27	0.05741706
34	0x3bdcc915	0.006737838
35	0xbc8f0d3f	-0.01746237
36	0xbda0e5c0	-0.07856321
37	0xbd95c0c5	-0.073121585
38	0xbc019920	-0.007910043
39	0x3c8d883b	0.017276874
40	0x3c84b5da	0.016199995
41	0x3d8a1a57	0.06743305
42	0x3de8ecda	0.11373301
43	0x3d8b329c	0.06796762
44	0x3d3e6c11	0.04648978
45	0x3b5706bf	0.0032810417
46	0xbc637f04	-0.013885263
47	0xbd9a2f93	-0.07528605
48	0xbd822114	-0.063539654
49	0x3da34042	0.079712406
50	0x3c64e554	0.013970692
51	0x3c94b855	0.018154303
52	0xbd22882c	-0.039680645
53	0x3d48bf9a	0.04901085
54	0xbe20c364	-0.15699536
55	0xbcbd2d31	-0.023092838
56	0x3c365bdb	0.0111302985
57	0xbd1ae314	-0.037814215
58	0xba546364	-0.00081019686
59	0x3a0456fa	0.0005048361
60	0xbd2ad203	-0.04170419
61	0x3d04d317	0.032427873
62	0x3d3eeb13	0.046610903
63	0xbcff5a58	-0.031171009
64	0xbdc806de	-0.09766935
65	0xbc0933d9	-0.008374178
66	0xbcc1db9e	-0.023664292
67	0x3d0489dd	0.03235804
68	0xbd43692c	-0.04770772
69	0xbbf1d88c	-0.0073805507
70	0x3bcebb8e	0.0063089794
71	0xbd6fbdd2	-0.058530636
72	0xbe0d9c90	-0.13829255
73	0x3cf7cffc	0.030250542
74	0x3d020e24	0.031751767
75	0xbc8a8856	-0.016910713
76	0xba73c0d5	-0.00092984486
77	0xbe102757	-0.14077507
78	0x3d6dda7c	0.05806969
79	0xbc5854f3	-0.013203847
80	0xbd87f813	-0.06639113
81	0x3bb5e187	0.0055505666
82	0x3c1c449c	0.009537842
83	0x3b7fd129	0.0039034581
84	0xbc014236	-0.007889321
85	0xbd53b7e1	-0.051689032
86	0x3d03d278	0.03218314
87	0xbdc86f12	-0.0978681
88	0x3b4ea960	0.003153406
89	0x3c18ecf9	0.009333842
90	0xbda67efc	-0.08129689
91	0xbd90c965	-0.07069663
92	0x3d85416f	0.06506621
93	0x3d935b99	0.07195205
94	0xbd83fad7	-0.06444328
95	0xbdc26e0c	-0.09493646
96	0xbc106c43	-0.008814874
97	0x3d01458d	0.03156047
98	0x3c20eb36	0.009821704
99	0xbd579481	-0.05263186
100	0xbc86446f	-0.016390054
101	0xbd3770ff	-0.044785496
102	0x3da710d2	0.08157505
103	0x3dbb29da	0.09138842
104	0xbd5179d8	-0.05114159
105	0xbd9cc510	-0.07654774
106	0xbd7be792	-0.06150014
107	0x3d5cc321	0.053897027
108	0xbd6f8768	-0.058478743
109	0xbd004595	-0.03131636
110	0xbd936ffc	-0.07199094
111	0x3c2d432f	0.0105751
112	0x3af5ae6c	0.0018743998
113	0xbd93f81b	-0.07225057
114	0xbd622267	-0.05520859
115	0x3d7edf6f	0.0622248
116	0x39b12d5b	0.00033793863
117	0xbd9278b1	-0.07151926
118	0xbd09c7fa	-0.033637978
119	0xbd89c5b0	-0.06727159
120	0xbb6cf237	-0.0036155113
121	0xbd9890df	-0.07449507
122	0x3d67566a	0.056478895
123	0x3c1f171e	0.009710101
124	0x3dd5433d	0.10413215
125	0xbdc493a5	-0.095984735
126	0xbd61be2a	-0.055112995
127	0x3d158f0b	0.03651337
128	0xbd20fb0f	-0.039301928
129	0xbd0a6c22	-0.03379453
130	0x3dba4305	0.09094814
131	0xbd8dc824	-0.069229394
132	0xbc98cf10	-0.018653423
133	0x3d2a97b2	0.041648574
134	0x3dc28c0e	0.094993696
135	0xbc20b3e5	-0.009808515
136	0xbd96e374	-0.07367602
137	0x3d27e803	0.040992748
138	0xbe9856c9	-0.29753712
139	0xbd5b8d76	-0.053601705
140	0x3b7b69c7	0.0038362609
141	0x3e4001f5	0.18750747
142	0x3e57626d	0.2103364
143	0x3d6b9e9a	0.0575243
144	0x3dd737bd	0.10508678
145	0xbcc1a763	-0.023639387
146	0xbd91d607	-0.071209006
147	0xbda2ff37	-0.079588346
148	0xbcfccc04	-0.030859001
149	0x3df31abb	0.11870333
150	0xbdfb8cea	-0.122827366
151	0xbdc85e11	-0.09783567
152	0x3d99a744	0.075026065
153	0xbdb1ecc3	-0.08687737
154	0x3bf4094b	0.007447397
155	0xbc8595ef	-0.016306845
156	0x3d8fdccd	0.07024536
157	0xbd6834f8	-0.05669114
158	0x3d8db000	0.06918335
159	0xbd5d6348	-0.05404976
160	0xbc801311	-0.015634092
161	0x3c1ca224	0.009560142
162	0x3d16817d	0.036744583
163	0x3d2977a6	0.04137387
164	0xbdafb14c	-0.085787386
165	0x3d31b0cb	0.043381494
166	0xbd9ac6d7	-0.07557457
167	0xbd2c47a6	-0.042060517
168	0xb815abeb	-3.568448e-05
169	0x3d0048f7	0.031319585
170	0xbc596160	-0.013267845
171	0x3cee540b	0.02909281
172	0xbd0d8050	-0.034546196
173	0x3c6e9e1f	0.014564066
174	0x3d4c21dd	0.049836982
175	0x3d29d500	0.0414629
176	0x3d21d59f	0.039510366
177	0xbd8eb8ce	-0.069688424
178	0xbd00effa	-0.03147886
179	0x3d0e95bc	0.034810767
180	0xbd2cb6e6	-0.042166613
181	0xbd841cfc	-0.06450841
182	0xbd42c307	-0.047549274
183	0x3b556e88	0.0032567102
184	0x3bdfadaa	0.0068261223
185	0xbc183974	-0.009291042
186	0xbcbdb0d6	-0.023155611
187	0x3d25676b	0.04038183
188	0x3d0744bb	0.03302453
189	0xbd532c3e	-0.051555865
190	0xbd974959	-0.07387037
191	0xbd1fc2e0	-0.039004207
192	0x3d1a46b4	0.037665084
193	0xbd7cf8ea	-0.06176082
194	0x3c8c8d3f	0.017157195
195	0xbd199891	-0.037499014
196	0xbdd68bb5	-0.10475866
197	0x3d9e9d31	0.07744826
198	0x3dd2c9da	0.102924064
199	0xbd8c2382	-0.0684271
200	0x3bc7dccf	0.0060993205
201	0xbd9a87a5	-0.075454034
202	0xbdf3da61	-0.11906887
203	0xbda399ab	-0.07988294
204	0x3d749d77	0.059720483
205	0xbd975197	-0.07388609
206	0xbcbe41e4	-0.023224778
207	0xbd3f6b31	-0.046733085
208	0x3c87044d	0.016481543
209	0xbd966785	-0.073439635
210	0x3ad5a980	0.0016301125
211	0x3db138be	0.08653401
212	0x3dd9d610	0.10636532
213	0xbd30cc61	-0.04316366
214	0x3b05ba05	0.0020405066
215	0xbdc605c5	-0.09669069
216	0xbd5b694d	-0.05356722
217	0xbaf3340b	-0.0018554939
218	0x3d7d36b7	0.06181976
219	0xbd92ab52	-0.07161583
220	0xbdbc6386	-0.0919867
221	0xbcc7dd86	-0.024397623
222	0xbd56b70b	-0.052420657
223	0x3d7eea2f	0.062235054
224	0xbd49f8be	-0.049309485
225	0xbd381a93	-0.04494722
226	0x3d93d5e2	0.07218529
227	0x3d22c04d	0.039734174
228	0xbc97d17c	-0.018532507
229	0xbd4ba369	-0.049716387
230	0x3d426675	0.047460992
231	0x3d174274	0.03692861
232	0x3d2a4a34	0.041574672
233	0x3cc1016e	0.023560252
234	0xbcee85fc	-0.029116623
235	0xbc4a37c5	-0.012342398
236	0x3d49b1ec	0.049241945
237	0x3cc4302c	0.023948751
238	0x3b45bc32	0.0030171988
239	0xbd368d71	-0.044568483
240	0x3d0476c9	0.032339845
241	0xbd68f1e3	-0.056871306
242	0xbccb640b	-0.024827978
243	0x3d43d8a0	0.04781401
244	0x3c4e2f1c	0.012584474
245	0x3d2d5122	0.042313702
246	0xbd842423	-0.06452205
247	0xbd0f1d86	-0.034940265
248	0xbd893c3d	-0.06700943
249	0xbd18e933	-0.03733177
250	0x3c8ea117	0.017410798
251	0x3d4c0740	0.0498116
252	0xbe205078	-0.15655696
253	0x3d954ecc	0.0729042
254	0xbccb392f	-0.02480754
255	0xbc82aa43	-0.015950328

lstm_decoder.weight_hh_l0 f4 [512, 128]
0	0x3d8ba970	0.06819427
1	0xbd2938f8	-0.041314095
2	0xbc39e6b1	-0.011346505
3	0xbd7b4bf7	-0.061351743
4	0xbd1b0c61	-0.037853602
5	0x3bb8f7e0	0.0056447834
6	0x3d24309c	0.04008542
7	0x3d870002	0.06591798
8	0x3d649ac8	0.055811673
9	0x3ce38054	0.027771153
10	0xbccfa440	-0.025346875
11	0x3d0a363d	0.033743132
12	0x3d210def	0.03931993
13	0xbd912452	-0.07087006
14	0x3c53aac4	0.012919132
15	0xbca784b5	-0.020449022
16	0xbc5c81e0	-0.013458699
17	0xbcf20565	-0.029543588
18	0x3d98ab1c	0.074545115
19	0xbcd7b93e	-0.026333448
20	0xbd5d904d	-0.054092694
21	0xbd7985fb	-0.06091879
22	0xbd31dbd8	-0.04342255
23	0x3bf32cb1	0.007421099
24	0xbd581ffa	-0.05276487
25	0x3d817078	0.0632028
26	0x3d2c4a97	0.042063322
27	0x3cd1a9c8	0.025593653
28	0xbcefcbae	-0.029271927
29	0xbc2a5dd8	-0.010398351
30	0xbce4f704	-0.027949817
31	0x3d5166f5	0.051123578
32	0x3c920e90	0.01782921
33	0x3d487e70	0.048948705
34	0x3cc51007	0.024055494
35	0xbc352acb	-0.011057566
36	0xbda86838	-0.08223003
37	0x3cd43872	0.025905821
38	0xbd5868a9	-0.052834187
39	0x3d1968d1	0.037453476
40	0x3d52b5e1	0.051442984
41	0x3d9c5bdb	0.076347075
42	0xbd8b7b32	-0.06810607
43	0x3d83e5a8	0.06440288
44	0x3d0630fa	0.03276155
45	0xbcfdbf73	-0.03097508
46	0xbc576e77	-0.013148895
47	0x3c99efe5	0.018791148
48	0xbd9b76af	-0.075909965
49	0x3d0afb5e	0.03393113
50	0xbd553fd0	-0.05206281
51	0x3b796c76	0.0038059033
52	0xbb3a4978	-0.0028425138
53	0xbd6f4f8b	-0.058425467
54	0x3d48bfef	0.049011167
55	0xbcd8e369	-0.026475625
56	0xbd9aabbe	-0.075522885
57	0xb97f62d3	-0.0002435551
58	0xbd1fb3bb	-0.038989764
59	0x3d0e3f3f	0.034728285
60	0x3d7d764d	0.0618804
61	0xbccc3cb5	-0.024931291
62	0x3badf71a	0.005308998
63	0xbd19618b	-0.03744654
64	0x3d22f2d5	0.039782364
65	0x3d163a84	0.0366769
66	0xbccda34e	-0.025102284
67	0xbd3e6c83	-0.046490204
68	0xbd10f3a8	-0.03538862
69	0xbca6f4ab	-0.020380339
70	0xbcbfcee2	-0.02341408
71	0x3d2ba46c	0.04190485
72	0x3d7a2950	0.061074555
73	0xbd93c921	-0.07216097
74	0xbd91cd85	-0.07119278
75	0x3d56ed86	0.052472614
76	0x3d59c9f2	0.053171106
77	0xbd7e7c47	-0.06213024
78	0x3d06b9d4	0.032892063
79	0x3cb9e7e9	0.022693591
80	0x3c9010b9	0.017586099
81	0xbc4718b1	-0.012151883
82	0x3d30d714	0.043173864
83	0xbdb1a0fb	-0.08673283
84	0x3d9816eb	0.07426246
85	0xbd91197c	-0.07084939
86	0xbcbf8f54	-0.023383774
87	0x3d19f127	0.037583496
88	0xbc6792d0	-0.014134124
89	0xbd917e53	-0.071041726
90	0xbc7509f0	-0.014955983
91	0x3c24a13b	0.010048206
92	0xbd8e7aab	-0.06956991
93	0x3d91eb8e	0.071250066
94	0xbbe1326e	-0.0068724668
95	0x3d95ebe1	0.07320381
96	0xbd99b36a	-0.07504924
97	0x3d9e1b65	0.07720069
98	0x3d356a31	0.044290725
99	0x3d7b505e	0.06135594
100	0x3d755c73	0.05990262
101	0xbda4f192	-0.080538884
102	0x3cc3533f	0.023843406
103	0xbc367acd	-0.011137676
104	0xbd5f48cc	-0.054512784
105	0xbccd213e	-0.025040265
106	0xba9b419b	-0.0011845113
107	0xbcac4afd	-0.021031851
108	0x3d878075	0.06616298
109	0x3d90c809	0.07069404
110	0xbdabe21d	-0.08392737
111	0x3d272bd4	0.040813282
112	0xbb82bb38	-0.0039896034
113	0x3d6d0504	0.05786611
114	0x3d481c5d	0.048855174
115	0xbc3c40ef	-0.011490091
116	0x3db2aedb	0.08724757
117	0x3c1f05c2	0.009705963
118	0x3d76a80d	0.06021886
119	0xbd96624b	-0.07342967
120	0xbcb6b893	-0.022304809
121	0xbd84fbcd	-0.0649334
122	0x3d37642d	0.04477327
123	0x3c8760de	0.016525682
124	0xbd6b7d34	-0.05749245
125	0xbd4d3c88	-0.050106555
126	0xbd95fcf0	-0.073236346
127	0xbc89ea9a	-0.0168355
128	0x3cdab15d	0.026695902
129	0x3d9f67c6	0.07783465
130	0x3d0663a1	0.032809857
131	0x3d782efa	0.060591675
132	0x3dac45aa	0.08411725
133	0xbd9f8f63	-0.07791021
134	0x3c9beb02	0.019032959
135	0xbcd41ff1	-0.025894137
136	0xbda2eaf1	-0.07954968
137	0xbd8db723	-0.06919696
138	0xbd9c5a23	-0.0763438
139	0x3d67bf1f	0.05657875
140	0xbd8fcef7	-0.07021897
141	0x3d0d9c67	0.034572985
142	0x3d77f1d4	0.06053336
143	0xbb3d36ee	-0.0028871852
144	0x3d4b10d1	0.049576584
145	0x3c2830d7	0.010265551
146	0x3d0f0c98	0.03492412
147	0x3d909a47	0.07060676
148	0xbd0b1d08	-0.033963233
149	0x3bb9b672	0.005667501
150	0xbbd758ed	-0.00657188
151	0x3d38963f	0.04506516
152	0xbd3532bb	-0.044237833
153	0x3d7f52a2	0.062334664
154	0x3d921caa	0.071343735
155	0xbd4ab953	-0.049493145
156	0x3ba5c269	0.005058576
157	0x3d8a9164	0.06766012
158	0x3d36e96a	0.044656195
159	0xbd2fd920	-0.042931676
160	0xbd43cc43	-0.04780222
161	0x3d9b07df	0.07569861
162	0x3d9bf37d	0.07614801
163	0xbd02de5a	-0.031950332
164	0x3c807592	0.015681062
165	0xbd11ee73	-0.035627794
166	0x3d07d82b	0.03316514
167	0xbd22e747	-0.039771345
168	0xbd618108	-0.055054694
169	0x3d96e874	0.07368556
170	0x3bb56ab2	0.0055364007
171	0x3cb8253f	0.022478698
172	0xbbb7d48f	-0.0056100558
173	0xbcab8337	-0.020936592
174	0x3d09548c	0.033527896
175	0xbba305dc	-0.0049750637
176	0x3d9c3d2a	0.076288536
177	0x3ca96a44	0.020680554
178	0x3d4476fd	0.04796504
179	0x3d5315de	0.051534526
180	0xbbbd8c64	-0.005784558
181	0xbd479433	-0.04872532
182	0x3ce18867	0.027530862
183	0x3d6dea51	0.05808479
184	0xbda55b90	-0.08074105
185	0xbd2404bf	-0.04004359
186	0x3d92a223	0.071598314
187	0xbd679a2a	-0.056543507
188	0x3cc07646	0.023493897
189	0xbc0e6e6a	-0.008693317
190	0x3be2c9d2	0.0069210315
191	0xbcaf74b2	-0.02141795
192	0xbd5b3219	-0.053514574
193	0xbd9ccde8	-0.07656461
194	0x3cf7ea8c	0.030263208
195	0xbd8f0f23	-0.06985309
196	0xbd45a940	-0.048257113
197	0xbc331cfc	-0.010932203
198	0x3b51d6cd	0.00320189
199	0xbd13ab67	-0.036052134
200	0xbb01c6a2	-0.0019802232
201	0x3ca232c5	0.0197996
202	0xbd292612	-0.041296072
203	0x3d29d496	0.041462503
204	0xbd46b6b0	-0.048514068
205	0x3da5c90d	0.08094988
206	0xbd64927c	-0.05580376
207	0xbdae9671	-0.08524788
208	0xbbe829ba	-0.0070850523
209	0xbca2b3c5	-0.019861111
210	0x3d5b89c3	0.053598177
211	0xbd0e5709	-0.034750972
212	0xbb822a5e	-0.0039723357
213	0x3c89bc21	0.01681334
214	0x3ca11fbe	0.019668456
215	0xbda652d3	-0.08121266
216	0xbcd8ef79	-0.026481377
217	0xbd4b3ac5	-0.049616594
218	0xbdaa3fc7	-0.08312946
219	0x3d92e595	0.071726955
220	0xbd861cc6	-0.06548457
221	0x3c427571	0.0118688205
222	0x3cc11a4a	0.023572106
223	0xbd03e3be	-0.032199614
224	0x3ccb080a	0.024784107
225	0x3d8c6a34	0.06856194
226	0xbd01020a	-0.031496085
227	0xbd26ff7d	-0.040770996
228	0xbd490cf9	-0.049084637
229	0xbd2e483c	-0.042549357
230	0xbd2fd442	-0.042927034
231	0x3bad9daa	0.005298336
232	0xbda1177c	-0.078658074
233	0xbd86c86d	-0.06581197
234	0x3d85df4a	0.0653673
235	0x3d52d5bc	0.051473364
236	0x3d187096	0.037216745
237	0x3d1047c8	0.035224706
238	0x3da2e633	0.07954063
239	0x3d17e458	0.037083
240	0x3da61f32	0.08111419
241	0xbd6917c3	-0.056907427
242	0x3d8e42b3	0.069463156
243	0x3d81d375	0.0633916
244	0x3c555c2b	0.013022463
245	0xbc9f0428	-0.019411162
246	0xbcb82a73	-0.022481179
247	0xb8e84e68	-0.000110772264
248	0xb9c8ca29	-0.00038297594
249	0xbda9db1d	-0.08293746
250	0xbb8e3d5d	-0.004340811
251	0x3daf4e44	0.0855985
252	0xbd9077be	-0.07054089
253	0xbce92b1b	-0.028462937
254	0x3d26158a	0.040547885
255	0x3cbf1bc2	0.023328666

lstm_decoder.bias_ih_l0 f4 [512]
0	0xbd8baeee	-0.068204746
1	0x3d06835f	0.03284013
2	0xbd97e81d	-0.07417319
3	0xbc888d77	-0.016669018
4	0x3d18cbca	0.037303723
5	0x3d8e1570	0.06937683
6	0xbd72c64e	-0.05927115
7	0xbd81c132	-0.06335677
8	0xbb330a79	-0.0027319475
9	0x3db35206	0.08755879
10	0x3b4cb371	0.0031234885
11	0xbc350552	-0.011048632
12	0xbc00aff1	-0.007854448
13	0x3d940816	0.07228105
14	0xbd990d70	-0.07473266
15	0xbcda7257	-0.02666585
16	0x3d6931fc	0.056932434
17	0xbce17829	-0.027523117
18	0x3d1df614	0.038564757
19	0xbc98c9a6	-0.018650841
20	0x3d62bc74	0.055355504
21	0x3cb3838a	0.021913309
22	0x3d13187e	0.03591203
23	0xbc9ff060	-0.0195238
24	0xbd931936	-0.07182543
25	0xbcd6a7a1	-0.026202979
26	0xbd8a7844	-0.0676122
27	0xb943f2cd	-0.000186871
28	0xbc8eef45	-0.017448077
29	0x3db0858a	0.086192206
30	0xbc236d55	-0.009974797
31	0xbcfcafdc	-0.030845575
32	0x3c4fbd86	0.012679463
33	0xbbe5bb37	-0.007010843
34	0xbce9b720	-0.028529704
35	0x3d8edbdd	0.06975529
36	0x3c4b9491	0.012425558
37	0x3c886a38	0.016652212
38	0x3c5b6d2c	0.013392728
39	0x3d0ad2b6	0.033892356
40	0x3c9730ce	0.01845589
41	0xbd4eb1d7	-0.05046257
42	0xbd496aac	-0.049173996
43	0xbc343d57	-0.011000953
44	0x3da8aa10	0.08235562
45	0xbd772c71	-0.060345117
46	0xbd1b526c	-0.0379204
47	0xbd458cd1	-0.048229996
48	0x3c395be1	0.01131341
49	0xbd4ff4ff	-0.050770756
50	0xbcaa9361	-0.020822229
51	0x3d39be14	0.04534729
52	0xbc863101	-0.016380789
53	0xbce60bb1	-0.028081747
54	0x3ce4709b	0.027885726
55	0xbd70944c	-0.058735177
56	0xbd83b848	-0.06431633
57	0xbcb31d1a	-0.021864463
58	0x3c34feb6	0.011047056
59	0x3cb4e732	0.022082899
60	0x3da01b67	0.078177266
61	0x3d8f5730	0.069990516
62	0x3da41d6e	0.08013426
63	0x3da8eac3	0.08247902
64	0x3c33c888	0.010973103
65	0xbd4b9c2a	-0.049709477
66	0xbd6664a6	-0.05624833
67	0xbd7dd3aa	-0.061969437
68	0xbd6d35b1	-0.057912532
69	0xbd7517a9	-0.059837017
70	0xbd5f153a	-0.054463603
71	0xbca0ca23	-0.019627636
72	0x3bc3051a	0.005951536
73	0xbd060384	-0.032718197
74	0xbc8bc82c	-0.017063223
75	0x3daaf7b2	0.083480254
76	0xbcd382cc	-0.025819205
77	0x3da73dcc	0.08166084
78	0x3c91ecbf	0.017813085
79	0xbc9443fd	-0.018098826
80	0x3ccd48f9	0.02505921
81	0x3d7f47e7	0.06232443
82	0xbd860390	-0.06543648
83	0xbd067a51	-0.032831494
84	0x3d96a536	0.0735573
85	0x3d99c158	0.075075805
86	0x3da50a5e	0.08058618
87	0x3d63f04e	0.055649094
88	0xbd937849	-0.07200677
89	0xbc87508c	-0.0165179
90	0xbd93dbb0	-0.072196364
91	0x3d1e74f8	0.03868577
92	0x3c0df5bb	0.008664544
93	0x3c566818	0.013086341
94	0x3d87c26e	0.066288814
95	0xbd2a24f5	-0.04153915
96	0xbc8850b4	-0.016640045
97	0x3d548c94	0.05189188
98	0xbce4c3e7	-0.027925445
99	0xba8e9bf3	-0.0010880217
100	0x3d06bcdb	0.03289495
101	0xbd5ee82d	-0.05442064
102	0x3cc0b653	0.023524439
103	0x3c115c17	0.008872054
104	0x3d1e9581	0.038716797
105	0xbd7b2ff3	-0.061325025
106	0x3d47f4c7	0.048817422
107	0xbca13074	-0.019676425
108	0x3d780590	0.06055218
109	0x3d899147	0.067171626
110	0x3d8d7cbb	0.06908556
111	0xbd91471f	-0.070936434
112	0xbd34ce4c	-0.044142053
113	0xbd9a628e	-0.07538329
114	0x3db3c2ac	0.08777365
115	0x3daceb34	0.08443299
116	0xbd7e3e5c	-0.06207119
117	0xbc90ceab	-0.017676672
118	0xbc290151	-0.010315255
119	0xbd7d34e8	-0.061818033
120	0xbc1b7271	-0.009487734
121	0x3d25e44d	0.040500928
122	0xbd267da6	-0.04064717
123	0x3d96b4f5	0.073587336
124	0xbcd4f77f	-0.025996922
125	0xbcb757c6	-0.02238072
126	0xbce0d81c	-0.027446799
127	0x3ce29089	0.02765681
128	0xbcb58296	-0.022156995
129	0xbc0607f4	-0.008180607
130	0xbcfa065a	-0.030520607
131	0xbc041252	-0.0080610085
132	0x3b4997a3	0.0030760549
133	0xbd0236bb	-0.031790476
134	0xbd170ef4	-0.036879495
135	0x3daebeb1	0.08532465
136	0xbd0ffba4	-0.035152093
137	0x3d955d97	0.072932415
138	0x3d95ced1	0.07314838
139	0xbcbc503f	-0.022987483
140	0x3da1a2a6	0.07892351
141	0xbd92172f	-0.07133328
142	0x3d19fdd6	0.037595592
143	0xbd47be93	-0.04876573
144	0x3c65a3e3	0.014016124
145	0x3d2a76c6	0.041617177
146	0xbd48d75c	-0.049033508
147	0xb923580c	-0.00015577691
148	0x3d354f47	0.044265058
149	0xbcf87583	-0.030329471
150	0x3bb5e76b	0.005551269
151	0xbd8510c9	-0.06497342
152	0xbcb80ede	-0.022468027
153	0x3dc8fe64	0.09814146
154	0xbcb6dbe1	-0.022321643
155	0x3cd0fcd4	0.025511183
156	0x3d7afc93	0.06127603
157	0x3d616988	0.055032283
158	0x3d965676	0.0734071
159	0x3c77b1fd	0.015118119
160	0x3bcc5704	0.006235959
161	0xbb808d07	-0.003923062
162	0xbd9039c3	-0.07042267
163	0xbc904389	-0.017610328
164	0xbcae84fa	-0.021303643
165	0xbd90ca70	-0.07069862
166	0x3d7e00ff	0.06201267
167	0xbc0c8d74	-0.008578647
168	0x3ca6a0bf	0.020340322
169	0x3c586472	0.013207542
170	0x3c8f2a63	0.017476266
171	0x3da2728a	0.07932003
172	0xbcd83458	-0.026392147
173	0x3cd052c9	0.0254301
174	0xbccab6b1	-0.024745317
175	0x3dab3146	0.083590075
176	0xbcf0334f	-0.02932134
177	0x3d2b76d6	0.041861378
178	0x3bd00b90	0.0063490346
179	0x3d8df958	0.06932324
180	0x3cd64dac	0.026160084
181	0x3d67babc	0.05657457
182	0x3d315e70	0.043302953
183	0x3c47e83b	0.012201364
184	0xbd850fdb	-0.06497165
185	0xba3faffd	-0.0007312296
186	0xbd836da8	-0.064174
187	0xbc6ee0ec	-0.014579993
188	0x3bf1ad6b	0.0073754094
189	0xbcb04f32	-0.021522138
190	0xbd1e2c80	-0.038616657
191	0x3cab89b7	0.020939691
192	0xbc8efd03	-0.01745463
193	0x3d71d7f0	0.059043825
194	0xbd97e9d5	-0.07417647
195	0xbda157f8	-0.07878107
196	0x3d66b3c6	0.05632379
197	0x3ce7a242	0.028275613
198	0x3d246941	0.04013944
199	0x3d7d99cb	0.061914247
200	0x3da49763	0.08036687
201	0xbbc0b261	-0.0058806394
202	0xbd2dff53	-0.042479824
203	0x3ca5de57	0.020247621
204	0xbcf41727	-0.029796196
205	0xbc02dbeb	-0.007987003
206	0x3d156ca1	0.03648055
207	0xbd778dc4	-0.060437933
208	0x3d900ee1	0.07034088
209	0xbd8424b6	-0.064523146
210	0xbd4c211c	-0.049836263
211	0xbd868626	-0.065685555
212	0x3da6e1bb	0.081485234
213	0xbd2f6c02	-0.042827614
214	0x3da4c945	0.080462016
215	0x3c2ee6d8	0.010675155
216	0x3cfac485	0.030611286
217	0x3d443bd7	0.04790863
218	0x3d32e6c0	0.04367709
219	0xbd4433ca	-0.047900952
220	0xbd6af1f0	-0.057359636
221	0xbd27b2d1	-0.040942017
222	0xbd4bd779	-0.049766038
223	0x3c06e056	0.008232197
224	0xbcdaa92a	-0.026691992
225	0x3d90ad57	0.07064312
226	0x3d5121e3	0.051057708
227	0xbdadec81	-0.08492375
228	0x3bffc2c4	0.0078052003
229	0xbd85fb4d	-0.065420724
230	0x3d922ea8	0.07137805
231	0x3d816e07	0.06319814
232	0x3d1510e1	0.03639305
233	0xbd16c020	-0.03680432
234	0xbd1fada7	-0.038983967
235	0xbda35fed	-0.07977281
236	0x3d140a30	0.036142528
237	0x3b1704dc	0.0023043668
238	0x3d71403b	0.058899146
239	0x3c751967	0.01495967
240	0x3b306b71	0.0026919509
241	0x3d215a60	0.03939283
242	0xbd7ebb61	-0.062190417
243	0x3d008765	0.031379122
244	0x3d2a16d4	0.041525677
245	0xbc94a4b3	-0.018144941
246	0xbd973809	-0.07383735
247	0xbc1d7b5f	-0.0096119335
248	0xbc2b0f15	-0.010440608
249	0xbd41a869	-0.04727975
250	0xbd7dd2eb	-0.061968725
251	0xbda20680	-0.07911396
252	0x3d785c73	0.06063504
253	0x3d8b4846	0.068008944
254	0x3daa1231	0.08304251
255	0x3db1e7f5	0.086868204
