transformer_no_tanh_with_past_12_Nm_144_Np_lr_0.001_hs_128_ahs_8_nll_1_bs_16_do_0.5_e_200_stride_10/model_transfer_A25_to_J25_0.0n_0.001lr_200e_10days.pth (torch, 831527 bytes, 14 tensors)

lstm_encoder.weight_ih_l0 f4 [512, 8]
0.024192832 0.03433488 0.082217775 -0.016623098 0.011747771 -0.062035102 0.00825893 -0.075490326
-0.08263808 -0.04459125 0.063769974 0.050334346 0.021188112 -0.025005579 0.047369055 -0.044186953
0.014292903 0.021811549 0.03127314 0.022917796 -0.025442678 0.051168684 0.015152891 -0.011166551
-0.06312808 -0.008571613 -0.06445927 0.03901753 -0.07975832 0.02030936 0.060825113 0.08144069
-0.010369018 -0.051009066 0.0011096398 0.06460198 -0.029175803 -0.061889395 -0.06909997 0.05608621
0.05482323 0.040287122 0.046157192 0.050017487 0.054902468 0.028845048 -0.005709075 0.06669966
0.013783702 0.03673206 0.068713106 -0.04549119 -0.043632813 0.020699915 0.05381224 0.029033858
0.01720442 0.0047927895 0.048387744 0.0037756031 0.042848673 -0.06538175 0.01000218 -0.07304406
-0.05818679 0.04866271 0.05874132 0.06871782 -0.02881445 0.07125482 -0.022920236 0.015168502
0.016083384 -0.0017924217 -0.07933101 0.07759503 -0.008992366 0.07224002 -0.05285962 0.04866337
0.024564615 0.052943237 -0.076305665 -0.03253748 -0.004452719 0.06480124 0.0656787 -0.05010182
0.040014397 0.036546834 0.0025274397 -0.080803044 0.08159465 0.008066574 -0.044793874 0.05525599
0.018696597 0.029704895 -0.0010199824 -0.038200043 -0.0315166 -0.01840671 -0.04331879 0.018601257
0.06779798 -0.039310414 0.07831101 -0.036554895 0.03500001 0.03844775 -0.005025476 -0.021296235
-0.03969177 0.056327466 -0.031450585 -0.03079131 -0.04990334 -0.07636733 0.021426067 -0.03192487
0.07782704 0.017924072 0.04155518 -0.022325763 -0.049322102 -0.048580714 0.06839157 0.078291
-0.08181385 -0.040497266 0.04766274 0.077202566 0.008846286 -0.06998052 -0.051516097 -0.011340685
-0.03234148 -0.022139201 0.008439169 0.071105346 0.039540097 -0.0674722 -0.030085325 -0.0426959
0.03706873 0.028831538 -0.070936635 -0.019797454 0.005664839 -0.036268324 -0.054903056 0.017849546
-0.0060612364 0.03882043 0.037828203 -0.028589303 0.013327198 0.038977508 -0.07494097 0.005689319
0.03375111 0.0042067994 0.040253527 0.05794727 -0.03918758 -0.014560021 0.054636195 -0.056503277
-0.019560484 0.019283671 -0.053208377 -0.034613464 0.03974979 0.05759626 0.032445565 0.050946377
-0.065626055 -0.057526074 0.07967553 -0.009833312 -0.0428314 -0.07167899 -0.040924583 0.07580474
0.075612396 -0.050945863 -0.046635076 0.054064542 0.045611776 0.02037196 -0.032216184 0.011593743
-0.042750426 0.038608987 0.08282631 -0.08224516 -0.029336458 -0.018719178 0.06874183 0.08129026
-0.07637917 0.012326055 -0.03341894 0.06135831 -0.05483894 -0.042983867 0.03542328 0.05493619
-0.029167457 -0.06671275 -0.072875164 -0.069521815 -0.042074237 -0.03710868 -0.011263641 -0.077970006
0.053779162 -0.06549937 0.06411396 0.011511403 0.085720874 -0.030608298 -0.037014328 0.039848387
-0.079562545 -0.052806765 -0.0008429382 -0.063176386 0.07535311 0.07341149 0.064929284 0.06894476
0.007603014 0.048201513 0.08032637 0.04192412 -0.0010005848 0.018806802 0.06296255 -0.022253847
-0.064343184 0.07646119 -0.05238805 -0.00095476705 0.06374368 0.01278744 -0.031526078 -0.02970924
-0.0047355318 -0.02093285 -0.045086004 0.07328856 0.037045874 0.07691169 -0.00031437128 -0.06460915
00000000: 0c30 c63c bba2 0c3d cb61 a83d 2a2d 88bc
00000010: b979 403c 8518 7ebd 7750 073c ac9a 9abd
00000020: 273e a9bd 51a5 36bd d599 823d 632b 4e3d
00000030: b192 ad3c 80d8 ccbc 0e06 423d 61fd 34bd
00000040: c82c 6a3c 22ae b23c 4418 003d 1abe bb3c
00000050: 2a6d d0bc 4196 513d d543 783c e9f3 36bc
00000060: 4b49 81bd f36f 0cbc 3903 84bd d8d0 1f3d
00000070: 5458 a3bd d15f a63c c123 793d 60ca a63d
00000080: d0e2 29bc e2ee 50bd 5571 913a 0b4e 843d
00000090: 1802 efbc bc7f 7dbd 4984 8dbd a7ba 653d
000000a0: 538e 603d 1c04 253d 530f 3d3d 23df 4c3d
000000b0: 69e1 603d 734c ec3c 3113 bbbb d599 883d
000000c0: 09d5 613c 5b74 163d 75b9 8c3d f854 3abd
000000d0: 52b8 32bd de92 a93c 396a 5c3d 6ad8 ed3c
000000e0: 49f0 8c3c d50c 9d3b 3a32 463d 1c70 773b
000000f0: 1782 2f3d dee6 85bd 2fe0 233c 2098 95bd
00000100: 4655 6ebd 8d52 473d bd9a 703d eebb 8c3d
00000110: 480c ecbc 0cee 913d 38c3 bbbc 4f85 783c
00000120: 4dc1 833c b1ef eaba 4c78 a2bd 25ea 9e3d
00000130: b754 13bc 93f2 933d 5483 58bd 3e53 473d
00000140: bb3b c93c 02db 583d 2546 9cbd 0546 05bd
00000150: 1de8 91bb 83b6 843d 8e82 863d 9137 4dbd
00000160: 23e6 233d 22b2 153d 67a3 253b 117c a5bd
00000170: 191b a73d aa29 043c c879 37bd 1b54 623d
00000180: 9b29 993c ae57 f33c eeb0 85ba a677 1cbd
00000190: 8d17 01bd abc9 96bc 0b6f 31bd aa61 983c
000001a0: abd9 8a3d f503 21bd 8661 a03d 96ba 15bd
000001b0: 2c5c 0f3d 637b 1d3d c0ac a4bb 7175 aebc
000001c0: d693 22bd a1b7 663d 54d2 00bd 0f3e fcbc
000001d0: 7267 4cbd 7a66 9cbd b885 af3c a7c3 02bd
000001e0: c863 9f3d 81d5 923c c435 2a3d 85e4 b6bc
000001f0: f905 4abd 92fc 46bd e110 8c3d 0857 a03d
00000200: 058e a7bd 76e0 25bd 013a 433d 611c 9e3d
00000210: 03f0 103c f251 8fbd 8b02 53bd 48ce 39bc
00000220: 8078 04bd 455d b5bc 7144 0a3c ae9f 913d
00000230: ccf4 213d dd2e 8abd 8075 f6bc e5e1 2ebd
00000240: 61d5 173d 1e30 ec3c 3a47 91bd 452e a2bc
00000250: 1da0 b93b 188e 14bd 07e2 60bd 3639 923c
00000260: 569d c6bb 2c02 1f3d bff1 1a3d 1d34 eabc
00000270: 525a 5a3c e1a6 1f3d a77a 99bd 786d ba3b
00000280: 9b3e 0a3d 31d9 893b e2e0 243d 1e5a 6d3d
00000290: 2883 20bd 288d 6ebc 34ca 5f3d fb6f 67bd
000002a0: 4f3d a0bc caf8 9d3c 07f1 59bd d9c6 0dbd
000002b0: add0 223d 0eea 6b3d a4e5 043d 26ad 503d
000002c0: f466 86bd 76a0 6bbd ed2c a33d e61b 21bc
000002d0: fa6f 2fbd 6fcc 92bd 89a0 27bd 843f 9b3d
000002e0: acda 9a3d 9cac 50bd 6c04 3fbd c872 5d3d
000002f0: 6ad3 3a3d 19e3 a63c 1ef5 03bd aff3 3d3c
00000300: 121b 2fbd 7524 1e3d d7a0 a93d 2770 a8bd
00000310: 0353 f0bc f658 99bc 84c8 8c3d 827b a63d
00000320: af6c 9cbd 39f3 493c 4ce2 08bd da52 7b3d
00000330: cc9e 60bd da0f 30bd 0018 113d c504 613d
00000340: 97f0 eebc b2a0 88bd 933f 95bd 7461 8ebd
00000350: 0956 2cbd 45ff 17bd 228b 38bc bdae 9fbd
00000360: 8a47 5c3d 8924 86bd 2e4e 833d 539a 3c3c
00000370: 6d8e af3d 41be fabc 569c 17bd 1038 233d
00000380: b0f1 a2bd e84b 58bd a0f8 5cba 9f62 81bd
00000390: bb52 9a3d c358 963d a5f9 843d e932 8d3d
000003a0: b422 f93b f36e 453d 2782 a43d a0b8 2b3d
000003b0: 0e26 83ba b910 9a3c 82f2 803d b34d b6bc
000003c0: 5cc6 83bd af97 9c3d da94 56bd 5549 7aba
000003d0: 0c8c 823d 6982 513c 7d21 01bd cb60 f3bc
000003e0: 852c 9bbb 5e7b abbc 1aac 38bd 5018 963d
000003f0: 6abd 173d e083 9d3d 33d2 a4b9 cd51 84bd

lstm_encoder.weight_hh_l0 f4 [512, 128]
-0.050898403 -0.01557525 -0.014199805 -0.012725462 -0.04329234 -0.078856274 -0.033341743 0.027391855
-0.056843847 -0.00014787594 0.00078279246 0.0132176895 -0.010992163 0.06618959 -0.015364735 0.045266088
-0.07442438 0.06900764 0.0068095457 0.059383955 -0.06927884 0.077538654 -0.0044384995 0.03654283
0.058456246 0.0073019965 0.070325285 0.016655613 -0.057671294 0.063167155 -0.057876907 0.062305786
0.005793815 -0.029914832 0.06864681 -0.0057431115 -0.027815618 0.07079222 0.013389299 0.03701112
-0.066492945 0.015330953 0.072061084 0.06361335 0.015103956 -0.06524971 0.06672731 -0.04870403
-0.036777515 -0.034683824 -0.0512926 -0.004051587 0.05691168 0.018567504 -0.022485642 -0.0017020669
-0.016882617 -0.055330414 -0.05876132 -0.019008923 -0.04919882 -0.042859744 0.0274814 -0.07875685
0.05895806 0.057638414 -0.005988847 -0.058984067 -0.05356564 0.010625333 -0.0435522 0.03189511
-0.035520095 0.068059266 0.060634 -0.006884903 -0.043945994 0.069942676 -0.04517998 0.030578746
-0.01735366 -0.020650085 -0.07056675 -0.08332388 -0.075462855 -0.02828304 0.065644644 0.005313213
-0.033698272 0.04875947 -0.020936986 0.0373292 0.056726873 0.06674052 -0.059179462 -0.027605824
-0.02484672 0.07615786 -0.0020257677 -0.08198481 0.04319725 0.014443025 -0.06834717 -0.012238765
-0.04898644 0.005565878 0.035102792 0.006735142 0.025597427 -0.0007899343 -0.0018881756 -0.07788568
0.029117528 0.054378327 0.0527211 0.07267661 0.02301322 0.07534662 0.039582543 -0.06258431
0.05561634 -0.05966269 0.03829678 0.035200533 0.062346734 0.009553131 -0.07526786 0.035670076
-0.0065516927 0.073261596 0.038533658 0.055350877 -0.079722 0.03864018 -0.04218449 -0.062338054
-0.066686325 0.04046354 0.06531716 -0.046153903 -0.0545115 -0.075556 0.031626634 0.011403847
0.014885682 0.001526853 -0.036702063 0.070220545 -0.074449405 0.0024624097 0.009484856 -0.020927029
-0.08289268 0.029004524 0.07816768 0.060721707 0.035199665 -0.055469327 -0.020614915 0.057057086
0.023732936 -0.016499422 0.04742276 -0.012874524 0.07458389 0.014950226 0.051871963 -0.03876083
-0.017912999 -0.04599814 0.06458051 -0.041576277 -0.0491201 0.027083367 0.0058731944 -0.011688828
0.04850982 0.038472947 -0.051564775 -0.041310262 -0.0722634 -0.04269454 0.04323423 -0.047005653
-0.052137084 -0.07169277 0.05087069 0.015684929 -0.0031967284 0.05103101 -0.013081375 0.046262927
0.03626596 0.011149087 -0.059580963 0.047986634 -0.053157657 -0.0774742 -0.057130933 0.054394607
0.0175309 0.061613332 0.07320892 0.071740896 -0.02823775 -0.06475981 0.034351688 0.06224749
0.050202876 0.04618803 -0.06828147 -0.045366347 -0.07436242 -0.047322147 -0.05668824 -0.051174883
-0.06268098 -0.06035125 -0.062247835 -0.07953739 0.030562814 0.035703383 0.026843479 -0.028849319
-0.03664937 1.9303183e-05 -0.049729634 -0.06915515 0.010864285 0.04003541 -0.08167886 -0.060393907
-0.0030592182 0.070533015 -0.062369063 -0.07104563 -0.048567683 -0.006673191 0.01085087 0.07251803
0.049682546 -0.019040206 -0.0543804 -0.05372823 0.037220877 -0.036694776 0.05420062 0.057995867
-0.053810786 -0.019753115 -0.07345297 -0.045243222 -0.040405598 -0.053487193 -0.004174309 0.045870923
00000000: d87a 50bd 552f 7fbc 4da6 68bc 757e 50bc
00000010: 4f53 31bd 667f a1bd 5a91 08bd e264 e03c
00000020: 18d5 68bd 250f 1bb9 5034 4d3a 028f 583c
00000030: 7918 34bc 688e 873d 5fbc 7bbc ef68 393d
00000040: cf6b 98bd e153 8d3d 9c22 df3b 973c 733d
00000050: 11e2 8dbd 96cc 9e3d d570 91bb efad 153d
00000060: d16f 6f3d 9645 ef3b b406 903d 5a71 883c
00000070: bc38 6cbd c85d 813d 5610 6dbd 5a34 7f3d
00000080: 0bda bd3b f30f f5bc b396 8c3d b630 bcbb
00000090: 94dd e3bc 83fb 903d ca5e 5b3c f998 173d
000000a0: 742d 88bd ad2e 7b3c c394 933d b747 823d
000000b0: 9576 773c a4a1 85bd 54a8 883d e17d 47bd
000000c0: 05a4 16bd a010 0ebd 3018 52bd 2dc3 84bb
000000d0: 391c 693d e11a 983c cf33 b8bc e317 dfba
000000e0: 6a4d 8abc 25a2 62bd b6af 70bd 9ab8 9bbc
000000f0: b484 49bd b38d 2fbd ac20 e13c 454b a1bd
00000100: 027e 713d 4216 6c3d 173e c4bb 4799 71bd
00000110: a567 5bbd e015 2e3c cb63 32bd 72a4 023d
00000120: 857d 11bd a862 8b3d 5b5b 783d c19a e1bb
00000130: b700 34bd 1b3e 8f3d a50e 39bd 4780 fa3c
00000140: 4329 8ebc 5e2a a9bc 4d85 90bd b6a5 aabd
00000150: 458c 9abd d5b1 e7bc b370 863d 761a ae3b
00000160: 3307 0abd 03b8 473d 0b84 abbc 81e6 183d
00000170: 705a 683d 41af 883d 2a66 72bd 9c25 e2bc
00000180: 598b cbbc a7f8 9b3d bec2 04bb a7e7 a7bd
00000190: 9aef 303d 70a2 6c3c 9af9 8bbd 1a85 48bc
000001a0: 01a6 48bd f861 b63b f2c7 0f3d 77b2 dc3b
000001b0: b2b1 d13c 9813 4fba a97c f7ba 8782 9fbd
000001c0: e287 ee3c cfbb 5e3d 15f2 573d 79d7 943d
000001d0: 3886 bc3c 544f 9a3d 4e21 223d 342c 80bd
000001e0: f6cd 633d dd60 74bd 16dd 1c3d 6f2e 103d
000001f0: 4a5f 7f3d bc84 1c3c 0926 9abd c91a 123d
00000200: 95af d6bb 2d0a 963d 78d5 1d3d 9ab7 623d
00000210: 4a45 a3bd 2a45 1e3d a5c9 2cbd 3056 7fbd
00000220: d792 88bd 19bd 253d 01c5 853d e00b 3dbd
00000230: 7347 5fbd 1bbd 9abd ee8a 013d 33d7 3a3c
00000240: 13e3 733c af20 c83a e754 16bd cacf 8f3d
00000250: ee78 98bd 6160 213b 5f66 1b3c 296f abbc
00000260: a3c3 a9bd e59a ed3c 6016 a03d 53b7 783d
00000270: 862d 103d ce33 63bd 9ce0 a8bc b1b4 693d
00000280: 936b c23c cc29 87bc 5e3e 423d abef 52bc
00000290: 70bf 983d cbf1 743c b277 543d adc3 1ebd
000002a0: 48be 92bc 8c68 3cbd c942 843d e34b 2abd
000002b0: 2832 49bd f0dd dd3c ed73 c03b 7f82 3fbc
000002c0: 3cb2 463d cf95 1d3d 9635 53bd f334 29bd
000002d0: d5fe 93bd 78e0 2ebd 6016 313d 0089 40bd
000002e0: b28d 55bd a9d3 92bd c95d 503d ae7d 803c
000002f0: 3480 51bb e405 513d 4353 56bc 327e 3d3d
00000300: 9e8b 143d a9aa 363c 2b0b 74bd a28d 443d
00000310: d8bb 59bd cbaa 9ebd 2002 6abd e1cc 5e3d
00000320: f69c 8f3c 435e 7c3d 8fee 953d e4ec 923d
00000330: db52 e7bc cba0 84bd 5bb4 0c3d 39f7 7e3d
00000340: 88a1 4d3d a92f 3d3d 28d7 8bbd 10d2 39bd
00000350: 534b 98bd ded4 41bd ee31 68bd c19c 51bd
00000360: e35e 80bd df32 77bd 96f7 7ebd 80e4 a2bd
00000370: de5e fa3c b63d 123d dbe6 db3c 6855 ecbc
00000380: a61d 16bd 45ed a137 4db1 4bbd 37a1 8dbd
00000390: 1d00 323c 2cfc 233d 3f47 a7bd 9a5f 77bd
000003a0: 2a7d 48bb 9d73 903d b476 7fbd 5f80 91bd
000003b0: e8ee 46bd c9aa dabb d9c7 313c 5584 943d
000003c0: ed7f 4b3d 35fa 9bbc fbbd 5ebd 2212 5cbd
000003d0: eb74 183d 434d 16bd 7801 5e3d 138d 6d3d
000003e0: b368 5cbd 49d1 a1bc 836e 96bd f550 39bd
000003f0: 5780 25bd 6315 5bbd a4c8 88bb 26e3 3b3d

lstm_encoder.bias_ih_l0 f4 [512]
-0.01340923 -0.03072653 -0.03803437 0.009818193 -0.03585275 0.028471174 0.06410637 0.044297792
-0.083636604 0.021887772 -0.025431179 0.049618877 -0.028715776 0.034798253 0.080208406 -0.0017514408
0.0071053836 -0.038711485 -0.005323077 -0.073702894 -6.185172e-05 -0.06733019 -0.027910437 0.011388821
0.0053006364 0.07910716 0.012093675 -0.050842784 0.014022462 0.05628928 0.035201225 -0.030625502
0.027077219 0.016295975 -0.024023421 -0.024457553 0.03892905 0.043230876 -0.0776922 -0.022498496
-0.03924649 -0.0654442 0.04246893 0.038993694 0.05984422 0.014576326 -0.0051807 0.0717288
0.034195013 0.05487211 0.054504894 0.084206335 -0.04794661 0.007295335 -0.061193854 -0.02881419
-0.024508167 0.03011565 0.08175365 -0.026555788 0.02676473 0.07424578 0.032376267 0.062149145
-0.07965173 -0.08190716 0.016370082 -0.07780128 -0.0011804751 0.067602344 -0.0044821785 -0.005672968
-0.023860376 -0.047791265 0.05732357 -0.035957128 0.048852187 -0.007810361 0.024627376 -0.0658206
-0.034818146 0.023804076 -0.040543858 -0.06148908 -0.07771246 -0.032937195 -0.0072625545 0.015439044
-0.08129986 -0.027368663 -0.029224534 -0.0068275146 -0.050057165 -0.043352935 -0.07575065 0.0696048
-0.034690358 0.07920278 -0.015563182 0.029303618 0.042204358 0.032274164 -0.026834698 0.052525878
0.025389217 -0.020619903 0.034077678 -0.020961357 -0.00680402 -0.031626914 -0.04509903 -0.020596039
-0.021262275 -0.05977892 0.0029340032 0.008455873 -0.016852185 0.038356397 -0.04633495 -0.028556403
0.010847733 -0.06680304 -0.010559168 -0.04441801 -0.06603905 -0.027782142 0.05113779 0.06523612
0.04606445 0.039067898 -0.018931845 0.031145887 -0.06829548 0.0561753 0.04302089 0.086626925
0.005436427 -0.011093509 0.004334306 0.0077251503 -0.038176395 -0.06172225 0.026390005 0.0675938
0.040313873 -0.062325656 -0.057687066 0.013096092 -0.010358019 -0.07423892 -0.07212382 0.03681317
0.0623376 0.0022005755 0.05005965 0.052444935 -0.052097823 -0.023358686 0.08022738 -0.049160123
-0.05306783 0.0741292 -0.051466748 0.078839645 -0.030499494 -0.025050813 0.07844053 0.036131267
-0.009158711 -0.0005360463 0.020701058 0.054264322 -0.07759769 -0.013434423 0.05421773 0.0591626
0.07385915 -0.012206248 -0.0022317606 -0.043643076 -0.028212935 -0.004603532 0.0016784457 0.058057975
-0.083168305 -0.026928635 0.03319098 -0.0028410049 -0.06563978 0.010019059 -0.047801502 -0.029447667
0.049477372 0.026573984 -0.042833127 -0.020016015 0.051056497 -0.047727585 -0.074293286 0.029083421
0.05225953 -0.020147085 0.015791059 -0.06475603 0.07620397 0.08084809 -0.06174121 0.03440492
-0.07845669 -0.0030222493 -0.0073001753 -0.053025983 0.075239204 0.023984464 -0.08242343 0.0797663
0.07031591 0.01649286 -0.058551203 0.05359736 0.027535975 0.0017734027 -0.07679397 0.01746264
0.040544312 0.013698477 -0.056317415 0.019700397 -0.049869508 -0.046485744 -0.07286724 -0.037872452
0.027480673 0.024608497 0.0018303734 -0.037520677 0.08054245 0.058093593 -0.07437182 0.060339466
0.079324186 0.08200335 -0.03413404 -0.060088653 0.068198286 0.014563762 -0.07737055 -0.062161464
-0.008286052 -0.014954553 0.045905903 -0.0057244436 -0.0024226937 0.073429875 -0.05770532 -0.043063622
00000000: 63b2 5bbc 34b6 fbbc edc9 1bbd 7cdc 203c
00000010: 55da 12bd 613c e93c 334a 833d 9a71 353d
00000020: ab49 abbd fc4d b33c 0c55 d0bc 2a3d 4b3d
00000030: 593d ebbc 9d88 0e3d 4e44 a43d 9a90 e5ba
00000040: 47d4 e83b ef8f 1ebd 356d aebb 8bf1 96bd
00000050: 64b6 81b8 69e4 89bd 6ea4 e4bc 2d98 3a3c
00000060: f6b0 ad3b ef02 a23d 8d24 463c 8640 50bd
00000070: 78be 653c 978f 663d 292f 103d 55e2 fabc
00000080: 0bd1 dd3c 237f 853c c4cc c4bc 355b c8bc
00000090: 1174 1f3d dc12 313d 171d 9fbd c44e b8bc
000000a0: edc0 20bd 9c07 86bd e7f3 2d3d dab7 1f3d
000000b0: 361f 753d 8bd1 6e3c ddc2 a9bb 8de6 923d
000000c0: 1210 0c3d 94c1 603d 8640 5f3d 5f74 ac3d
000000d0: aa63 44bd b50d ef3b 68a6 7abd bc0b ecbc
000000e0: 5ac5 c8bc 18b5 f63c 756e a73d 868b d9bc
000000f0: b541 db3c 2c0e 983d fa9c 043d 1a90 7e3d
00000100: 7220 a3bd f1be a7bd 8d1a 863c 4756 9fbd
00000110: 2cba 9aba 1973 8a3d 3ddf 92bb 4ee4 b9bb
00000120: d676 c3bc c6c0 43bd 1fcc 6a3d c847 13bd
00000130: 3b19 483d 0fee ffbb 5abf c93c f3cc 86bd
00000140: 799d 0ebd c400 c33c 5111 26bd f9db 7bbd
00000150: b627 9fbd 27e9 06bd b9fa edbb 0bf4 7c3c
00000160: 8a80 a6bd 3f34 e0bc 4a68 efbc 58b9 dfbb
00000170: be08 4dbd d992 31bd 2823 9bbd f68c 8e3d
00000180: 7a17 0ebd 1135 a23d b7fc 7ebc 240e f03c
00000190: 7ade 2c3d ea31 043d 71d4 dbbc 6025 573d
000001a0: 0cfd cf3c 12eb a8bc 0995 0b3d 27b7 abbc
000001b0: 42f4 debb 398b 01bd c3b9 38bd 06b9 a8bc
000001c0: 392e aebc beda 74bd 6848 403b 808a 0a3c
000001d0: 980d 8abc 991b 1d3d b7c9 3dbd 1eef e9bc
000001e0: b1ba 313c 08d0 88bd 5c00 2dbc a9ef 35bd
000001f0: 7b3f 87bd 6097 e3bc dc75 513d 849a 853d
00000200: 14ae 3c3d a905 203d f516 9bbc a925 ff3c
00000210: 80de 8bbd 1218 663d ac36 303d 7569 b13d
00000220: 0e24 b23b 8dc1 35bc cb06 8e3b 4223 fd3b
00000230: da5e 1cbd 78d0 7cbd da2f d83c 9e6e 8a3d
00000240: 2920 253d 3049 7fbd 4649 6cbd fe90 563c
00000250: aeb4 29bc 930a 98bd a7b5 93bd 68c9 163d
00000260: b655 7f3d 8837 103b 590b 4d3d 80d0 563d
00000270: 8764 55bd b75a bfbc 414e a43d 205c 49bd
00000280: a75d 59bd 0dd1 973d ccce 52bd ae76 a13d
00000290: 13da f9bc 5d37 cdbc 6ea5 a03d 61fe 133d
000002a0: 6b0e 16bc 7585 0cba 4495 a93c 4444 5e3d
000002b0: 8aeb 9ebd 0e1c 5cbc 6913 5e3d 7c54 723d
000002c0: 7743 973d b7fc 47bc bb42 12bb 15c3 32bd
000002d0: d01e e7bc 3ad9 96bb 4bff db3a 33ce 6d3d
000002e0: 2554 aabd 7199 dcbc 44f3 073d 2730 3abb
000002f0: 266e 86bd fb26 243c 82cb 43bd 3c3c f1bc
00000300: c9a8 4a3d afb1 d93c ca71 2fbd a0f8 a3bc
00000310: 9e20 513d 007e 43bd 1427 98bd 5b40 ee3c
00000320: 170e 563d 800b a5bc 405c 813c cf9e 84bd
00000330: d410 9c3d af93 a53d 5ae4 7cbd 2cec 0c3d
00000340: e7ad a0bd ee10 46bb 4f36 efbb c631 59bd
00000350: 0317 9a3d 117b c43c 9ecd a8bd 845c a33d
00000360: ca01 903d 091c 873c 63d3 6fbd e888 5b3d
00000370: 2093 e13c 8571 e83a 2846 9dbd cf0d 8f3c
00000380: cb11 263d 946f 603c 17ad 66bd ba62 a13c
00000390: f843 4cbd d667 3ebd 6b3b 95bd 2520 1bbd
000003a0: 261f e13c c297 c93c 24e9 ef3a 48af 19bd
000003b0: 71f3 a43d 8cf3 6d3d 4150 98bd 8426 773d
000003c0: b874 a23d 5ff1 a73d 23d0 0bbd 851f 76bd
000003d0: 8bab 8b3d d89c 6e3c 7374 9ebd 059d 7ebd
000003e0: 39c2 07bc f103 75bc d407 3c3d 1d94 bbbb
000003f0: 0ec6 1ebb 6762 963d 6a5c 6cbd 7b63 30bd

lstm_encoder.bias_hh_l0 f4 [512]
-0.036868848 0.0041581355 0.042898603 0.025530225 -0.009866215 0.0653564 -0.01779201 0.043408845
-0.081242554 0.028770618 -0.06318809 0.013180054 0.018529775 0.026627485 -0.045948714 0.07090815
0.070451446 -0.07684962 0.0048662457 -0.063414454 0.00736732 -0.051055413 -0.05677037 -0.029182509
-0.01161644 0.02906984 -0.007503062 0.071600676 -0.003835881 0.06603307 -0.05968797 0.07965306
0.030558348 -0.049364194 0.012069821 -0.0016979182 0.022953803 -0.046794523 -0.05897431 0.0233584
-0.07724397 -0.029985296 0.008587497 0.014096359 -0.05137762 0.07985566 -0.053829174 0.040446922
-0.022598682 0.04596605 0.043274887 0.028409937 -0.010666921 0.01673237 0.024065755 0.042683862
-0.07933935 0.05906766 -0.007689938 -0.0151969 -0.075360514 0.018900905 0.06641385 0.03158999
-0.045667447 0.047823854 0.05159824 -0.08021681 0.007056539 0.015988095 0.023582717 -0.03630642
-0.022896599 -0.043162428 0.035961024 -0.05492902 -0.0008804212 0.00025612922 0.023387855 0.0674077
-0.057782944 -0.055830415 0.0700752 0.034036655 -0.02590547 -0.040619783 -0.06458836 -0.074747115
0.06439839 0.013301756 -0.079918645 0.014498001 -0.026211042 0.043869175 0.029674727 -0.033079647
0.06135402 0.028086742 0.07028021 -0.058935273 0.030177506 -0.037639838 -0.005365449 0.048443794
0.021970797 -0.019117108 0.058076628 -0.022859203 0.0071747336 0.06366683 0.0060760546 0.042195816
-0.06473334 0.075161666 -0.039939597 -0.05833001 -0.050088443 -0.040088322 0.04338806 -0.06645068
0.06747501 -0.047515526 -0.051267423 -0.07424737 0.028847616 0.039443485 -0.01042385 -0.015874745
-0.02290099 -0.0403813 -0.05103432 -0.0640457 -0.0002813519 -0.016875075 0.059168972 0.021846132
0.0085568065 0.0063764006 0.069943234 -0.033018425 -0.04968574 -0.0166558 -0.024183393 -0.05328651
0.030963944 0.068920456 -0.060477637 -0.026056154 0.031286303 0.044157043 0.025091497 0.051138207
-0.06467668 -0.02500229 -0.0065375892 -0.059262168 0.041838977 -0.051905338 -0.04237548 0.013010735
-0.05091799 0.0019512409 0.06523866 0.06540221 -0.064443566 0.046214443 -0.06846304 0.07799973
-0.015339755 -0.05041417 0.020537812 0.006159953 0.043993283 0.07992622 -0.0278461 0.036647387
0.032456525 -0.052536238 -0.02179687 -0.039583914 -0.025475632 -0.06350686 -0.012537846 -0.058814548
-0.012704351 0.02187614 0.05024539 0.052837558 -0.022617187 0.05405798 -0.07109126 0.083590314
-0.048923153 0.0070789405 -0.0053251134 0.039538793 0.07661046 0.061294015 0.08568861 -0.023351049
-0.008231009 0.06441497 -0.05664091 0.02451578 -0.02556582 -0.032195583 0.03738493 0.037088674
-0.013048557 0.055198144 0.03320789 0.053856984 -0.0071489876 -0.03929324 0.04936617 -0.07923761
-0.049121995 -0.042002544 -0.0062719863 -0.023546489 0.04177066 0.011360575 0.0830326 0.026820896
0.039454248 -0.019307656 -0.019008154 0.05002357 0.029740421 0.033736203 -0.002006657 0.050200038
0.026978588 -0.06263077 0.07582419 0.00226483 -0.0039758836 0.01853503 -0.012100125 -0.03491831
0.06733144 0.034252018 -0.024068661 -0.035823848 0.077699676 -0.070870295 -0.04126173 -0.0217791
-0.033902314 -0.05127819 0.053693898 -0.030180756 0.07356594 0.008717277 -0.05590336 0.02737326
00000000: ca03 17bd f840 883b 72b6 2f3d c324 d13c
00000010: e8a5 21bc 94d9 853d 8dc0 91bc 79cd 313d
00000020: 7f62 a6bd 5cb0 eb3c c268 81bd 27f1 573c
00000030: c1cb 973c e221 da3c b834 3cbd 4b38 913d
00000040: d948 903d 5563 9dbd 0775 9f3b 70df 81bd
00000050: 8f69 f13b 7b1f 51bd 0c88 68bd 2810 efbc
00000060: e152 3ebc e023 ee3c 3fdc f5bb 60a3 923d
00000070: 6763 7bbb 593c 873d 5f7b 74bd 2521 a33d
00000080: 8055 fa3c 1c32 4abd 80c0 453c ae8c deba
00000090: 9d09 bc3c 9dab 3fbd 0c8f 71bd 1e5a bf3c
000000a0: 1632 9ebd b9a3 f5bc 93b2 0c3c 6af4 663c
000000b0: 5771 52bd 5d8b a33d fb7b 5cbd acab 253d
000000c0: df20 b9bc e646 3c3d 0241 313d f5bb e83c
000000d0: 4fc4 2ebc 5312 893c 8c25 c53c 46d5 2e3d
000000e0: ab7c a2bd eef0 713d e0fb fbbb 6bfc 78bc
000000f0: 9d56 9abd 12d6 9a3c fc03 883d 8164 013d
00000100: ca0d 3bbd f2e2 433d ad58 533d b648 a4bd
00000110: 8a3a e73b 77f9 823c 8b30 c13c 0ab6 14bd
00000120: a691 bbbc 16cb 30bd de4b 133d 41fd 60bd
00000130: 11cc 66ba 1549 8639 e397 bf3c 0c0d 8a3d
00000140: cfad 6cbd 6fae 64bd 9683 8f3d 056a 0b3d
00000150: b537 d4bc ee60 26bd e746 84bd 0415 99bd
00000160: 4ee3 833d 9cef 593c 63ac a3bd 0689 6d3c
00000170: 8ab8 d6bc 2ab0 333d 6a18 f33c 867e 07bd
00000180: 5a4e 7b3d 2b16 e63c 12ef 8f3d 1d66 71bd
00000190: d136 f73c 3b2c 1abd a6d0 afbb 006d 463d
000001a0: 1afc b33c 7b9b 9cbc c2e1 6d3d 3943 bbbc
000001b0: 071a eb3b c163 823d a419 c73b 85d5 2c3d
000001c0: ea92 84bd 5cee 993d b497 23bd 73eb 6ebd
000001d0: 8a29 4dbd a733 24bd aeb7 313d 4b17 88bd
000001e0: 5730 8a3d a49f 42bd cafd 51bd 010f 98bd
000001f0: d651 ec3c 7e8f 213d ccc8 2abc c10b 82bc
00000200: db9a bbbc dd66 25bd 5d09 51bd 642a 83bd
00000210: 6a82 93b9 993d 8abc 2a5b 723d a9f6 b23c
00000220: d931 0c3c 20f1 d03b 663e 8f3d 543e 07bd
00000230: 4683 4bbd bf71 88bc 401c c6bc f542 5abd
00000240: 19a8 fd3c 2b26 8d3d 66b7 77bd b773 d5bc
00000250: 1126 003d 04de 343d af8c cd3c 4c76 513d
00000260: 3575 84bd 9ad1 ccbc 4639 d6bb e3bc 72bd
00000270: 595f 2b3d b19a 54bd e991 2dbd fa2a 553c
00000280: 628f 50bd c8c0 ff3a d99b 853d 98f1 853d
00000290: fdfa 83bd 5b4b 3d3d 5a36 8cbd 53be 9f3d
000002a0: 9953 7bbc 177f 4ebd ea3e a83c 6ed9 c93b
000002b0: 4d32 343d 5cb0 a33d 811d e4bc 921b 163d
000002c0: 22f1 043d 3d30 57bd 598f b2bc be22 22bd
000002d0: 46b2 d0bc e20f 82bd 8a6b 4dbc 86e7 70bd
000002e0: e925 50bc 9735 b33c 1cce 4d3d 326c 583d
000002f0: ae47 b9bc e76b 5d3d 4b98 91bd 6631 ab3d
00000300: a563 48bd 75f6 e73b 4a7e aebb 6ef3 213d
00000310: f2e5 9c3d 6f0f 7b3d 837d af3d b34a bfbc
00000320: 5bdb 06bc ffeb 833d 4d00 68bd 51d5 c83c
00000330: 696f d1bc 84df 03bd f120 193d 4bea 173d
00000340: 9dc9 55bc 7317 623d ff04 083d 2499 5c3d
00000350: 0e42 eabb f3f1 20bd 2e34 4a3d 5447 a2bd
00000360: 2534 49bd dc0a 2cbd 3c85 cdbb 91e4 c0bc
00000370: b617 2b3d b521 3a3c ff0c aa3d 7fb7 db3c
00000380: c79a 213d 172b 9ebc fdb6 9bbc 84e5 4c3d
00000390: 2fa2 f33c f92e 0a3d 1e82 03bb 8e9e 4d3d
000003a0: 3302 dd3c 9044 80bd b749 9b3d 8b6d 143b
000003b0: 2148 82bb c6d6 973c 9a3f 46bc 8006 0fbd
000003c0: 11e5 893d d84b 0c3d a42b c5bc 07bc 12bd
000003d0: 0221 9f3d 7224 91bd 0f02 29bd 156a b2bc
000003e0: 27dd 0abd 1409 52bd 22ee 5b3d a23d f7bc
000003f0: bda9 963d e9d2 0e3c ecfa 64bd e33d e03c

lstm_decoder.weight_ih_l0 f4 [512, 6]
-0.07802857 -0.077358894 0.1291608 -0.05448646 0.004030617 0.040134568 0.011741029 0.00029700375
-0.04470653 -0.0069401814 0.018516872 0.07193414 -0.039145038 -0.069679536 0.013344351 -0.077400595
-0.08591848 -0.066837005 -0.06013184 0.037480544 -0.028712463 -0.06257288 -0.03240805 -0.029725084
-0.064671375 0.044150654 -0.0697037 -0.07741105 -0.016606143 0.0087345 -0.048143644 0.047872037
0.0023912834 0.057272553 0.0064818547 -0.017509885 -0.07856979 -0.07350195 -0.0074583534 0.017097738
0.016027061 0.06746784 0.11401773 0.067847796 0.04690471 0.003151564 -0.0143678235 -0.075630225
-0.0638978 0.07937055 0.014257008 0.017926352 -0.039880056 0.049148697 -0.15751229 -0.023140468
0.011193738 -0.037999384 -0.0010068692 0.00069241994 -0.041373126 0.032608967 0.046554167 -0.031062854
-0.09805922 -0.008561468 -0.02350252 0.032283504 -0.047686618 -0.0075183827 0.0061436296 -0.058415625
-0.13859904 0.030252418 0.031952247 -0.01757109 -0.0018662182 -0.1413 0.058070414 -0.013216427
-0.066321954 0.00559326 0.009457524 0.003909032 -0.0075909225 -0.051495604 0.0318511 -0.09796086
0.002900699 0.009749366 -0.0813054 -0.070712365 0.06543583 0.071847826 -0.06475473 -0.095099576
-0.008839673 0.03150956 0.010140803 -0.05283197 -0.016918518 -0.045049958 0.08127644 0.09176843
-0.05190508 -0.07660486 -0.061500553 0.054363426 -0.058205765 -0.031222535 -0.07212588 0.010535902
0.0015568706 -0.072209574 -0.05522962 0.06198413 0.00038034792 -0.07172882 -0.03401515 -0.06738893
-0.0035713378 -0.075079784 0.057106078 0.009464641 0.10383066 -0.096227236 -0.055412147 0.036465406
-0.039247684 -0.03384394 0.090880156 -0.06921098 -0.018542038 0.04188358 0.09491879 -0.009783026
-0.07382089 0.041080505 -0.29969296 -0.054364536 0.0047198716 0.18742432 0.21076003 0.058193803
0.105282724 -0.02341273 -0.07170685 -0.079558074 -0.031036561 0.11901536 -0.12307904 -0.09816569
0.0754958 -0.08739494 0.006641114 -0.01653801 0.07054888 -0.05628276 0.068468556 -0.054013893
-0.015828304 0.00993413 0.0371681 0.041518707 -0.085836045 0.043232277 -0.07619589 -0.04238998
7.391781e-05 0.031290106 -0.013172906 0.029032528 -0.034633763 0.0146605605 0.05022729 0.04153746
0.03919249 -0.06985858 -0.031773224 0.03504294 -0.042547386 -0.064451635 -0.047649387 0.0032332542
0.007027629 -0.009343646 -0.022961551 0.040368326 0.033092316 -0.051693227 -0.07407057 -0.03897185
0.037928883 -0.06153514 0.016470369 -0.03761939 -0.10508623 0.0776116 0.10329196 -0.06818943
0.006018456 -0.07563197 -0.11979148 -0.080241576 0.060129564 -0.073913775 -0.023056978 -0.04678576
0.015872385 -0.07372878 0.0014243176 0.08653968 0.10675557 -0.04334493 0.0016646103 -0.096850865
-0.05321804 -0.0019165294 0.061889973 -0.07179337 -0.09233802 -0.02423002 -0.05288469 0.062186915
-0.049267825 -0.045033157 0.07204802 0.039734934 -0.018432792 -0.049671765 0.047285173 0.036759518
0.041478578 0.023660537 -0.029655088 -0.012414971 0.04923058 0.023881871 0.0030898978 -0.044306874
0.032197874 -0.056833297 -0.024791494 0.04780917 0.012701374 0.042372137 -0.06485957 -0.03507419
-0.06685121 -0.03754965 0.017131854 0.049954735 -0.15715747 0.07276122 -0.02476839 -0.016282188
00000000: 71cd 9fbd 576e 9ebd bb42 043e 322d 5fbd
00000010: 4413 843b 2564 243d 725d 403c 2bb7 9b39
00000020: 321e 37bd 766a e3bb b2b0 973c 3552 933d
00000030: 8c56 20bd 25b4 8ebd 44a2 5a3c 3484 9ebd
00000040: 07f6 afbd d7e1 88bd ce4c 76bd 3385 193d
00000050: 6636 ebbc 3626 80bd 4ebe 04bd 0582 f3bc
00000060: 6d72 84bd 51d7 343d d0c0 8ebd af89 9ebd
00000070: 9b09 88bc 261b 0f3c 4532 45bd 7815 443d
00000080: 14b7 1c3b a096 6a3d bd65 d43b e470 8fbc
00000090: 33e9 a0bd 3188 96bd 3465 f4bb 8e10 8c3c
000000a0: 2f4b 833c 942c 8a3d 2182 e93d c9f3 8a3d
000000b0: 271f 403d 788a 4e3b 0567 6bbc 05e4 9abd
000000c0: dadc 82bd 078d a23d 3a96 693c 49da 923c
000000d0: 4559 23bd 2550 493d e74a 21be 1491 bdbc
000000e0: f165 373c 3ea5 1bbd edf8 83ba 8483 353a
000000f0: de76 29bd fb90 053d 95af 3e3d 8777 febc
00000100: 46d3 c8bd 6645 0cbc 5b88 c0bc b53b 043d
00000110: 0b53 43bd c45c f6bb 8050 c93b 3945 6fbd
00000120: e8ec 0dbe ebd3 f73c 5ce0 023d 3ff1 8fbc
00000130: e49b f4ba f2b0 10be 3edb 6d3d b689 58bc
00000140: ced3 87bd aa47 b73b bbf3 1a3c 5617 803b
00000150: 46bd f8bb 0eed 52bd 4d76 023d b49f c8bd
00000160: a719 3e3b cebb 1f3c 7283 a6bd a5d1 90bd
00000170: 3803 863d f424 933d 219e 84bd 91c3 c2bd
00000180: 47d4 10bc 2b10 013d 9c25 263c 5666 58bd
00000190: b498 8abc 4e86 38bd 4374 a63d 16f1 bb3d
000001a0: 6c9a 54bd 02e3 9cbd 01e8 7bbd 2fac 5e3d
000001b0: 2b69 6ebd 67c6 ffbc bcb6 93bd c79e 2c3c
000001c0: e90f cc3a 9de2 93bd 7438 62bd 12e3 7d3d
000001d0: 6f69 c739 8fe6 92bd 7853 0bbd 3503 8abd
000001e0: 1b0d 6abb 6ec3 99bd 10e8 693d 9511 1b3c
000001f0: 2ba5 d43d c912 c5bd d9f7 62bd c05c 153d
00000200: 2ec2 20bd f19f 0abd 601f ba3d 7cbe 8dbd
00000210: 79e5 97bc 1e8e 2b3d c864 c23d fc48 20bc
00000220: 682f 97bd 0844 283d 5b71 99be 59ad 5ebd
00000230: 27a9 9a3b 29ec 3f3e 7ad1 573e a05c 6e3d
00000240: 789e d73d 0ecc bfbc 0adb 92bd 58ef a2bd
00000250: 6340 febc 53be f33d dd10 fcbd 180b c9bd
00000260: 8b9d 9a3d 1efc b2bd b49d d93b b97a 87bc
00000270: ee7b 903d c088 66bd 3e39 8c3d ac3d 5dbd
00000280: 5caa 81bc c3c2 223c 943d 183d 850f 2a3d
00000290: cfca afbd 5414 313d 970c 9cbd 1ea1 2dbd
000002a0: 5204 9b38 0e2a 003d 2cd3 57bc a0d5 ed3c
000002b0: 22dc 0dbd d932 703c 21bb 4d3d 2f23 2a3d
000002c0: 4e88 203d 0412 8fbd a424 02bd 3089 0f3d
000002d0: 2b46 2ebd 38ff 83bd 012c 43bd 01e5 533b
000002e0: 0648 e63b 1716 19bc dd19 bcbc 4259 253d
000002f0: cf8b 073d 47bc 53bd 50b2 97bd f2a0 1fbd
00000300: 515b 1b3d 450c 7cbd deec 863c ca16 1abd
00000310: 7337 d7bd d5f2 9e3d bc8a d33d e6a6 8bbd
00000320: 7836 c53b efe4 9abd 3c55 f5bd b255 a4bd
00000330: 6b4a 763d 1b60 97bd fde1 bcbc 6da2 3fbd
00000340: ce06 823c 1dff 96bd 2bb0 ba3a b73b b13d
00000350: aaa2 da3d 748a 31bd 0e2f da3a bf59 c6bd
00000360: 29fb 59bd 0e34 fbba 5780 7d3d 6708 93bd
00000370: b71b bdbd 097e c6bc 9e9d 58bd b5b7 7e3d
00000380: 0fcd 49bd b074 38bd ea8d 933d 19c1 223d
00000390: 5e00 97bc 9f74 4bbd 19ae 413d 2691 163d
000003a0: 71e5 293d bed3 c13c 3aef f2bc 2a68 4bbc
000003b0: 01a6 493d eaa3 c33c e27f 4a3b 207b 35bd
000003c0: ebe1 033d 08ca 68bd 8817 cbbc 8cd3 433d
000003d0: 6c19 503c 688e 2d3d 18d5 84bd f4a9 0fbd
000003e0: 4ae9 88bd a9cd 19bd 1a58 8c3c 569d 4c3d
000003f0: e3ed 20be d603 953d 14e7 cabc 3962 85bc

lstm_decoder.weight_hh_l0 f4 [512, 128]
0.06814651 -0.041385505 -0.011254007 -0.061252307 -0.0378028 0.0057250066 0.040012486 0.065967545
0.05587658 0.027737115 -0.025422353 0.033829726 0.039279405 -0.07095294 0.012983165 -0.020499121
-0.013529344 -0.02951984 0.07460265 -0.02641554 -0.05396105 -0.061000783 -0.043335125 0.007485861
-0.052818917 0.063146494 0.042114977 0.02551155 -0.02918885 -0.010454496 -0.028034544 0.051028375
0.01787862 0.04901224 0.023975587 -0.011022897 -0.082169056 0.025956262 -0.052760158 0.037487056
0.051340558 0.076386824 -0.068139486 0.06439098 0.032797482 -0.031076822 -0.013060293 0.018851442
-0.07599725 0.03400171 -0.052189413 0.0038535632 -0.002778277 -0.058436684 0.04896182 -0.026544437
-0.075449385 -0.000258525 -0.03892623 0.034656815 0.06177292 -0.024932848 0.0052257446 -0.03738166
0.039692424 0.036750443 -0.025142211 -0.046585746 -0.03547738 -0.020356746 -0.023477556 0.04183077
0.06116593 -0.07206332 -0.07125445 0.05241363 0.053263195 -0.062171172 0.032809637 0.022609787
0.017530095 -0.012070304 0.043252278 -0.086689286 0.074238844 -0.070783295 -0.023380723 0.03753862
-0.014039652 -0.07097169 -0.015002137 0.0101210885 -0.0696543 0.07114489 -0.0069506373 0.07328026
-0.07498421 0.07714697 0.044394117 0.061314765 0.05981639 -0.08047786 0.023782654 -0.011020602
-0.05459337 -0.024916861 -0.0011347985 -0.020979438 0.06625826 0.070621975 -0.08396589 0.040774908
-0.004053071 0.057746474 0.04877428 -0.011444342 0.08731204 0.00965101 0.060152553 -0.073356
-0.022246871 -0.06501189 0.044811685 0.016604101 -0.057552733 -0.050156884 -0.0733188 -0.016925082
0.026653081 0.07783065 0.032820847 0.06061272 0.08416341 -0.07789433 0.019022647 -0.025886245
-0.07953371 -0.06921743 -0.07636494 0.056582797 -0.07027388 0.034574315 0.060536258 -0.002921955
0.04955021 0.010237734 0.034919824 0.07057451 -0.033915505 0.00563379 -0.0065443898 0.04509962
-0.044214938 0.06229177 0.071344 -0.049504586 0.0050735623 0.067647554 0.04461262 -0.042958267
-0.047825154 0.07572009 0.07612319 -0.031920254 0.015698219 -0.03559444 0.033151977 -0.0397445
-0.055079877 0.07370052 0.0055016046 0.02251175 -0.0055878684 -0.020976441 0.033556953 -0.0049389554
0.076249935 0.020693703 0.04795651 0.051521078 -0.005776526 -0.048738062 0.027506625 0.058083396
-0.08074097 -0.03999399 0.07162426 -0.05657795 0.023486529 -0.008714886 0.006893287 -0.021412682
-0.05353761 -0.07655558 0.03024563 -0.06987109 -0.0483075 -0.010968725 0.0032495905 -0.036060035
-0.0019274154 0.019825783 -0.041309122 0.04141891 -0.04851319 0.08091049 -0.05585096 -0.08529232
-0.0071246633 -0.019857787 0.053623743 -0.034729358 -0.0039912174 0.016838226 0.01962866 -0.08125101
-0.026470846 -0.049600206 -0.08315923 0.07175435 -0.06550429 0.01182512 0.023569265 -0.03218289
0.024816204 0.06852294 -0.031475578 -0.040795278 -0.049115628 -0.042530052 -0.042951144 0.0053228135
-0.07867331 -0.06575625 0.06539349 0.051469985 0.03722092 0.03519843 0.079610415 0.037108395
0.08113903 -0.056925736 0.06944254 0.0634114 0.013010112 -0.01944877 -0.022496477 -6.743731e-05
-0.00035023023 -0.0829672 -0.004293072 0.085618675 -0.070506416 -0.028492024 0.040535484 0.023305116
00000000: 6690 8b3d d983 29bd ba62 38bc b3e3 7abd
00000010: 1cd7 1abd d698 bb3b 22e4 233d fe19 873d
00000020: d7de 643d f238 e33c 8a42 d0bc 0a91 0a3d
00000030: 71e3 203d c64f 91bd 57b7 543c c6ed a7bc
00000040: 2faa 5dbc 97d3 f1bc 46c9 983d 6765 d8bc
00000050: 4306 5dbd f5db 79bd 2c80 31bd f44b f53b
00000060: a658 58bd f352 813d c180 2c3d 99fd d03c
00000070: 751d efbc 5649 2bbc b3a8 e5bc 2103 513d
00000080: 2f76 923c 0fc1 483d 7368 c43c 6299 34bc
00000090: 4048 a8bd 3aa2 d43c 091b 58bd 078c 193d
000000a0: 7a4a 523d b270 9c3d b78c 8bbd 6bdf 833d
000000b0: a756 063d d294 febc d7fa 55bc 576e 9a3c
000000c0: 72a4 9bbd 6145 0b3d 91c4 55bd 108c 7c3b
000000d0: c113 36bb 4e5b 6fbd 308c 483d b873 d9bc
000000e0: 3585 9abd a38a 87b9 1c71 1fbd 4ef4 0d3d
000000f0: 9a05 7d3d f93f ccbc b93c ab3b 831d 19bd
00000100: 8694 223d a287 163d 0af7 cdbc b2d0 3ebd
00000110: bb50 11bd 31c3 a6bc 0154 c0bc be56 2b3d
00000120: 2089 7a3d ef95 93bd daed 91bd adaf 563d
00000130: 822a 5a3d 33a7 7ebd 6663 063d 2938 b93c
00000140: 469b 8f3c 86c2 45bc 4d29 313d 278a b1bd
00000150: 890a 983d d5f6 90bd ee88 bfbc 19c2 193d
00000160: 9206 66bc 9b59 91bd 86cb 75bc ecd2 253c
00000170: eaa6 8ebd 69b4 913d 2cc2 e3bb f613 963d
00000180: 5291 99bd 3bff 9d3d 9bd6 353d 3125 7b3d
00000190: 0802 753d 94d1 a4bd d7d3 c23c c18f 34bc
000001a0: 4c9d 5fbd 721e ccbc 85bd 94ba 12dd abbc
000001b0: 69b2 873d 41a2 903d 4ff6 abbd 9703 273d
000001c0: a0cf 84bb 9187 6c3d 8ac7 473d 0d81 3bbc
000001d0: a8d0 b23d 451f 1e3c 8662 763d ac3b 96bd
000001e0: 123f b6bc f424 85bd 758c 373d 5305 883c
000001f0: 6abc 6bbd 4e71 4dbd 2b28 96bd 78a6 8abc
00000200: 9057 da3c ad65 9f3d 276f 063d 0b45 783d
00000210: de5d ac3d 1087 9fbd 62d5 9b3c 640f d4bc
00000220: 92e2 a2bd dec1 8dbd 3965 9cbd 5dc3 673d
00000230: c1eb 8fbd cc9d 0d3d def4 773d 457e 3fbb
00000240: 29f5 4a3d 2bbc 273c 1708 0f3d 5e89 903d
00000250: fcea 0abd a89b b83b 5272 d6bb 61ba 383d
00000260: b91a 35bd a825 7f3d ce1c 923d 52c5 4abd
00000270: 2040 a63b cd8a 8a3d b9bb 363d 02f5 2fbd
00000280: 4fe4 43bd 2213 9b3d 7ae6 9b3d d0be 02bd
00000290: 8d99 803c 7acb 11bd 5eca 073d 21cb 22bd
000002a0: 709b 61bd 4cf0 963d ce46 b43b 906a b83c
000002b0: 701a b7bb c9d6 abbc 0473 093d f6d6 a1bb
000002c0: ed28 9c3d d785 a93c 0c6e 443d c407 533d
000002d0: 0349 bdbb 90a1 47bd 9355 e13c dbe8 6d3d
000002e0: 865b a5bd bdd0 23bd bdaf 923d 48be 67bd
000002f0: d266 c03c e2c8 0ebc 15e1 e13b a669 afbc
00000300: 414a 5bbd 2cc9 9cbd afc5 f73c 9318 8fbd
00000310: 16de 45bd 2bb6 33bc 15f7 543b b0b3 13bd
00000320: 54a1 fcba ae69 a23c c133 29bd e0a6 293d
00000330: c4b5 46bd 66b4 a53d fac3 64bd bdad aebd
00000340: 0276 e9bb ccac a2bc 92a4 5b3d 5f40 0ebd
00000350: c2c8 82bb 52f0 893c 49cc a03c ee66 a6bd
00000360: 63d9 d8bc 9629 4bbd 634f aabd f2f3 923d
00000370: 1d27 86bd 26be 413c 5514 c13c 35d2 03bd
00000380: 5a4b cb3c c155 8c3d 89ec 00bd f318 27bd
00000390: 782d 49bd fe33 2ebd 8aed 2fbd ff6a ae3b
000003a0: 791f a1bd 36ab 86bd 06ed 853d 31d2 523d
000003b0: f774 183d 3b2c 103d c90a a33d f9fe 173d
000003c0: 382c a63d f62a 69bd e437 8e3d d6dd 813d
000003d0: 5d28 553c 0753 9fbc 884a b8bc 216d 8db8
000003e0: 1b9f b7b9 b5ea a9bd e6ac 8cbb d858 af3d
000003f0: ab65 90bd 1b68 e9bc 8908 263d 5fea be3c

lstm_decoder.bias_ih_l0 f4 [512]
-0.068088435 0.03283456 -0.07412633 -0.016559789 0.03743417 0.06943039 -0.05932319 -0.063150555
-0.0027881772 0.08757159 0.003337882 -0.011085846 -0.007471915 0.0723335 -0.07472454 -0.02665382
0.057175077 -0.027438996 0.038648 -0.018649481 0.05525402 0.021928184 0.035937358 -0.020414865
-0.07186308 -0.026016017 -0.06756433 6.4490094e-05 -0.01741612 0.08613792 -0.009944501 -0.030836293
0.012853379 -0.006596968 -0.02835367 0.06989105 0.012379669 0.01668527 0.013464407 0.03389086
0.018498203 -0.05046386 -0.04919783 -0.010865514 0.08242287 -0.060379185 -0.037927322 -0.04826787
0.0114124315 -0.050754897 -0.020533528 0.045252137 -0.01633898 -0.02802336 0.027851127 -0.05870681
-0.06432912 -0.021752033 0.010985884 0.022157297 0.07819227 0.07000495 0.08009926 0.08250557
0.010989073 -0.049727295 -0.056376636 -0.061989065 -0.05798932 -0.059885006 -0.05458243 -0.01967415
0.005960196 -0.032471977 -0.016982194 0.08351503 -0.02579487 0.08178775 0.017801793 -0.018149368
0.025118992 0.06233053 -0.06538101 -0.032864172 0.073556624 0.07517024 0.0807721 0.05578592
-0.07204141 -0.016544757 -0.07222737 0.03873893 0.008774042 0.013054934 0.06635819 -0.04131363
-0.016597262 0.0519355 -0.027980337 -0.0010486874 0.033036467 -0.054439787 0.023493031 0.008914723
0.038660865 -0.06107354 0.048756555 -0.019617116 0.06060445 0.06736829 0.069274455 -0.070737414
-0.04409993 -0.075177506 0.08768282 0.08445887 -0.061997566 -0.0177979 -0.010404161 -0.061620332
-0.009510038 0.040525153 -0.040523507 0.07352179 -0.025809621 -0.022330679 -0.027435428 0.027828276
-0.021879328 -0.008185293 -0.030471658 -0.00799791 0.0032775693 -0.03172165 -0.037048884 0.085470945
-0.035389498 0.07277609 0.073391415 -0.023026856 0.07950132 -0.07138763 0.037530217 -0.048716888
0.014319118 0.041759264 -0.048963364 -0.00012366472 0.04414083 -0.030328855 0.005562512 -0.06709804
-0.022495192 0.098433934 -0.022335986 0.025738768 0.06114323 0.05492339 0.0733271 0.015067237
0.0063894414 -0.0034238833 -0.07023521 -0.017364426 -0.02137442 -0.07069441 0.06205567 -0.008707427
0.020290973 0.013154293 0.017463619 0.079427384 -0.026413826 0.02542635 -0.024800481 0.083626844
-0.029252017 0.04184031 0.006407887 0.0691744 0.026136303 0.05641891 0.043102127 0.012222219
-0.06496601 -0.0006683521 -0.06422298 -0.014537134 0.0073212483 -0.021629311 -0.038750883 0.020896103
-0.017462064 0.058964364 -0.07445218 -0.07881473 0.0562112 0.0282848 0.039787196 0.061792824
0.080461524 -0.005609005 -0.042460654 0.020192012 -0.029790277 -0.007828702 0.036374852 -0.06055831
0.070389815 -0.06456174 -0.04978346 -0.06582858 0.0813236 -0.04283474 0.0806361 0.010809601
0.030558648 0.04782544 0.04358706 -0.047887158 -0.057314366 -0.041053012 -0.04972961 0.008550334
-0.026853155 0.07067322 0.050933596 -0.08508484 0.007941504 -0.0656032 0.07130599 0.063159175
0.036230374 -0.03651822 -0.039345026 -0.07974685 0.03611236 0.002575784 0.059347983 0.015101367
0.002646749 0.039605927 -0.06233692 0.031276707 0.04155389 -0.018393563 -0.07412144 -0.009253004
-0.010584091 -0.047284536 -0.061788652 -0.07936023 0.06067193 0.06790806 0.08305349 0.08717193
00000000: f371 8bbd 887d 063d 8ccf 97bd 65a8 87bc
00000010: 9254 193d 8531 8e3d e0fc 72bd 1455 81bd
00000020: dab9 36bb bc58 b33d 5ec0 5a3b 69a1 35bc
00000030: f7d6 f4bb 9623 943d 2e09 99bd 1d59 dabc
00000040: 6a30 6a3d bfc7 e0bc 5e4d 1e3d ccc6 98bc
00000050: 0a52 623d bca2 b33c 0d33 133d 133d a7bc
00000060: f32c 93bd 8b1f d5bc 2b5f 8abd db3e 8738
00000070: 40ac 8ebc 1469 b03d 43ee 22bc 659c fcbc
00000080: fb96 523c 612b d8bb f545 e8bc 0a23 8f3d
00000090: 18d4 4a3c 8caf 883c d199 5c3c 24d1 0a3d
000000a0: 8b89 973c 31b3 4ebd aa83 49bd 4505 32bc
000000b0: 52cd a83d 2a50 77bd ae59 1bbd 88b4 45bd
000000c0: 35fb 3a3c 5ee4 4fbd ee35 a8bc 4e5a 393d
000000d0: 53d9 85bc 3f91 e5bc 0c28 e43c 8d76 70bd
000000e0: fcbe 83bd 5231 b2bc 23fe 333c 3883 b53c
000000f0: 4523 a03d c15e 8f3d 150b a43d aef8 a83d
00000100: 830b 343c d9ae 4bbd 30eb 66bd 3fe8 7dbd
00000110: 3686 6dbd fb49 75bd d391 5fbd af2b a1bc
00000120: bf4d c33b 5601 05bd 3e1e 8bbc ee09 ab3d
00000130: c34f d3bc 5680 a73d 11d5 913c fcad 94bc
00000140: 58c6 cd3c 4c4e 7f3d 7be6 85bd 959c 06bd
00000150: dba4 963d dbf2 993d d86b a53d c77f 643d
00000160: 728a 93bd df88 87bc f2eb 93bd b6ac 1e3d
00000170: 00c1 0f3c 5de4 553c cde6 873d 7b38 29bd
00000180: fbf6 87bc 52ba 543d 0537 e5bc 1c74 89ba
00000190: 3f51 073d 41fc 5ebd 7574 c03c 0f0f 123c
000001a0: db5a 1e3d 4028 7abd f4b4 473d 13b4 a0bc
000001b0: 5f3c 783d 63f8 893d c4df 8d3d c7de 90bd
000001c0: 21a2 34bd aaf6 99bd 0d93 b33d c6f8 ac3d
000001d0: 29f1 7dbd e7cc 91bc 3776 2abc 9a65 7cbd
000001e0: fecf 1bbc b4fd 253d fafb 25bd 9892 963d
000001f0: b36e d3bc d4ee b6bc 43c0 e0bc 20f8 e33c
00000200: 473c b3bc 9b1b 06bc b39f f9bc aa09 03bc
00000210: 7dcc 563b 90ee 01bd 92c0 17bd 640b af3d
00000220: 94f4 10bd a10b 953d 3d4e 963d d1a2 bcbc
00000230: 97d1 a23d ae33 92bd 49b9 193d 5c8b 47bd
00000240: bc9a 6a3c c30b 2b3d cf8d 48bd ffab 01b9
00000250: 04cd 343d 3874 f8bc bc45 b63b b26a 89bd
00000260: d647 b8bc bb97 c93d f5f9 b6bc 1cda d23c
00000270: 5371 7a3d 59f7 603d 852c 963d 93dc 763c
00000280: 855e d13b 3b63 60bb 7ad7 8fbd d73f 8ebc
00000290: 6819 afbc 3bc8 90bd 162e 7e3d 99a9 0ebc
000002a0: 4139 a63c 1b85 573c dd0f 8f3c d3aa a23d
000002b0: cf61 d8bc ec4a d03c 612a cbbc 8d44 ab3d
000002c0: eda1 efbc bf60 2b3d 41f9 d13b 4fab 8d3d
000002d0: cd1b d63c 8417 673d db8b 303d b43f 483c
000002e0: e60c 85bd 5a34 2fba 5687 83bd 292d 6ebc
000002f0: 15e7 ef3b f42f b1bc 3fb9 1ebd 4e2e ab3c
00000300: 9a0c 8fbc 9e84 713d 627a 98bd 9e69 a1bd
00000310: b73d 663d 86b5 e73c e6f7 223d 791a 7d3d
00000320: 03c9 a43d bfcb b7bb 39eb 2dbd b869 a53c
00000330: bd0a f4bc f543 00bc ccfd 143d fe0b 78bd
00000340: 8928 903d f238 84bd bee9 4bbd 22d1 86bd
00000350: fd8c a63d 7b73 2fbd 8a24 a53d c11a 313c
00000360: 2156 fa3c 9ce4 433d 5888 323d 5325 44bd
00000370: 78c2 6abd 3427 28bd 47b1 4bbd b316 0c3c
00000380: 26fb dbbc 1fbd 903d bf9f 503d f640 aebd
00000390: 151d 023c f85a 86bd e008 923d 9959 813d
000003a0: 4d66 143d 2194 15bd 4028 21bd 5152 a3bd
000003b0: 8eea 133d 7cce 283b df16 733d b96b 773c
000003c0: 1475 2d3b d339 223d 0055 7fbd 011c 003d
000003d0: 6934 2a3d 19ae 96bc fbcc 97bd e999 17bc
000003e0: e568 2dbc 6ead 41bd 1916 7dbd 9e87 a2bd
000003f0: 2183 783d 6213 8b3d f317 aa3d 3287 b23d
