transformer_no_tanh_with_past_12_Nm_144_Np_lr_0.001_hs_128_ahs_8_nll_1_bs_16_do_0.5_e_200_stride_10/model_transfer_A25_to_J25_0.0n_0.001lr_200e_4days.pth (torch, 831513 bytes, 14 tensors)

lstm_encoder.weight_ih_l0 f4 [512, 8]
000000 0c 94 c6 3c d5 66 0c 3d 2a 5a a8 3d ca b0 87 bc
       0.024240516 0.034277756 0.082203224 -0.016563792
000010 9d ab 3f 3c 90 e8 7d bd 3d 24 08 3c ed 8d 9a bd
       0.011698631 -0.061989367 0.008309421 -0.075466014
000020 2c 31 a9 bd 1e af 36 bd d6 8f 82 3d 05 37 4e 3d
       -0.08261332 -0.0446006 0.06375091 0.05034544
000030 e3 9c ad 3c 2a b1 cc bc 96 1f 42 3d 7c f9 34 bd
       0.021192973 -0.024986822 0.047393404 -0.04418324
000040 a2 75 6a 3c 27 90 b2 3c e6 0b 00 3d 73 de bb 3c
       0.014310272 0.021797253 0.031261347 0.02293322
000050 20 8b d0 bc 45 9f 51 3d 16 76 78 3c a9 db 36 bc
       -0.025456965 0.051177282 0.015164873 -0.0111607695
000060 e9 40 81 bd da 96 0c bc a4 06 84 bd 9e e0 1f 3d
       -0.06311209 -0.008580888 -0.06446579 0.03903257
000070 80 5b a3 bd 45 7c a6 3c 15 36 79 3d 83 c9 a6 3d
       -0.079764366 0.020322928 0.060842592 0.08143904
000080 a2 e9 29 bc f5 f1 50 bd c3 07 92 3a c7 4f 84 3d
       -0.010370644 -0.051012 0.0011141229 0.06460529
000090 15 13 ef bc 22 7c 7d bd 6c 82 8d bd ae bf 65 3d
       -0.029183904 -0.06188596 -0.069096416 0.056091003
0000a0 b7 92 60 3d 08 00 25 3d 5f 0d 3d 3d 0f e3 4c 3d
       0.05482742 0.040283233 0.04615533 0.050021227
0000b0 58 e1 60 3d 95 53 ec 3c 85 f3 ba bb ce 9b 88 3d
       0.054902405 0.028848449 -0.0057052993 0.066703424
0000c0 1f 08 62 3c e1 62 16 3d d0 b2 8c 3d 88 4b 3a bd
       0.0137958815 0.036715392 0.06870043 -0.04548219
0000d0 02 cb 32 bd be 9b a9 3c 7e 6f 5c 3d 76 e8 ed 3c
       -0.043650635 0.020704146 0.053817265 0.02904151
0000e0 50 6b 8d 3c 42 16 9b 3b 45 14 46 3d ff d1 7b 3b
       0.017263085 0.004732878 0.048359174 0.0038424728
0000f0 44 49 2f 3d 8c c1 85 bd cd 17 25 3c 7f 8c 95 bd
       0.04279448 -0.06531057 0.010076475 -0.07302188
000100 3b 64 6e bd 71 5a 47 3d fe a8 70 3d 48 b8 8c 3d
       -0.058201056 0.048670236 0.058754914 0.06871086
000110 0a 04 ec bc af ea 91 3d 31 d8 bb bc e7 82 78 3c
       -0.02881052 0.071248405 -0.022930237 0.015167928
000120 35 b9 83 3c 3e d6 ea ba eb 70 a2 bd 7e ef 9e 3d
       0.016079525 -0.0017916632 -0.07931694 0.07760523
000130 b8 50 13 bc 2a fe 93 3d 5b 74 58 bd c4 51 47 3d
       -0.008991413 0.07226212 -0.05284534 0.048661962
000140 27 41 c9 3c cf df 58 3d 6f 47 9c bd 5c 46 05 bd
       0.0245672 0.052947816 -0.076308124 -0.032537803
000150 81 aa 91 bb 9f ba 84 3d 55 86 86 3d c3 3f 4d bd
       -0.0044453745 0.06480908 0.065685906 -0.050109636
000160 a8 e8 23 3d 2c b0 15 3d 27 90 25 3b ab 7b a5 bd
       0.0400168 0.036544964 0.0025262923 -0.080802284
000170 0e 1b a7 3d ee 2f 04 3c 11 78 37 bd b9 55 62 3d
       0.08159457 0.008068068 -0.04479224 0.055257533
000180 e2 5b 99 3c e1 16 f3 3c d1 54 87 ba c6 50 1c bd
       0.018720571 0.029673995 -0.001032496 -0.03816297
000190 2a 40 01 bd 57 5d 96 bc b7 40 31 bd a1 68 98 3c
       -0.031555332 -0.018355055 -0.043274608 0.018604578
0001a0 4a d7 8a 3d 73 03 21 bd 79 63 a0 3d d0 bd 15 bd
       0.067793444 -0.03930993 0.07831473 -0.036557972
0001b0 c6 59 0f 3d 73 75 1d 3d 5b d7 a4 bb 42 78 ae bc
       0.034997724 0.038442086 -0.005030555 -0.021297578
0001c0 c2 8d 22 bd f8 b0 66 3d bd d2 00 bd f2 2e fc bc
       -0.039685972 0.056321114 -0.031450976 -0.030784104
0001d0 af 6c 4c bd 02 63 9c bd 4d 94 af 3c 2f c4 02 bd
       -0.049908336 -0.07636072 0.02143302 -0.031925377
0001e0 fc 6c 9f 3d ad a4 92 3c 99 2d 2a 3d 2d b8 b6 bc
       0.07784459 0.01790079 0.04154739 -0.022304619
0001f0 1a 18 4a bd 43 ec 46 bd a7 19 8c 3d ef 5c a0 3d
       -0.04933939 -0.04856516 0.0684083 0.07830226
000200 f4 86 a7 bd 2c f2 25 bd 6c 38 43 3d 59 25 9e 3d
       -0.08180037 -0.040514156 0.04766123 0.07721967
000210 f7 dd 10 3c 24 49 8f bd 5b f0 52 bd ce af 39 bc
       0.008841983 -0.06996372 -0.051498752 -0.011333419
000220 21 85 04 bd 35 39 b5 bc b1 66 0a 3c 6b 9a 91 3d
       -0.032353524 -0.022122005 0.008447335 0.07109531
000230 66 09 22 3d d3 30 8a bd ee 84 f6 bc c7 e4 2e bd
       0.039559744 -0.06747594 -0.030092683 -0.042698648
000240 5a db 17 3d c0 21 ec 3c a0 48 91 bd 99 1f a2 bc
       0.037074424 0.028824687 -0.0709393 -0.019790458
000250 c3 68 b9 3b 59 86 14 bd 9b da 60 bd d5 3e 92 3c
       0.0056582405 -0.036260936 -0.05489598 0.017852226
000260 d6 28 c6 bb 15 f5 1e 3d 30 e9 1a 3d a9 19 ea bc
       -0.0060473485 0.038807947 0.03782004 -0.028576689
000270 36 40 5a 3c 81 b8 1f 3d dd 72 99 bd 3c 66 ba 3b
       0.013320973 0.038994316 -0.074926116 0.005688457
000280 dc 38 0a 3d f9 f8 89 3b 98 f2 24 3d e3 5f 6d 3d
       0.03374563 0.004210588 0.040270418 0.057952773
000290 25 79 20 bd 37 50 6e bc e8 d2 5f 3d 8d 71 67 bd
       -0.039178032 -0.014545492 0.054644495 -0.056504775
0002a0 00 42 a0 bc 58 f3 9d 3c c3 e9 59 bd 67 c0 0d bd
       -0.019562721 0.019281074 -0.05320145 -0.034607317
0002b0 b7 c8 22 3d 5d ef 6b 3d a8 e9 04 3d 76 ac 50 3d
       0.039742198 0.05760132 0.032449394 0.05094572
0002c0 df 67 86 bd 2e a3 6b bd 94 2d a3 3d b0 19 21 bc
       -0.065627806 -0.057528667 0.07967678 -0.0098327845
0002d0 ab 77 2f bd 50 cd 92 bd 36 a6 27 bd f2 3f 9b 3d
       -0.042838734 -0.071680665 -0.040929995 0.07580556
0002e0 c7 ea 9a 3d 58 cd 50 bd c4 0a 3f bd 0e a4 5d 3d
       0.075643115 -0.05097708 -0.046641126 0.054111533
0002f0 75 b4 3a 3d af 9a a7 3c e0 aa 03 bd 0c 00 3e 3c
       0.045582253 0.020459501 -0.03214538 0.011596691
000300 80 fc 2e bd 25 17 1e 3d 05 97 a9 3d 62 66 a8 bd
       -0.04272127 0.03859629 0.08280758 -0.08222653
000310 2f 49 f0 bc fe 30 99 bc a8 d4 8c 3d c1 7b a6 3d
       -0.029331772 -0.01870012 0.068764985 0.08129073
000320 dd 51 9c bd 89 e5 48 3c 2d f3 08 bd 3b 97 7b 3d
       -0.07632802 0.012261757 -0.033435035 0.06142352
000330 60 d2 60 bd a1 c9 2f bd 31 5d 11 3d f4 20 61 3d
       -0.05488813 -0.042916898 0.035489265 0.054963067
000340 ca fb ee bc 2a a1 88 bd ad 3c 95 bd b8 61 8e bd
       -0.029172797 -0.066713646 -0.072869636 -0.06952232
000350 6c 5a 2c bd 09 ff 17 bd 31 96 38 bc 35 af 9f bd
       -0.04207842 -0.037108455 -0.011266277 -0.0779709
000360 b1 7f 5c 3d 48 3d 86 bd d8 3a 83 3d 83 56 3d 3c
       0.053832714 -0.06554657 0.06407708 0.0115562705
000370 01 7e af 3d 79 67 fa bc 40 67 17 bd 4d 4c 23 3d
       0.08568955 -0.030566918 -0.0369637 0.039867688
000380 05 f2 a2 bd 3f 4d 58 bd 73 a1 5c ba 56 62 81 bd
       -0.07956318 -0.052808043 -0.0008416392 -0.06317584
000390 ae 52 9a 3d 16 59 96 3d 2c fa 84 3d 3f 33 8d 3d
       0.07535301 0.073412105 0.06493029 0.0689454
0003a0 98 07 f9 3b 15 74 45 3d 65 85 a4 3d 2f b9 2b 3d
       0.007599782 0.048206408 0.080332555 0.04192465
0003b0 44 8b 82 ba 96 19 9a 3c d7 f2 80 3d b3 4e b6 bc
       -0.0009959717 0.018811028 0.06296318 -0.022254324
0003c0 bf e4 83 bd 32 ac 9c 3d 6b 63 56 bd bb dc 82 ba
       -0.06440114 0.07650031 -0.052340906 -0.0009983996
0003d0 df 99 82 3d 05 b4 50 3c 09 56 01 bd 12 7c f3 bc
       0.06377005 0.0127382325 -0.03157619 -0.029722247
0003e0 49 4b 9b bb a8 75 ab bc a4 a8 38 bd 0f 17 96 3d
       -0.0047391993 -0.020930126 -0.045082703 0.07328617
0003f0 a8 c3 17 3d 6e 7f 9d 3d bf 09 a8 b9 de 4d 84 bd
       0.037051827 0.07690321 -0.00032050718 -0.064601645

lstm_encoder.weight_hh_l0 f4 [512, 128]
000000 77 72 50 bd 9f 11 7f bc 38 9c 68 bc 8c 9c 50 bc
       -0.050890412 -0.015568166 -0.014197402 -0.012732636
000010 51 53 31 bd 7a 7f a1 bd 56 91 08 bd f5 54 e0 3c
       -0.043292347 -0.07885642 -0.03334173 0.02738426
000020 f7 d7 68 bd 6d e8 16 b9 a9 60 4d 3a 19 94 58 3c
       -0.056846585 -0.000143917 0.0007834533 0.013218903
000030 49 08 34 bc 8d 8e 87 3d 01 ca 7b bc d0 6e 39 3d
       -0.010988303 0.06618986 -0.015367986 0.045271695
000040 26 6a 98 bd e1 53 8d 3d f3 18 df 3b 41 3e 73 3d
       -0.07442121 0.06900764 0.006808394 0.05938554
000050 4c e5 8d bd 30 cd 9e 3d d0 71 91 bb 09 ac 15 3d
       -0.069285005 0.0775398 -0.0044386163 0.03654102
000060 79 72 6f 3d 0f 99 ef 3b b4 06 90 3d 32 82 88 3c
       0.05845878 0.007311947 0.070325285 0.016663644
000070 7f 39 6c bd a0 5d 81 3d 2c 07 6d bd ae 3a 7f 3d
       -0.05767202 0.06316686 -0.057868168 0.06231182
000080 d5 a9 bd 3b fb 0c f5 bc 37 99 8c 3d 29 72 bc bb
       0.005788068 -0.029913416 0.06865161 -0.0057509136
000090 8f dd e3 bc 1e fb 90 3d 47 60 5b 3c 1e 98 17 3d
       -0.027815608 0.07079147 0.0133896535 0.037010305
0000a0 74 2d 88 bd 43 2c 7b 3c c8 95 93 3d 32 48 82 3d
       -0.066492945 0.015330377 0.07206303 0.063614264
0000b0 fb 7b 77 3c cd 9d 85 bd 24 a8 88 3d c3 81 47 bd
       0.015105243 -0.06524239 0.06672695 -0.048707735
0000c0 3f 9b 16 bd df 16 0e bd b8 1b 52 bd ee cb 84 bb
       -0.036769148 -0.03468978 -0.051295966 -0.0040526306
0000d0 32 15 69 3d 65 0b 98 3c 23 2e b8 bc bf ba de ba
       0.05690498 0.01856012 -0.022482937 -0.001699291
0000e0 dd 4c 8a bc 4f a2 62 bd b5 b0 70 bd d4 ab 9b bc
       -0.016882354 -0.05533057 -0.05876227 -0.019002832
0000f0 a6 84 49 bd 55 8d 2f bd 4a 21 e1 3c 0c 4f a1 bd
       -0.04919877 -0.042859394 0.027481694 -0.07876405
000100 31 84 71 3d 14 14 6c 3d d4 09 c4 bb 0c 99 71 bd
       0.05896396 0.057636335 -0.005982617 -0.058983847
000110 c0 67 5b bd c2 16 2e 3c 62 59 32 bd 16 a8 02 3d
       -0.05356574 0.010625543 -0.043542273 0.03189858
000120 fc 7d 11 bd 78 61 8b 3d 7f 65 78 3d 26 66 e1 bb
       -0.03552054 0.068057 0.06064367 -0.006878632
000130 4e 01 34 bd 25 3e 8f 3d 63 0d 39 bd 0d 90 fa 3c
       -0.043946557 0.06994275 -0.045178782 0.030586267
000140 12 27 8e bc 2c 33 a9 bc 60 8a 90 bd 7d a5 aa bd
       -0.017352615 -0.020654283 -0.07057643 -0.08332346
000150 45 8c 9a bd 93 b9 e7 bc b4 70 86 3d d1 56 ae 3b
       -0.075462855 -0.02828673 0.06564465 0.005320408
000160 32 07 0a bd 00 b4 47 3d 24 8b ab bc 64 e0 18 3d
       -0.03369827 0.048755646 -0.02094037 0.03732337
000170 56 5a 68 3d f9 b0 88 3d 2c 5f 72 bd ac 36 e2 bc
       0.056726776 0.0667438 -0.059172794 -0.02761396
000180 c8 8f cb bc d1 f9 9b 3d fa 33 05 bb e3 e6 a7 bd
       -0.024848834 0.07616008 -0.002032517 -0.08198335
000190 a3 f6 30 3d 3e 86 6c 3c 9d f9 8b bd a1 a2 48 bc
       0.04320396 0.014436303 -0.06834719 -0.012245805
0001a0 56 a1 48 bd 70 30 b6 3b a8 c5 0f 3d 47 92 dc 3b
       -0.048981987 0.0055599734 0.03510061 0.006731305
0001b0 07 b2 d1 3c 0e 9a 4f ba 72 f2 f7 ba 6b 83 9f bd
       0.025597585 -0.0007919379 -0.0018916859 -0.07788738
0001c0 4f 90 ee 3c 1c c0 5e 3d e7 fa 57 3d 63 d7 94 3d
       0.029121546 0.05438243 0.052729513 0.07267644
0001d0 2d 86 bc 3c 54 4f 9a 3d 65 2a 22 3d 4a 2c 80 bd
       0.023013199 0.07534662 0.03959121 -0.062584475
0001e0 cb cb 63 3d f7 61 74 bd d9 dc 1c 3d 71 2e 10 3d
       0.055614274 -0.05966374 0.038296554 0.03520054
0001f0 94 69 7f 3d b0 9a 1c 3c 0a 26 9a bd 16 1c 12 3d
       0.062356547 0.009558365 -0.075267866 0.035671316
000200 5e 9d d6 bb 2d 0a 96 3d 78 d5 1d 3d 57 b7 62 3d
       -0.0065495213 0.073261596 0.038533658 0.055350628
000210 4a 45 a3 bd 29 45 1e 3d 4c ca 2c bd d9 56 7f bd
       -0.079722 0.038640175 -0.042185113 -0.062338684
000220 d7 92 88 bd 1b bd 25 3d 01 c5 85 3d e0 0b 3d bd
       -0.066686325 0.04046355 0.06531716 -0.046153903
000230 6f 47 5f bd 1b bd 9a bd ed 8a 01 3d 61 e2 3a 3c
       -0.054511484 -0.075556 0.03162663 0.011406512
000240 be ed 73 3c 86 3b c8 3a e7 54 16 bd ca cf 8f 3d
       0.014888225 0.0015276528 -0.036702063 0.070220545
000250 f4 78 98 bd 6c 67 21 3b 0a 62 1b 3c f7 71 ab bc
       -0.07444945 0.0024628295 0.009483824 -0.020928366
000260 a3 c3 a9 bd 5c a1 ed 3c 60 16 a0 3d e0 b7 78 3d
       -0.08289268 0.029007606 0.07816768 0.060722232
000270 86 2d 10 3d d0 33 63 bd 59 db a8 bc 89 b5 69 3d
       0.035199665 -0.055469334 -0.020612406 0.05705789
000280 d1 68 c2 3c bb 29 87 bc f7 3e 42 3d e3 fb 52 bc
       0.023731621 -0.01649939 0.04742333 -0.012877437
000290 70 bf 98 3d 18 ea 74 3c b2 77 54 3d ad c3 1e bd
       0.07458389 0.01494839 0.051871963 -0.03876083
0002a0 4e be 92 bc 8c 68 3c bd c9 42 84 3d e2 4b 2a bd
       -0.01791301 -0.04599814 0.06458051 -0.041576274
0002b0 28 32 49 bd 80 e1 dd 3c 13 67 c0 3b cc 85 3f bc
       -0.0491201 0.027085066 0.0058716624 -0.0116896145
0002c0 9b b2 46 3d a8 95 1d 3d 99 35 53 bd f3 34 29 bd
       0.048510175 0.0384728 -0.051564787 -0.041310262
0002d0 d5 fe 93 bd d5 e0 2e bd 5f 16 31 3d 24 89 40 bd
       -0.0722634 -0.042694885 0.043234225 -0.047005787
0002e0 b2 8d 55 bd a9 d3 92 bd c9 5d 50 3d dc 7d 80 3c
       -0.052137084 -0.07169277 0.05087069 0.015685014
0002f0 5d 71 51 bb e4 05 51 3d 73 51 56 bc 47 7d 3d 3d
       -0.003195844 0.05103101 -0.013080942 0.046262052
000300 43 8c 14 3d a7 a5 36 3c 08 0a 74 bd a2 8d 44 3d
       0.036266576 0.011147893 -0.05957988 0.047986634
000310 d8 bb 59 bd cb aa 9e bd b2 00 6a bd e2 cc 5e 3d
       -0.053157657 -0.0774742 -0.05712957 0.05439461
000320 a8 9c 8f 3c 2d 5e 7c 3d 9b ee 95 3d e4 ec 92 3d
       0.017530754 0.06161325 0.07320901 0.071740896
000330 89 56 e7 bc cb a0 84 bd 5c b4 0c 3d f1 f8 7e 3d
       -0.028239505 -0.06475981 0.03435169 0.062249128
000340 86 a1 4d 3d a6 2f 3d 3d 32 d7 8b bd 0f d2 39 bd
       0.05020287 0.04618802 -0.068281546 -0.045366343
000350 53 4b 98 bd e2 d4 41 bd ee 31 68 bd 57 9c 51 bd
       -0.07436242 -0.04732216 -0.05668824 -0.051174488
000360 e3 5e 80 bd df 32 77 bd 97 f7 7e bd 80 e4 a2 bd
       -0.06268098 -0.06035125 -0.06224784 -0.07953739
000370 e0 5e fa 3c cb 3d 12 3d f0 ea db 3c ed 58 ec bc
       0.030562818 0.03570346 0.026845425 -0.028850997
000380 a5 1d 16 bd 3d 3f b4 37 90 b1 4b bd 37 a1 8d bd
       -0.036649365 2.148712e-05 -0.049729884 -0.06915515
000390 b7 0c 32 3c 1e fc 23 3d 3f 47 a7 bd 3e 60 77 bd
       0.010867289 0.04003536 -0.08167886 -0.060394518
0003a0 00 70 48 bb 9d 73 90 3d c1 76 7f bd 5e 80 91 bd
       -0.0030584335 0.070533015 -0.062369112 -0.07104562
0003b0 e8 ee 46 bd 11 be da bb 5b bf 31 3c 55 84 94 3d
       -0.048567683 -0.0066754897 0.010848845 0.07251803
0003c0 ef 7f 4b 3d a4 fb 9b bc fa bc 5e bd 24 12 5c bd
       0.049682554 -0.01904089 -0.05437944 -0.053728238
0003d0 eb 74 18 3d 43 4d 16 bd bb 02 5e 3d 13 8d 6d 3d
       0.037220877 -0.036694776 0.054201823 0.057995867
0003e0 b1 68 5c bd 50 d1 a1 bc 83 6e 96 bd f5 50 39 bd
       -0.05381078 -0.019753128 -0.07345297 -0.045243222
0003f0 c4 7f 25 bd 5e 15 5b bd 35 c6 88 bb 2d e3 3b 3d
       -0.04040505 -0.053487174 -0.0041740187 0.04587095

lstm_encoder.bias_ih_l0 f4 [512]
000000 02 ac 5b bc 40 d2 fb bc fa c5 1b bd 99 d7 20 3c
       -0.013407709 -0.030739903 -0.038030602 0.0098170275
000010 25 d7 12 bd 78 2d e9 3c 16 53 83 3d 62 7e 35 3d
       -0.03584971 0.028464064 0.06412332 0.04430998
000020 4c 4c ab bd f6 32 b3 3c 50 6a d0 bc ca 3c 4b 3d
       -0.08364162 0.021874886 -0.025441319 0.04961852
000030 56 23 eb bc b0 8a 0e 3d 7b 43 a4 3d 19 b1 e5 ba
       -0.028703373 0.03480023 0.080206834 -0.0017524093
000040 17 d6 e7 3b 88 a5 1e bd 75 45 ae bb a1 f0 96 bd
       0.007075082 -0.03873208 -0.0053183385 -0.07370115
000050 17 ba bf b8 10 e4 89 bd e2 98 e4 bc 13 a6 3a 3c
       -9.142252e-05 -0.067329526 -0.027904931 0.011392134
000060 30 49 ad 3b ac fb a1 3d 78 1e 46 3c c8 3d 50 bd
       0.0052882656 0.07909331 0.012092225 -0.05084017
000070 08 b6 65 3c b5 8a 66 3d 1c 1a 10 3d 04 f5 fa bc
       0.01402045 0.056284625 0.03518115 -0.03063441
000080 1e e1 dd 3c 39 72 85 3c c4 c5 c4 bc 7c 77 c8 bc
       0.027084883 0.016289817 -0.024020083 -0.024471037
000090 69 74 1f 3d 3b 0e 31 3d 0a 1b 9f bd 88 68 b8 bc
       0.038929377 0.04322646 -0.07768829 -0.022510782
0000a0 e6 cb 20 bd 34 0e 86 bd d4 be 2d 3d 38 c9 1f 3d
       -0.039256953 -0.06545678 0.042418316 0.039010257
0000b0 a1 12 75 3d c6 8d 6e 3c ef 8c a9 bb 39 e5 92 3d
       0.05983222 0.014560169 -0.0051742713 0.07172627
0000c0 f7 15 0c 3d 48 b6 60 3d 38 4d 5f 3d 41 71 ac 3d
       0.034200635 0.054861337 0.054517 0.08420039
0000d0 23 6c 44 bd b4 39 f0 3b cf 99 7a bd 45 2a ec bc
       -0.04795469 0.0073310975 -0.06118184 -0.02882875
0000e0 0c bc c8 bc f4 be f6 3c 06 6e a7 3d d2 7b d9 bc
       -0.02450373 0.03012035 0.08175282 -0.0265483
0000f0 26 37 db 3c cc 06 98 3d 59 8e 04 3d 97 85 7e 3d
       0.026759695 0.074231714 0.032362316 0.06213912
000100 fa 1b a3 bd 45 c2 a7 bd 53 b3 85 3c 19 59 9f bd
       -0.079643205 -0.08191351 0.01632086 -0.07780666
000110 b4 01 9c ba 14 6a 8a 3d 87 39 91 bb 52 2b ba bb
       -0.0011902363 0.06758514 -0.0044319066 -0.0056814337
000120 55 78 c3 bc 41 c9 43 bd 91 d8 6a 3d d7 4a 13 bd
       -0.02386109 -0.047799353 0.05733544 -0.035960045
000130 19 20 48 3d 46 ac ff bb 49 cb c9 3c f9 c8 86 bd
       0.048858736 -0.007802519 0.024633067 -0.06581301
000140 60 94 0e bd a0 f7 c2 3c 29 11 26 bd d8 c5 7b bd
       -0.03480947 0.023799717 -0.04054371 -0.061467975
000150 b6 21 9f bd 24 f0 06 bd 9a 13 ee bb f8 cc 7c 3c
       -0.07770102 -0.03294386 -0.0072655203 0.015429728
000160 b5 80 a6 bd 07 35 e0 bc 9a 4b ef bc eb 9f df bb
       -0.08130018 -0.027369035 -0.029210854 -0.0068244836
000170 e6 07 4d bd 55 7d 31 bd 80 24 9b bd fd 8b 8e 3d
       -0.05005636 -0.043332417 -0.07575321 0.069602944
000180 34 21 0e bd f2 2f a2 3d b2 08 7f bc 23 d0 ef 3c
       -0.034699634 0.07919301 -0.015566038 0.029274052
000190 ed d6 2c 3d 16 33 04 3d a6 c0 db bc ab 24 57 3d
       0.042197157 0.03227528 -0.02682526 0.052525204
0001a0 21 eb cf 3c c2 23 a9 bc fd 73 0b 3d a0 d4 ab bc
       0.025380673 -0.020646933 0.034046162 -0.020975411
0001b0 b7 02 df bb 91 80 01 bd e6 cf 38 bd 83 c2 a8 bc
       -0.0068057436 -0.03161675 -0.045120142 -0.020600563
0001c0 b9 1e ae bc 30 ee 74 bd fd ed 40 3b ea 61 0a 3c
       -0.021254884 -0.059797466 0.0029438727 0.008446196
0001d0 bf 0b 8a bc 38 0a 1d 3d f0 fa 3d bd c1 e1 e9 bc
       -0.016851304 0.038339823 -0.04638189 -0.02855003
0001e0 e4 ce 31 3c b2 cf 88 bd 1d 1c 2d bc 10 f0 35 bd
       0.010852549 -0.0668024 -0.010565785 -0.044418395
0001f0 f8 2f 87 bd f6 8f e3 bc 0a 78 51 3d bc 8b 85 3d
       -0.06600946 -0.027778607 0.05113987 0.06520793
000200 6b a6 3c 3d 6b f8 1f 3d 33 10 9b bc a2 24 ff 3c
       0.046057146 0.03905527 -0.018928623 0.031145398
000210 05 dd 8b bd 1a 10 66 3d 6c 46 30 3d bf 6c b1 3d
       -0.068292655 0.0561677 0.04303591 0.0866332
000220 58 fa b1 3b 00 f1 35 bc 49 c8 8d 3b ac 21 fd 3b
       0.0054314546 -0.011104822 0.0043268544 0.0077249613
000230 08 52 1c bd 65 ce 7c bd 80 2d d8 3c 77 6d 8a 3d
       -0.03816417 -0.06172027 0.026388884 0.0675916
000240 a2 fd 24 3d d0 5c 7f bd a7 46 6c bd 1b 8e 56 3c
       0.040280946 -0.062344372 -0.057684567 0.013095404
000250 27 2e 2a bc e0 0a 98 bd a9 b4 93 bd 63 cf 16 3d
       -0.01038698 -0.07423949 -0.072121926 0.036818873
000260 50 44 7f 3d ec 97 0f 3b b7 09 4d 3d 6c d2 56 3d
       0.062321007 0.002191062 0.050058093 0.052446768
000270 27 66 55 bd 1e 65 bf bc 78 44 a4 3d 28 64 49 bd
       -0.052099373 -0.023363646 0.08020872 -0.049167782
000280 de 55 59 bd c1 cd 97 3d 8a ce 52 bd 18 69 a1 3d
       -0.053060405 0.07412291 -0.051466502 0.07881373
000290 40 d9 f9 bc 96 41 cd bc f3 a6 a0 3d 87 f1 13 3d
       -0.0304991 -0.025055688 0.07844343 0.03611901
0002a0 a3 2f 16 bc ed 4e 0f ba 7c 29 a9 3c 23 58 5e 3d
       -0.009166631 -0.0005466778 0.020649664 0.054283272
0002b0 8c f1 9e bd ba 5f 5c bc 4f 19 5e 3d b5 52 72 3d
       -0.07760915 -0.013450557 0.054223355 0.059160907
0002c0 dc 47 97 3d d1 22 48 bc 4c 4b 11 bb 04 ca 32 bd
       0.07386753 -0.012215332 -0.0022170125 -0.04364969
0002d0 8e 2e e7 bc 35 a4 95 bb f6 6b dd 3a f5 bd 6d 3d
       -0.028220441 -0.004566694 0.0016893137 0.058042485
0002e0 08 54 aa bd ca 91 dc bc 47 f1 07 3d 4e ab 39 bb
       -0.08316809 -0.026924986 0.033189084 -0.0028330865
0002f0 04 6f 86 bd dd e7 23 3c bf d8 43 bd 3a 54 f1 bc
       -0.06564143 0.010004011 -0.047814127 -0.029459108
000300 3e b8 4a 3d 80 a0 d9 3c 2e a2 2f bd 09 02 a4 bc
       0.049492113 0.02656579 -0.042879276 -0.020020502
000310 86 18 51 3d f1 90 43 bd 2f 14 98 bd a0 32 ee 3c
       0.051048778 -0.04774565 -0.07425725 0.029076874
000320 e0 0e 56 3d 71 18 a5 bc 48 75 81 3c 05 a0 84 bd
       0.05226028 -0.020153256 0.015802994 -0.06475834
000330 6a 14 9c 3d 95 98 a5 3d 7b dd 7c bd c1 f4 0c 3d
       0.07621081 0.08085743 -0.061734658 0.034413103
000340 da a9 a0 bd 4b 61 46 bb 04 52 ef bb 2e 1d 59 bd
       -0.078448966 -0.0030270393 -0.007303478 -0.053006344
000350 06 1c 9a 3d 49 6f c4 3c 2f ce a8 bd cd 58 a3 3d
       0.07524876 0.023978846 -0.082424514 0.07975922
000360 b4 01 90 3d a5 18 87 3c 9e c4 6f bd ba 8a 5b 3d
       0.07031575 0.016491244 -0.058537118 0.053599097
000370 b2 96 e1 3c 87 e8 ea 3a f1 47 9d bd b3 11 8f 3c
       0.027537677 0.0017922082 -0.07679737 0.017464494
000380 ec 06 26 3d 94 48 60 3c f1 ae 66 bd b2 2a a1 3c
       0.040533945 0.013689179 -0.05631918 0.019673679
000390 1c 4d 4c bd 2d 66 3e bd b3 36 95 bd 3c 20 1b bd
       -0.049878225 -0.04648416 -0.07285824 -0.037872538
0003a0 ca 0c e1 3c 3c 5c c9 3c 4e f0 eb 3a 1a c2 19 bd
       0.027471919 0.024580114 0.0018000694 -0.037538625
0003b0 5e f3 a4 3d 4b fd 6d 3d da 5a 98 bd f1 1f 77 3d
       0.08054231 0.058102887 -0.074392036 0.060333196
0003c0 b6 78 a2 3d d3 e7 a7 3d 03 ca 0b bd 12 27 76 bd
       0.0793318 0.08198514 -0.0341282 -0.060095854
0003d0 8b ab 8b 3d 00 60 6e 3c 7a 8a 9e bd d7 96 7e bd
       0.068198286 0.014549255 -0.07741256 -0.06215557
0003e0 c1 ae 07 bc 04 01 75 bc 4d ff 3b 3d 22 93 bb bb
       -0.008281411 -0.014953855 0.04589777 -0.0057243267
0003f0 52 c2 1c bb 96 64 96 3d c5 5a 6c bd bb 80 30 bd
       -0.0023919535 0.07343404 -0.057703752 -0.043091517

lstm_encoder.bias_hh_l0 f4 [512]
000000 19 02 17 bd d1 d0 87 3b 65 ba 2f 3d 53 22 d1 3c
       -0.036867235 0.004144766 0.04290237 0.025529062
000010 7f 98 21 bc da d6 85 3d 8b 9c 91 bc 41 da 31 3d
       -0.009863018 0.0653512 -0.01777484 0.043421034
000020 20 65 a6 bd 56 95 eb 3c 9e 6d 81 bd 73 ef 57 3c
       -0.08124757 0.028757732 -0.06319736 0.013179648
000030 c4 e5 97 3c e0 25 da 3c 50 36 3c bd b8 37 91 3d
       0.018542178 0.026629388 -0.045950234 0.07090706
000040 01 39 90 3d 35 6e 9d bd c7 9c 9f 3b 86 de 81 bd
       0.07042123 -0.07687036 0.0048709842 -0.06341271
000050 7f 71 f0 3b dc 1e 51 bd 6c 82 68 bd 2f 09 ef bc
       0.0073377485 -0.05105482 -0.056765005 -0.029179184
000060 b1 86 3e bc bc 06 ee 3c a0 e8 f5 bb c7 a4 92 3d
       -0.011628793 0.029055946 -0.0075045377 0.07160335
000070 60 85 7b bb ee 39 87 3d 6c 90 74 bd 87 1c a3 3d
       -0.0038379058 0.06602846 -0.059708044 0.079644255
000080 93 65 fa 3c a6 38 4a bd 7d ce 45 3c 87 50 e0 ba
       0.030566012 -0.04937043 0.012073156 -0.0017113843
000090 4b 0b bc 3c 3e b0 3f bd 2e 89 71 bd 5a 40 bf 3c
       0.022954604 -0.046798937 -0.058968715 0.023346115
0000a0 90 37 9e bd e2 be f5 bc f3 dd 0b 3c a2 39 67 3c
       -0.077254415 -0.029998247 0.008536804 0.014112862
0000b0 ec 7d 52 bd 02 83 a3 3d 40 75 5c bd c5 a8 25 3d
       -0.05138962 0.07983972 -0.053822756 0.040444154
0000c0 dc 14 b9 bc 9a 3b 3c 3d b4 4d 31 3d fe ad e8 3c
       -0.022592954 0.045955278 0.043286994 0.028403278
0000d0 7c e6 2e bc 2a 5d 89 3c dd 3e c5 3c db c5 2e 3d
       -0.010675069 0.016768057 0.024077827 0.04266916
0000e0 27 7c a2 bd d7 f5 71 3d 01 0b fc bb ff dc 78 bc
       -0.079338364 0.05907234 -0.0076917415 -0.015189408
0000f0 45 58 9a bd 47 b7 9a 3c 71 fd 87 3d fe 59 01 3d
       -0.07536367 0.018886222 0.06640137 0.031579964
000100 a9 04 3b bd 82 da 43 3d e3 24 53 3d 88 4b a4 bd
       -0.04565874 0.047815807 0.05154885 -0.08022219
000110 b5 e8 e6 3b 33 d4 82 3c 06 9a c1 3c e5 be 14 bd
       0.007046784 0.015970325 0.023633014 -0.036314864
000120 25 93 bb bc 91 d3 30 bd 50 58 13 3d 50 00 61 bd
       -0.022897312 -0.043170515 0.035972893 -0.05493194
000130 69 15 65 ba 37 65 8a 39 d2 a3 bf 3c 06 11 8a 3d
       -0.0008738847 0.00026396822 0.023393545 0.06741528
000140 b6 a4 6c bd fe b2 64 bd b9 83 8f 3d 26 80 0b 3d
       -0.057774268 -0.055834763 0.07007546 0.03405776
000150 7f 1c d4 bc eb 67 26 bd 8e 47 84 bd e1 19 99 bd
       -0.025892494 -0.040626448 -0.064589605 -0.07475639
000160 23 e3 83 3d 0a ee 59 3c 50 a5 a3 bd 96 95 6d 3c
       0.06439807 0.013301382 -0.07990515 0.014500996
000170 f7 b4 d6 bc ae c5 33 3d 52 13 f3 3c 73 80 07 bd
       -0.026209338 0.043889694 0.029672299 -0.033081483
000180 a0 44 7b 3d 23 02 e6 3c 74 ed 8f 3d 38 85 71 bd
       0.061344743 0.02807719 0.070277125 -0.058964938
000190 e1 27 f7 3c 0f 2b 1a bd 46 81 af bb 4b 6c 46 3d
       0.030170383 -0.03763872 -0.0053559868 0.04844312
0001a0 2f ea b3 3c 2b d4 9c bc b6 c0 6d 3d b2 60 bb bc
       0.021962253 -0.019144138 0.05804511 -0.022873256
0001b0 92 0b eb 3b 2c 69 82 3d 70 68 c6 3b c2 d0 2c 3d
       0.00717301 0.06367716 0.0060549304 0.042191274
0001c0 34 8f 84 bd ab e4 99 3d 63 8d 23 bd 85 f5 6e bd
       -0.06472626 0.07514318 -0.03992976 -0.058339614
0001d0 39 29 4d bd 08 45 24 bd 75 86 31 3d 01 14 88 bd
       -0.05008814 -0.040104896 0.04334112 -0.066444404
0001e0 b0 32 8a 3d da 9e 42 bd 9f 04 52 bd 40 0f 98 bd
       0.06747949 -0.047514774 -0.05127394 -0.07424784
0001f0 06 90 ec 3c 43 93 21 3d ce be 2a bc b5 47 82 bc
       0.02887727 0.03944708 -0.010421468 -0.015903333
000200 55 aa bb bc 1b 74 25 bd f6 05 51 bd 89 2a 83 bd
       -0.02290837 -0.04039393 -0.051031075 -0.06404597
000210 72 79 91 b9 72 4d 8a bc ea 6a 72 3d c1 03 b3 3c
       -0.0002774704 -0.016882632 0.059183992 0.021852376
000220 fd 1c 0c 3c 7f 92 d0 3b dd 3a 8f 3d 74 3e 07 bd
       0.008551833 0.00636512 0.06993649 -0.033018544
000230 74 76 4b bd b9 6d 88 bc 9a 1e c6 bc 34 45 5a bd
       -0.049673513 -0.016653882 -0.024184514 -0.053288653
000240 38 63 fd 3c 78 1c 8d 3d c7 b4 77 bd 23 75 d5 bc
       0.0309311 0.068901956 -0.060475137 -0.026056832
000250 bc 07 00 3d a3 dd 34 3d 06 98 cd 3c 47 7c 51 3d
       0.031257376 0.04415668 0.025096904 0.05114391
000260 0b 7e 84 bd 8d e5 cc bc 59 46 d6 bb f7 ba 72 bd
       -0.06469353 -0.025011802 -0.006539148 -0.059260335
000270 b9 5d 2b 3d c8 9f 54 bd 91 a5 2d bd ad 0a 55 3c
       0.041837428 -0.05191019 -0.042394225 0.013003034
000280 99 87 50 bd 6f e3 fe 3a ea 9b 85 3d 02 e4 85 3d
       -0.050910566 0.0019446443 0.06523879 0.0653763
000290 fc fa 83 bd 49 46 3d 3d d5 34 8c bd fa b7 9f 3d
       -0.06444356 0.046209607 -0.068460144 0.077987626
0002a0 d1 74 7b bc 2b 8a 4e bd 22 d3 a7 3c 80 78 ca 3b
       -0.015347675 -0.050424736 0.020486418 0.0061789155
0002b0 f2 25 34 3d fb a7 a3 3d c4 11 e4 bc cb 19 16 3d
       0.0439815 0.07991024 -0.027840503 0.03664569
0002c0 f9 f9 04 3d bb 39 57 bd 5e 70 b2 bc ad 29 22 bd
       0.032464955 -0.05254529 -0.021782096 -0.039590526
0002d0 04 c2 d0 bc 94 fc 81 bd ec 3d 4d bc c4 f7 70 bd
       -0.025483139 -0.063470036 -0.01252697 -0.058830038
0002e0 72 17 50 bc 3e 3d b3 3c 1f cc 4d 3d 83 74 58 3d
       -0.012700902 0.021879788 0.050243493 0.05284549
0002f0 ef 4f b9 bc 34 5c 5d 3d 17 9e 91 bd 8d 2b ab 3d
       -0.022621123 0.05404301 -0.07110231 0.08357916
000300 30 54 48 bd 05 b2 e7 3b 4e 01 b0 bb 94 ee 21 3d
       -0.048908412 0.007070782 -0.0053712493 0.039534166
000310 c8 e1 9c 3d 7e fc 7a 3d 68 90 af 3d 6e 58 bf bc
       0.07660252 0.06127595 0.08572465 -0.023357596
000320 0f d8 06 bc bc e8 83 3d e0 f3 67 bd ef d0 c8 3c
       -0.008230223 0.06440875 -0.05662906 0.02451369
000330 b8 60 d1 bc a1 d5 03 bd d0 27 19 3d e0 f2 17 3d
       -0.025558814 -0.032186154 0.037391484 0.037096858
000340 73 a5 55 bc 64 12 62 3d 74 01 08 3d bc ad 5c 3d
       -0.013039934 0.05519332 0.03320451 0.053876624
000350 b8 df e9 bb c7 f7 20 bd 19 31 4a 3d 0b 4b a2 bd
       -0.007137265 -0.0392988 0.04936323 -0.079244696
000360 d4 34 49 bd 87 0c 2c bd 90 0f cd bb 08 e1 c0 bc
       -0.049122646 -0.042004135 -0.0062579587 -0.023544803
000370 80 18 2b 3d a6 70 3a 3c 36 0b aa 3d 63 bb db 3c
       0.041771412 0.011379397 0.083029196 0.026822751
000380 e8 8f 21 3d 7a 3e 9e bc a4 ba 9b bc 9a c9 4c 3d
       0.03944388 -0.0193169 -0.019009896 0.04999695
000390 ec 8f f3 3c a2 30 0a 3d 16 e9 02 bb 77 9e 4d 3d
       0.029731713 0.033737786 -0.0019975356 0.050199952
0003a0 d7 ef dc 3c 57 53 80 bd c7 39 9b 3d e1 3e 13 3b
       0.026969833 -0.06265896 0.075793795 0.0022467899
0003b0 63 58 82 bb 33 ea 97 3c 17 95 46 bc 13 0d 0f bd
       -0.0039778217 0.018544292 -0.012120507 -0.034924578
0003c0 0f e9 89 3d c2 38 0c 3d 66 1f c5 bc 94 c3 12 bd
       0.067339055 0.034233816 -0.024062824 -0.03583105
0003d0 02 21 9f 3d 1a 2c 91 bd 03 2e 29 bd b6 5d b2 bc
       0.077699676 -0.0708849 -0.041303646 -0.0217732
0003e0 55 d8 0a bd 5c 08 52 bd 9b e5 5b 3d 51 3d f7 bc
       -0.033897717 -0.051277503 0.053685766 -0.030180605
0003f0 c1 b9 96 3d 03 e5 0e 3c 47 f9 64 bd 2f 03 e0 3c
       0.073596485 0.008721593 -0.055901792 0.027345268

lstm_decoder.weight_ih_l0 f4 [512, 6]
000000 b5 55 a0 bd bd 7b 9d bd 6a ba 03 3e ef 09 5d bd
       -0.07828847 -0.07689617 0.1286408 -0.05396455
000010 98 70 95 3b ed 21 25 3d 64 9c 3c 3c 1b 54 82 39
       0.0045605414 0.040315557 0.011511896 0.00024858196
000020 ea 78 36 bd a0 55 df bb ef b7 99 3c 2f 22 93 3d
       -0.044548906 -0.006815627 0.018764464 0.071842544
000030 92 b3 20 bd b3 53 8e bd a3 a7 57 3c a5 2a 9e bd
       -0.03923375 -0.06949558 0.013162526 -0.077229775
000040 43 ab af bd ea 05 89 bd 60 ac 76 bd e2 1a 19 3d
       -0.085775875 -0.06690581 -0.060222983 0.037379153
000050 fd 27 ea bc c5 14 80 bd 71 b7 03 bd ca 95 f3 bc
       -0.028583521 -0.062539615 -0.032157365 -0.02973451
000060 1e 9c 84 bd 9e ba 35 3d 02 d7 8e bd 1f 0e 9e bd
       -0.064750895 0.044367425 -0.06974603 -0.07717537
000070 cf 90 84 bc c2 d4 11 3c e1 6f 45 bd a7 52 44 3d
       -0.016182331 0.008900823 -0.0482024 0.047930386
000080 28 8b 0f 3b 41 f2 6a 3d 02 59 da 3b 81 7e 8f bc
       0.0021903012 0.057359938 0.0066634426 -0.017516376
000090 4b e2 a0 bd e7 11 96 bd f3 f4 fb bb ea 1e 8d 3c
       -0.07855662 -0.07327633 -0.0076891123 0.017226655
0000a0 21 5e 84 3c d6 00 8a 3d dc 2d e9 3d 9b 16 8b 3d
       0.016158165 0.06738441 0.113857 0.06791421
0000b0 6b 50 3f 3d 0b ea 54 3b 49 07 65 bc ea 96 9a bd
       0.046707552 0.0032488133 -0.013978788 -0.07548316
0000c0 fe 78 82 bd b7 07 a3 3d 37 f5 66 3c 5d 81 94 3c
       -0.06370734 0.07960456 0.01409655 0.018128091
0000d0 fa 92 22 bd b8 de 48 3d 39 ff 20 be 9e 5b bd bc
       -0.03969095 0.049040526 -0.1572236 -0.023114976
0000e0 83 5e 37 3c 3c cc 1a bd 78 57 4b ba 44 3b 0d 3a
       0.011191967 -0.03779243 -0.00077568693 0.00053875544
0000f0 f9 5e 2a bd c0 fc 04 3d 8e 17 3f 3d 99 c9 fe bc
       -0.04159448 0.032467604 0.046653323 -0.031101989
000100 b1 1e c8 bd c9 5b 0b bc 6d 4c c1 bc 6e 53 04 3d
       -0.09771479 -0.00850577 -0.023596013 0.032306127
000110 f9 45 43 bd 32 1e f3 bb dd 61 cd 3b e5 ac 6f bd
       -0.047674153 -0.007419371 0.0062677697 -0.058514494
000120 e8 05 0e be 9e 82 f8 3c bc 5c 02 3d 1f 2f 8b bc
       -0.1386944 0.03033572 0.03182672 -0.016990243
000130 95 40 81 ba bc 6f 10 be 76 f6 6d 3d a3 98 58 bc
       -0.0009861166 -0.14105123 0.05809637 -0.013219985
000140 c4 da 87 bd 01 4a b5 3b f5 62 1b 3c a8 d3 80 3b
       -0.06633523 0.0055325036 0.009484042 0.0039314814
000150 48 02 fd bb 2c b6 53 bd 30 b4 03 3d fa 93 c8 bd
       -0.007721219 -0.051687405 0.032154262 -0.09793849
000160 af 02 46 3b ec 8a 1b 3c 20 80 a6 bd 34 de 90 bd
       0.0030214002 0.009493571 -0.08129907 -0.07073632
000170 71 b0 85 3d 89 65 93 3d 03 07 84 bd 28 ab c2 bd
       0.06527794 0.07197101 -0.0644665 -0.09505302
000180 f1 7a 10 bc 59 2d 01 3d 8d 54 23 3c 23 ef 57 bd
       -0.008818374 0.031537388 0.009968889 -0.052718293
000190 3e 4f 87 bc cc 2d 38 bd 2d e3 a6 3d 91 7f bb 3d
       -0.016517278 -0.04496555 0.08148799 0.09155191
0001a0 89 b7 52 bd 5c dd 9c bd 5d 09 7c bd 0a b7 5d 3d
       -0.051444564 -0.076594085 -0.061532367 0.054129638
0001b0 03 08 6f bd a0 30 00 bd ec 76 93 bd dc df 2c 3c
       -0.05835725 -0.031296372 -0.07200417 0.010551419
0001c0 cb 13 ea 3a 40 fa 93 bd c5 52 62 bd e4 81 7e 3d
       0.0017858682 -0.07225466 -0.055254716 0.062135592
0001d0 85 8d d6 39 41 96 92 bd c5 0c 0a bd 97 f9 89 bd
       0.000409227 -0.07157565 -0.033703584 -0.067370586
0001e0 80 c3 6e bb 50 00 99 bd e2 94 68 3d 49 5e 1f 3c
       -0.0036432445 -0.07470763 0.05678261 0.009727069
0001f0 f6 4b d5 3d d8 e7 c4 bd 4b 4a 62 bd 8e 6f 15 3d
       0.10414879 -0.09614533 -0.055246633 0.03648334
000200 73 b8 20 bd 8d 5a 0a bd f4 4c ba 3d 29 db 8d bd
       -0.039238404 -0.033777762 0.09096709 -0.06926567
000210 da 62 98 bc e6 c5 2a 3d 9c a6 c2 3d 21 7e 20 bc
       -0.018601824 0.041692637 0.095044345 -0.0097956965
000220 cd f0 96 bd 87 eb 27 3d 34 bc 98 be 60 9e 5c bd
       -0.07370148 0.0409961 -0.29831088 -0.053861976
000230 9c 21 8c 3b 89 40 40 3e 9d a4 57 3e 90 99 6c 3d
       0.0042764675 0.18774618 0.21058889 0.057763636
000240 db 7d d7 3d fd ed c0 bc c8 2e 92 bd 10 12 a3 bd
       0.10522052 -0.023550982 -0.07137829 -0.079624295
000250 46 bd fd bc 5b 91 f3 3d 30 f2 fb bd 01 8d c8 bd
       -0.030974042 0.11892959 -0.12302053 -0.09792519
000260 25 1c 9a 3d 04 1a b2 bd 5d 13 f0 3b fc af 86 bc
       0.075248994 -0.08696368 0.007326527 -0.016441338
000270 70 1f 90 3d 51 84 67 bd 97 32 8d 3d 6c 45 5d bd
       0.07037246 -0.05652267 0.06894415 -0.054021284
000280 7a 7d 80 bc 56 b6 1f 3c a3 05 17 3d 87 be 29 3d
       -0.015684832 0.009748062 0.03687061 0.041441467
000290 4c a9 af bd 36 6a 31 3d 42 16 9b bd 2b ea 2c bd
       -0.08577213 0.04331418 -0.07572605 -0.042215507
0002a0 a6 4f 58 37 ae 28 00 3d 40 e5 57 bc 96 64 ee 3c
       1.2893148e-05 0.031288795 -0.013177216 0.029100697
0002b0 7b 82 0d bd c0 2b 6f 3c 4a d1 4c 3d 72 00 2a 3d
       -0.034548264 0.014597833 0.05000428 0.04150433
0002c0 d6 5b 21 3d 61 c9 8e bd c2 40 01 bd 9c 03 0f 3d
       0.039394222 -0.06972004 -0.0315559 0.03491555
0002d0 26 40 2d bd b8 0c 84 bd e7 fd 42 bd ee 65 53 3b
       -0.042297505 -0.064477384 -0.04760542 0.00322568
0002e0 f3 cb e0 3b e2 16 19 bc 17 e3 bc bc e5 7d 25 3d
       0.00686025 -0.009343835 -0.023057504 0.040403266
0002f0 a8 5c 07 3d 83 50 53 bd cc 65 97 bd 57 bf 1f bd
       0.03304735 -0.051590454 -0.07392463 -0.039000835
000300 f9 d3 1a 3d ad 59 7c bd 6d 53 8a 3c 1b eb 19 bd
       0.03779981 -0.06160896 0.016885484 -0.03757773
000310 ba db d6 bd 15 2e 9f 3d ae ff d2 3d aa f9 8b bd
       -0.10491128 0.07772461 0.10302673 -0.06834729
000320 ac 28 c8 3b 91 b2 9a bd 1c 32 f4 bd 8d 03 a4 bd
       0.006108364 -0.0755359 -0.1192362 -0.0800849
000330 19 30 75 3d 4f 68 97 bd 7d fe bc bc 8b 91 3f bd
       0.059860323 -0.07392942 -0.023070568 -0.04676966
000340 cd e4 85 3c 92 c1 96 bd 69 f7 c1 3a a5 2c b1 3d
       0.016344452 -0.07361139 0.0014798465 0.086510934
000350 53 4f da 3d 7b b3 30 bd fd 7f 06 3b 8c 4a c6 bd
       0.10659661 -0.043139916 0.0020523064 -0.096821874
000360 4e bd 5a bd dd 46 fa ba 13 8e 7d 3d 77 c6 92 bd
       -0.05340319 -0.0019094605 0.06190307 -0.071667604
000370 32 98 bc bd dc 71 c7 bc 81 bb 57 bd 8c eb 7e 3d
       -0.092087165 -0.024346285 -0.052669052 0.062236354
000380 6c d7 49 bd 89 fc 37 bd 0a e7 93 3d 59 ba 22 3d
       -0.049277708 -0.04491857 0.072218016 0.039728496
000390 cb 94 97 bc 8d 7d 4b bd a7 fe 41 3d 23 13 17 3d
       -0.018503567 -0.04968028 0.047361996 0.036883485
0003a0 b5 32 2a 3d 62 3b c1 3c 12 5a f0 bc 0b 34 4a bc
       0.041552264 0.023587886 -0.029339824 -0.01234151
0003b0 de b2 49 3d 8c 96 c4 3c db d5 4b 3b 2c 56 36 bd
       0.049242847 0.023997568 0.003110281 -0.044515774
0003c0 fe 3f 04 3d 16 c3 68 bd 0e 7b cb bc ed d8 43 3d
       0.03228759 -0.056826673 -0.02483895 0.0478143
0003d0 04 bb 4e 3c dd 65 2d 3d 2f 7d 84 bd 7f 2d 0f bd
       0.01261783 0.042333473 -0.064691894 -0.034955498
0003e0 5c 1a 89 bd 14 f6 18 bd e4 7b 8e 3c 59 1f 4c 3d
       -0.06694481 -0.037344053 0.01739306 0.049834583
0003f0 39 9f 20 be fe 4c 95 3d 0b 23 cb bc ad 11 83 bc
       -0.15685739 0.07290076 -0.024796983 -0.01599964

lstm_decoder.weight_hh_l0 f4 [512, 128]
000000 45 a5 8b 3d 15 53 29 bd 9d 55 39 bc dd 2c 7b bd
       0.06818632 -0.041339 -0.011311916 -0.06132208
000010 d1 07 1b bd 47 b9 b9 3b dc 17 24 3d b6 06 87 3d
       -0.03784925 0.0056678387 0.040061817 0.06593077
000020 9b af 64 3d 7b 73 e3 3c b9 cb cf bc 07 57 0a 3d
       0.055831533 0.027765026 -0.025365697 0.033774402
000030 4c 17 21 3d ed 34 91 bd bf 24 54 3c 02 93 a7 bc
       0.03932886 -0.07090173 0.012948214 -0.020455841
000040 45 be 5c bc 06 d9 f1 bc ce b5 98 3d fa de d7 bc
       -0.013473098 -0.02952243 0.074565515 -0.02635144
000050 b2 63 5d bd c6 9c 79 bd 27 c3 31 bd 39 0a f4 3b
       -0.054050155 -0.060940526 -0.043399002 0.0074475077
000060 b3 3d 58 bd 25 6c 81 3d a7 5e 2c 3d 94 7b d1 3c
       -0.052793216 0.06319455 0.042082455 0.025571622
000070 bf 90 ef bc aa ad 2a bc 5a 24 e5 bc 64 48 51 3d
       -0.029243825 -0.010417381 -0.027971435 0.051094428
000080 f0 40 92 3c fe 8b 48 3d a7 e3 c4 3c 8a 2b 35 bc
       0.01785323 0.048961632 0.024034334 -0.011057744
000090 d0 5d a8 bd f5 48 d4 3c 71 45 58 bd 13 6d 19 3d
       -0.08221018 0.025913695 -0.0528006 0.037457537
0000a0 30 99 52 3d c2 5e 9c 3d c4 7a 8b bd d8 dd 83 3d
       0.051415622 0.07635261 -0.06810525 0.06438798
0000b0 fa 36 06 3d 46 e8 fd bc 04 07 57 bc bd 0b 9a 3c
       0.032767273 -0.030994546 -0.013124231 0.018804425
0000c0 d3 82 9b bd 39 0d 0b 3d 38 70 55 bd 8a 05 7b 3b
       -0.07593312 0.033948157 -0.052108973 0.0038302862
0000d0 2c c8 38 bb 56 4b 6f bd ce b4 48 3d eb 17 d9 bc
       -0.0028195484 -0.058421455 0.049000554 -0.026500663
0000e0 c6 9d 9a bd ce 21 89 b9 87 9f 1f bd b0 2d 0e 3d
       -0.07549624 -0.00026155863 -0.038970497 0.03471154
0000f0 96 4d 7d 3d 58 29 cc bc 52 13 ad 3b 20 48 19 bd
       0.06184157 -0.024922058 0.005281844 -0.0374223
000100 5e d6 22 3d 3a 4f 16 3d bc b7 cd bc 12 87 3e bd
       0.039755218 0.03669665 -0.025112025 -0.04651553
000110 25 0d 11 bd e6 c8 a6 bc eb 11 c0 bc 94 8b 2b 3d
       -0.035412926 -0.020359468 -0.023446044 0.04188116
000120 0b 42 7a 3d 15 be 93 bd 58 d7 91 bd dd e1 56 3d
       0.06109814 -0.0721399 -0.07121152 0.052461494
000130 77 eb 59 3d c6 7e 7e bd a3 a4 06 3d f7 b3 b9 3c
       0.053203072 -0.06213262 0.032871854 0.022668822
000140 b4 ff 8f 3c a6 a4 46 bc b7 ea 30 3d 64 9b b1 bd
       0.017577983 -0.012124216 0.04319259 -0.086722165
000150 1a 17 98 3d c6 11 91 bd 6b 79 bf bc 41 eb 19 3d
       0.07426281 -0.07083468 -0.023373326 0.03757787
000160 2f 00 67 bc 3c 71 91 bd e3 26 75 bc 28 e7 24 3c
       -0.014099165 -0.07101676 -0.014962885 0.010064878
000170 f3 87 8e bd de d9 91 3d e6 2a e2 bb 2a fa 95 3d
       -0.06959524 0.07121633 -0.0069020865 0.07323106
000180 31 a9 99 bd eb 16 9e 3d 67 8f 35 3d 7d 45 7b 3d
       -0.07502974 0.07719215 0.044326212 0.061345566
000190 a6 48 75 3d 72 e7 a4 bd 2b 37 c3 3c 67 d4 35 bc
       0.059883736 -0.08051957 0.023830017 -0.011098004
0001a0 bc 65 5f bd 0f db cc bc 95 6c 99 ba fa 22 ac bc
       -0.05454038 -0.025006799 -0.0011705334 -0.021012772
0001b0 cc 93 87 3d 94 c0 90 3d 74 ef ab bd f4 11 27 3d
       0.06619987 0.07067981 -0.083952814 0.040788606
0001c0 54 c0 83 bb ff de 6c 3d 8d fd 47 3d ce 16 3c bc
       -0.00402073 0.057829853 0.04882579 -0.011480046
0001d0 14 bc b2 3d 5d d7 1e 3c 03 92 76 3d c4 5c 96 bd
       0.08727279 0.009694901 0.06019784 -0.073419124
0001e0 8d 9d b6 bc 17 07 85 bd bf 63 37 3d 3d 98 87 3c
       -0.022291923 -0.06495493 0.04477286 0.016552085
0001f0 06 98 6b bd 7d 47 4d bd a0 09 96 bd a4 11 8a bc
       -0.057518028 -0.050117005 -0.073260546 -0.016854115
000200 2e 95 da 3c 41 66 9f 3d 5f 68 06 3d 70 35 78 3d
       0.026682463 0.07783175 0.03281438 0.060597837
000210 c2 4c ac 3d 39 8d 9f bd 2d e2 9b 3c 86 1d d4 bc
       0.08413078 -0.07790608 0.019028747 -0.025892984
000220 ca e7 a2 bd fe b9 8d bd 84 5b 9c bd 65 c2 67 3d
       -0.079543665 -0.06920241 -0.07634643 0.056581873
000230 89 d5 8f bd fb 9d 0d 3d 99 f4 77 3d d0 e8 3d bb
       -0.070231505 0.03457449 0.060536 -0.0028977878
000240 1d 0c 4b 3d a4 13 28 3c 34 0a 0f 3d 07 96 90 3d
       0.0495721 0.010258589 0.03492184 0.070598654
000250 89 09 0b bd c7 58 b9 3b d8 05 d7 bb 2c a1 38 3d
       -0.03394464 0.005656335 -0.006561976 0.04507558
000260 e2 2b 35 bd 69 46 7f 3d 3c 1d 92 3d a1 b9 4a bd
       -0.044231303 0.062323008 0.07134482 -0.049493436
000270 b7 fd a5 3b 3d 8e 8a 3d f6 d6 36 3d 25 e3 2f bd
       0.0050656456 0.06765411 0.044638596 -0.04294123
000280 b2 d4 43 bd 34 09 9b 3d 5e f0 9b 3d 36 d6 02 bd
       -0.047810264 0.07570115 0.07614206 -0.03194257
000290 31 82 80 3c f4 e3 11 bd 9c d5 07 3d bf dd 22 bd
       0.01568708 -0.035617784 0.0331627 -0.039762255
0002a0 b5 88 61 bd 0f ea 96 3d 02 2b b5 3b fa 39 b8 3c
       -0.055062015 0.07368862 0.0055288086 0.022488583
0002b0 b4 9c b7 bb 05 9b ab bc 30 5f 09 3d 1c a5 a2 bb
       -0.0056033973 -0.020947943 0.033538043 -0.00496353
0002c0 a1 36 9c 3d 22 6e a9 3c 94 73 44 3d 39 13 53 3d
       0.07627607 0.020682398 0.047961786 0.051532004
0002d0 ed 68 bd bb 29 97 47 bd 38 78 e1 3c b1 e7 6d 3d
       -0.0057803304 -0.048728142 0.027523145 0.058082286
0002e0 3e 5a a5 bd 90 f4 23 bd 2f a8 92 3d 3e a4 67 bd
       -0.08073853 -0.040028155 0.07160985 -0.056553118
0002f0 af 6f c0 3c 21 83 0e bc 9b 70 e2 3b f7 6f af bc
       0.023490755 -0.008698256 0.0069103963 -0.021415694
000300 9d 39 5b bd 51 cc 9c bd 00 de f7 3c d9 11 8f bd
       -0.05352174 -0.07656158 0.030257225 -0.06985826
000310 90 bd 45 bd 8e 40 33 bc 4c fe 52 3b c2 ae 13 bd
       -0.048276484 -0.010940684 0.003219503 -0.036055334
000320 30 95 00 bb 99 3e a2 3c 28 2a 29 bd 18 c6 29 3d
       -0.0019620173 0.01980524 -0.04129997 0.041448683
000330 e7 b3 46 bd 23 c3 a5 3d 84 a4 64 bd 4d 9f ae bd
       -0.048511412 0.0809386 -0.055820957 -0.08526478
000340 03 90 e8 bb 87 ae a2 bc ab 92 5b 3d 99 4f 0e bd
       -0.0070972457 -0.019858612 0.05360667 -0.03474388
000350 c3 56 82 bb 1e d1 89 3c e4 02 a1 3c 17 59 a6 bd
       -0.003977628 0.016823348 0.019654699 -0.08122461
000360 59 e3 d8 bc 6a 33 4b bd 5c 44 aa bd 2d e9 92 3d
       -0.026475595 -0.04960958 -0.0831382 0.07173381
000370 f3 1f 86 bd 45 2f 42 3c 21 19 c1 3c 71 df 03 bd
       -0.065490626 0.01185209 0.023571553 -0.032195512
000380 c4 21 cb 3c c9 64 8c 3d 63 f8 00 bd a1 08 27 bd
       0.024796374 0.06855161 -0.03148688 -0.040779714
000390 5f 15 49 bd 9d 40 2e bd 4f db 2f bd e3 f9 ad 3b
       -0.049092647 -0.04254209 -0.04293376 0.00530933
0003a0 68 1a a1 bd 7b be 86 bd 3e e4 85 3d 72 d4 52 3d
       -0.07866365 -0.065793 0.06537674 0.051472135
0003b0 ee 73 18 3d e4 41 10 3d ec f0 a2 3d 60 eb 17 3d
       0.037219934 0.03521909 0.079561085 0.037089705
0003c0 8f 23 a6 3d d3 1b 69 bd b8 3d 8e 3d 24 d7 81 3d
       0.08112251 -0.0569113 0.06945366 0.06339863
0003d0 bf 42 55 3c 95 1a 9f bc bd 37 b8 bc ca 28 cd b8
       0.013016402 -0.019421855 -0.022487516 -9.782759e-05
0003e0 2a 14 c3 b9 62 e0 a9 bd 71 ca 8d bb 19 52 af 3d
       -0.00037208322 -0.08294751 -0.0043271114 0.08560581
0003f0 2a 71 90 bd e9 3e e9 bc 5e 11 26 3d 4b 0f bf 3c
       -0.07052834 -0.02847238 0.040543906 0.023322722

lstm_decoder.bias_ih_l0 f4 [512]
000000 fc 61 8b bd 38 64 06 3d ae cd 97 bd fe 34 88 bc
       -0.068057984 0.03281042 -0.07412277 -0.016626831
000010 17 1b 19 3d 58 29 8e 3d 24 c1 72 bd 30 72 81 bd
       0.03737935 0.069414794 -0.059266225 -0.06320608
000020 6b 37 33 bb 8d 5e b3 3d 50 5c 53 3b e6 83 35 bc
       -0.0027346264 0.087582685 0.0032251067 -0.01107881
000030 c1 1e fa bb 8a 1a 94 3d 72 18 99 bd 4b 2b da bc
       -0.0076330607 0.072316244 -0.07475366 -0.026631972
000040 0a b9 69 3d 37 a4 e1 bc 71 13 1e 3d 6b ac 98 bc
       0.057061233 -0.027544124 0.03859276 -0.018636903
000050 32 bd 62 3d 60 ab b3 3c a2 1e 13 3d f6 82 a2 bc
       0.055356212 0.021932304 0.035917886 -0.019837838
000060 97 2d 93 bd da 3c d5 bc 0a 83 8a bd 38 7b c7 b8
       -0.0718643 -0.026029993 -0.06763275 -9.512011e-05
000070 c1 01 8f bc a3 67 b0 3d 8c 82 23 bc 54 bc fc bc
       -0.017456891 0.08613517 -0.009979855 -0.03085152
000080 07 8c 50 3c be b7 df bb be d3 e8 bc ea 0a 8f 3d
       0.012728698 -0.0068273237 -0.028421279 0.069845036
000090 6b 5b 4b 3c 0e 9b 88 3c d3 d5 5b 3c 04 c4 0a 3d
       0.012411932 0.016675498 0.013417679 0.03387834
0000a0 a4 21 97 3c c6 a5 4e bd ee 61 49 bd 02 2c 34 bc
       0.018448658 -0.050451063 -0.04916566 -0.01099682
0000b0 b1 c3 a8 3d 47 39 77 bd 3f 66 1b bd 95 74 45 bd
       0.0824045 -0.06035736 -0.037939306 -0.048206884
0000c0 f3 ac 3a 3c c4 d9 4f bd c0 c0 a9 bc 12 a2 39 3d
       0.011393773 -0.050744787 -0.020721793 0.045320578
0000d0 23 17 86 bc 80 16 e6 bc 84 44 e4 3c 4b a4 70 bd
       -0.016368454 -0.0280869 0.027864702 -0.058750432
0000e0 39 bf 83 bd e9 31 b3 bc 33 5f 35 3c e7 6d b5 3c
       -0.06432957 -0.021874385 0.011070061 0.022147132
0000f0 2d 2f a0 3d 45 4c 8f 3d d2 20 a4 3d 2f 00 a9 3d
       0.07821498 0.06996969 0.080140725 0.08251988
000100 d3 d5 33 3c 2d 9a 4b bd 9c 9e 66 bd 84 dc 7d bd
       0.010976273 -0.04970758 -0.056303605 -0.06197788
000110 73 36 6d bd 85 62 75 bd 49 30 5f bd 87 e7 a0 bc
       -0.057913255 -0.05990841 -0.054489408 -0.01964165
000120 0f 36 c4 3b 7c b4 05 bd cd 55 8b bc 48 06 ab 3d
       0.0059878896 -0.032642826 -0.017008686 0.083508074
000130 0a 95 d3 bc 5b 72 a7 3d 59 ad 91 3c 38 26 94 bc
       -0.025827903 0.081761084 0.017782854 -0.01808463
000140 84 92 cd 3c 9a 4c 7f 3d b0 eb 85 bd f1 87 06 bd
       0.025094278 0.062328912 -0.065390944 -0.032844488
000150 ee 9e 96 3d 21 d0 99 3d 4b 1f a5 3d 5b 66 64 3d
       0.07354532 0.075104006 0.08062609 0.055761676
000160 fa 73 93 bd ac 81 87 bc c8 d8 93 bd 6e 95 1e 3d
       -0.07199855 -0.016541325 -0.07219082 0.038716726
000170 0a 82 0e 3c c3 a2 56 3c 4f d6 87 3d e3 de 29 bd
       0.008697996 0.013100329 0.06632673 -0.041472327
000180 8d 40 88 bc e7 d1 54 3d b7 c9 e4 bc 8c fa 8e ba
       -0.016632343 0.05195799 -0.027928216 -0.0010908409
000190 b0 09 07 3d cc f0 5e bd 1d 14 c1 3c c3 8d 11 3c
       0.032968223 -0.05442886 0.023569161 0.008883896
0001a0 ea 93 1e 3d 48 95 7a bd 82 c6 47 3d 5f e0 a0 bc
       0.03871528 -0.061177522 0.048773296 -0.019638238
0001b0 f6 28 78 3d b4 c1 89 3d 06 7a 8d 3d 24 3d 91 bd
       0.06058594 0.06726399 0.0690804 -0.0709174
0001c0 1b cc 34 bd fb 64 9a bd 27 a9 b3 3d 0f f2 ac 3d
       -0.044139963 -0.07538792 0.087724976 0.084446065
0001d0 c2 12 7e bd 11 e7 90 bc 64 77 29 bc dc ac 7c bd
       -0.062029608 -0.017688306 -0.010343406 -0.06168829
0001e0 7f 5c 1b bc 7b f2 25 3d 5f 3e 26 bd 51 ad 96 3d
       -0.009482502 0.04051445 -0.040586825 0.07357276
0001f0 88 39 d4 bc 5b 22 b7 bc 7d be e0 bc 94 4c e3 3c
       -0.02590634 -0.02235525 -0.027434582 0.027746476
000200 11 96 b3 bc 83 bc 06 bc 1e b1 f9 bc 88 c0 03 bc
       -0.021922143 -0.008223656 -0.030479964 -0.0080415085
000210 76 67 51 3b 5d 0e 02 bd f5 3e 17 bd 3f fb ae 3d
       0.0031952537 -0.03175198 -0.036925275 0.08544015
000220 21 4a 10 bd 90 49 95 3d 3d 09 96 3d ed 93 bc bc
       -0.035226945 0.072894216 0.07325981 -0.023019755
000230 86 62 a2 3d fc 1d 92 bd 5d ca 19 3d 90 8d 47 bd
       0.07928948 -0.07134625 0.037546504 -0.04871899
000240 16 0c 68 3c 06 71 2a 3d 64 cc 48 bd 87 22 05 b9
       0.014163038 0.041611694 -0.049023047 -0.00012696731
000250 94 57 35 3d a7 4e f8 bc 0d 11 b6 3b bd 75 86 bd
       0.044272974 -0.030310942 0.005556232 -0.065654255
000260 f6 5a b8 bc b6 70 c9 3d 35 52 b7 bc b5 8d d1 3c
       -0.022504311 0.09835951 -0.022378067 0.025580266
000270 fb ac 7a 3d 02 08 61 3d b9 3c 96 3d b4 0d 77 3c
       0.061200123 0.054939277 0.07335801 0.015078951
000280 ca e0 cd 3b 15 f1 72 bb 0e 07 90 bd f0 12 8f bc
       0.0062829005 -0.0037069966 -0.070325956 -0.017465085
000290 be ce ae bc 1d c4 90 bd 5c 05 7e 3d 25 6c 0d bc
       -0.021338817 -0.07068656 0.06201683 -0.008631741
0002a0 7d 3b a6 3c 24 11 58 3c d5 42 8f 3c cd 6d a2 3d
       0.020292038 0.01318768 0.017487923 0.07931099
0002b0 9d e4 d7 bc a5 45 d0 3c 31 20 cb bc 90 47 ab 3d
       -0.026354128 0.025423834 -0.024795623 0.08363259
0002c0 d9 9f ef bc e0 81 2b 3d 41 89 cf 3b 9a db 8d 3d
       -0.029251026 0.041871905 0.0063335006 0.06926651
0002d0 e7 1e d6 3c 64 6a 67 3d e8 16 31 3d 07 82 47 3c
       0.026137782 0.056497946 0.043234736 0.012176997
0002e0 ab 15 85 bd 1f 81 4a ba 86 61 83 bd 28 0b 6e bc
       -0.064982735 -0.0007724929 -0.064150855 -0.014529027
0002f0 2e b9 f1 3b 8b fd b0 bc 25 4b 1e bd 2b 87 ab 3c
       0.0073768115 -0.021605274 -0.038645882 0.020938477
000300 50 0a 8f bc fd b8 71 3d 14 1d 98 bd 7d 62 a1 bd
       -0.017460972 0.05901431 -0.07427421 -0.07880113
000310 3b ba 66 3d 96 20 e7 3c 07 a5 23 3d 79 65 7d 3d
       0.056329947 0.02821378 0.039952304 0.06186435
000320 8f bd a4 3d 4c 96 bd bb 7c e8 2d bd e3 de a5 3c
       0.08043968 -0.005785739 -0.042458043 0.020247882
000330 1c 49 f4 bc 8c a5 00 bc e7 1f 15 3d d2 89 77 bd
       -0.029820018 -0.007851969 0.036407378 -0.06043417
000340 5d 26 90 3d 6f 34 84 bd 87 f6 4b bd c0 9a 86 bd
       0.07038567 -0.064553134 -0.049795654 -0.06572485
000350 79 c0 a6 3d 79 6e 2f bd 82 dd a4 3d 58 5d 31 3c
       0.0814218 -0.042829964 0.08050062 0.010825478
000360 63 c1 fa 3c 79 0a 44 3d af ec 32 3d 0f 25 44 bd
       0.030609792 0.04786155 0.04368275 -0.047886904
000370 42 eb 6a bd b1 af 27 bd 1c c8 4b bd 51 54 08 3c
       -0.057353266 -0.040939037 -0.049751386 0.008320884
000380 dc 30 db bc 3e d8 90 3d b1 fd 50 3d 5f 0b ae bd
       -0.026756696 0.07072495 0.05102319 -0.084982626
000390 e1 1c 01 3c c5 1f 86 bd ed 40 92 3d 17 64 81 3d
       0.00788042 -0.06549028 0.0714129 0.06317919
0003a0 a6 db 14 3d ce 1c 16 bd a8 36 20 bd f9 57 a3 bd
       0.036342286 -0.036648564 -0.039114624 -0.07975764
0003b0 95 01 14 3d e6 19 1f 3b 4c 97 71 3d b9 f4 74 3c
       0.03613432 0.0024276911 0.05898218 0.014950925
0003c0 f4 da 2d 3b 4d 50 21 3d fc 0d 7f bd 5f 6c 00 3d
       0.0026528211 0.03938322 -0.062269196 0.03135335
0003d0 33 28 2a 3d 4e d8 94 bc 61 6e 97 bd 20 67 1a bc
       0.041542243 -0.018169548 -0.073941 -0.009424001
0003e0 ae 8b 2b bc 9c a4 41 bd e9 75 7d bd 7e 2e a2 bd
       -0.010470314 -0.047276124 -0.061880026 -0.07919024
0003f0 ad 71 78 3d 85 3c 8b 3d 8d 17 aa 3d 3d 2f b2 3d
       0.060655285 0.067986526 0.08305273 0.08700416
