transformer_no_tanh_with_past_12_Nm_144_Np_lr_0.001_hs_128_ahs_8_nll_1_bs_16_do_0.5_e_200_stride_10/model_J25_0.001lr_200e.pth (torch, 831135 bytes, 14 tensors)

lstm_encoder.weight_ih_l0 f4 [512, 8]
0	0x3d98662e	0.07441364
1	0x3c0a7a8b	0.008452068
2	0x3da4b21a	0.08041783
3	0xbd5aa9a5	-0.053384442
4	0x394533e3	0.00018806713
5	0x3d4cdac0	0.050013304
6	0x3bbc4008	0.005744938
7	0x3a95f453	0.0011440612
8	0x3d20bbfa	0.03924177
9	0xbda8c50f	-0.08240711
10	0xbd9d76a6	-0.07688646
11	0xbc727249	-0.0147977555
12	0x3d1d7d49	0.03844956
13	0x395d4cb6	0.0002110478
14	0xbcc3d1f5	-0.023903826
15	0xbdac2e6b	-0.08407291
16	0xbd3ba19c	-0.04580842
17	0x3ac66d67	0.0015138806
18	0x3ca94332	0.020661924
19	0x3d78d276	0.060747586
20	0x3d5f4cb4	0.05451651
21	0x3d84ae56	0.064785644
22	0xbd7f7ba3	-0.06237377
23	0xbd844431	-0.06458319
24	0xbc4ed808	-0.012624748
25	0xbc099c3c	-0.008399066
26	0xbca40df1	-0.020026179
27	0x3cc755ff	0.024332998
28	0xbd872646	-0.06599097
29	0x3d707870	0.05870861
30	0x3c99cf41	0.018775584
31	0xbc97bfaa	-0.01852401
32	0x3c623b62	0.013808103
33	0x3d71e98d	0.059060622
34	0x3d7f2397	0.0622898
35	0x3ca70025	0.020385811
36	0x3d856082	0.06512548
37	0x3bc42831	0.0059862365
38	0xbd3878d8	-0.04503712
39	0xbd9835cb	-0.07432135
40	0xbd8fac99	-0.07015342
41	0x3ccc16d5	0.02491323
42	0xbd1895a3	-0.03725208
43	0x3d9ba5f4	0.076000124
44	0xbd2392c9	-0.039934907
45	0xbda35081	-0.07974339
46	0x3cae6771	0.02128956
47	0xbd85d935	-0.065355696
48	0x3da10a00	0.078632355
49	0xbd8c353f	-0.068460934
50	0x3d948c7d	0.072533585
51	0xbd592d11	-0.053021494
52	0xbd46773f	-0.048453566
53	0x3d49fa52	0.04931099
54	0x3d9b5bdb	0.075858794
55	0x3b9a44cb	0.004707908
56	0xbd60ed03	-0.054913532
57	0xbc62fb0c	-0.0138538
58	0xbd8482c5	-0.06470255
59	0x3da26887	0.07930093
60	0xbc1fad37	-0.0097458875
61	0x3c32eb4a	0.010920355
62	0x3ce0b5fd	0.027430529
63	0x3c59ef64	0.013301704
64	0xbb967f77	-0.0045928317
65	0x3d9f6eea	0.07784827
66	0xbd8439bf	-0.06456327
67	0x3d62a742	0.05533529
68	0xbc826250	-0.01591602
69	0x3d76420a	0.060121574
70	0x3b4bc5a3	0.0031093142
71	0x3daaab2b	0.08333429
72	0x3ccead2e	0.025229063
73	0x3cf23bb0	0.029569477
74	0xbc33f413	-0.010983485
75	0x3d742e96	0.05961474
76	0x3da5b7b9	0.08091683
77	0x3cc9ec33	0.024648761
78	0xbd15596a	-0.036462225
79	0xbc8dc191	-0.017304214
80	0x3caa0d1a	0.0207582
81	0x3d6dc73f	0.058051344
82	0xbd96617d	-0.07342813
83	0xbd4705af	-0.048589405
84	0xbc65c209	-0.014023312
85	0xbc499e5b	-0.012305821
86	0x3c819160	0.01581639
87	0xbcb86c02	-0.02251244
88	0xbdae467e	-0.08509539
89	0x3d34fa62	0.044184096
90	0xbc9fa676	-0.019488554
91	0xbbdcff49	-0.0067442995
92	0xbd91a926	-0.07112341
93	0x3d034873	0.032051515
94	0xbd94d467	-0.07267075
95	0x3d89f42e	0.06736027
96	0xbc8b2a7f	-0.016988037
97	0xbd8cba46	-0.06871466
98	0x3d9448fd	0.07240484
99	0x3d8effdc	0.06982395
100	0xbd752e5c	-0.059858665
101	0xbc1fba0f	-0.00974895
102	0xbbbd1d25	-0.0057712966
103	0x3d31062a	0.04321877
104	0xbd2bc4a3	-0.041935574
105	0x3d9fe1a5	0.0780671
106	0x3aa035d4	0.0012223073
107	0xbd5f8f99	-0.054580305
108	0x3d168170	0.036744535
109	0x3d961f17	0.07330149
110	0xbd7d883c	-0.0618975
111	0x3d75349c	0.059864625
112	0x3d7eed30	0.06223792
113	0xbcfd548a	-0.0309241
114	0xbd8e6a06	-0.06953816
115	0x3da6da2f	0.08147084
116	0xbcf4d870	-0.029888362
117	0x3ccc1834	0.024913885
118	0x3c9a4619	0.018832253
119	0xbd692117	-0.056916323
120	0x3d4acc7b	0.049511414
121	0x3da6566a	0.08121951
122	0xbd2a7bd5	-0.041622
123	0xbd3737df	-0.044731017
124	0x3d9edefd	0.077573754
125	0x3d81bc24	0.06334713
126	0xbd8936b1	-0.06699885
127	0x3d077d76	0.033078633
128	0x3d305d0b	0.043057483
129	0x3dae6e8f	0.08517181
130	0xbca8cc6a	-0.020605285
131	0x3daa5f54	0.08318964
132	0xbbd15577	-0.006388362
133	0xbd5b43ab	-0.05353133
134	0xbda806a7	-0.08204394
135	0x3d6960fd	0.05697726
136	0xbd9920dd	-0.07476971
137	0xbd694161	-0.056947116
138	0xbda485a5	-0.08033303
139	0x3d4079d7	0.046991196
140	0x3bdfe765	0.0068330043
141	0x3d2b3eb9	0.041807864
142	0xbd49566b	-0.04915468
143	0x3d99a41c	0.075020045
144	0x3d910ff8	0.07083124
145	0x3d238ec3	0.03993107
146	0xbd101b3d	-0.035182226
147	0xbd1b9236	-0.037981234
148	0x3d0627ec	0.032752916
149	0x3d20f46b	0.039295595
150	0x3cae856e	0.021303859
151	0x3d287542	0.04112745
152	0xbd5f5571	-0.054524843
153	0x3c77a63b	0.015115316
154	0xbd0cdbff	-0.034389492
155	0x3d953787	0.072859816
156	0xbd7e5891	-0.062096182
157	0xbd9ba030	-0.07598913
158	0x3d53af09	0.0516806
159	0x3d1973ff	0.037464138
160	0xbcd3cbb9	-0.025853978
161	0x3c008661	0.007844538
162	0x3cdcfe97	0.026976867
163	0xbce4060c	-0.027834915
164	0x3d2e1c2d	0.04250734
165	0xbda7b01c	-0.08187887
166	0x3d54085f	0.051765796
167	0xbd4a4ef2	-0.049391694
168	0xbda19e61	-0.078915365
169	0x3cbbf355	0.022943178
170	0xbd8a811f	-0.06762909
171	0x3ccc3ed8	0.02493231
172	0x3bfa4e3d	0.0076387213
173	0x3d913daa	0.070918396
174	0x3c78c772	0.01518427
175	0x3da4916b	0.08035549
176	0x3d8b5b48	0.0680452
177	0xbc3ed949	-0.0116484845
178	0xbd0ac59e	-0.03387987
179	0x3d43edca	0.047834195
180	0xbd7fcdb1	-0.062452022
181	0xbd2fec2d	-0.042949844
182	0x3caaae43	0.020835048
183	0xbd66674e	-0.056250863
184	0xbd7a707f	-0.06114244
185	0x3daabd2a	0.083368614
186	0x3d64e38d	0.05588107
187	0x3d156fd8	0.036483616
188	0x3c9f9184	0.019478567
189	0xbd467789	-0.04845384
190	0x3d97c2be	0.07410191
191	0xbc4b68a8	-0.012415089
192	0xbd99120b	-0.074741445
193	0xbd223ef7	-0.03961083
194	0xbd431880	-0.047630787
195	0xbd9423f6	-0.072334215
196	0xbd704495	-0.058659155
197	0x3d7d1ad0	0.06179315
198	0x3cffd2a9	0.03122838
199	0xbd9361a3	-0.07196357
200	0xbd864df1	-0.06557835
201	0xbd901784	-0.07035735
202	0x3d9ff097	0.07809561
203	0xbd0dbe85	-0.03460552
204	0x3d0f99ba	0.035058714
205	0x3d8ce598	0.06879729
206	0x3d81d2c4	0.063390285
207	0xbd1922ff	-0.03738689
208	0x3c41daa6	0.011831915
209	0xbd2df90f	-0.04247385
210	0x3da6bda1	0.081416376
211	0x3d097e0f	0.033567484
212	0xbd6594ba	-0.05605004
213	0xbce63e6f	-0.028105943
214	0x3d493b4e	0.049128823
215	0x3d696ded	0.0569896
216	0xbd81dc66	-0.06340866
217	0x3cfb2b18	0.030660197
218	0xbca981fd	-0.020691866
219	0xbd3c07fa	-0.045906045
220	0x3d983b4b	0.07433184
221	0xbc37d790	-0.011220828
222	0xbda378b5	-0.079820074
223	0xbd05bd90	-0.032651484
224	0x3a185608	0.00058111595
225	0xbdad6782	-0.08467008
226	0xbdae1e90	-0.08501923
227	0x3c15b6cf	0.009137823
228	0x3d60dd66	0.054898642
229	0x3d8db78e	0.06919776
230	0x3cc3da3d	0.023907775
231	0x3afafe2f	0.0019149239
232	0xbd38ee9c	-0.04514943
233	0xbd867b9e	-0.06566547
234	0x3d859188	0.065218985
235	0x3b7cbfef	0.003856655
236	0xbd9f1561	-0.077677496
237	0x3c43c0f8	0.011947863
238	0xbd0fd46b	-0.035114687
239	0xba9524c6	-0.0011378757
240	0x3c7cc563	0.01542792
241	0xbd5b7b73	-0.053584527
242	0x3d984917	0.07435816
243	0xbc8b33d8	-0.016992494
244	0xbdaa5ba4	-0.0831826
245	0x3d6025f0	0.05472368
246	0xbd717e59	-0.058958385
247	0xbd45ca5d	-0.04828869
248	0xbcf93e3a	-0.03042518
249	0xbd70f141	-0.058823828
250	0x3d5c873a	0.0538399
251	0xbd8c8c1d	-0.06862662
252	0x3d1a70cf	0.03770524
253	0xbcb4c6e5	-0.022067497
254	0xbcdb9ddc	-0.026808672
255	0x3d771007	0.06031802

lstm_encoder.weight_hh_l0 f4 [512, 128]
0	0xbdab6886	-0.08369546
1	0x3bc0218a	0.005863373
2	0x3bc137ca	0.005896543
3	0x3cce7bfe	0.025205608
4	0x3ce21e58	0.02760236
5	0x3d7a9cab	0.061184566
6	0x3c29f5e2	0.010373564
7	0xbd963da1	-0.073359735
8	0x3cb5229a	0.022111226
9	0xbc66d2d4	-0.014088351
10	0x3cf80d42	0.03027976
11	0x3d5eb12a	0.054368176
12	0x3cec5511	0.028849157
13	0xbd7b3b7f	-0.061336037
14	0x3d5160d4	0.051117733
15	0x3da0ef24	0.078581125
16	0x3d63903a	0.055557467
17	0xbcbba981	-0.022907974
18	0x3da4f251	0.08054031
19	0x3d822801	0.063552864
20	0x3d29f8c4	0.041497007
21	0x3da770f6	0.081758425
22	0xbd3eea82	-0.046610363
23	0xbd05456c	-0.03253691
24	0x3d8645c3	0.06556275
25	0xbd50b349	-0.05095223
26	0x3d4a177f	0.049338814
27	0x3cc6ed76	0.024283152
28	0xbda5124d	-0.08060131
29	0x3cfa9eb6	0.030593257
30	0xbd659876	-0.0560536
31	0x3d5138d0	0.05107957
32	0xbda00974	-0.07814303
33	0x3cfc29e6	0.030781697
34	0x3c8c35d5	0.017115513
35	0x3d140e6a	0.03614656
36	0xbd638896	-0.05555018
37	0xbd635ad7	-0.055506554
38	0x3dae0447	0.084969096
39	0xbd921d33	-0.071344756
40	0x3c479b47	0.012183017
41	0xbd2bef19	-0.04197607
42	0xbd21000a	-0.039306678
43	0x3d8a5438	0.06754345
44	0xbd1ffcb7	-0.039059367
45	0xbd05cfa4	-0.032668725
46	0x3d654069	0.05596963
47	0x3cdbff36	0.026855092
48	0x3cc51253	0.02405659
49	0x3d7adb01	0.061244015
50	0x3be87fa9	0.0070952964
51	0xbc8e314f	-0.017357497
52	0xbd03cf00	-0.032179832
53	0x3ccd0dfb	0.02503108
54	0xbcfa226e	-0.030533995
55	0x3c9791c0	0.018502116
56	0x3d26789a	0.04064236
57	0x3d19093c	0.037362322
58	0xbdafbc8d	-0.08580885
59	0xbdaf0946	-0.08546691
60	0x3d26ba9e	0.040705316
61	0xbd8034f9	-0.06260104
62	0x3d7bf82e	0.06151598
63	0x3afaac4d	0.0019124836
64	0x3d83adfc	0.06429669
65	0xbbbf969c	-0.0058468115
66	0x3d96aeaf	0.07357537
67	0xbc0f90b5	-0.008762528
68	0xbd361a75	-0.044458825
69	0xbd98ae34	-0.074551016
70	0x3d8cb926	0.06871252
71	0xbd96983d	-0.07353256
72	0xbc242f40	-0.010021031
73	0xbd79049d	-0.060795415
74	0x3d6209a9	0.055184994
75	0x3d0667b3	0.03281374
76	0xbd7a1d24	-0.061062947
77	0xbd8786d7	-0.066175155
78	0x3da2abf1	0.079429515
79	0x3d393600	0.045217514
80	0x3ceb6f05	0.028739462
81	0x3d67280a	0.05643467
82	0xbca64caf	-0.020300237
83	0xbd9ea5a9	-0.07746441
84	0x3d927947	0.07152038
85	0x3c5c1503	0.013432744
86	0x3d3dec11	0.04636771
87	0x3d9c9724	0.07646015
88	0xbd323a3b	-0.043512564
89	0x3daed93b	0.08537527
90	0x3a6413e8	0.0008700476
91	0x3c54bfa5	0.012985145
92	0xbca70d29	-0.020392017
93	0xbccad4ea	-0.024759728
94	0x3d1bdf66	0.038054846
95	0x3ce5b2ef	0.028039424
96	0x3d033097	0.03202876
97	0x3dafa0fd	0.08575628
98	0x3d3677a0	0.044547677
99	0x3d4aabf4	0.049480394
100	0xbd97fa3f	-0.074207775
101	0x3d8935ff	0.06699752
102	0xbd9f5b96	-0.077811405
103	0xbd0ff62b	-0.035146873
104	0x3d9ad859	0.07560796
105	0xbd7009cb	-0.05860309
106	0x3d931b38	0.07182926
107	0xbd23fb7f	-0.040034767
108	0xbdac4989	-0.08412463
109	0x3da83280	0.08212757
110	0xbdab51d3	-0.08365216
111	0x3da132a5	0.07870988
112	0xbd548b19	-0.051890466
113	0xbd4db172	-0.050218053
114	0x3dab688f	0.08369552
115	0x3d5f58b4	0.054527953
116	0xbd7207ca	-0.05908946
117	0xbc76a053	-0.015052873
118	0xbda13859	-0.078720756
119	0xbbf4bc89	-0.007468764
120	0xbce703c8	-0.028200045
121	0x3d72ab45	0.059245367
122	0xbd663668	-0.05620423
123	0x3d77c0ab	0.060486477
124	0x3dab8dac	0.08376631
125	0x3d299722	0.041403897
126	0xbb5b2b4d	-0.0033442557
127	0xbd9af6a0	-0.07566571
128	0xbd355f4b	-0.04428033
129	0xbd04ab3c	-0.032389864
130	0x3c27c89e	0.010240702
131	0x3d326771	0.04355568
132	0x3d4479b4	0.047967628
133	0xbcd5cc4b	-0.026098391
134	0x3d4b6333	0.04965515
135	0xbd3b4c27	-0.04572692
136	0x3d49cd17	0.049267855
137	0x3c875d5b	0.016524008
138	0x3dacb018	0.08432025
139	0xbd019a0c	-0.03164105
140	0x3d6cf92e	0.057854824
141	0x3c6e8bea	0.014559725
142	0x3d810372	0.06299485
143	0x3cc7ced9	0.024390625
144	0x3d8f8cc0	0.07009268
145	0x3cafff43	0.021484023
146	0xbcddb928	-0.027065828
147	0x3c6d59df	0.014486759
148	0xbd6cdadb	-0.057825904
149	0x3cd413d1	0.025888355
150	0x3d289b90	0.04116398
151	0x3cc27034	0.023735143
152	0xbd8ef3aa	-0.06980069
153	0x3c7bd696	0.0153709855
154	0xbd9348ca	-0.07191618
155	0x3d4091ab	0.04701392
156	0xbd5d3f93	-0.054015707
157	0xbb92b0c1	-0.004476637
158	0xbc27aaf1	-0.010233627
159	0xbdac17bc	-0.084029645
160	0xbc0b4c2a	-0.008502046
161	0xbd78602d	-0.060638595
162	0x3b9002f0	0.0043948814
163	0xbd00cd1b	-0.031445604
164	0xbd056e92	-0.03257615
165	0xbd010302	-0.03149701
166	0x3d934fa3	0.07192924
167	0xbd2405c8	-0.040044576
168	0xbd49b023	-0.049240243
169	0xbcdf07b2	-0.02722535
170	0x3c853002	0.016258243
171	0x3d288998	0.041146845
172	0x3bddcb4a	0.0067686187
173	0x3d9b9ae0	0.075978994
174	0x3cc966c3	0.024585133
175	0x3ba7d157	0.005121391
176	0xbd92a2f6	-0.071599886
177	0xbd9d35af	-0.07676255
178	0xbd86cadb	-0.0658166
179	0xbd990c98	-0.07473105
180	0xbccf0da8	-0.025275066
181	0xbc3af8ba	-0.01141184
182	0x3da63c1d	0.081169344
183	0x3d115b76	0.035487615
184	0x3d529054	0.051407173
185	0xbc55ad3e	-0.013041792
186	0xbd1cd5f8	-0.038289994
187	0x3d9ce57e	0.0766096
188	0xb9635f81	-0.00021683985
189	0x3d9677e3	0.07347085
190	0xbd34cf10	-0.044142783
191	0x3d4309c5	0.04761674
192	0xbc8d5cee	-0.017256226
193	0xbd3078da	-0.043084003
194	0xbdab45e8	-0.08362943
195	0xba8dcb89	-0.0010818104
196	0xbda6e7e7	-0.081497006
197	0xbd4a4ed7	-0.049391594
198	0x3ba8bf10	0.0051497295
199	0x3da6af04	0.0813885
200	0xbd8bd70d	-0.06828127
201	0xbd99900c	-0.07498178
202	0xbcd2d3bf	-0.025735734
203	0xbd10f808	-0.03539279
204	0xba89aef6	-0.0010504413
205	0x3cba1f8b	0.022720119
206	0x3d33a1ba	0.043855406
207	0x3d023b64	0.03179492
208	0xbd3dbcd9	-0.046322677
209	0xbcc5e969	-0.02415915
210	0xbd122873	-0.035683107
211	0x3d80690f	0.06270038
212	0x3c4b816a	0.012420991
213	0x3c607264	0.013699148
214	0x3d4824e3	0.048863303
215	0x3d94470e	0.07240115
216	0xbc7354c1	-0.01485175
217	0xbdaa592a	-0.08317788
218	0x3d5f57e2	0.05452717
219	0x3d9f30a9	0.07772953
220	0x3dac7ed4	0.08422628
221	0xbc81338a	-0.015771646
222	0x3d021280	0.031755924
223	0x3d7aabb9	0.061198924
224	0x3d7575b4	0.059926704
225	0x3d0b0441	0.033939604
226	0xbdaf1c6a	-0.085503414
227	0x3c95bde8	0.01827903
228	0x3c1ea403	0.009682658
229	0x3d1cd873	0.03829236
230	0x3d4d4c63	0.050121676
231	0x3d9b14d6	0.075723335
232	0x3d123e0e	0.03570371
233	0xbda98f15	-0.08279244
234	0xbcf069ac	-0.029347263
235	0xbd32fc30	-0.043697536
236	0x3c816774	0.0157964
237	0xbd972bac	-0.073813766
238	0x3ccd5847	0.025066508
239	0x3d94b8f9	0.07261843
240	0xbcd16c34	-0.02556429
241	0xbd64fbbb	-0.05590413
242	0xbdaf21fb	-0.08551403
243	0x3d80f12c	0.06296
244	0xbd9656d9	-0.073407836
245	0xbd85aa10	-0.065265775
246	0x3a1df180	0.0006025061
247	0xbd2ded73	-0.042462777
248	0x3da7f6fe	0.08201407
249	0xbd9ef2fa	-0.07761188
250	0xbd305589	-0.043050323
251	0xbc70438a	-0.01466454
252	0xbc0fafd6	-0.00876995
253	0xbbba7555	-0.0056902566
254	0xbc5b818e	-0.013397587
255	0xbd73acbf	-0.059490915

lstm_encoder.bias_ih_l0 f4 [512]
0	0xbd77767c	-0.06041573
1	0x3d114a61	0.035471324
2	0xbd6939d7	-0.056939926
3	0x3d10b524	0.035329
4	0xbd0585dc	-0.03259836
5	0x3dab4bfc	0.08364102
6	0xbcac9257	-0.021065874
7	0x3d771831	0.060325805
8	0xbd5c9225	-0.05385031
9	0x3ce29bc5	0.027662167
10	0xbd693d15	-0.056943018
11	0xbd8a9093	-0.067658566
12	0x3d980246	0.074223086
13	0x3ad3632a	0.0016127576
14	0x3daf3c81	0.08556462
15	0xbd85b6ab	-0.06528982
16	0xbd3ebd50	-0.04656726
17	0xbcbabd51	-0.022795351
18	0x3d91d806	0.07121281
19	0xbcccf765	-0.02502031
20	0xbd9be865	-0.07612685
21	0xbcc10e6e	-0.02356645
22	0x3d440c89	0.047863517
23	0xbb55efdf	-0.0032644195
24	0xbd123793	-0.03569753
25	0x3d8854b7	0.06656783
26	0x3d6858fe	0.056725495
27	0xbc962d96	-0.018332284
28	0x3d2dc4a4	0.04242386
29	0xb9faa6bf	-0.0004780795
30	0xbd89b7be	-0.06724499
31	0x3b692c1f	0.0035579277
32	0xbd2e6355	-0.0425752
33	0x3d9ff84d	0.078110315
34	0x3d80ec8e	0.06295119
35	0x3d22e57b	0.03976963
36	0xbd140af3	-0.036143254
37	0xbd37672c	-0.044776127
38	0xbb621de1	-0.0034502672
39	0x3c5bbd03	0.013411763
40	0xbd84b80e	-0.06480418
41	0xbd2bd094	-0.041946962
42	0x3cf3fdb7	0.029784067
43	0xbd84d900	-0.06486702
44	0x3c23bfdf	0.009994476
45	0x3d19e682	0.037573345
46	0x3c5d19a8	0.013494886
47	0x3d105f00	0.03524685
48	0x3d227547	0.039662626
49	0xbd16fca2	-0.036862023
50	0xbdab30f6	-0.08358948
51	0x3d960fe7	0.07327252
52	0x3d74857b	0.05969761
53	0xbc0cf6aa	-0.008603731
54	0xbda8366b	-0.082135044
55	0xbcf1c9ab	-0.029515108
56	0xbc3f595c	-0.01167902
57	0x3d10facf	0.03539544
58	0xbd043355	-0.032275517
59	0xbd8cdd59	-0.06878156
60	0x3cd4417a	0.025910128
61	0x3c79d520	0.015248567
62	0x3d9d8bfd	0.07692716
63	0x3b8f3e11	0.0043714126
64	0xbd91d2ed	-0.07120309
65	0x3d58c48a	0.05292181
66	0xbce1fa03	-0.027585035
67	0x3d9a5d5f	0.075373404
68	0x3d80dcf3	0.06292143
69	0x3bc923c1	0.0061382954
70	0x3b86418f	0.0040971707
71	0x3da31714	0.07963386
72	0x3d12b0a5	0.035812993
73	0x3cfe672b	0.031055054
74	0x3b397d74	0.0028303536
75	0x3d60cec9	0.054884706
76	0xbd9cf754	-0.076643616
77	0xbd33bca7	-0.043881085
78	0xbd4f33bc	-0.050586447
79	0x3d9b89fc	0.07594678
80	0x3d8e2b74	0.06941882
81	0x3d0c885a	0.034309722
82	0xbd79ec9e	-0.06101667
83	0x3ccf101e	0.02527624
84	0x3d4831c2	0.048875578
85	0x3d26b473	0.040699434
86	0xbd59ac66	-0.053142928
87	0x3c381eb3	0.011237788
88	0x3d8f71c1	0.07004119
89	0xbd70f9c5	-0.05883195
90	0xbd00d3f5	-0.031452138
91	0xb9e778ee	-0.00044149853
92	0x3d85a0b2	0.06524791
93	0xba164a0f	-0.00057330815
94	0x3d2b6a33	0.041849326
95	0x3cae21fe	0.021256443
96	0x3d334a4a	0.04377202
97	0x3c872b76	0.016500216
98	0xbc137d64	-0.009002063
99	0x3d744422	0.05963529
100	0x3c6c94af	0.014439746
101	0x3c821f34	0.01588402
102	0x3da126a8	0.07868701
103	0xbd4fe0be	-0.05075144
104	0xbcb870a3	-0.022514647
105	0x3af0a620	0.0018360056
106	0x3d99bb99	0.075064845
107	0xbd53e224	-0.051729336
108	0x3d04728a	0.032335795
109	0x3d9d073e	0.07667397
110	0x3d907c81	0.07054997
111	0x3d8f3e32	0.06994285
112	0x3d36ef38	0.04466173
113	0xbb7c49ec	-0.003849621
114	0xbdae7b24	-0.08519581
115	0x3d50e27f	0.050997254
116	0xbdafc5c1	-0.085826404
117	0xbdae7c04	-0.08519748
118	0x3bb7ccbb	0.0056091226
119	0xbbf38ebd	-0.007432787
120	0xbceb60b8	-0.028732643
121	0x3d90acc0	0.070641994
122	0x3d19f0bf	0.03758311
123	0x3d96b6b8	0.073590696
124	0x3cbb2400	0.022844315
125	0x3d1601c2	0.03662277
126	0x3d624832	0.055244632
127	0xbd76d566	-0.060262106
128	0xbc178930	-0.009249017
129	0xbd9ed99c	-0.077563494
130	0xbdaef386	-0.08542542
131	0x3d7299f5	0.059228856
132	0x3d8c8dbc	0.06862971
133	0xbd974c8c	-0.07387647
134	0xbd397d38	-0.045285434
135	0x3d247d9c	0.040158853
136	0xbc81e42c	-0.015855871
137	0xbb6860b5	-0.0035458033
138	0x3c24ce06	0.010058885
139	0xbd4e1e84	-0.05032207
140	0xbcb9b831	-0.022670837
141	0xbd90d97a	-0.0707273
142	0x3d265207	0.04060557
143	0x3cf42ac1	0.029805543
144	0xbd940316	-0.07227151
145	0xbb6b51a4	-0.0035906816
146	0x3d806cb8	0.062707365
147	0xbc057ce9	-0.008147457
148	0xbd78fa34	-0.060785487
149	0xbd0eb753	-0.0348428
150	0x3ce67ecf	0.028136639
151	0x3d19ac43	0.037517797
152	0x3d80bcb8	0.06285995
153	0xbd4a1e28	-0.049345165
154	0x3d84c58e	0.06482993
155	0x3c029438	0.007969908
156	0xbd140cc8	-0.036145
157	0xbc903216	-0.017602008
158	0x3d2e7b84	0.042598262
159	0xbcbb2d77	-0.022848828
160	0xbd9c9b0d	-0.07646761
161	0xbda64609	-0.08118827
162	0x3d2330c0	0.039841413
163	0xbd964db4	-0.073390394
164	0x3d8bbb2e	0.06822811
165	0x3d1591f8	0.03651616
166	0xbd990ac7	-0.07472759
167	0xbd234e3f	-0.039869543
168	0xbc403ddd	-0.011733499
169	0x3ccfb543	0.025354987
170	0x3d220166	0.039552115
171	0xbdaddcf0	-0.08489406
172	0x3d958123	0.073000215
173	0xbd4fc151	-0.05072147
174	0xbd863784	-0.065535575
175	0x3d025537	0.03181955
176	0xbcce61d1	-0.025193127
177	0x3d177b0f	0.036982592
178	0x3cdae5f5	0.02672098
179	0xbd4a9bd1	-0.049465004
180	0xbd660067	-0.056152727
181	0x3d5f015e	0.054444663
182	0xbd600510	-0.054692328
183	0x3d9555f8	0.07291788
184	0x3d93fec4	0.07226327
185	0xbc23ef75	-0.0100058215
186	0x3d9834fc	0.07431981
187	0xbd58317b	-0.052781563
188	0xbd68ca58	-0.056833595
189	0x3d145dd3	0.03622229
190	0xbaed7a1c	-0.0018118056
191	0x3d45e051	0.048309628
192	0x3d9253e8	0.0714491
193	0xbd7c6b8d	-0.061626006
194	0xbc3b7dbc	-0.011443552
195	0x3d878ccc	0.06618652
196	0xbce89d82	-0.028395418
197	0x3d82b619	0.063823886
198	0x3d358a9f	0.044321653
199	0xbc692f5d	-0.014232484
200	0xbdaa421e	-0.08313392
201	0xbd9e7e26	-0.07738905
202	0xbda19757	-0.07890194
203	0xbd49e995	-0.049295027
204	0xbd897bc2	-0.06713058
205	0xbc449e4d	-0.0120006325
206	0xbbf8ac0d	-0.0075888694
207	0x3d973765	0.073836125
208	0x3d6391a1	0.055558804
209	0x3cbfc7de	0.023410734
210	0xbccc5f19	-0.02494769
211	0x3d795582	0.060872562
212	0x3d0434ab	0.03227679
213	0x3c8dfd9e	0.017332848
214	0x3bbae004	0.0057029743
215	0x3c737ce3	0.014861318
216	0x3da1a85a	0.07893439
217	0x3d99d6c7	0.07511669
218	0x3d90a604	0.07062915
219	0xbc8a08be	-0.016849872
220	0xbc8204ab	-0.015871366
221	0x3bffc778	0.007805761
222	0xbd9e3361	-0.077246435
223	0xbc6df96f	-0.014524802
224	0xbd541d07	-0.051785495
225	0x3d6e9041	0.05824304
226	0x3d797846	0.060905717
227	0x3d3e9851	0.04653198
228	0xbc1017d0	-0.00879474
229	0xbd79bbeb	-0.06097023
230	0xbd9ce0c2	-0.07660057
231	0x39856652	0.0002544397
232	0x3ce3dfe0	0.027816713
233	0xbd39e1f7	-0.045381512
234	0xbc446ae4	-0.011988375
235	0xbd1151ce	-0.035478406
236	0x3c191a9f	0.009344726
237	0xbcb1076a	-0.02160998
238	0x3bbbd70c	0.0057324227
239	0x3cdbc18c	0.026825689
240	0x3d8bd08d	0.06826887
241	0xbc50fa4a	-0.012754986
242	0xbca129e8	-0.019673303
243	0xbd08b547	-0.033376005
244	0xbd23dc55	-0.040005047
245	0xbd9ed7d2	-0.07756008
246	0xbcd64a69	-0.026158528
247	0x3c2ff6fd	0.010740039
248	0x3d72a21e	0.05923664
249	0xbda464c4	-0.08027032
250	0x3cd3629f	0.025803862
251	0x3bde39a9	0.006781776
252	0x3da3d70f	0.080000035
253	0x3d7c9415	0.06166466
254	0xbd3050f9	-0.04304597
255	0x3d141cb9	0.036160205

lstm_encoder.bias_hh_l0 f4 [512]
0	0xbd408e38	-0.04701063
1	0x3d65c0aa	0.056091942
2	0xbd2d5b1b	-0.042323213
3	0xbd1629f3	-0.0366611
4	0x3d18b48f	0.03728157
5	0x3d0fb40d	0.03508382
6	0x3d65e02f	0.056122
7	0xbd707205	-0.058702487
8	0xbd16b56a	-0.036794104
9	0xbd95e242	-0.07318546
10	0xbc2ceded	-0.010554773
11	0xbd19f0f7	-0.037583318
12	0x3cd3f651	0.025874289
13	0x3da17a23	0.07884624
14	0x3d8ce1f9	0.06879038
15	0xbd44be96	-0.04803332
16	0x3c0db92a	0.008650104
17	0x3bcacf42	0.006189258
18	0xbd9b556c	-0.07584652
19	0xbcfe4d59	-0.031042742
20	0xbd76212e	-0.060090236
21	0x3d4f4b09	0.05060867
22	0xbc17f5e3	-0.009274933
23	0xba7d5b17	-0.00096647575
24	0xbbf6aae2	-0.007527695
25	0xbd444aeb	-0.04792301
26	0xbd0ad4a8	-0.03389421
27	0x3d8b3f34	0.067991644
28	0x3cef3a54	0.029202618
29	0xbd28fe41	-0.0412581
30	0x3caa0f46	0.020759236
31	0xbd210961	-0.039315585
32	0xbd88b933	-0.06675949
33	0xbd838259	-0.06421346
34	0xbc995cc3	-0.01872099
35	0xbcd4b4d9	-0.025965141
36	0x3d8e11a6	0.0693696
37	0xbd42b8e5	-0.04753961
38	0xbd2713d2	-0.040790386
39	0xbce3ebaf	-0.027822344
40	0xbd18d08c	-0.03730826
41	0xbd8e0b8a	-0.06935795
42	0x3cf59304	0.02997733
43	0xbd0caceb	-0.034344595
44	0xbca91711	-0.020640882
45	0xbcb78be8	-0.02240558
46	0x3cbbc2a5	0.022919962
47	0x3d816cdc	0.063195914
48	0xbd812e7a	-0.06307693
49	0xb97ce13b	-0.00024116498
50	0x3d0f2760	0.03494966
51	0x3d1ae3ba	0.037814833
52	0x3c967192	0.018364701
53	0xbcc732e4	-0.024316259
54	0xbd3ea47c	-0.046543583
55	0xbd9c776a	-0.07639964
56	0x3d884a1d	0.06654761
57	0x3c04bfb3	0.008102345
58	0x3daab689	0.08335597
59	0x3bd383b6	0.00645491
60	0xbc2b49e9	-0.010454633
61	0xbd817b97	-0.06322401
62	0x3d13e8ee	0.03611081
63	0x3cb09882	0.021557096
64	0x3d8fcf34	0.07021943
65	0x3d669b47	0.056300428
66	0x3d467ed9	0.048460815
67	0x3d652037	0.055938926
68	0xbbf1f479	-0.0073838797
69	0x3d55fa05	0.05224039
70	0x3d5d3df3	0.054014158
71	0x3d490e80	0.049086094
72	0x3d0d014d	0.03442507
73	0x3da69bdd	0.08135197
74	0xbd94399b	-0.0723755
75	0x3b52a0ab	0.0032139223
76	0xbcb94fcd	-0.02262106
77	0xbd1ee752	-0.038794823
78	0xbd66cf47	-0.05635002
79	0xbd8424de	-0.06452344
80	0x3cb63a03	0.022244459
81	0xbd764dc1	-0.060132746
82	0xbd9a2a48	-0.07527596
83	0xbcef2403	-0.029191976
84	0xbd806512	-0.06269278
85	0xbcee1eb9	-0.029067384
86	0xbd2e4373	-0.042544793
87	0x3daf9a78	0.085743845
88	0xbd38601f	-0.045013543
89	0xbd66b7e0	-0.0563277
90	0xbd761060	-0.06007421
91	0xbda46d1d	-0.08028624
92	0x3d7cb0fa	0.061692216
93	0xbc83afa7	-0.016074969
94	0x3d093a6b	0.033502977
95	0xbd86940b	-0.06571206
96	0x3dae4f59	0.08511228
97	0x3cf203c8	0.029542819
98	0xbb5ffc1c	-0.0034177369
99	0x3d4f8933	0.050667953
100	0xbda79d00	-0.08184242
101	0xbd99e591	-0.075144894
102	0xbd4cafca	-0.049972333
103	0xbc8af9d0	-0.016964823
104	0x3d783220	0.060594678
105	0x3d4fc7c8	0.050727636
106	0xbd2bd27c	-0.04194878
107	0x3c0cb7d7	0.008588753
108	0xbc60306d	-0.013683421
109	0x3d6c59aa	0.057702698
110	0xbd1c33a0	-0.03813517
111	0xbd5dc85a	-0.05414615
112	0xbcdcb299	-0.02694063
113	0x3d84458b	0.06458577
114	0xbd03bd06	-0.03216269
115	0xbd404f88	-0.046950847
116	0xbd45d8f5	-0.04830261
117	0x3907d7c4	0.00012954982
118	0x3cefcbb6	0.029271942
119	0x3cc88a65	0.024480054
120	0xbda56ab2	-0.08076991
121	0x3d99dd55	0.07512919
122	0x3a8fc26a	0.0010967974
123	0xbc37396b	-0.011183123
124	0x3d2b9c96	0.04189738
125	0xbcfaf25e	-0.030633148
126	0xbc4e9c61	-0.012610526
127	0xbdad8a4e	-0.08473645
128	0xbdac56c7	-0.08414989
129	0x3c39b071	0.011333571
130	0x3d500ee5	0.050795455
131	0xbd4f821b	-0.050661188
132	0xbd6e443f	-0.058170553
133	0xbd03cb2d	-0.032176185
134	0xbc926425	-0.017870018
135	0xbc96f6f0	-0.018428296
136	0xbd799c71	-0.06094021
137	0xbb7b10da	-0.0038309605
138	0x3b53152a	0.003220866
139	0x3cc38bef	0.023870436
140	0x3bbc7706	0.0057514934
141	0x3cb181e8	0.02166839
142	0xbd56dad6	-0.052454792
143	0xbd0b30a3	-0.03398193
144	0x3d90ddfd	0.07073591
145	0x3d3d918d	0.046281386
146	0xbc064b76	-0.008196702
147	0x3cb169a2	0.021656815
148	0xbca56c85	-0.020193348
149	0x3dad3f71	0.08459366
150	0x3b4592d8	0.003014734
151	0xbb43038e	-0.0029756757
152	0xbb928311	-0.0044711907
153	0xbd2c4216	-0.042055212
154	0x3d9b9a22	0.07597758
155	0xbd7a3e3c	-0.061094508
156	0x3d17d880	0.037071705
157	0xbac83455	-0.0015274385
158	0xbd41eb89	-0.047343764
159	0x3d06e4db	0.032933097
160	0xbd277e16	-0.04089173
161	0xbc4f7cbe	-0.012664018
162	0x3d67e361	0.05661333
163	0x3d5fba3d	0.05462097
164	0xbda06eb2	-0.078336135
165	0x3d2daea2	0.04240287
166	0xbd90af32	-0.07064666
167	0xbbadc6ba	-0.005303231
168	0xbd77505b	-0.060379367
169	0x3a9e8cf5	0.0012096452
170	0xbc4dd9db	-0.012564148
171	0x3caa8f6b	0.02082034
172	0xbda7670b	-0.08173951
173	0xbd6c3436	-0.05766698
174	0x3d506967	0.05088177
175	0x3d75c26f	0.05999988
176	0xbd865540	-0.06559229
177	0xbd93789e	-0.0720074
178	0xbb884a08	-0.004159216
179	0x3b8cf4a5	0.004301625
180	0x3d777e8b	0.060423415
181	0x3d6666d5	0.056250412
182	0x3da68ff7	0.08132928
183	0xba06a416	-0.0005136145
184	0x3cd5088a	0.026005048
185	0xbd3778b3	-0.044792842
186	0xb99faf45	-0.0003045743
187	0x3d73fea7	0.059569027
188	0xbcb22fb5	-0.021751264
189	0x3cd3f395	0.025872985
190	0xbd634095	-0.055481512
191	0x3daa34b6	0.08310835
192	0xbcd00a95	-0.02539567
193	0xbd16ea5d	-0.0368446
194	0x3d3fd13d	0.046830405
195	0xbbfa3b0c	-0.0076364335
196	0xbc268783	-0.010164144
197	0xbcc0b64a	-0.023524422
198	0x3d7f224b	0.062288564
199	0x3daf3a8a	0.08556087
200	0xbc126553	-0.00893529
201	0x3d886121	0.06659151
202	0x3d4e3ddd	0.050351966
203	0x3d2489e7	0.040170576
204	0xbcec822b	-0.028870663
205	0xbd41850b	-0.04724602
206	0x3cac07e1	0.02099985
207	0x3d7dd50d	0.06197076
208	0xbcc350b7	-0.023842199
209	0x3cf16a47	0.029469622
210	0x3da7e656	0.0819823
211	0x3d4de17c	0.050263867
212	0x3daaf078	0.08346647
213	0x3d9e1327	0.07718497
214	0x3c8f497e	0.017491098
215	0xbc8c0eaf	-0.017096845
216	0xbda99c19	-0.082817264
217	0xbd84e17f	-0.064883225
218	0x3caee2de	0.021348413
219	0xbd84554e	-0.06461583
220	0x3da12637	0.07868617
221	0x3d82b8d1	0.06382907
222	0xbd256102	-0.040375717
223	0xbd02650d	-0.03183465
224	0x3cb8cf2c	0.022559725
225	0xbcc0fc6e	-0.023557868
226	0x3cb935c2	0.022608642
227	0x3d479447	0.048725393
228	0xbd17529f	-0.036944028
229	0x3da0afe1	0.07846046
230	0x3b8f7887	0.0043783817
231	0x3d1eb010	0.038742125
232	0x3d060488	0.032719165
233	0x3d94d719	0.07267589
234	0x3ccc583f	0.024944423
235	0x3c2fa79c	0.0107211135
236	0xbbc1c4c6	-0.00591335
237	0xbd73b5b6	-0.059499465
238	0x3c90be54	0.01766888
239	0x3c9d9240	0.019234776
240	0x3d148a31	0.036264602
241	0xbcb91179	-0.02259134
242	0x3b3bf7e3	0.0028681688
243	0xbb4ff2cb	-0.003173041
244	0x3d6c6c90	0.05772072
245	0x3d24ffdf	0.04028308
246	0x3da85ae0	0.08220458
247	0x3c4add6e	0.0123818945
248	0xbb78d20b	-0.0037966992
249	0x3d976b93	0.07393565
250	0x3d846d37	0.064661436
251	0xbda853be	-0.082190976
252	0xbdaa9d5d	-0.08330796
253	0xbcd3d5ac	-0.025858723
254	0xbd44bb67	-0.048030283
255	0x3a570352	0.0008202094

lstm_decoder.weight_ih_l0 f4 [512, 6]
0	0xbd8e8f05	-0.069608726
1	0xbdadeae5	-0.08492068
2	0xbaa13ef6	-0.0012302089
3	0x3c20f6a6	0.009824431
4	0xbd6b611f	-0.05746567
5	0xbd7895e1	-0.06068981
6	0xbcad743d	-0.02117359
7	0xbda4a145	-0.08038572
8	0x3d5fd409	0.05464557
9	0xbb936f60	-0.004499361
10	0x3d325966	0.04354229
11	0xbc00c0e2	-0.007858487
12	0xbd9232d3	-0.071386
13	0x3daa52fe	0.08316611
14	0xbc45783b	-0.012052591
15	0x3d841fc5	0.06451372
16	0x3bd81bee	0.0065951264
17	0xbcddf7c0	-0.027095675
18	0x3d9fd8ce	0.07805024
19	0xbcfce5ae	-0.030871239
20	0xbd6f6955	-0.05845006
21	0xbc99dfc8	-0.018783465
22	0x3d92d9d1	0.071704514
23	0x3bb9468b	0.0056541613
24	0xbd60aa3e	-0.054849856
25	0x3c97118c	0.018440984
26	0x3d89ced5	0.06728903
27	0xbcfcada4	-0.030844517
28	0x3d736418	0.05942163
29	0xbd2aa791	-0.04166371
30	0x3c2339b6	0.00996249
31	0xbd14cf8a	-0.036330737
32	0x3cacb4af	0.02108225
33	0x3d3c823c	0.04602264
34	0x3daa14ca	0.083047464
35	0x3ca7cdc2	0.020483855
36	0xba5d1b39	-0.00084345374
37	0xbd94482e	-0.0724033
38	0x3c11a8da	0.008890355
39	0x3c925152	0.017861042
40	0x3b526af0	0.0032107197
41	0x3c419971	0.011816368
42	0x3c4f705f	0.012661069
43	0xbc275e7b	-0.010215397
44	0xbd24d30e	-0.04024034
45	0xbd312192	-0.043244906
46	0x3cc6d4a3	0.024271315
47	0xbd028489	-0.031864677
48	0x3ceb906a	0.028755385
49	0x3d96e4a4	0.073678285
50	0xbc834c9c	-0.016027741
51	0x3bc8049e	0.006104066
52	0x3b63babe	0.0034748758
53	0x3d5c8651	0.05383903
54	0xbccb4bcd	-0.024816418
55	0x3da8ed0e	0.082483396
56	0x3d94ccba	0.07265611
57	0xba0d2e1b	-0.00053855934
58	0xbcfc4a84	-0.03079725
59	0xbc6cc660	-0.014451593
60	0xbdaefd8f	-0.08544456
61	0xbca8ea3f	-0.02061951
62	0x3d8c8987	0.06862169
63	0x3d77ce30	0.06049937
64	0x3ce9ac59	0.028524565
65	0xbd8bbe31	-0.068233855
66	0xbb3a9313	-0.002846901
67	0x3d91313a	0.07089467
68	0x3d214aa2	0.039377816
69	0x3cc09569	0.023508744
70	0xbc151597	-0.009099386
71	0xbc212876	-0.009836307
72	0xbd82dda2	-0.06389929
73	0xbd884403	-0.06653597
74	0x3827334e	3.9863684e-05
75	0x3ba3a7b9	0.0049943593
76	0xbd98b046	-0.074554965
77	0xbd2a62ec	-0.041598246
78	0x3cb1bfc2	0.021697883
79	0x3cc17f7c	0.02362036
80	0xbdb5d0cf	-0.08877718
81	0xbbbc302b	-0.0057430468
82	0xbda1175b	-0.07865783
83	0xbc6c6ab4	-0.014429737
84	0xbd380d1e	-0.044934385
85	0x3c12fe8e	0.008971823
86	0x3d88bf38	0.06677097
87	0x3c84d8d1	0.016216667
88	0x3d876a96	0.066121265
89	0xbd344dde	-0.044019572
90	0xbd45b3a5	-0.048267026
91	0xbd52519e	-0.051347367
92	0xbd065ce1	-0.03280342
93	0xbd8c18b8	-0.06840652
94	0x3d125b34	0.03573151
95	0x3c141ab6	0.0090395715
96	0x3d155f5e	0.036467902
97	0x3d332fce	0.043746762
98	0xbdc7a3ca	-0.09748037
99	0xba99f24a	-0.0011745181
100	0x3d7be8ef	0.06150144
101	0x3da9781c	0.08274862
102	0xbcb9942e	-0.022653665
103	0xbd08df9a	-0.033416368
104	0x3d5866ff	0.0528326
105	0xbd007487	-0.03136113
106	0x3d8d675f	0.06904482
107	0x3c392c4d	0.011302066
108	0xbd7e9bed	-0.06216042
109	0x3cf57bef	0.029966323
110	0x3bfc77de	0.007704719
111	0xbb114c3f	-0.002217069
112	0x3c7d359b	0.015454675
113	0x3d0286fa	0.031867005
114	0xbc807bd3	-0.015684044
115	0x3d8c6909	0.06855971
116	0x3cc2e0d7	0.023788853
117	0x3d3affa5	0.045653958
118	0x3c903a26	0.017605852
119	0xbb80936a	-0.003923823
120	0xbd2e672e	-0.04257887
121	0x3d2eadaa	0.042646088
122	0x3d8d2791	0.06892312
123	0x3da6f947	0.08153015
124	0xbc169f7e	-0.009193299
125	0xbd835ff7	-0.06414788
126	0x3d0930f2	0.033493944
127	0xbdaf7ffd	-0.08569334
128	0x3d27a3ba	0.040927626
129	0x3d82ac37	0.063805036
130	0x3d47a6e0	0.04874313
131	0xbd1f99be	-0.03896498
132	0xbc86bf24	-0.016448565
133	0x3c9c7fca	0.019103903
134	0xbd6c3f6f	-0.057677682
135	0xbc2596ae	-0.010106726
136	0x3c9fffea	0.019531209
137	0x3cb1cc6b	0.02170392
138	0xbdb40cbf	-0.087914936
139	0x3d09c634	0.033636287
140	0x3d794ec8	0.060866147
141	0x3cc1e5f2	0.023669217
142	0x3d9eb0cd	0.07748566
143	0x3d46744e	0.04845076
144	0xbcb3d07c	-0.021949999
145	0x3d149f31	0.03628463
146	0x3c9aed49	0.018911975
147	0xbd4c3dc4	-0.04986359
148	0xbc4739f3	-0.012159812
149	0x3bdeeb3b	0.006802944
150	0x3dac242e	0.08405338
151	0x3c2e8780	0.010652423
152	0xbc3f09cc	-0.011660051
153	0x3c57accf	0.013163759
154	0x3d93e8fe	0.07222174
155	0xbcc04152	-0.023468647
156	0xbde349cc	-0.1109806
157	0x3dbc4967	0.09193688
158	0xbdd8a7c2	-0.10578872
159	0x3cfa82fd	0.030580038
160	0xbce4b008	-0.02791597
161	0xbd5b1f80	-0.053496838
162	0xbd3eee11	-0.046613757
163	0xbd173e3f	-0.036924597
164	0xbb7c081b	-0.003845698
165	0xbda9d6b0	-0.082929015
166	0xbd6f5020	-0.058426023
167	0x3bb56db4	0.0055367593
168	0xbcd231b8	-0.025658473
169	0xbd436360	-0.047702193
170	0x3cd99bf6	0.026563626
171	0x3ccddcd3	0.025129711
172	0x3d184a57	0.03718027
173	0xbcb8aba6	-0.022542786
174	0x3d409897	0.04702052
175	0x3daba118	0.083803356
176	0xbd533109	-0.051560435
177	0x3d8a20e8	0.067445576
178	0xbd04cce5	-0.032421965
179	0x3d87089c	0.06593439
180	0x3a008ff7	0.0004904265
181	0xbd83e13d	-0.06439445
182	0x3d4e0d8a	0.05030588
183	0x3a374c5a	0.0006992273
184	0xbd099b7a	-0.03359554
185	0xbda89508	-0.082315505
186	0xbd6d4e90	-0.05793625
187	0x3daad15a	0.08340712
188	0x3d95ebe4	0.07320383
189	0xbbbe97d2	-0.0058164382
190	0xbcab0bea	-0.020879705
191	0x3d81f3a8	0.06345302
192	0xbd465599	-0.048421476
193	0x3db7b4f7	0.08970063
194	0xbd84a02b	-0.06475862
195	0xbb9e6092	-0.0048332894
196	0xbd0778f0	-0.03307432
197	0x3d90ecf8	0.07076448
198	0xbcea46b2	-0.028598163
199	0x3dab891a	0.083757594
200	0xbd4b1187	-0.049577262
201	0xbd4d2ef3	-0.050093602
202	0xbda0d603	-0.078533195
203	0x3aeaa694	0.0017902427
204	0xbd717e3f	-0.05895829
205	0xbd520db8	-0.051282614
206	0xbc45bb34	-0.0120685585
207	0xbd1f45a0	-0.03888476
208	0xbd90d9d8	-0.070728004
209	0x3d8f70a1	0.07003904
210	0xbbbfed0a	-0.0058571147
211	0xbc557d64	-0.013030384
212	0x3d221a34	0.03957577
213	0x3d02b492	0.031910487
214	0x3c4a22d5	0.012337406
215	0xbd41c1a8	-0.047303826
216	0x3cf6dafd	0.030133719
217	0xbd49cb76	-0.0492663
218	0xbd98b143	-0.07455685
219	0x3b39ae56	0.0028332672
220	0xbd100856	-0.0351642
221	0x3c6fdb6a	0.014639715
222	0x3d1f2013	0.038848948
223	0x3da3b4b3	0.0799345
224	0xbd48bea9	-0.049009953
225	0x3db16329	0.086614914
226	0xbce4f51d	-0.02794891
227	0xbda3a3ab	-0.079902016
228	0xbd66c5e0	-0.056341052
229	0x3d6e7cd8	0.05822453
230	0xbd3590a3	-0.04432739
231	0xbd451272	-0.048113294
232	0xbd87caa9	-0.06630451
233	0x3ca832e1	0.020532073
234	0x3d3a4bc1	0.0454824
235	0x3c003394	0.007824797
236	0xbd0a74f7	-0.033802953
237	0xbd56c524	-0.0524341
238	0xbd0bb926	-0.03411212
239	0xbd8a8514	-0.06763664
240	0xbd5e4298	-0.054262727
241	0x3c38afa0	0.011272341
242	0x3c320c4b	0.010867189
243	0x3d993b91	0.074820645
244	0x3d91d15d	0.07120011
245	0xbc880fc6	-0.016609084
246	0xbcdeb8f7	-0.027187807
247	0x3d410ea2	0.047133096
248	0xbd371fcb	-0.044708055
249	0xbbb373d7	-0.0054764557
250	0xbd16f810	-0.036857665
251	0xbd67d189	-0.056596313
252	0xbc0b64ec	-0.008507948
253	0xbda8b3ae	-0.08237396
254	0xbd4376b6	-0.047720633
255	0x3ba8646a	0.0051389234

lstm_decoder.weight_hh_l0 f4 [512, 128]
0	0xbd12aae0	-0.03580749
1	0xbd52a8f4	-0.051430658
2	0x3caf1e92	0.021376882
3	0xbd99ae35	-0.075039305
4	0x3d9852a5	0.07437638
5	0x3c431133	0.011905956
6	0x3d7bb9d9	0.061456535
7	0xbd3ec3d1	-0.046573464
8	0x3d9f1509	0.07767684
9	0x3c92d33c	0.01792299
10	0xbc0bbd4f	-0.008529021
11	0xbd9be044	-0.07611135
12	0xbda0a402	-0.07843782
13	0x3d4b8d43	0.049695265
14	0xbd630673	-0.055426072
15	0x3da23eca	0.07922132
16	0x3d840d8e	0.06447898
17	0x3be7a0c4	0.0070687253
18	0x3d8a8b9c	0.067649096
19	0x3d2ae3bd	0.041721094
20	0x3ce4487e	0.027866598
21	0xbc63758a	-0.013883004
22	0x3ba52e06	0.005040887
23	0x3c58f346	0.013241595
24	0x3c73f4d8	0.014889918
25	0x3c59f59b	0.013303186
26	0xbd46ba76	-0.048517667
27	0xbcd0c863	-0.025486177
28	0x3da6bf10	0.08141911
29	0x3d9d3413	0.07675948
30	0x3d0d8219	0.0345479
31	0x3d98c29d	0.074589945
32	0x3cdd12ac	0.026986443
33	0x3d14eb3e	0.036357157
34	0xbd2f957c	-0.04286717
35	0x3dac945f	0.08426737
36	0xbd0179be	-0.031610243
37	0xbc3f7972	-0.01168667
38	0xbceb341e	-0.028711375
39	0x3d7b170e	0.061301284
40	0x3ce7df63	0.028304761
41	0x3c047a3f	0.008085786
42	0xbcba2390	-0.022722036
43	0xbd0596f8	-0.03261468
44	0xbd9dacf1	-0.076990016
45	0x3d454602	0.048162468
46	0xbd991490	-0.07474625
47	0xbc9765b3	-0.018481111
48	0x3c67574f	0.014119937
49	0xbd45f8f0	-0.04833311
50	0x3d926bb8	0.07149452
51	0xbca15e9c	-0.019698434
52	0xbd81e331	-0.063421614
53	0x3c3196a4	0.010839138
54	0xbd3eaac6	-0.04654958
55	0x3d0d0850	0.034431756
56	0x3c8f9be6	0.017530393
57	0x3da10bc7	0.078635745
58	0x3d33fb03	0.043940555
59	0x3d488b99	0.048961256
60	0xbd4f2be2	-0.05057896
61	0x3d6e7dfa	0.05822561
62	0xbd8fbeaa	-0.07018788
63	0x3d8d6db0	0.06905687
64	0x3d8a5c17	0.06755846
65	0x3d8f3c7d	0.06993959
66	0xbcaa332a	-0.02077635
67	0x3c976907	0.018482698
68	0x3c880ffa	0.01660918
69	0xbdafd453	-0.085854195
70	0xbd9827f9	-0.07429499
71	0xbd04ccbb	-0.03242181
72	0x3ce47daa	0.027891953
73	0xbcbc2ab4	-0.022969581
74	0xbc086bb0	-0.008326456
75	0x3d8739dc	0.06602833
76	0xbcd496f4	-0.025950886
77	0xbc05ecb4	-0.00817411
78	0x3d52448a	0.051334895
79	0xbc23157a	-0.009953851
80	0x3d9517f7	0.072799616
81	0xbbe51a17	-0.0069916355
82	0xbc0d5548	-0.00862629
83	0xbd3bdc9e	-0.045864694
84	0x3d7cefbc	0.061752066
85	0x3bad97c3	0.0052976324
86	0xbd088946	-0.03333404
87	0x3d996063	0.074890874
88	0xbd2d7dfd	-0.04235648
89	0xbd27c13e	-0.040955774
90	0x3d9df079	0.07711882
91	0x3c4a6092	0.012352126
92	0xbd12b3e6	-0.035816096
93	0xbd88236c	-0.06647381
94	0xbd8d35f4	-0.06895056
95	0x3da2fb76	0.079581186
96	0x3b8c6d11	0.0042854627
97	0xbd9d23c1	-0.07672835
98	0xbd62808f	-0.055298384
99	0xbd3d9a8b	-0.04628996
100	0xbcc1fce5	-0.02368016
101	0xbcacf682	-0.021113638
102	0xbd0974c3	-0.03355862
103	0xbd845ca0	-0.06462979
104	0x3d7cb672	0.06169743
105	0xbcc756f1	-0.02433345
106	0x3da5c1d3	0.0809361
107	0x3d50b893	0.050957274
108	0xbc223272	-0.009899722
109	0xbd9b8ee1	-0.07595611
110	0x3d699d49	0.057034764
111	0x3d979ef6	0.07403366
112	0x3cc3d926	0.023907255
113	0xbda9247b	-0.08258911
114	0xbd7f0a1d	-0.062265504
115	0x3d950310	0.07275975
116	0x3c50a174	0.012733806
117	0xbc0d9b6c	-0.0086430125
118	0xbb909ca4	-0.0044132043
119	0xbb6f2ce3	-0.003649526
120	0x3d7e9a71	0.062159006
121	0x3cc57818	0.024105117
122	0x3d78bd16	0.0607272
123	0x3c87d93b	0.016583076
124	0xbcab3c85	-0.020902881
125	0x3d5cb4c1	0.053883318
126	0x3d9b88f1	0.07594479
127	0x3d12e369	0.035861406
128	0x3d24a08d	0.040192176
129	0xbd211eee	-0.039336137
130	0x3d4cfae0	0.05004394
131	0x3da89c23	0.08232906
132	0xbd7775d9	-0.060415123
133	0x3d07a6e0	0.03311813
134	0x3c973271	0.01845667
135	0x3d9e9bdf	0.07744574
136	0xbd5734f5	-0.052540738
137	0xbda77dbf	-0.08178281
138	0xbd96cfc5	-0.07363848
139	0xbb838812	-0.0040140236
140	0xbd5a93ed	-0.05336373
141	0xbae280c1	-0.0017280803
142	0x3d133e1e	0.03594791
143	0xbc8cff38	-0.017211542
144	0xbc237231	-0.009975956
145	0x3da568e1	0.08076645
146	0xbd19c2df	-0.03753936
147	0xbc8daed8	-0.017295286
148	0xbd8c0057	-0.06836002
149	0xbd7cae42	-0.061689623
150	0xbd6d56e4	-0.057944193
151	0x3b90264b	0.004399096
152	0xbd7af7a5	-0.06127133
153	0x3daa93c9	0.08328969
154	0x39945d0f	0.00028298094
155	0xbceb72d2	-0.028741274
156	0xbacaf2b5	-0.0015483709
157	0x3da6af15	0.08138863
158	0xbd840ab5	-0.06447355
159	0x3d1f4b89	0.038890395
160	0xbd1ee280	-0.038790226
161	0x3cefdf0c	0.029281162
162	0xbd1eeb0c	-0.038798377
163	0xbd053be8	-0.032527834
164	0x3d909e39	0.070614286
165	0xbd72b330	-0.059252918
166	0xbd314f2d	-0.0432884
167	0xbc549f54	-0.01297744
168	0x3d55b9fb	0.052179318
169	0x3c4302a3	0.011902484
170	0xbd4b832e	-0.04968565
171	0xbcdae992	-0.026722703
172	0x3dab9ddf	0.08379721
173	0x3d5ae877	0.053444352
174	0x3c89995d	0.016796762
175	0x3ca68645	0.020327697
176	0x3d201197	0.039079275
177	0x3d26fda9	0.040769253
178	0xbcb310aa	-0.021858532
179	0x3d62bd78	0.055356473
180	0xbd86a551	-0.065745
181	0xbd4acd2e	-0.04951208
182	0xb975834a	-0.0002341393
183	0xbd4c8c6a	-0.049938597
184	0xbd06e352	-0.032931633
185	0xbcc8d137	-0.024513824
186	0xbceb986f	-0.02875921
187	0x3c96709c	0.018364243
188	0x3babff22	0.00524892
189	0xbd8ba247	-0.06818061
190	0x3d846056	0.06463687
191	0xbdad4729	-0.08460838
192	0xbd35e597	-0.044408407
193	0xbd81d45a	-0.06339331
194	0xbcef374d	-0.029201174
195	0x3d112106	0.035431884
196	0x3d0e1f60	0.03469789
197	0x3d4fa6e9	0.050696287
198	0x3b9a1ba6	0.004703003
199	0x3c3a9594	0.011388201
200	0xbd129c47	-0.03579357
201	0x3cdcb012	0.026939426
202	0x3d2e7ffd	0.042602528
203	0xbd12d1a4	-0.03584446
204	0xbcfcf35e	-0.030877765
205	0x3d6400e4	0.055664912
206	0xbd973f2e	-0.073850974
207	0xbc1c4653	-0.009538251
208	0x3d0ac164	0.033875838
209	0xbd7ebb8b	-0.062190574
210	0x3cdd6e11	0.027030023
211	0x3cb58027	0.022155834
212	0x3d700931	0.058602516
213	0xbc213453	-0.009839135
214	0x3b686546	0.0035460754
215	0x3c67c2b9	0.014145547
216	0x3d9cd1de	0.076572165
217	0xbd9fc597	-0.07801359
218	0xbd89568f	-0.06705963
219	0xbc880fab	-0.016609034
220	0xbcd82441	-0.026384475
221	0x3d1655e7	0.036703017
222	0xbd910533	-0.0708107
223	0xbc9990c4	-0.018745787
224	0x3d44a299	0.048006628
225	0xbca5b0a8	-0.020225838
226	0x3d0d5887	0.034508254
227	0x3bdb33f7	0.0066895443
228	0x3ba327f9	0.0049791303
229	0x3d41c5fe	0.04730796
230	0x3cc8e9be	0.02452552
231	0xbc9ed932	-0.019390676
232	0xbd8de8d1	-0.06929172
233	0x3da0feab	0.07861074
234	0x3bd2ab42	0.006429107
235	0x3cb25104	0.021767147
236	0xbca9847c	-0.020693056
237	0xbd0caf22	-0.034346707
238	0x3daa2444	0.08307698
239	0xbd61d9e3	-0.055139434
240	0xbda65d23	-0.08123233
241	0x3d1f7211	0.03892714
242	0x3c8fa7f4	0.017536141
243	0x3afcda02	0.0019291046
244	0x3cc6d6f6	0.024272423
245	0x3cadf33d	0.02123415
246	0xbda26ff6	-0.07931511
247	0xbd3d1c83	-0.04616977
248	0xbc9c906b	-0.019111833
249	0xba414b39	-0.0007373575
250	0xbc8f5538	-0.01749669
251	0x3d200819	0.039070223
252	0x3dadabc2	0.08480026
253	0xbd28576c	-0.041098997
254	0x3d8e6f82	0.06954862
255	0xbdac911b	-0.08426114

lstm_decoder.bias_ih_l0 f4 [512]
0	0xbd635a82	-0.055506237
1	0x3c5ae3e8	0.013360001
2	0x3ccc2d07	0.024923814
3	0x3d8d568a	0.06901272
4	0xbd028de5	-0.031873602
5	0x3d50af4a	0.05094842
6	0xbd07eda5	-0.03318562
7	0xbd8c34ee	-0.06846033
8	0x3d2e3e97	0.04254016
9	0xbc9c4c2c	-0.01907929
10	0x3c45d1c3	0.012073937
11	0x3dabc227	0.08386641
12	0x3d2f068f	0.042730864
13	0x3b60e8e7	0.0034318508
14	0x3cfb2fa0	0.030662358
15	0x3d771d06	0.060330413
16	0xbcc5c9fa	-0.024144161
17	0xbd9d6567	-0.076853566
18	0x3d7356a2	0.05940879
19	0xbd95dbad	-0.073172905
20	0xbd54fd8e	-0.05199962
21	0x3a2dff9c	0.0006637515
22	0x3d8bad9b	0.06820222
23	0xbd0fa060	-0.035065055
24	0xbd8fdf3f	-0.07025003
25	0xbca20efa	-0.019782532
26	0x3da52e3d	0.0806546
27	0x3d0ce1a5	0.03439488
28	0x3d74d601	0.059774403
29	0xbd7b0768	-0.06128636
30	0xbda154fb	-0.07877537
31	0x3da469ec	0.080280155
32	0xbc67a78a	-0.0141390655
33	0xbbd5a2d8	-0.0065196566
34	0xbd4e72c1	-0.050402407
35	0x3daf4ad2	0.08559193
36	0x3db354e7	0.08756428
37	0xbd7ef475	-0.06224485
38	0xbd202ee8	-0.039107233
39	0x3d81cec0	0.063382626
40	0xbd39cfc0	-0.04536414
41	0x3ce40e8e	0.027838971
42	0x3b3c2a20	0.0028711632
43	0xbd97996f	-0.07402312
44	0x3c6d1a39	0.014471584
45	0xbd819f39	-0.063291974
46	0xbca9cd08	-0.02072765
47	0xbca61cbd	-0.020277375
48	0xbb42fda2	-0.0029753228
49	0xbd3138ee	-0.043267183
50	0x3d96a7e0	0.07356238
51	0x3c242a20	0.010019809
52	0xbd9f2cac	-0.07772192
53	0xbd80470f	-0.06263553
54	0x3d8ea440	0.06964922
55	0xbcee710e	-0.029106643
56	0xbd0d5463	-0.034504306
57	0x3d72879d	0.059211362
58	0xbd999e9a	-0.07500954
59	0x3d81d079	0.06338591
60	0xbc90ee42	-0.017691735
61	0x3d26a70b	0.04068665
62	0xbd8698df	-0.065721266
63	0x3c192181	0.009346367
64	0x3cd864ef	0.026415316
65	0xb7c80832	-2.3845674e-05
66	0x3cb30927	0.02185495
67	0xbc853789	-0.016261833
68	0x3dadde24	0.084896356
69	0xbd8b0a7d	-0.0678911
70	0x3d24dd16	0.040249906
71	0x3d064b8e	0.0327869
72	0x3d820c07	0.0634995
73	0x3db6e7d8	0.089309394
74	0x3d823db0	0.06359422
75	0x3ad33ec8	0.0016116733
76	0x3cf845bc	0.03030669
77	0x3d1f3ea8	0.038878113
78	0x3d5e5615	0.054281313
79	0xbd98e93f	-0.07466363
80	0x3d2021d0	0.039094746
81	0xbda85040	-0.082184315
82	0x3d5c0519	0.0537158
83	0xbd9c8788	-0.07643038
84	0x3d8a848e	0.06763564
85	0xbd65e3e5	-0.05612554
86	0x3d986bd9	0.07442445
87	0xbdacaaf8	-0.08431047
88	0xbd41321e	-0.047166936
89	0xbd57b083	-0.05265857
90	0x3b581a24	0.0032974565
91	0x3cd22c7d	0.02565598
92	0xbd04fb3c	-0.03246616
93	0x3d0cebd3	0.034404587
94	0xbd1c4a01	-0.038156513
95	0x3d7fb90f	0.062432345
96	0x3d6db96b	0.058038156
97	0x3d8c64a2	0.06855132
98	0x3d97d86a	0.074143246
99	0xbd351e2d	-0.04421823
100	0xbd8739b5	-0.066028036
101	0x3d0baaa5	0.034098286
102	0xbd19fc74	-0.037594274
103	0xbd525853	-0.051353764
104	0x3cd46eee	0.025931802
105	0x3d94b8c7	0.07261806
106	0xbd7c5daf	-0.06161278
107	0x3dab2084	0.08355811
108	0xbd417ab4	-0.04723616
109	0xba9c103c	-0.0011906694
110	0x3d3bc00e	0.045837454
111	0x3cd66e0e	0.026175525
112	0xbba23500	-0.0049501657
113	0xbd651e9b	-0.05593739
114	0xbd52ae6d	-0.051435877
115	0x3d447145	0.047959585
116	0xbd4aaaac	-0.04947917
117	0xbc83847a	-0.01605438
118	0x3d3466ac	0.044043228
119	0x3c47e3db	0.012200321
120	0x3d8eca23	0.06972148
121	0x3d88c9f7	0.06679147
122	0x3d872135	0.065981306
123	0xbd162244	-0.036653772
124	0x3d0bb206	0.034105323
125	0x3cbb98ce	0.022900011
126	0xbd857b75	-0.06517688
127	0xbd29e5dc	-0.041478977
128	0x3a6fa927	0.0009142332
129	0xbce1daca	-0.027570147
130	0x3d18ffe3	0.037353408
131	0xbc709b7a	-0.014685506
132	0x3db0e465	0.08637313
133	0xbd36f12e	-0.0446636
134	0xbd9a3795	-0.07530133
135	0x3d747aca	0.059687413
136	0xbd542f0a	-0.051802672
137	0xbc4fe271	-0.012688265
138	0xbd967ad6	-0.07347648
139	0x3d4e65b2	0.050389953
140	0xbc704024	-0.01466373
141	0x3d3112f5	0.04323097
142	0x3d527acd	0.051386643
143	0x3cf5339c	0.029931836
144	0xbd34c9b1	-0.04413766
145	0x3d4adf0c	0.04952912
146	0xbd0658f9	-0.032799695
147	0x3d8b5f43	0.06805279
148	0xbcd33fcf	-0.025787262
149	0xbd63d206	-0.055620216
150	0x3bde60e2	0.0067864517
151	0xbd6c112b	-0.05763356
152	0x3d82e2a9	0.06390888
153	0xbcfb2037	-0.03065501
154	0xbce20256	-0.027589004
155	0x3d4e5524	0.050374165
156	0xbc61cead	-0.0137821855
157	0xbd89587e	-0.06706332
158	0xbbfd001c	-0.0077209603
159	0xbd8ab784	-0.06773284
160	0x3cc67f47	0.024230612
161	0x3b9c074c	0.004761612
162	0xbd254ca1	-0.040356282
163	0xbd3d3f00	-0.04620266
164	0x3d781afa	0.0605726
165	0xbbabfcf8	-0.005248662
166	0x3cef78bf	0.02923238
167	0xbd3231a3	-0.04350437
168	0xbcbaa443	-0.022783404
169	0xbce19d10	-0.027540714
170	0x3d3edc1e	0.04659664
171	0xbd9b9243	-0.075962566
172	0x3c9e5562	0.019327823
173	0x3c377a85	0.0111986445
174	0x3dae63e3	0.08515146
175	0x3d4db460	0.050220847
176	0xbd6bd798	-0.057578653
177	0xbcf14d7b	-0.02945589
178	0x3d84f6bb	0.064923726
179	0xbbe9f922	-0.0071402946
180	0xbd03c2d8	-0.03216824
181	0x3d7b683d	0.061378706
182	0xbd6aaa99	-0.0572916
183	0xbd3e3eed	-0.04644673
184	0x3d2f72f5	0.04283424
185	0xbc9cf51c	-0.019159846
186	0xbc227cb1	-0.009917424
187	0x3d577ca9	0.05260912
188	0x3c315a21	0.010824711
189	0x3aa32827	0.0012447879
190	0xbd34da08	-0.044153243
191	0x3cf686b3	0.030093526
192	0x39853617	0.00025408037
193	0x3dad565e	0.08463739
194	0x3adcbce9	0.0016840968
195	0xbcdef6bf	-0.027217267
196	0x3ce5aac2	0.028035525
197	0xbd0eaf2b	-0.034835022
198	0x3da70e07	0.081569724
199	0x3d1abf5a	0.037780143
200	0xbcb75d6d	-0.022383416
201	0x3994fe9e	0.00028418464
202	0x3da31628	0.0796321
203	0xbc0a549a	-0.008443022
204	0x3d8622cc	0.06549606
205	0x3d5303eb	0.05151741
206	0x39f51861	0.00046748205
207	0x3d826f8b	0.063689314
208	0xbd1473e3	-0.03624333
209	0xbd4dead4	-0.050272778
210	0xbd3ccfaf	-0.0460965
211	0xbcb8840e	-0.022523906
212	0x3d0645a8	0.032781273
213	0xbc24e747	-0.010064906
214	0xbdab574f	-0.08366262
215	0xbcfe8c05	-0.031072626
216	0xbcc178e6	-0.02361722
217	0x3c726e10	0.014796749
218	0xbd63139d	-0.055438627
219	0x3d5a6e32	0.053327747
220	0xbcce3c71	-0.025175305
221	0xbc558fb5	-0.013034751
222	0xbdae0dd1	-0.08498729
223	0x3d6ac2c1	0.057314638
224	0x3d9456db	0.07243129
225	0xbd80ebbe	-0.06294964
226	0xbd6bf9a8	-0.057611138
227	0xbd66f0cc	-0.056381986
228	0x3af2e0f5	0.0018530177
229	0x3d634db8	0.05549404
230	0x3dab1873	0.08354273
231	0x3c1d017a	0.009582872
232	0xbd3bfc4d	-0.04589491
233	0x3c14afe5	0.00907514
234	0x3af474d1	0.0018650537
235	0xbd239fca	-0.03994731
236	0x3d11e35e	0.035617225
237	0x3da369c5	0.07979158
238	0x3da22111	0.07916463
239	0xbda8f42f	-0.08249699
240	0x3d99fbde	0.07518743
241	0x3d20cf11	0.039259974
242	0xbc71d502	-0.014760258
243	0xbd7c7258	-0.061632484
244	0xbd9383dc	-0.072028846
245	0x3d9d8c4b	0.076927744
246	0xbd1ee7bf	-0.03879523
247	0xbd6f7936	-0.058465205
248	0x3c9256b2	0.017863605
249	0x3cbf8f56	0.023383778
250	0xbd8740ff	-0.06604194
251	0x3d9518fd	0.07280157
252	0xbda983b5	-0.08277074
253	0x3d6f5d8b	0.05843882
254	0xbd086cd7	-0.033306923
255	0x3d19c534	0.037541583
