transformer_no_tanh_with_past_12_Nm_144_Np_lr_0.001_hs_128_ahs_8_nll_1_bs_16_do_0.5_e_200_stride_10/model_transfer_A25_to_J25_0.0n_0.001lr_200e_5days.pth (torch, 831513 bytes, 14 tensors)

lstm_encoder.weight_ih_l0 f4 [512, 8]
000000 cd 83 c6 3c 3e 74 0c 3d b9 59 a8 3d d1 cb 87 bc
       0.02423277 0.034290545 0.08220238 -0.01657668
000010 17 dd 3f 3c d9 f1 7d bd 19 fe 07 3c dc 8e 9a bd
       0.011710427 -0.061998222 0.008300328 -0.075467795
000020 b3 34 a9 bd 66 ab 36 bd a0 92 82 3d 85 33 4e 3d
       -0.08262005 -0.044597052 0.06375623 0.0503421
000030 21 9d ad 3c 99 bb cc bc 2c 19 42 3d 70 fb 34 bd
       0.021193089 -0.024991797 0.047387287 -0.044185102
000040 68 65 6a 3c f1 96 b2 3c d1 0e 00 3d ee d7 bb 3c
       0.014306404 0.02180049 0.03126413 0.022930112
000050 ad 83 d0 bc e0 9c 51 3d 90 69 78 3c e4 e2 36 bc
       -0.025453413 0.051175 0.015161887 -0.011162493
000060 6b 41 81 bd b2 8f 0c bc d2 07 84 bd d6 dd 1f 3d
       -0.063113056 -0.0085791815 -0.06446804 0.03902992
000070 56 5a a3 bd 60 78 a6 3c 68 33 79 3d 71 ca a6 3d
       -0.079762146 0.020321071 0.06084004 0.081440814
000080 6d e2 29 bc 3d f2 50 bd 02 c3 91 3a 8f 4f 84 3d
       -0.0103689255 -0.051012266 0.0011120739 0.06460487
000090 24 0f ef bc 01 7d 7d bd 9c 82 8d bd 1f be 65 3d
       -0.029182024 -0.06188679 -0.069096774 0.056089517
0000a0 c0 90 60 3d 07 02 25 3d dc 0e 3d 3d 7e e1 4c 3d
       0.054825544 0.040285137 0.04615675 0.050019734
0000b0 2b e2 60 3d 47 51 ec 3c 1f fe ba bb 0e 9b 88 3d
       0.05490319 0.02884735 -0.005706563 0.06670199
0000c0 64 f7 61 3c 04 67 16 3d b5 b4 8c 3d 11 4e 3a bd
       0.013791893 0.036719337 0.06870405 -0.045484606
0000d0 6c c7 32 bd c8 98 a9 3c ab 6d 5c 3d 76 e4 ed 3c
       -0.043647215 0.020702735 0.053815525 0.029039603
0000e0 d9 57 8d 3c 53 7e 9b 3b b5 17 46 3d ea e8 7a 3b
       0.017253803 0.0047452836 0.048362453 0.00382858
0000f0 4c 57 2f 3d 1a ca 85 bd 2a d9 24 3c 87 8f 95 bd
       0.042807862 -0.065326884 0.010061542 -0.07302766
000100 e3 60 6e bd 9e 58 47 3d b7 a5 70 3d da b8 8c 3d
       -0.058197867 0.048668496 0.058751788 0.06871195
000110 79 05 ec bc 89 eb 91 3d 67 d3 bb bc 9d 83 78 3c
       -0.028811203 0.07125003 -0.022927953 0.015168098
000120 9c c2 83 3c 86 03 eb ba 9e 74 a2 bd 96 ee 9e 3d
       0.016084008 -0.0017930127 -0.07932399 0.077603504
000130 75 4e 13 bc f4 fb 93 3d a8 75 58 bd 92 52 47 3d
       -0.008990874 0.072257906 -0.05284658 0.04866273
000140 4b 42 c9 3c 75 de 58 3d 9c 47 9c bd 5a 46 05 bd
       0.024567744 0.052946527 -0.07630846 -0.032537796
000150 ff ae 91 bb 02 ba 84 3d fa 85 86 3d 82 3e 4d bd
       -0.00444591 0.06480791 0.06568523 -0.05010844
000160 1c e8 23 3d 96 b0 15 3d 4b 94 25 3b b3 7b a5 bd
       0.04001628 0.03654536 0.0025265391 -0.080802344
000170 0d 1b a7 3d 88 2e 04 3c 6c 78 37 bd 81 55 62 3d
       0.081594564 0.008067735 -0.044792578 0.055257324
000180 03 57 99 3c 51 23 f3 3c 17 20 87 ba 07 59 1c bd
       0.018718248 0.029679926 -0.0010309246 -0.03817084
000190 0f 35 01 bd 5d 79 96 bc ac 4a 31 bd 1d 61 98 3c
       -0.03154474 -0.018368417 -0.043284103 0.018600995
0001a0 bd d7 8a 3d 6b 03 21 bd 06 63 a0 3d 1d bd 15 bd
       0.0677943 -0.0393099 0.07831387 -0.036557306
0001b0 6e 5a 0f 3d bf 76 1d 3d f7 ce a4 bb ec 77 ae bc
       0.03499835 0.038443323 -0.005029555 -0.021297418
0001c0 f4 8d 22 bd ac b2 66 3d 72 d4 00 bd 27 32 fc bc
       -0.03968616 0.05632274 -0.031452604 -0.030785633
0001d0 af 6a 4c bd 78 63 9c bd ad 92 af 3c 4b c3 02 bd
       -0.04990643 -0.0763616 0.021432245 -0.031924527
0001e0 f4 6a 9f 3d 6c b0 92 3c 4c 2f 2a 3d 66 c2 b6 bc
       0.077840716 0.01790639 0.041549012 -0.022309493
0001f0 30 14 4a bd 82 ef 46 bd ea 17 8c 3d f8 5b a0 3d
       -0.04933566 -0.048568256 0.06840499 0.07830042
000200 6c 88 a7 bd 2d ec 25 bd a6 37 43 3d cb 22 9e 3d
       -0.08180317 -0.040508438 0.047660492 0.0772148
000210 7e eb 10 3c 65 4a 8f bd 07 f3 52 bd d3 b4 39 bc
       0.008845208 -0.069966115 -0.0515013 -0.011334616
000220 52 81 04 bd 40 41 b5 bc e0 59 0a 3c 64 9b 91 3d
       -0.032349892 -0.02212584 0.008444279 0.071097165
000230 a6 05 22 3d 05 30 8a bd e9 7f f6 bc 34 e4 2e bd
       0.039556168 -0.0674744 -0.03009029 -0.0426981
000240 68 da 17 3d 93 24 ec 3c 65 48 91 bd 9d 22 a2 bc
       0.037073523 0.028826034 -0.07093886 -0.019791896
000250 ec 75 b9 3b 33 88 14 bd 2d dc 60 bd 7d 3d 92 3c
       0.0056598093 -0.036262702 -0.054897476 0.017851586
000260 fe 48 c6 bb 3f f9 1e 3d e4 eb 1a 3d 48 20 ea bc
       -0.006051182 0.03881192 0.03782262 -0.028579846
000270 76 47 5a 3c 70 b4 1f 3d af 74 99 bd 24 6c ba 3b
       0.013322702 0.038990438 -0.07492959 0.005689161
000280 b6 3d 0a 3d 4e ee 89 3b 60 ea 24 3d c4 5e 6d 3d
       0.03375026 0.0042093163 0.04026258 0.057951704
000290 b6 79 20 bd 92 53 6e bc ff d3 5f 3d 0e 70 67 bd
       -0.039178573 -0.014546292 0.054645535 -0.056503348
0002a0 18 3c a0 bc 76 f2 9d 3c 39 ee 59 bd 78 c1 0d bd
       -0.019559905 0.019280653 -0.053205702 -0.034608334
0002b0 f1 ca 22 3d 4a ef 6b 3d 2e ea 04 3d 2a ad 50 3d
       0.03974432 0.05760125 0.032449894 0.050946392
0002c0 d6 67 86 bd b5 a2 6b bd 8c 2d a3 3d 7d 1a 21 bc
       -0.06562774 -0.057528216 0.07967672 -0.009832975
0002d0 65 76 2f bd 3f cd 92 bd 4b a5 27 bd e4 3f 9b 3d
       -0.04283752 -0.07168054 -0.04092912 0.075805455
0002e0 25 ed 9a 3d 1b cb 50 bd 41 15 3f bd 9a 9b 5d 3d
       0.07564763 -0.050974946 -0.04665113 0.05410347
0002f0 e8 bc 3a 3d e2 75 a7 3c ea b4 03 bd 65 fd 3d 3c
       0.04559031 0.020441953 -0.032154955 0.0115960585
000300 6f 03 2f bd bd 1b 1e 3d b2 98 a9 3d aa 68 a8 bd
       -0.042727884 0.038600672 0.082810774 -0.08223088
000310 24 49 f0 bc ff 37 99 bc 3f d2 8c 3d cb 7c a6 3d
       -0.029331751 -0.018703459 0.06876039 0.08129271
000320 8e 55 9c bd 50 22 49 3c 46 f5 08 bd 66 88 7b 3d
       -0.07633506 0.012276247 -0.033437036 0.061409377
000330 1d c5 60 bd 81 d8 2f bd ac 50 11 3d 2a 1d 61 3d
       -0.054875482 -0.042931084 0.035477325 0.054959454
000340 8e f8 ee bc 1c a1 88 bd b0 3d 95 bd d0 61 8e bd
       -0.029171254 -0.06671354 -0.072871566 -0.0695225
000350 77 59 2c bd ba fe 17 bd 18 92 38 bc 00 af 9f bd
       -0.042077508 -0.03710816 -0.0112653 -0.077970505
000360 44 72 5c 3d f2 36 86 bd c2 3f 83 3d 89 2b 3d 3c
       0.05381991 -0.06553449 0.06408645 0.011546024
000370 34 82 af 3d bf 7c fa bc 9e 73 17 bd 66 47 23 3d
       0.08569756 -0.030577062 -0.036975496 0.039863013
000380 e5 f1 a2 bd b5 4c 58 bd d7 ba 5c ba 6b 62 81 bd
       -0.07956294 -0.05280753 -0.0008420175 -0.063176
000390 ba 52 9a 3d c5 58 96 3d eb f9 84 3d 12 33 8d 3d
       0.0753531 0.0734115 0.064929806 0.068945065
0003a0 68 1b f9 3b fa 71 45 3d c4 83 a4 3d ae b9 2b 3d
       0.007602144 0.0482044 0.08032945 0.041925125
0003b0 f1 b4 82 ba f9 18 9a 3c 3b f3 80 3d f9 4c b6 bc
       -0.0009972138 0.018810736 0.062963925 -0.0222535
0003c0 12 dd 83 bd 4e a7 9c 3d 81 71 56 bd 9b a2 81 ba
       -0.0643865 0.07649098 -0.05235434 -0.0009890379
0003d0 04 97 82 3d cd e6 50 3c 4f 49 01 bd 49 74 f3 bc
       0.0637646 0.01275034 -0.031564053 -0.029718535
0003e0 80 4c 9b bb 86 75 ab bc 0e a8 38 bd 01 17 96 3d
       -0.004739344 -0.020930063 -0.045082144 0.073286064
0003f0 d2 c2 17 3d 13 80 9d 3d 81 9e a7 b9 4d 4f 84 bd
       0.03705103 0.07690444 -0.00031970817 -0.06460438

lstm_encoder.weight_hh_l0 f4 [512, 128]
000000 3c 74 50 bd c7 17 7f bc de 9e 68 bc 27 97 50 bc
       -0.0508921 -0.015569634 -0.014198033 -0.01273135
000010 51 53 31 bd 76 7f a1 bd 5e 91 08 bd 22 58 e0 3c
       -0.043292347 -0.07885639 -0.033341758 0.027385775
000020 1c d7 68 bd 80 a8 17 b9 83 5e 4d 3a ae 93 58 3c
       -0.05684577 -0.00014463253 0.0007834213 0.013218803
000030 b8 0b 34 bc 8b 8e 87 3d e3 c6 7b bc 3d 6d 39 3d
       -0.010989122 0.06618985 -0.0153672425 0.045270193
000040 ac 6a 98 bd e1 53 8d 3d 2b 1b df 3b b3 3d 73 3d
       -0.07442221 0.06900764 0.0068086586 0.059385013
000050 9b e4 8d bd 1c cd 9e 3d 28 71 91 bb 28 ac 15 3d
       -0.06928369 0.07753965 -0.004438538 0.036541134
000060 9d 71 6f 3d bd 87 ef 3b b4 06 90 3d 94 7e 88 3c
       0.05845796 0.0073098824 0.070325285 0.01666192
000070 5e 39 6c bd a6 5d 81 3d fc 08 6d bd 80 39 7f 3d
       -0.057671897 0.0631669 -0.057869896 0.062310696
000080 d3 b3 bd 3b 80 0d f5 bc 99 98 8c 3d 50 62 bc bb
       0.005789259 -0.029913664 0.06865043 -0.0057490245
000090 9f dd e3 bc 3a fb 90 3d e1 60 5b 3c 65 98 17 3d
       -0.027815638 0.07079168 0.013389797 0.03701057
0000a0 74 2d 88 bd e9 2b 7b 3c 74 95 93 3d 27 48 82 3d
       -0.066492945 0.015330293 0.0720624 0.06361418
0000b0 ba 79 77 3c 89 9e 85 bd 2c a8 88 3d 15 81 47 bd
       0.0151047055 -0.06524379 0.06672701 -0.048707087
0000c0 0c 9d 16 bd 96 15 0e bd d4 1a 52 bd d4 c5 84 bb
       -0.036770865 -0.034688555 -0.051295117 -0.0040519033
0000d0 f2 16 69 3d 9a 0e 98 3c 11 2f b8 bc 8b d2 de ba
       0.056906648 0.01856165 -0.02248338 -0.0017000003
0000e0 09 4d 8a bc 46 a2 62 bd 5b b0 70 bd 7f ae 9b bc
       -0.016882436 -0.055330537 -0.058761936 -0.019004105
0000f0 a9 84 49 bd 3b 8d 2f bd 82 21 e1 3c 20 4e a1 bd
       -0.04919878 -0.042859297 0.027481798 -0.07876229
000100 2f 83 71 3d b8 14 6c 3d 27 12 c4 bb 1d 99 71 bd
       0.058962997 0.057636946 -0.0059836092 -0.05898391
000110 b1 67 5b bd e5 15 2e 3c af 5b 32 bd 47 a7 02 3d
       -0.053565685 0.010625337 -0.043544468 0.03189781
000120 d1 7d 11 bd b2 61 8b 3d 8e 63 78 3d dd 6e e1 bb
       -0.03552038 0.06805743 0.060641818 -0.006879671
000130 31 01 34 bd 2c 3e 8f 3d ad 0d 39 bd 69 8d fa 3c
       -0.04394645 0.0699428 -0.045179058 0.030585008
000140 31 27 8e bc 30 31 a9 bc 52 89 90 bd 88 a5 aa bd
       -0.017352672 -0.020653337 -0.07057442 -0.08332354
000150 45 8c 9a bd d6 b7 e7 bc b4 70 86 3d 4a 4a ae 3b
       -0.075462855 -0.028285902 0.06564465 0.0053189145
000160 33 07 0a bd 00 b5 47 3d d5 89 ab bc 8d e1 18 3d
       -0.033698272 0.0487566 -0.020939747 0.037324477
000170 60 5a 68 3d 9d b0 88 3d 7e 60 72 bd ae 32 e2 bc
       0.056726813 0.06674311 -0.059174053 -0.027612057
000180 03 8f cb bc 72 f9 9b 3d 61 1c 05 bb 10 e7 a7 bd
       -0.024848467 0.07615937 -0.0020311105 -0.081983685
000190 20 f5 30 3d 69 8c 6c 3c 9c f9 8b bd 76 9c 48 bc
       0.04320252 0.014437773 -0.068347186 -0.012244334
0001a0 5f a2 48 bd db 3b b6 3b 5e c6 0f 3d a4 99 dc 3b
       -0.048982974 0.0055613345 0.035101287 0.0067321826
0001b0 e2 b1 d1 3c 53 80 4f ba 22 d4 f7 ba 49 83 9f bd
       0.025597516 -0.0007915545 -0.0018907825 -0.077887125
0001c0 6a 8e ee 3c 2d bf 5e 3d 03 f9 57 3d 6a d7 94 3d
       0.029120643 0.05438154 0.05272771 0.072676495
0001d0 32 86 bc 3c 54 4f 9a 3d 8c 28 22 3d 4b 2c 80 bd
       0.023013208 0.07534662 0.03958945 -0.06258448
0001e0 2d cc 63 3d a7 61 74 bd ef dc 1c 3d 71 2e 10 3d
       0.05561464 -0.05966344 0.038296636 0.03520054
0001f0 7e 67 7f 3d ef 95 1c 3c 09 26 9a bd f2 1b 12 3d
       0.062354557 0.009557231 -0.07526786 0.035671182
000200 27 a3 d6 bb 2d 0a 96 3d 78 d5 1d 3d 70 b7 62 3d
       -0.006550211 0.073261596 0.038533658 0.05535072
000210 4a 45 a3 bd 29 45 1e 3d 3a ca 2c bd ac 56 7f bd
       -0.079722 0.038640175 -0.042185046 -0.062338516
000220 d7 92 88 bd 1b bd 25 3d 01 c5 85 3d e0 0b 3d bd
       -0.066686325 0.04046355 0.06531716 -0.046153903
000230 6f 47 5f bd 1b bd 9a bd ed 8a 01 3d 7e df 3a 3c
       -0.054511484 -0.075556 0.03162663 0.011405824
000240 da ea 73 3c f3 35 c8 3a e7 54 16 bd ca cf 8f 3d
       0.014887536 0.0015274867 -0.036702063 0.070220545
000250 f3 78 98 bd 27 64 21 3b cc 62 1b 3c 67 71 ab bc
       -0.07444944 0.0024626346 0.009484004 -0.020928098
000260 a3 c3 a9 bd 88 9f ed 3c 60 16 a0 3d b6 b7 78 3d
       -0.08289268 0.029006734 0.07816768 0.060722075
000270 86 2d 10 3d d0 33 63 bd e5 dc a8 bc 52 b5 69 3d
       0.035199665 -0.055469334 -0.020613143 0.057057686
000280 a2 69 c2 3c bd 29 87 bc c4 3e 42 3d 6a f8 52 bc
       0.02373201 -0.016499395 0.04742314 -0.012876609
000290 70 bf 98 3d 2e ec 74 3c b2 77 54 3d ad c3 1e bd
       0.07458389 0.014948888 0.051871963 -0.03876083
0002a0 4e be 92 bc 8c 68 3c bd c9 42 84 3d e2 4b 2a bd
       -0.01791301 -0.04599814 0.06458051 -0.041576274
0002b0 28 32 49 bd 77 e0 dd 3c 47 6a c0 3b c9 84 3f bc
       -0.0491201 0.027084572 0.0058720442 -0.011689373
0002c0 84 b2 46 3d ae 95 1d 3d 98 35 53 bd f3 34 29 bd
       0.04851009 0.038472824 -0.051564783 -0.041310262
0002d0 d5 fe 93 bd c0 e0 2e bd 5f 16 31 3d 23 89 40 bd
       -0.0722634 -0.042694807 0.043234225 -0.047005784
0002e0 b2 8d 55 bd a9 d3 92 bd c9 5d 50 3d 9a 7d 80 3c
       -0.052137084 -0.07169277 0.05087069 0.015684891
0002f0 44 75 51 bb e4 05 51 3d e5 51 56 bc 8c 7d 3d 3d
       -0.0031960765 0.05103101 -0.013081049 0.04626231
000300 16 8c 14 3d c8 a6 36 3c 50 0a 74 bd a2 8d 44 3d
       0.03626641 0.011148162 -0.059580147 0.047986634
000310 d8 bb 59 bd cb aa 9e bd 1b 01 6a bd e2 cc 5e 3d
       -0.053157657 -0.0774742 -0.05712996 0.05439461
000320 ab 9c 8f 3c 33 5e 7c 3d 9a ee 95 3d e4 ec 92 3d
       0.01753076 0.061613273 0.073209 0.071740896
000330 cf 55 e7 bc cb a0 84 bd 5c b4 0c 3d 7c f8 7e 3d
       -0.028239159 -0.06475981 0.03435169 0.062248692
000340 86 a1 4d 3d a7 2f 3d 3d 30 d7 8b bd 0f d2 39 bd
       0.05020287 0.046188023 -0.06828153 -0.045366343
000350 53 4b 98 bd e1 d4 41 bd ee 31 68 bd 74 9c 51 bd
       -0.07436242 -0.047322158 -0.05668824 -0.051174596
000360 e3 5e 80 bd df 32 77 bd 97 f7 7e bd 80 e4 a2 bd
       -0.06268098 -0.06035125 -0.06224784 -0.07953739
000370 e0 5e fa 3c c5 3d 12 3d cb e9 db 3c db 57 ec bc
       0.030562818 0.03570344 0.02684488 -0.028850487
000380 a5 1d 16 bd 98 22 af 37 77 b1 4b bd 37 a1 8d bd
       -0.036649365 2.0877735e-05 -0.04972979 -0.06915515
000390 34 09 32 3c 21 fc 23 3d 3f 47 a7 bd 16 60 77 bd
       0.010866452 0.04003537 -0.08167886 -0.06039437
0003a0 8e 74 48 bb 9d 73 90 3d c0 76 7f bd 5e 80 91 bd
       -0.003058705 0.070533015 -0.06236911 -0.07104562
0003b0 e8 ee 46 bd b0 b9 da bb 99 c1 31 3c 55 84 94 3d
       -0.048567683 -0.0066749677 0.01084938 0.07251803
0003c0 ef 7f 4b 3d 8d fb 9b bc 4a bd 5e bd 24 12 5c bd
       0.049682554 -0.019040847 -0.05437974 -0.053728238
0003d0 eb 74 18 3d 43 4d 16 bd 63 02 5e 3d 13 8d 6d 3d
       0.037220877 -0.036694776 0.054201495 0.057995867
0003e0 b1 68 5c bd 4f d1 a1 bc 83 6e 96 bd f5 50 39 bd
       -0.05381078 -0.019753126 -0.07345297 -0.045243222
0003f0 fe 7f 25 bd 5f 15 5b bd c4 c6 88 bb 2d e3 3b 3d
       -0.040405266 -0.053487178 -0.0041740853 0.04587095

lstm_encoder.bias_ih_l0 f4 [512]
000000 8b a1 5b bc 09 cc fb bc 14 c5 1b bd a5 de 20 3c
       -0.013405214 -0.03073694 -0.038029745 0.009818708
000010 72 d6 12 bd 4a 2f e9 3c c0 50 83 3d 02 7e 35 3d
       -0.035849042 0.028464932 0.06411886 0.044309624
000020 7d 4b ab bd a1 3a b3 3c ba 63 d0 bc f2 3c 4b 3d
       -0.083640076 0.021878542 -0.025438178 0.04961867
000030 ae 21 eb bc e4 8a 0e 3d 82 44 a4 3d ab ac e5 ba
       -0.028702583 0.034800425 0.08020879 -0.0017522773
000040 dc 10 e8 3b 4c a1 1e bd f4 4c ae bb f6 f0 96 bd
       0.007082088 -0.038728043 -0.005319232 -0.073701784
000050 c3 5f ae b8 b4 e3 89 bd 03 9b e4 bc 59 ad 3a 3c
       -8.3148036e-05 -0.06732884 -0.027905947 0.011393868
000060 a7 5b ad 3b 1c fe a1 3d ee 1e 46 3c a8 3e 50 bd
       0.005290467 0.07909796 0.012092335 -0.050841004
000070 8a b7 65 3c 1a 8c 66 3d 1e 21 10 3d 1d f4 fa bc
       0.01402081 0.056285955 0.035187833 -0.03063398
000080 ba db dd 3c 73 75 85 3c f4 c6 c4 bc 30 73 c8 bc
       0.027082313 0.016291356 -0.02402065 -0.024468988
000090 26 74 1f 3d b9 0f 31 3d 40 1b 9f bd 1b 64 b8 bc
       0.038929127 0.043227885 -0.077688694 -0.022508672
0000a0 be c9 20 bd ec 0c 86 bd 3b c8 2d 3d f3 c4 1f 3d
       -0.039254896 -0.065454334 0.042427283 0.039006185
0000b0 fe 15 75 3d 0a 9e 6e 3c 49 99 a9 bb 8d e5 92 3d
       0.059835427 0.014564047 -0.0051757437 0.071726896
0000c0 d0 15 0c 3d 65 b9 60 3d 05 49 5f 3d db 71 ac 3d
       0.03420049 0.054864306 0.054512996 0.08420154
0000d0 a7 69 44 bd bf f8 ef 3b a7 9b 7a bd 23 25 ec bc
       -0.04795232 0.007323354 -0.061183598 -0.028826302
0000e0 9c bd c8 bc 7a be f6 3c 19 6e a7 3d 86 7b d9 bc
       -0.024504475 0.030120123 0.08175296 -0.026548158
0000f0 b8 39 db 3c 34 09 98 3d 16 93 04 3d 24 8a 7e 3d
       0.02676092 0.0742363 0.032366835 0.06214346
000100 b3 1b a3 bd a6 c1 a7 bd 33 cd 85 3c 57 58 9f bd
       -0.079642676 -0.081912324 0.016333198 -0.07780521
000110 74 64 9b ba a7 6b 8a 3d fa 8d 91 bb bd 1c ba bb
       -0.0011855499 0.06758814 -0.0044419738 -0.0056796954
000120 64 78 c3 bc 61 c6 43 bd d7 d6 6a 3d 47 48 13 bd
       -0.023861118 -0.04779661 0.057333793 -0.0359576
000130 88 1e 48 3d 2c ad ff bb 3f c6 c9 3c 57 c8 86 bd
       0.048857242 -0.007802626 0.024630664 -0.065811805
000140 39 95 0e bd 0b f9 c2 3c f0 0f 26 bd 43 ca 7b bd
       -0.03481028 0.023800394 -0.040542543 -0.06147219
000150 d6 22 9f bd 9a ee 06 bd e9 0d ee bb 87 dd 7c 3c
       -0.07770316 -0.032942392 -0.007264842 0.015433676
000160 a7 80 a6 bd 0e 34 e0 bc 9a 51 ef bc ec a3 df bb
       -0.08130007 -0.027368572 -0.029213715 -0.006824961
000170 12 08 4d bd 21 81 31 bd 2b 23 9b bd b0 8c 8e 3d
       -0.050056525 -0.043336038 -0.07575067 0.06960428
000180 5f 1f 0e bd eb 31 a2 3d e8 00 7f bc 0c e6 ef 3c
       -0.034697887 0.07919677 -0.015564181 0.0292845
000190 31 d8 2c 3d 49 33 04 3d 90 c3 db bc 1c 26 57 3d
       0.042198364 0.03227547 -0.02682665 0.05252658
0001a0 6e ef cf 3c c0 13 a9 bc 9b 7d 0b 3d b1 cf ab bc
       0.025382724 -0.0206393 0.034055334 -0.020973058
0001b0 da fc de bb 41 80 01 bd 4c c9 38 bd 84 bf a8 bc
       -0.0068050446 -0.031616453 -0.045113847 -0.020599134
0001c0 79 21 ae bc 61 e7 74 bd 20 ed 40 3b d8 6a 0a 3c
       -0.021256195 -0.059790973 0.0029438213 0.008448325
0001d0 26 0c 8a bc fd 0b 1d 3d f7 ed 3d bd 52 e0 e9 bc
       -0.016851496 0.03834151 -0.04636952 -0.028549347
0001e0 80 ce 31 3c cd cf 88 bd 7d 16 2d bc 10 f0 35 bd
       0.010852456 -0.0668026 -0.010564444 -0.044418395
0001f0 6a 31 87 bd 8d 8e e3 bc d8 77 51 3d da 8e 85 3d
       -0.06601222 -0.027777934 0.051139683 0.065213874
000200 cf aa 3c 3d 7c fb 1f 3d 33 0e 9b bc cd 27 ff 3c
       0.046061333 0.039058194 -0.01892767 0.031146908
000210 bf dc 8b bd 6d 11 66 3d 50 42 30 3d 91 6d b1 3d
       -0.06829213 0.056168962 0.04303199 0.08663476
000220 af 06 b2 3b a3 e1 35 bc 76 de 8d 3b 96 23 fd 3b
       0.0054329257 -0.011101159 0.004329498 0.0077251894
000230 53 51 1c bd 5e ce 7c bd fe 30 d8 3c b8 6d 8a 3d
       -0.038163494 -0.061720245 0.026390549 0.067592084
000240 93 05 25 3d fe 58 7f bd 12 47 6c bd 45 8e 56 3c
       0.04028852 -0.06234073 -0.057684965 0.013095443
000250 d8 0c 2a bc 7c 0a 98 bd b9 b4 93 bd a9 d0 16 3d
       -0.010379039 -0.07423875 -0.072122045 0.036820088
000260 dc 47 7f 3d 35 dc 0f 3b e4 09 4d 3d 37 d2 56 3d
       0.06232439 0.0021951322 0.05005826 0.05244657
000270 d2 65 55 bd 8b 62 bf bc 8d 47 a4 3d b9 63 49 bd
       -0.052099057 -0.023362419 0.0802146 -0.04916737
000280 62 58 59 bd 7b ce 97 3d 46 ce 52 bd b6 6b a1 3d
       -0.053062804 0.0741243 -0.05146625 0.07881872
000290 d6 d9 f9 bc 6d 3e cd bc ca a6 a0 3d b4 f3 13 3d
       -0.03049938 -0.025054181 0.078443125 0.036121085
0002a0 74 29 16 bc 3a c9 0e ba e1 3c a9 3c 74 53 5e 3d
       -0.009165157 -0.0005446855 0.020658912 0.054278806
0002b0 e7 ef 9e bd b3 4f 5c bc 02 18 5e 3d 4b 53 72 3d
       -0.077606015 -0.013446736 0.054222114 0.059161466
0002c0 a1 47 97 3d 12 18 48 bc fd 96 11 bb fe c8 32 bd
       0.07386709 -0.01221277 -0.002221524 -0.043648712
0002d0 e3 29 e7 bc ff e6 95 bb 94 3a dd 3a c2 c0 6d 3d
       -0.028218215 -0.004574656 0.001687842 0.058045156
0002e0 0f 54 aa bd cb 91 dc bc 79 f1 07 3d 64 ab 39 bb
       -0.08316814 -0.026924988 0.03318927 -0.0028330917
0002f0 b2 6e 86 bd 3e fc 23 3c 68 d4 43 bd 77 4a f1 bc
       -0.06564082 0.01000887 -0.04780999 -0.029454453
000300 6e b7 4a 3d 0a a4 d9 3c d2 95 2f bd 97 ff a3 bc
       0.04949134 0.026567478 -0.04286749 -0.020019336
000310 fd 1c 51 3d 72 8d 43 bd bd 17 98 bd 95 35 ee 3c
       0.051053036 -0.047742315 -0.07426403 0.029078284
000320 80 0e 56 3d cd 12 a5 bc ad 72 81 3c db 9e 84 bd
       0.052259922 -0.020150566 0.015801752 -0.06475612
000330 b8 13 9c 3d 4c 98 a5 3d 0a e0 7c bd e3 f5 0c 3d
       0.076209486 0.08085689 -0.061737098 0.034414183
000340 39 aa a0 bd 35 53 46 bb 7f 40 ef bb 86 21 59 bd
       -0.078449674 -0.0030261998 -0.0073013897 -0.053010486
000350 28 1b 9a 3d f2 71 c4 3c 0a ce a8 bd 9d 5a a3 3d
       0.07524711 0.023980115 -0.08242424 0.079762675
000360 c1 01 90 3d 3d 1a 87 3c a8 c7 6f bd 97 8a 5b 3d
       0.070315845 0.016492004 -0.058540016 0.053598966
000370 15 96 e1 3c 4d 7c ea 3a a3 46 9d bd 88 13 8f 3c
       0.027537385 0.0017889828 -0.076794885 0.017465368
000380 f7 08 26 3d 1a 57 60 3c 81 ad 66 bd 8e 3d a1 3c
       0.040535893 0.013692642 -0.05631781 0.019682672
000390 95 4b 4c bd 2c 66 3e bd 63 37 95 bd 1e 1f 1b bd
       -0.04987677 -0.046484157 -0.07285955 -0.037871473
0003a0 14 11 e1 3c ae 6c c9 3c fc 09 ed 3a ba be 19 bd
       0.027473964 0.024587955 0.0018084641 -0.037535407
0003b0 65 f3 a4 3d a7 fd 6d 3d b7 57 98 bd e7 21 77 3d
       0.08054236 0.05810323 -0.07438605 0.060335066
0003c0 0d 78 a2 3d 4d eb a7 3d a6 c9 0b bd 9b 25 76 bd
       0.07933054 0.08199177 -0.034127854 -0.060094457
0003d0 8b ab 8b 3d 20 66 6e 3c b1 84 9e bd e6 95 7e bd
       0.068198286 0.014550716 -0.077401526 -0.062154673
0003e0 0c af 07 bc 85 02 75 bc ee 00 3c 3d 36 94 bb bb
       -0.0082814805 -0.014954214 0.045899324 -0.005724455
0003f0 a8 ec 1c bb e2 64 96 3d da 5a 6c bd 74 7a 30 bd
       -0.002394477 0.073434606 -0.05770383 -0.04308553

lstm_encoder.bias_hh_l0 f4 [512]
000000 83 ff 16 bd b5 e9 87 3b 4b bb 2f 3d e6 25 d1 3c
       -0.03686477 0.004147733 0.042903226 0.025530767
000010 b7 95 21 bc 3a d7 85 3d f7 a5 91 bc e1 d9 31 3d
       -0.009862355 0.06535192 -0.017779334 0.043420676
000020 51 64 a6 bd 01 9d eb 3c 14 6c 81 bd 39 f0 57 3c
       -0.081246026 0.028761389 -0.063194424 0.013179832
000030 6c e7 97 3c 4f 26 da 3c 34 34 3c bd ce 37 91 3d
       0.018542968 0.026629595 -0.045948222 0.07090722
000040 a4 3c 90 3d 11 6c 9d bd 48 95 9f 3b db de 81 bd
       0.07042816 -0.07686628 0.0048700906 -0.063413344
000050 db b6 f0 3b 30 1e 51 bd 75 83 68 bd 8f 05 ef bc
       0.007346017 -0.05105418 -0.056765992 -0.029177455
000060 7c 7d 3e bc 4d 10 ee 3c ae e7 f5 bb 5c a4 92 3d
       -0.0116265975 0.029060507 -0.007504425 0.07160255
000070 2e 7f 7b bb 96 3a 87 3d 6a 89 74 bd b9 1c a3 3d
       -0.0038375366 0.06602971 -0.05970136 0.07964463
000080 2f 60 fa 3c 18 37 4a bd 15 cc 45 3c a6 0b e0 ba
       0.030563442 -0.049368948 0.012072583 -0.0017093315
000090 51 0a bc 3c c0 ae 3f bd e2 89 71 bd c7 44 bf 3c
       0.022954138 -0.046797514 -0.058969386 0.023348225
0000a0 85 36 9e bd a2 b9 f5 bc 68 03 0c 3c a0 28 67 3c
       -0.077252425 -0.029995743 0.008545734 0.014108807
0000b0 8f 7a 52 bd 01 85 a3 3d d1 76 5c bd 6e a9 25 3d
       -0.051386412 0.07984353 -0.05382425 0.040444784
0000c0 4b 15 b9 bc b7 3e 3c 3d 81 49 31 3d 5d b0 e8 3c
       -0.022593161 0.045958247 0.04328299 0.028404409
0000d0 86 dc 2e bc ec 4c 89 3c 25 3b c5 3c 7b c8 2e 3d
       -0.010672694 0.016760312 0.024076054 0.04267166
0000e0 3d 7c a2 bd 9b f5 71 3d 46 09 fc bb 4d dc 78 bc
       -0.07933853 0.05907212 -0.007691535 -0.015189243
0000f0 c6 57 9a bd 04 c1 9a 3c 9b ff 87 3d 8b 5e 01 3d
       -0.07536273 0.018890865 0.0664055 0.031584304
000100 29 04 3b bd 3c dc 43 3d e7 31 53 3d c6 4a a4 bd
       -0.045658264 0.047817454 0.051561262 -0.080220744
000110 fe 0f e7 3b 07 db 82 3c ee 84 c1 3c 06 bd 14 bd
       0.007051467 0.015973581 0.023622956 -0.03631308
000120 34 93 bb bc b1 d0 30 bd 96 56 13 3d c0 fd 60 bd
       -0.02289734 -0.043167774 0.035971247 -0.054929495
000130 45 74 65 ba 04 57 8a 39 c8 9e bf 3c a8 11 8a 3d
       -0.0008752982 0.00026386243 0.023391142 0.06741649
000140 8f a5 6c bd 49 b2 64 bd 51 84 8f 3d bb 7b 0b 3d
       -0.057775076 -0.05583409 0.07007659 0.034053545
000150 22 22 d4 bc 61 66 26 bd 60 47 84 bd cf 17 99 bd
       -0.025895182 -0.04062498 -0.06458926 -0.07475244
000160 31 e3 83 3d 04 f0 59 3c ca a6 a3 bd 90 93 6d 3c
       0.06439818 0.013301853 -0.07990797 0.014500514
000170 a1 b5 d6 bc e2 c1 33 3d a3 18 f3 3c fe 7e 07 bd
       -0.026209654 0.043886073 0.029674834 -0.033080094
000180 75 46 7b 3d bd 09 e6 3c 74 ee 8f 3d 2f 7a 71 bd
       0.06134649 0.028080815 0.07027903 -0.058954414
000190 4a 2a f7 3c dc 2a 1a bd 23 8d af bb bc 6d 46 3d
       0.030171532 -0.03763853 -0.005357401 0.048444495
0001a0 7c ee b3 3c 29 c4 9c bc 54 ca 6d 3d c3 5b bb bc
       0.021964304 -0.019136505 0.058054283 -0.022870904
0001b0 6f 11 eb 3b 50 69 82 3d 33 9d c6 3b 3a d2 2c 3d
       0.007173709 0.06367743 0.00606122 0.042192675
0001c0 d5 8f 84 bd 09 e8 99 3d 72 8d 23 bd 57 f3 6e bd
       -0.06472746 0.0751496 -0.039929815 -0.058337536
0001d0 52 29 4d bd 43 43 24 bd 6e 93 31 3d 99 13 88 bd
       -0.050088234 -0.04010321 0.04335349 -0.06644363
0001e0 ae 32 8a 3d 44 9f 42 bd 57 03 52 bd 2f 0f 98 bd
       0.06747948 -0.04751517 -0.051272716 -0.07424771
0001f0 35 8a ec 3c f9 93 21 3d 87 bf 2a bc ec 3a 82 bc
       0.028874496 0.03944776 -0.01042164 -0.015897237
000200 7a a1 bb bc 0a 71 25 bd 08 05 51 bd c4 29 83 bd
       -0.022904146 -0.040391006 -0.05103019 -0.064044505
000210 22 40 91 b9 ee 4a 8a bc ce 66 72 3d f2 06 b3 3c
       -0.00027704338 -0.016881432 0.059180073 0.021853898
000220 32 23 0c 3c 0a b1 d0 3b 2e 3c 8f 3d 4b 3e 07 bd
       0.008553313 0.006368761 0.069939 -0.03301839
000230 bf 75 4b bd 8c 6d 88 bc 1c 1b c6 bc b7 44 5a bd
       -0.04967284 -0.016653799 -0.024182849 -0.053288188
000240 05 73 fd 3c 46 1e 8d 3d 32 b5 77 bd 23 75 d5 bc
       0.030938635 0.0689054 -0.060475536 -0.026056832
000250 10 10 00 3d 79 de 34 3d f4 95 cd 3c 8d 7d 51 3d
       0.03126532 0.04415748 0.025095917 0.051145125
000260 47 7c 84 bd 16 dd cc bc f0 44 d6 bb 2c bb 72 bd
       -0.064690165 -0.025007766 -0.0065389797 -0.059260532
000270 0e 5e 2b 3d 8e 9e 54 bd 7a 9f 2d bd 6d 0c 55 3c
       0.041837744 -0.051909022 -0.042388417 0.013003451
000280 1d 8a 50 bd 6e 16 ff 3a 23 9c 85 3d a0 e6 85 3d
       -0.050912965 0.0019461641 0.06523921 0.06538129
000290 fd fa 83 bd c1 47 3d 3d fe 34 8c bd 08 b9 9f 3d
       -0.064443566 0.046211008 -0.06846045 0.07798964
0002a0 a2 6e 7b bc 23 88 4e bd 87 e6 a7 3c ce 52 ca 3b
       -0.015346201 -0.0504228 0.020495666 0.006174422
0002b0 4c 29 34 3d f2 a9 a3 3d 2c 14 e4 bc 61 1a 16 3d
       0.043984696 0.07991399 -0.02784165 0.03664625
0002c0 56 f9 04 3d f4 36 57 bd d9 79 b2 bc a7 28 22 bd
       0.032464348 -0.05254264 -0.021786617 -0.03958955
0002d0 59 bd d0 bc cb 00 82 bd 1a 44 4d bc f7 f4 70 bd
       -0.025480913 -0.063478075 -0.012528444 -0.058827367
0002e0 e9 19 50 bc 3d 3d b3 3c 51 cc 4d 3d 7d 74 58 3d
       -0.01270149 0.021879787 0.05024368 0.052845467
0002f0 dd 4d b9 bc 56 61 5d 3d 25 9c 91 bd e6 2d ab 3d
       -0.022620136 0.054047905 -0.0710986 0.08358364
000300 00 55 48 bd 1e c0 e7 3b 60 9e af bb c1 ef 21 3d
       -0.048909187 0.0070724627 -0.005359456 0.039535288
000310 f7 e3 9c 3d fd ff 7a 3d da 8c af 3d 79 55 bf bc
       0.07660668 0.061279286 0.08571787 -0.023356186
000320 9e d9 06 bc 0f ea 83 3d 27 f5 67 bd 4e d5 c8 3c
       -0.008230595 0.064411275 -0.05663028 0.024515774
000330 d1 63 d1 bc 1c d6 03 bd 41 25 19 3d 02 f4 17 3d
       -0.025560291 -0.032186612 0.037389044 0.03709794
000340 6d a9 55 bc 4b 13 62 3d b1 03 08 3d 64 a9 5c 3d
       -0.013040883 0.05519418 0.033206645 0.05387248
000350 73 f4 e9 bb 76 f6 20 bd ba 31 4a 3d 3b 49 a2 bd
       -0.0071397363 -0.039297543 0.04936383 -0.07924124
000360 98 34 49 bd bd 0b 2c bd 7a 28 cd bb 33 e1 c0 bc
       -0.049122423 -0.042003382 -0.0062609287 -0.023544883
000370 5e 18 2b 3d 15 63 3a 3c 84 0c aa 3d 38 bd db 3c
       0.041771285 0.011376162 0.083031684 0.026823625
000380 f3 91 21 3d 4b 37 9e bc b7 b7 9b bc 00 d3 4c 3d
       0.03944583 -0.019313475 -0.0190085 0.050005913
000390 16 93 f3 3c a3 30 0a 3d 35 00 03 bb 95 9f 4d 3d
       0.029733222 0.03373779 -0.0019989137 0.050201017
0003a0 21 f4 dc 3c 39 4f 80 bd 3f 3e 9b 3d 0a 75 13 3b
       0.026971878 -0.062651105 0.07580232 0.002250018
0003b0 33 52 82 bb e4 ea 97 3c 5c 7c 46 bc 1d 0b 0f bd
       -0.003977084 0.018544622 -0.0121146105 -0.034922708
0003c0 66 e8 89 3d ca 3f 0c 3d bf 1e c5 bc 1d c2 12 bd
       0.067337796 0.03424052 -0.024062512 -0.035829652
0003d0 02 21 9f 3d 4a 2b 91 bd 70 22 29 bd c8 5b b2 bc
       0.077699676 -0.07088335 -0.041292608 -0.02177228
0003e0 6f d8 0a bd c1 08 52 bd 3c e7 5b 3d 93 3d f7 bc
       -0.033897813 -0.05127788 0.05368732 -0.030180728
0003f0 7c b8 96 3d 55 e7 0e 3c 5c f9 64 bd b0 0f e0 3c
       0.07359406 0.008722146 -0.05590187 0.02735123

lstm_decoder.weight_ih_l0 f4 [512, 6]
000000 c1 34 a0 bd c7 ba 9d bd 74 f5 03 3e 17 aa 5d bd
       -0.07822562 -0.077016406 0.12886602 -0.05411729
000010 55 f8 90 3b 62 f3 24 3d 19 a7 3d 3c fe 55 87 39
       0.0044241347 0.04027117 0.011575484 0.00025813276
000020 88 78 36 bd 3b 58 e0 bb b5 47 99 3c 32 39 93 3d
       -0.04454854 -0.0068464554 0.01871095 0.071886435
000030 74 96 20 bd f7 73 8e bd ef 76 58 3c 56 44 9e bd
       -0.039205983 -0.06955712 0.01321195 -0.07727878
000040 6b bf af bd 48 14 89 bd 8b 87 76 bd cf 0d 19 3d
       -0.08581432 -0.066933215 -0.060187858 0.037366685
000050 d9 c7 e9 bc 67 2b 80 bd 37 06 04 bd 2a 9e f3 bc
       -0.028537678 -0.06258278 -0.03223249 -0.029738504
000060 0c 92 84 bd 56 81 35 3d 26 bb 8e bd d4 2a 9e bd
       -0.06473169 0.044312797 -0.069692895 -0.077230126
000070 5d 1c 85 bc bb e8 10 3c 41 5b 45 bd 26 3c 44 3d
       -0.016248876 0.00884455 -0.04818273 0.047908925
000080 41 04 14 3b e6 d1 6a 3d 57 e2 d8 3b ce 9a 8f bc
       0.0022585543 0.05732908 0.0066187787 -0.017529871
000090 50 e4 a0 bd 00 35 96 bd 67 0a f9 bb 3b dc 8c 3c
       -0.07856047 -0.07334328 -0.007600117 0.017194858
0000a0 33 24 84 3c 6c 03 8a 3d 85 49 e9 3d 9e f5 8a 3d
       0.016130542 0.06738934 0.11390976 0.06785129
0000b0 67 de 3f 3d 8c d2 52 3b 1b 3c 66 bc 04 be 9a bd
       0.04684296 0.0032168953 -0.014052416 -0.07555774
0000c0 32 a3 82 bd 7d ed a2 3d 86 d5 67 3c 51 54 94 3c
       -0.06378783 0.079554535 0.014150029 0.018106611
0000d0 ec a1 22 bd 3f fa 48 3d 26 19 21 be c9 85 bd bc
       -0.039705202 0.04906678 -0.1573225 -0.023135083
0000e0 34 eb 37 3c d7 dd 1a bd fd c8 4e ba 7f 03 17 3a
       0.01122551 -0.03780922 -0.0007888226 0.0005760714
0000f0 44 01 2a bd 85 e8 04 3d 2b 41 3f 3d 85 ba fe bc
       -0.041505113 0.03244831 0.04669301 -0.031094799
000100 22 3f c8 bd eb 19 0c bc 76 11 c1 bc d9 3e 04 3d
       -0.09777667 -0.008551101 -0.023567896 0.0322865
000110 f8 3b 43 bd aa f1 f3 bb 0a 77 cc 3b 83 9d 6f bd
       -0.047664613 -0.00744458 0.0062397765 -0.058499824
000120 7e 0e 0e be a8 41 f8 3c 22 b0 02 3d 9c 2f 8c bc
       -0.13872716 0.030304745 0.031906255 -0.017112546
000130 5a 5d 92 ba 50 90 10 be b4 fd 6d 3d 5f be 58 bc
       -0.0011166737 -0.14117551 0.05810328 -0.013228982
000140 21 cb 87 bd 2c 41 b5 3b ca 0a 1b 3c 96 45 81 3b
       -0.06630541 0.0055314507 0.0094630215 0.003945063
000150 ee 78 fb bb 23 ac 53 bd 8f ab 03 3d f1 a1 c8 bd
       -0.007674328 -0.051677834 0.032146033 -0.09796513
000160 fa 68 42 3b 8b 0b 1d 3c 3d 81 a6 bd cc eb 90 bd
       0.0029664622 0.009585272 -0.08130119 -0.07076225
000170 52 e2 85 3d c4 56 93 3d dd 22 84 bd 73 b8 c2 bd
       0.06537308 0.071942836 -0.06451962 -0.09507837
000180 4b a1 10 bc 90 09 01 3d 40 bd 24 3c 2b 1f 58 bd
       -0.008827518 0.03150326 0.010054886 -0.0527641
000190 a0 f2 87 bc 48 5c 38 bd e9 bc a6 3d 0c a1 bb 3d
       -0.016595185 -0.04500988 0.081415005 0.09161577
0001a0 72 17 53 bd 09 de 9c bd 1f ff 7b bd f6 1f 5e 3d
       -0.05153603 -0.07659537 -0.0615226 0.0542297
0001b0 7c d0 6e bd ae 30 00 bd 11 75 93 bd 0f a3 2c 3c
       -0.058304295 -0.031296425 -0.07200063 0.010536923
0001c0 57 2c e3 3a 16 f5 93 bd 72 45 62 bd 92 42 7e 3d
       0.001733194 -0.07224481 -0.05524201 0.062075205
0001d0 de a9 ef 39 48 af 92 bd 8c 4e 0a bd 98 02 8a bd
       0.00045712193 -0.071623385 -0.033766314 -0.06738776
0001e0 c4 c4 6d bb 91 35 99 bd 4f 1b 69 3d 22 9d 1e 3c
       -0.0036280612 -0.0748092 0.05691081 0.009681018
0001f0 c2 31 d5 3d 01 f0 c4 bd fc 7e 62 bd df 5e 15 3d
       0.10409881 -0.096160896 -0.055296883 0.03646743
000200 87 99 20 bd 18 69 0a bd ae 45 ba 3d 8b d4 8d bd
       -0.039208915 -0.03379163 0.090953216 -0.06925305
000210 bc 45 98 bc 29 df 2a 3d 7b af c2 3d 02 a6 20 bc
       -0.01858794 0.04171673 0.095061265 -0.009805204
000220 91 00 97 bd 65 02 28 3d 18 e5 98 be a1 b7 5c bd
       -0.07373155 0.04101791 -0.29862285 -0.05388606
000230 dd 82 8f 3b ac 44 40 3e 95 b4 57 3e a6 99 6d 3d
       0.004379614 0.18776196 0.2106498 0.05800786
000240 d0 90 d7 3d ac b3 c0 bc 39 41 92 bd 31 11 a3 bd
       0.10525668 -0.023523174 -0.071413465 -0.079622634
000250 1f 07 fe bc 7e bd f3 3d b4 fc fb bd f0 b7 c8 bd
       -0.031009255 0.11901377 -0.12304059 -0.09800708
000260 58 60 9a 3d 35 4c b2 bd 70 f6 eb 3b 48 12 87 bc
       0.07537907 -0.087059416 0.0072010085 -0.01648821
000270 1f 35 90 3d 93 36 67 bd 2e 05 8d 3d e0 39 5d bd
       0.07041382 -0.05644853 0.068857536 -0.054010272
000280 01 b1 80 bc aa 13 21 3c e4 6c 17 3d ec c1 29 3d
       -0.015709402 0.009831348 0.03696908 0.041444704
000290 0d 96 af bd 84 3f 31 3d e1 48 9b bd 30 16 2d bd
       -0.08573542 0.043273464 -0.0758226 -0.042257488
0002a0 34 bf ef 37 0f 20 00 3d c1 78 57 bc 65 4c ee 3c
       2.8580056e-05 0.031280573 -0.013151349 0.029089162
0002b0 25 92 0d bd a4 8c 6f 3c 8a 1a 4d 3d cf 19 2a 3d
       -0.034563202 0.014620934 0.050074138 0.04152852
0002c0 ed 23 21 3d 15 d3 8e bd 79 68 01 bd 2a 31 0f 3d
       0.039340902 -0.069738545 -0.031593774 0.034958996
0002d0 39 8d 2d bd e6 01 84 bd 60 16 43 bd a8 65 53 3b
       -0.04237101 -0.064456746 -0.04762876 0.0032256637
0002e0 73 f7 e1 3b b5 2c 19 bc 25 9b bc bc b2 88 25 3d
       0.0068959533 -0.009349038 -0.023023197 0.040413566
0002f0 7d 60 07 3d d1 63 53 bd 86 73 97 bd 5e b6 1f bd
       0.033051003 -0.051608864 -0.07395081 -0.03899228
000300 23 ff 1a 3d e6 2a 7c bd de cc 89 3c cc fe 19 bd
       0.037840974 -0.06156435 0.016821321 -0.03759651
000310 a9 f8 d6 bd 63 62 9f 3d 3c 26 d3 3d f7 f8 8b bd
       -0.10496647 0.07782438 0.10310027 -0.06834596
000320 fb 6b c9 3b 1e cf 9a bd 73 6d f4 bd ac 1c a4 bd
       0.0061469055 -0.07559036 -0.11934938 -0.08013281
000330 37 92 75 3d 1f 85 97 bd 53 2e bc bc ff bb 3f bd
       0.059953894 -0.07398438 -0.022971308 -0.046810146
000340 ab 05 85 3c 26 dd 96 bd bb 91 bd 3a 71 1c b1 3d
       0.016238054 -0.073663995 0.0014462987 0.08648003
000350 5d 8a da 3d 8e e0 30 bd 96 cb 02 3b 9d 59 c6 bd
       0.10670922 -0.043182902 0.0019957772 -0.09685061
000360 de 79 5a bd 38 d2 fc ba 9f a9 7d 3d 7b d9 92 bd
       -0.053338878 -0.0019288724 0.06192934 -0.07170387
000370 d4 b7 bc bd 8d 2b c7 bc 6b fd 57 bd a9 d7 7e 3d
       -0.0921475 -0.024312759 -0.052731913 0.06221739
000380 26 bd 49 bd 73 14 38 bd c8 da 93 3d a3 bf 22 3d
       -0.04925265 -0.044941377 0.072194636 0.03973354
000390 c5 7c 97 bc 9f 6c 4b bd 3f d3 41 3d de fe 16 3d
       -0.018492112 -0.049664136 0.0473206 0.036864154
0003a0 01 2d 2a 3d ee 4b c1 3c 16 49 f1 bc 10 27 4a bc
       0.041546825 0.023595776 -0.029453795 -0.012338415
0003b0 af b0 49 3d e2 a6 c4 3c 07 00 4e 3b 68 17 36 bd
       0.049240764 0.024005357 0.0031433122 -0.044455916
0003c0 c9 22 04 3d 41 b4 68 bd 36 85 cb bc a0 de 43 3d
       0.032259736 -0.05681253 -0.024843793 0.047819734
0003d0 17 20 4f 3c 3d 63 2d 3d bd a1 84 bd 46 4b 0f bd
       0.012641928 0.04233097 -0.06476162 -0.034983896
0003e0 68 05 89 bd ac 0e 19 bd 34 3e 8e 3c f9 2e 4c 3d
       -0.06690484 -0.037367508 0.017363645 0.049849484
0003f0 ab bb 20 be 3e 3b 95 3d 2f e8 ca bc 71 6a 83 bc
       -0.1569659 0.0728669 -0.024768917 -0.016041966

lstm_decoder.weight_hh_l0 f4 [512, 128]
000000 2f a0 8b 3d 96 63 29 bd c3 fd 38 bc 2f 18 7b bd
       0.06817662 -0.04135474 -0.01129097 -0.06130236
000010 4b fd 1a bd 1b 3d ba 3b 0f 07 24 3d 3d 0b 87 3d
       -0.037839215 0.005683554 0.040045794 0.065939404
000020 87 bd 64 3d d9 66 e3 3c af ea cf bc d5 6a 0a 3d
       0.05584481 0.027759003 -0.02538046 0.03379329
000030 f0 11 21 3d 75 3e 91 bd 36 62 54 3c f8 a5 a7 bc
       0.039323747 -0.07091991 0.012962868 -0.020464882
000040 99 f0 5c bc 0a c8 f1 bc 23 bc 98 3d 40 03 d8 bc
       -0.013485097 -0.029514331 0.07457759 -0.026368737
000050 00 46 5d bd 07 ae 79 bd 1d b0 31 bd 72 bb f4 3b
       -0.054021835 -0.06095698 -0.043380845 0.0074686343
000060 53 4c 58 bd 9c 66 81 3d d4 6a 2c 3d 0d 5c d1 3c
       -0.052807163 0.06318399 0.042094067 0.025556589
000070 91 69 ef bc b5 e2 2a bc 2b 49 e5 bc 7c 33 51 3d
       -0.029225143 -0.010430028 -0.02798899 0.05107449
000080 30 5a 92 3c 94 96 48 3d 3a c4 c4 3c bf 15 35 bc
       0.01786527 0.048971727 0.02401935 -0.011052548
000090 10 57 a8 bd 64 5d d4 3c c3 32 58 bd 2b 73 19 3d
       -0.08219731 0.025923438 -0.052782785 0.03746335
0000a0 81 83 52 3d 19 62 9c 3d 09 7e 8b bd 9d db 83 3d
       0.051394943 0.07635898 -0.06811149 0.06438372
0000b0 10 3e 06 3d cb 11 fe bc 86 b9 56 bc 1f 23 9a 3c
       0.03277403 -0.031014344 -0.013105756 0.018815575
0000c0 fc 8b 9b bd 2d 1b 0b 3d 1f 8d 55 bd fa df 7b 3b
       -0.07595059 0.033961464 -0.052136537 0.003843306
0000d0 0f df 37 bb 0f 4c 6f bd 3a aa 48 3d 96 36 d9 bc
       -0.0028056537 -0.058422145 0.048990466 -0.026515286
0000e0 77 95 9a bd 37 f6 8b b9 eb 8f 1f bd 3c 1f 0e 3d
       -0.075480394 -0.0002669559 -0.03895561 0.034697756
0000f0 1f 35 7d 3d 4d 24 cc bc 2b 79 ac 3b e6 39 19 bd
       0.06181824 -0.024919653 0.005263468 -0.037408732
000100 d0 c2 22 3d b4 5e 16 3d 1b c8 cd bc a6 9a 3e bd
       0.03973657 0.03671141 -0.025119832 -0.046534203
000110 0b 24 11 bd 36 b7 a6 bc 88 2f c0 bc b6 7b 2b 3d
       -0.035434764 -0.020351034 -0.023460165 0.041866027
000120 b6 57 7a 3d a4 b5 93 bd 4c dd 91 bd 92 d5 56 3d
       0.061118804 -0.072123796 -0.07122287 0.05244977
000130 ba ff 59 3d 2b 86 7e bd 7f 91 06 3d d0 8d b9 3c
       0.053222395 -0.06213967 0.0328536 0.02265063
000140 3c e8 8f 3c 8d 5b 46 bc e0 f9 30 3d 92 96 b1 bd
       0.017566793 -0.012106788 0.04320705 -0.08671297
000150 35 15 98 3d 9f 0b 91 bd 01 77 bf bc 3f e2 19 3d
       0.0742592 -0.07082295 -0.023372175 0.03756928
000160 76 a9 66 bc f3 68 91 bd 9e 4f 75 bc 15 1b 25 3c
       -0.014078489 -0.071000956 -0.0149725955 0.010077258
000170 2c 91 8e bd 34 cd 91 3d 8c bb e2 bb c3 02 96 3d
       -0.06961283 0.071192175 -0.00691933 0.073247455
000180 12 a2 99 bd 4d 11 9e 3d bd a6 35 3d 15 3c 7b 3d
       -0.075016156 0.077181436 0.044348467 0.061336596
000190 6e 38 75 3d e8 e0 a4 bd ee 1c c3 3c ad 6b 35 bc
       0.05986827 -0.0805071 0.023817506 -0.011073035
0001a0 76 77 5f bd fa a3 cc bc 9a fa 97 ba c7 0c ac bc
       -0.054557286 -0.024980534 -0.0011595071 -0.021002186
0001b0 cb 9e 87 3d cd b9 90 3d ec f4 ab bd cf 06 27 3d
       0.06622084 0.07066689 -0.083963245 0.040777978
0001c0 45 3d 84 bb c2 c6 6c 3d a8 ea 47 3d c2 f0 3b bc
       -0.004035624 0.057806738 0.04880777 -0.011470975
0001d0 64 c3 b2 3d 17 a3 1e 3c 1a 84 76 3d 5c 56 96 bd
       0.08728674 0.009682438 0.060184576 -0.073406905
0001e0 08 85 b6 bc 1d 10 85 bd e5 6a 37 3d 08 bd 87 3c
       -0.022280231 -0.06497214 0.044779677 0.01656963
0001f0 6d a4 6b bd 33 51 4d bd 12 12 96 bd 34 34 8a bc
       -0.057529856 -0.050126266 -0.073276654 -0.016870596
000200 75 83 da 3c bf 64 9f 3d 17 6c 06 3d 09 3a 78 3d
       0.026674012 0.07782888 0.032817926 0.06060222
000210 8d 50 ac 3d 87 8b 9f bd a5 dc 9b 3c 78 19 d4 bc
       0.08413801 -0.077902846 0.01902611 -0.02589105
000220 70 e6 a2 bd 7f bb 8d bd 13 5d 9c bd b3 c4 67 3d
       -0.07954109 -0.06920528 -0.0763494 0.05658407
000230 6f d9 8f bd 92 9c 0d 3d 24 f7 77 3d b6 4d 3e bb
       -0.07023894 0.034573145 0.060538426 -0.0029038019
000240 77 08 4b 3d 12 0b 28 3c 39 0a 0f 3d 76 93 90 3d
       0.04956862 0.010256546 0.03492186 0.07059376
000250 7d ff 0a bd ae 29 b9 3b 2d d3 d6 bb e8 a8 38 3d
       -0.03393506 0.0056507206 -0.006555936 0.045082957
000260 9f 2a 35 bd f8 3e 7f 3d 5e 1e 92 3d c0 bb 4a bd
       -0.0442301 0.06231591 0.07134698 -0.04949546
000270 c0 1f a6 3b 0c 8c 8a 3d 9a ce 36 3d 3f e9 2f bd
       0.005069703 0.06764993 0.044630624 -0.04294705
000280 52 d6 43 bd ae 0a 9b 3d 17 ee 9b 3d 64 d1 02 bd
       -0.047811814 0.07570396 0.076137714 -0.03193797
000290 49 8a 80 3c 8b de 11 bd c3 d5 07 3d a5 d9 22 bd
       0.01569094 -0.035612624 0.033162843 -0.039758343
0002a0 a3 8c 61 bd d7 ea 96 3d 8d 06 b5 3b 42 41 b8 3c
       -0.055065762 0.07369011 0.0055244626 0.022492055
0002b0 b5 7e b7 bb 45 a8 ab bc 40 66 09 3d cf 67 a2 bb
       -0.0055998215 -0.02095426 0.03354478 -0.0049562226
0002c0 b9 32 9c 3d e5 71 a9 3c 2f 70 44 3d 14 14 53 3d
       0.07626862 0.020684192 0.04795855 0.05153282
0002d0 04 4e bd bb 18 98 47 bd 5f 6f e1 3c 9e e5 6d 3d
       -0.0057771225 -0.048729032 0.027518926 0.05808031
0002e0 2d 59 a5 bd 84 ee 23 bd eb ab 92 3d 39 aa 67 bd
       -0.080736496 -0.040022388 0.07161697 -0.05655882
0002f0 de 6a c0 3c 1a 8b 0e bc 0f 40 e2 3b 88 6b af bc
       0.023488458 -0.008700157 0.006904609 -0.02141358
000300 d0 3e 5b bd 80 cb 9c bd 34 d8 f7 3c 92 13 8f bd
       -0.0535267 -0.07656002 0.03025446 -0.069861546
000310 e9 c8 45 bd 3c 4b 33 bc 54 5b 53 3b dd b0 13 bd
       -0.048287306 -0.01094323 0.003225048 -0.03605734
000320 ed ac ff ba 7d 47 a2 3c 33 2d 29 bd 2a be 29 3d
       -0.0019506492 0.019809479 -0.04130287 0.04144112
000330 bd b1 46 bd c0 bf a5 3d 87 af 64 bd 1e a4 ae bd
       -0.04850935 0.08093214 -0.05583146 -0.085273966
000340 a2 c8 e8 bb 4a a9 a2 bc b5 97 5b 3d ef 4b 0e bd
       -0.0071039954 -0.019856114 0.053611476 -0.034740385
000350 8d 6b 82 bb 13 da 89 3c fa f6 a0 3c a7 5c a6 bd
       -0.003980106 0.016827619 0.019649018 -0.08123141
000360 50 dc d8 bc 91 2e 4b bd b8 46 aa bd b1 eb 92 3d
       -0.02647224 -0.049604956 -0.0831427 0.07173861
000370 00 22 86 bd 41 09 42 3c 5d 15 c1 3c e3 da 03 bd
       -0.06549454 0.011843027 0.023569757 -0.03219117
000380 2b 2d cb 3c 96 61 8c 3d 85 f2 00 bd 0d 0d 27 bd
       0.024801811 0.068545505 -0.031481285 -0.04078393
000390 68 1a 49 bd b8 3c 2e bd 33 df 2f bd 17 29 ae 3b
       -0.04909745 -0.042538375 -0.04293747 0.005314957
0003a0 e8 1b a1 bd e8 b8 86 bd ec e6 85 3d 46 d5 52 3d
       -0.07866651 -0.06578237 0.065381855 0.051472925
0003b0 91 76 18 3d 2e 3d 10 3d 4f f5 a2 3d 77 ed 17 3d
       0.03722245 0.035214595 0.07956945 0.0370917
0003c0 ad 24 a6 3d 05 20 69 bd ad 3a 8e 3d 06 d9 81 3d
       0.08112464 -0.0569153 0.06944785 0.06340222
0003d0 60 3f 55 3c 05 27 9f bc 37 3e b8 bc c0 95 bb b8
       0.013015598 -0.019427786 -0.022490604 -8.944748e-05
0003e0 5d 1a c0 b9 4d e3 a9 bd 89 93 8d bb e2 53 af 3d
       -0.00036640736 -0.08295307 -0.004320566 0.08560921
0003f0 20 6f 90 bd b0 48 e9 bc 20 0e 26 3d e7 07 bf 3c
       -0.070524454 -0.028477043 0.040540814 0.023319198

lstm_decoder.bias_ih_l0 f4 [512]
000000 a6 40 8b bd 74 5f 06 3d 63 c4 97 bd 26 1a 88 bc
       -0.0679944 0.032805875 -0.07410505 -0.016614031
000010 d9 39 19 3d e6 37 8e 3d e5 bc 72 bd 14 50 81 bd
       0.037408683 0.069442555 -0.059262175 -0.06314102
000020 22 21 33 bb e9 60 b3 3d 81 49 55 3b d5 a2 35 bc
       -0.002733298 0.087587185 0.0032545032 -0.011086185
000030 bf 2f f7 bb 23 21 94 3d e0 1c 99 bd 46 f6 d9 bc
       -0.0075435336 0.07232883 -0.074762106 -0.02660669
000040 d1 fa 69 3d 1a ba e1 bc 71 23 1e 3d 1d c7 98 bc
       0.057123963 -0.02755456 0.03860802 -0.018649632
000050 50 c4 62 3d 23 b2 b3 3c d3 22 13 3d 65 79 a3 bc
       0.055363 0.021935528 0.035921883 -0.019955346
000060 e2 3b 93 bd 09 c8 d4 bc 73 82 8a bd cb 5c 3c b8
       -0.07189156 -0.02597429 -0.067631625 -4.4909113e-05
000070 ab f8 8e bc 22 5f b0 3d d4 6a 23 bc 5d 9a fc bc
       -0.017452559 0.08611895 -0.0099742 -0.030835325
000080 d1 ac 50 3c 91 a4 dc bb 40 99 e8 bc f4 22 8f 3d
       0.012736515 -0.006733485 -0.028393388 0.06989089
000090 1b 47 4b 3c ab a3 88 3c 59 21 5c 3c a8 d0 0a 3d
       0.01240709 0.016679605 0.013435685 0.033890396
0000a0 aa 47 97 3c c5 99 4e bd 88 59 49 bd 00 ff 33 bc
       0.01846679 -0.050439615 -0.04915765 -0.01098609
0000b0 40 d5 a8 3d 8e 34 77 bd f8 5c 1b bd b7 5c 45 bd
       0.08243799 -0.060352854 -0.03793046 -0.048184123
0000c0 09 2d 3b 3c 08 d6 4f bd 7e 24 a9 bc a9 91 39 3d
       0.011424311 -0.050741225 -0.020647284 0.045304928
0000d0 02 07 86 bc c2 02 e6 bc da 42 e4 3c d9 a3 70 bd
       -0.016360763 -0.028077487 0.027863909 -0.058750007
0000e0 5a c0 83 bd 73 2f b3 bc 72 57 35 3c 3d a7 b5 3c
       -0.064331725 -0.021873211 0.011068212 0.022174472
0000f0 69 39 a0 3d 47 46 8f 3d 7f 21 a4 3d 79 08 a9 3d
       0.0782345 0.06995826 0.080142014 0.08253569
000100 a3 dc 33 3c 54 96 4b bd 39 b0 66 bd 9e d5 7d bd
       0.010977897 -0.04970391 -0.056320403 -0.0619713
000110 44 30 6d bd cb 88 75 bd 7f 77 5f bd 5f e0 a0 bc
       -0.057907358 -0.05994491 -0.05455732 -0.019638238
000120 d3 e2 c4 3b c7 72 05 bd 9e 11 8b bc de 0c ab 3d
       0.006008485 -0.032580163 -0.016976174 0.083520636
000130 56 8b d3 bc 97 8d a7 3d a7 a0 91 3c 0c 1b 94 bc
       -0.025823276 0.08181303 0.0177768 -0.018079303
000140 2f ae cd 3c 56 53 7f 3d 26 e4 85 bd c2 7f 06 bd
       0.025107471 0.062335335 -0.065376565 -0.032836683
000150 9c a1 96 3d 72 da 99 3d f3 32 a5 3d 19 ad 64 3d
       0.07355043 0.07512368 0.080663584 0.05582914
000160 2e 76 93 bd 1a 98 87 bc 2f d6 93 bd 5d c0 1e 3d
       -0.07200275 -0.01655202 -0.07218587 0.03875767
000170 61 d8 0e 3c 84 c7 56 3c 7a df 87 3d fa a3 29 bd
       0.008718581 0.013109092 0.06634422 -0.041416146
000180 4b 22 88 bc 71 e5 54 3d dd d6 e4 bc c0 49 8d ba
       -0.016617915 0.051976625 -0.027934486 -0.0010779426
000190 0d 2b 07 3d d3 f1 5e bd 09 2e c1 3c 0d a6 11 3c
       0.03300004 -0.05442984 0.023581522 0.008889687
0001a0 90 93 1e 3d 15 47 7a bd 84 bd 47 3d 5e b8 a0 bc
       0.038714945 -0.061102945 0.04876472 -0.019619163
0001b0 96 3a 78 3d 37 e1 89 3d 0d 76 8d 3d 61 32 91 bd
       0.060602747 0.067324094 0.06907282 -0.07089687
0001c0 bf c9 34 bd 72 49 9a bd 4a 9e b3 3d 59 fa ac 3d
       -0.044137713 -0.0753354 0.087704256 0.084461875
0001d0 f3 0a 7e bd 7c f6 90 bc 72 92 29 bc 25 4a 7c bd
       -0.06202216 -0.017695658 -0.010349857 -0.061594147
0001e0 25 21 1b bc 21 fc 25 3d 46 25 26 bd 91 a7 96 3d
       -0.0094683515 0.040523652 -0.04056289 0.073561795
0001f0 4a 17 d4 bc e8 fa b6 bc 33 b0 e0 bc 27 73 e3 3c
       -0.025890011 -0.022336438 -0.027427768 0.02776487
000200 49 b2 b2 bc b4 df 06 bc 3c 95 f9 bc 3b b5 03 bc
       -0.021813529 -0.008232046 -0.030466668 -0.008038814
000210 2f 13 54 3b 18 f0 01 bd 58 55 17 bd 4e 16 af 3d
       0.0032360067 -0.031723112 -0.036946625 0.08549176
000220 99 6c 10 bd 08 3b 95 3d c3 1b 96 3d 81 a9 bc bc
       -0.035259817 0.0728665 0.07329514 -0.023030045
000230 31 aa a2 3d 57 22 92 bd 08 b7 19 3d be 6e 47 bd
       0.07942618 -0.07135456 0.037528068 -0.048689596
000240 5d 36 69 3c 86 67 2a 3d 70 c4 48 bd 77 83 10 b9
       0.014234153 0.041602634 -0.049015462 -0.00013781885
000250 fd 53 35 3d 8c 52 f8 bc a5 22 b6 3b 2d 34 87 bd
       0.04426955 -0.030312799 0.005558329 -0.066017486
000260 18 94 b8 bc 19 9d c9 3d 6d 69 b7 bc ec df d1 3c
       -0.022531554 0.09844417 -0.022389138 0.02561947
000270 77 8e 7a 3d 0e e8 60 3d c5 33 96 3d 85 0a 77 3c
       0.06117102 0.054908805 0.07334093 0.015078192
000280 a7 f7 cd 3b 20 a4 6b bb 34 f7 8f bd 2f 84 8e bc
       0.006285626 -0.003595598 -0.07029572 -0.017397014
000290 55 ea ae bc 3e c5 90 bd 6b 0e 7e 3d 12 9a 0d bc
       -0.021351973 -0.07068871 0.06202547 -0.00864269
0002a0 ba 36 a6 3c ad 0d 58 3c ef 47 8f 3c 0d 6f a2 3d
       0.020289768 0.013186854 0.017490355 0.079313375
0002b0 ef be d7 bc 4f 53 d0 3c 57 27 cb bc 0f 5d ab 3d
       -0.026336161 0.02543035 -0.024799032 0.08367359
0002c0 8b 68 ef bc 30 7b 2b 3d 16 28 d0 3b b8 cd 8d 3d
       -0.029224655 0.041865528 0.006352435 0.06924003
0002d0 10 15 d6 3c 95 4e 67 3d 99 f7 30 3d 00 74 47 3c
       0.02613309 0.056471426 0.043204878 0.012173653
0002e0 3b 17 85 bd b8 bf 4d ba c0 5f 83 bd d2 bd 6d bc
       -0.064985715 -0.0007848698 -0.06414747 -0.014510589
0002f0 e2 c2 f1 3b 9f 46 b1 bc ee 60 1e bd 47 81 ab 3c
       0.007377968 -0.02164012 -0.038666658 0.020935668
000300 4c 0e 8f bc ec aa 71 3d e7 32 98 bd a0 62 a1 bd
       -0.017462872 0.059000894 -0.07431584 -0.07880139
000310 64 b3 66 3d 05 d9 e6 3c bf 19 23 3d 9d 55 7d 3d
       0.056323424 0.028179655 0.039819475 0.061849225
000320 31 d3 a4 3d 28 4f bb bb e3 d5 2d bd e4 d9 a5 3c
       0.08048094 -0.0057162233 -0.042440306 0.0202455
000330 ba 4f f4 bc f7 4a ff bb 6a 09 15 3d e4 91 77 bd
       -0.029823173 -0.007790919 0.03638593 -0.060441867
000340 86 2d 90 3d e8 37 84 bd 8f ea 4b bd 4a a3 86 bd
       0.07039933 -0.06455976 -0.04978424 -0.06574114
000350 f0 b3 a6 3d e4 6c 2f bd 9f f0 a4 3d cc 97 32 3c
       0.08139789 -0.042828456 0.08053707 0.010900449
000360 74 ac fa 3c 13 f6 43 3d 50 e6 32 3d f3 02 44 bd
       0.03059981 0.047842097 0.043676674 -0.047854375
000370 cc e2 6a bd 94 b6 27 bd a2 c0 4b bd 44 a5 09 3c
       -0.057345197 -0.040945604 -0.049744256 0.008401219
000380 29 64 db bc 29 e0 90 3d 8b e6 50 3d 62 17 ae bd
       -0.026781159 0.07074005 0.051001113 -0.08500554
000390 a9 a2 01 3c 3f 30 86 bd 9a 41 92 3d 2c 5e 81 3d
       0.007912316 -0.06552171 0.07141419 0.0631679
0003a0 09 c4 14 3d af d3 15 bd 16 7e 20 bd fd 51 a3 bd
       0.036319766 -0.03657883 -0.039182745 -0.079746224
0003b0 8e fe 13 3d bf 31 24 3b ce af 71 3d c7 1e 75 3c
       0.036131434 0.0025054065 0.05900555 0.014960951
0003c0 5d d8 2c 3b e8 8d 21 3d 56 30 7f bd d2 63 00 3d
       0.002637408 0.039441973 -0.062301956 0.031345196
0003d0 1c 27 2a 3d c4 26 95 bc 55 84 97 bd 21 3c 18 bc
       0.041541204 -0.018206961 -0.07398287 -0.00929168
0003e0 31 a7 2b bc 05 a2 41 bd 9d 56 7d bd 9a 46 a2 bd
       -0.010476873 -0.047273654 -0.06185018 -0.079236224
0003f0 1e 60 78 3d 59 38 8b 3d ae 1a aa 3d da 3f b2 3d
       0.06063854 0.06797857 0.0830587 0.08703585
